project/models/model_w1_2.0_lam_0.575_lam2_0.575_w2_0.05500000000000001.pt_actor.pt (torch, 8440 bytes, 7 tensors)

l1.weight f4 [16, 1]
000000 f4 3c 57 3f 3c 66 e3 3e e8 75 24 be f4 97 cd 3e
       0.8407738 0.44413936 -0.16060603 0.40154994
000010 70 b1 8e bd 80 53 9e 3d 29 e3 12 3f 10 40 ec 3d
       -0.06967437 0.0773077 0.5737787 0.115356565
000020 8b 51 c5 3f fa 79 d5 bd 87 31 6e bf d1 71 e6 be
       1.541551 -0.10423656 -0.9304432 -0.4500871
000030 cf 2e 35 bf 10 85 1b 3f 9f d0 49 3f 86 79 23 3f
       -0.7077455 0.6074991 0.78833956 0.63857305

l1.bias f4 [16]
000000 ef 06 53 3f d9 a5 33 3e 4d c2 55 3f 8a d8 2e bf
       0.82432455 0.17543735 0.83499604 -0.6829916
000010 36 31 12 bf 78 b5 7f bf 9a f9 67 3e 44 b9 03 bf
       -0.5710634 -0.99886274 0.22653809 -0.5145457
000020 f8 50 63 bd 85 10 40 3f 04 81 5c 3f 9f 12 be 3e
       -0.05549714 0.75025207 0.8613436 0.37123582
000030 b3 8e 5f 3e 58 70 62 3f 92 45 03 3f 7f 7d 82 3e
       0.21831779 0.8845267 0.5127803 0.2548637

l2.weight f4 [32, 16]
000000 61 fc d9 3d db 0d 94 3d 02 07 ad 3e 2c e3 28 be
       0.106438406 0.07229205 0.3379441 -0.16492909
000010 2a ff 1f 3e e0 ad d9 bd 50 d9 a6 3d dc b2 9c 3d
       0.15624681 -0.10628867 0.08146918 0.07651302
000020 d9 54 39 40 1f 01 8e bc 52 03 4b 3e ab dc 14 3e
       2.8958037 -0.017334519 0.19825485 0.14537303
000030 64 dd 1f 3e be e5 24 3e e7 b3 cb 3e 8d 37 60 bd
       0.15611798 0.16103265 0.39785692 -0.054740477
000040 14 15 b6 3d d2 38 86 3e c3 0d fe bd c0 54 f2 3d
       0.08890739 0.26215225 -0.124049686 0.11832571
000050 34 a0 97 bd 74 8c 0b be 10 24 64 3d 08 e9 40 be
       -0.07403603 -0.13627797 0.055698454 -0.18838894
000060 82 92 42 3f 4f 8b d0 3b f7 25 19 be 05 26 38 3d
       0.76004803 0.006364263 -0.14955889 0.044958133
000070 85 ff 3d be b2 17 45 3e 03 a3 b2 3e f8 ea d0 3e
       -0.18554504 0.1924732 0.34889993 0.40804267
000080 d8 2c cf 3b 9f 10 c1 be 46 50 5b 3e 28 ea b0 3d
       0.0063224845 -0.37707993 0.2141734 0.08638412
000090 58 18 b8 3d 88 cc 5f be e8 54 7c be fa e9 6f be
       0.08989018 -0.21855366 -0.24641764 -0.23429099
0000a0 52 92 d5 3d b6 f3 04 3e 5c de c9 3e e6 cb 98 3e
       0.10428299 0.12983593 0.3942746 0.29843062
0000b0 e6 25 fa 3e 64 68 99 bd 56 ad 1d 3e 1b d7 3c be
       0.4885704 -0.07490614 0.15398154 -0.18441431
0000c0 d6 c5 b3 3e ae 2d f4 3e 11 e4 7d 3e c4 cb a5 bd
       0.35111874 0.476911 0.24794032 -0.08095506
0000d0 50 32 36 bd b8 f6 5b 3e f8 76 6d 3e 58 bc 2b 3d
       -0.044481575 0.21480834 0.23189914 0.041927665
0000e0 8c 38 66 40 2e a6 ad 3e 14 15 80 3e 3d d0 9c bc
       3.5972013 0.33915848 0.2501608 -0.019142265
0000f0 99 33 0e 3d f6 57 aa 3e 18 20 87 3d a4 33 bf 3e
       0.034717176 0.33270234 0.06597918 0.37344086
000100 3f 22 14 3e 3b f2 d9 3e d3 08 96 3e 80 20 63 bb
       0.14466189 0.4256762 0.29303607 -0.0034656823
000110 12 bb 0a 3e 6c f4 1e 3e 22 98 76 bd 9c 5d ed 3d
       0.13547924 0.15522927 -0.06020368 0.1159012
000120 c0 fb 4f 3f 7d 7f 2f 3e 19 2a 67 be a5 1a b8 3d
       0.81243515 0.17138477 -0.22574653 0.08989457
000130 a2 6b 09 bf a5 1b a1 3e eb b0 0f bd 3f 72 b6 3e
       -0.5367986 0.31466404 -0.03508083 0.35634038
000140 28 c5 6e 3e 1a f4 9c 3e e6 a7 4c be 64 b0 7b be
       0.23317397 0.30654985 -0.19985923 -0.24579006
000150 00 ca 80 3b c0 37 d1 3d 7c ff a4 3e c8 79 11 be
       0.0039303303 0.102157116 0.3222617 -0.14206612
000160 b1 1f 3b 3f f8 13 26 be 40 c5 b7 3d 97 db 74 bd
       0.7309523 -0.16218555 0.08973169 -0.05977973
000170 a0 a5 d2 be 16 ec 90 3e 4b e2 c0 3d 3b 11 b5 3e
       -0.41141987 0.2830512 0.09418162 0.35364708
000180 77 28 16 3b a8 d2 b2 3e 31 af 43 3e 70 68 80 bc
       0.0022912303 0.34926343 0.19109799 -0.0156748
000190 e0 87 93 bd 10 c7 9b 3d 5b 31 b7 3e da 02 0c be
       -0.072036505 0.076063275 0.35779843 -0.13672963
0001a0 ad 39 12 40 30 f2 25 3e ab 01 53 3e d1 3e 3d 3e
       2.2847703 0.16205668 0.20606105 0.18480994
0001b0 76 80 60 3c 22 3b 5e 3c fd f4 59 3e 8e 4d ee 3d
       0.0137025025 0.013563903 0.21284862 0.11635886
0001c0 dc a5 51 bd ac c1 aa 3e d6 fb 6f 3e 00 81 aa 3b
       -0.051183566 0.33350885 0.23435912 0.0052033663
0001d0 cc 2a e5 3d 80 00 9f bc ca 78 aa 3e 22 ab 6f be
       0.111898035 -0.019409418 0.3329528 -0.23405126
0001e0 d0 6d 4a 3f 76 5c 69 3e d8 22 e5 bd ed 22 82 be
       0.7907381 0.22789177 -0.111882865 -0.2541727
0001f0 c0 b9 5c be 08 5b c8 bd bc 71 f1 3d 2a 2e 5b 3d
       -0.21555233 -0.09782988 0.11789271 0.053510822
000200 7a c4 14 3e 58 f9 6f 3e e0 b6 77 3d 48 90 dc bd
       0.14528075 0.23434961 0.060477138 -0.10769707
000210 88 52 d0 bd 78 1a f8 3d e8 11 05 3d 80 62 93 3b
       -0.101719916 0.121144235 0.03248778 0.004497826
000220 58 ad 67 be fa 3c 22 be 50 5d 37 be 76 61 79 3e
       -0.22624719 -0.15843573 -0.1790669 0.24353585
000230 c0 fa df bc 7c f5 64 be 36 aa 3b be 20 64 28 bc
       -0.027341247 -0.2235927 -0.18326649 -0.010277778
000240 06 31 59 be 0e 4c 6a be 10 41 a1 3c 2a e9 00 3e
       -0.21210107 -0.22880575 0.019684345 0.12588945
000250 98 57 d7 3d a2 47 3c be 10 9a c8 bc 94 c0 a8 3d
       0.10514754 -0.18386701 -0.024487525 0.08239856
000260 d2 00 29 3e c4 6d 4d be c6 0a 3e be 78 5c f1 3d
       0.16504219 -0.20061404 -0.18558797 0.11785215
000270 36 66 7f be 04 f5 d8 bd 28 17 a9 bd d0 c5 f9 3c
       -0.24941334 -0.10593608 -0.0825637 0.030489832
000280 d6 dc 29 be fc df 08 be 00 4c c3 b9 e8 9e c0 3d
       -0.16588148 -0.13366693 -0.00037249923 0.09405309
000290 7e 74 5f be 20 6e 5a be e2 96 6c be f4 e5 b0 bd
       -0.21821782 -0.21331072 -0.23104432 -0.0863761
0002a0 d0 1d 31 be 0e c6 61 be 00 48 24 bc 64 54 5e 3e
       -0.17296529 -0.22048208 -0.010026932 0.2171188
0002b0 c4 aa 0d be 50 a3 1c 3e 20 48 7c bd ee 80 04 3e
       -0.13834673 0.15296674 -0.06159222 0.12939808
0002c0 b5 ea 27 bd 69 7b 3a be 03 c4 f9 3d d4 6c 43 be
       -0.04099532 -0.1821114 0.121955894 -0.19084483
0002d0 12 54 69 3e a0 30 67 3d 8a ff e9 3d d8 77 3b bd
       0.22785977 0.056442857 0.11425693 -0.04576859
0002e0 2a 1b da bd 55 5f d6 3c 01 23 e8 bc 52 3a 81 3d
       -0.106497124 0.026168505 -0.028337004 0.06309952
0002f0 f8 db 15 3d 16 aa 54 be 73 0d 38 3d fd 40 73 3e
       0.03658673 -0.20768008 0.0449347 0.2375526
000300 20 4e 1d 3e e0 59 e4 be 36 1c 4b 3e f4 56 1f be
       0.15361834 -0.4459982 0.1983498 -0.15560514
000310 28 30 38 be e0 81 9f 3d 5f 32 27 bd b0 aa ed 3d
       -0.1798712 0.077884436 -0.040819522 0.11604822
000320 b2 87 b7 bd 6d e6 d3 3d ea 9a ca 3d b5 16 4b 3e
       -0.08961429 0.103466846 0.09892829 0.19832881
000330 b8 5e 86 3e a3 b3 2d be ca 30 04 3e 41 3d 94 be
       0.2624414 -0.16963057 0.12909237 -0.28952983
000340 99 62 3e 3e f3 c0 f0 3e da af 18 be ca 94 4a 3e
       0.185923 0.4702221 -0.14910832 0.19783321
000350 90 a4 6a 3d c0 21 3c 3c a1 f4 d4 3e a8 d3 44 be
       0.057285845 0.011482656 0.41592887 -0.19221365
000360 2f 27 71 3f 12 ac b0 bc 80 63 24 be 35 8a 19 be
       0.94200414 -0.021566425 -0.16053581 -0.14994128
000370 2e e9 4e be 1a 9f 43 3e 60 80 bf 3e d4 1b c1 3e
       -0.20206138 0.19103661 0.3740263 0.37716544
000380 24 71 74 be 30 07 2f 3e 50 87 7d 3d 10 3f 3c 3d
       -0.23871285 0.17092586 0.061896622 0.04595858
000390 58 3f d5 bd de 5b 1e 3e 50 9d 26 be dc 87 dd bd
       -0.104124725 0.15464732 -0.16270947 -0.10816929
0003a0 ba 18 20 3e bc 62 77 3e 54 a3 b2 bd b4 fe 25 3e
       0.15634432 0.24158758 -0.087225586 0.16210443
0003b0 34 16 00 be 46 1a 74 be fc 5d d3 3d 50 74 ab 3d
       -0.1250847 -0.23838148 0.103206605 0.08371794
0003c0 3b 5a 96 3d 5d ba d5 3e cc 77 da 3d 10 6b 42 3e
       0.07341429 0.41743746 0.10667381 0.18986154
0003d0 82 7d 39 be 54 56 b1 3d 5a a6 eb 3d 9c b4 b9 3d
       -0.18114284 0.08659044 0.115063384 0.09067652
0003e0 1e da 99 3f 8d 9d fe 3c 72 7d a8 3d c2 de a4 be
       1.2019689 0.031080985 0.08227052 -0.322012
0003f0 fa 2b 9d be 37 b2 11 3e ab 25 0d 3e 6c 74 70 3e
       -0.30697614 0.1422814 0.137839 0.23481911

l2.bias f4 [32]
000000 90 2f 47 3e 3d 68 f3 3d e0 c2 83 bc 3f 01 bf 3e
       0.19451737 0.11885116 -0.016084135 0.37305638
000010 c7 7b 26 be e2 6a 03 3e 61 fb 46 3e 9a ef 65 3d
       -0.16258155 0.12833741 0.19431831 0.056136705
000020 04 bf 44 3e 6e 30 4c be 80 e9 44 bd 11 a4 e0 bc
       0.19213492 -0.1994035 -0.048074245 -0.027421983
000030 82 54 14 bd d7 2f 6c 3e 6e 3f 25 be 8a fe a4 3e
       -0.036213405 0.23065124 -0.16137478 0.32225448
000040 a0 40 5e be fe 57 65 be b2 cd 86 3e e8 35 60 3e
       -0.2170434 -0.22396848 0.26328808 0.21895564
000050 5a b7 ef 3d fa 98 88 3e b1 3f 96 3e 8c ef 6c 3e
       0.117048934 0.26679212 0.29345468 0.23138255
000060 80 db 87 bd fd f7 ea 3d b8 5c 35 3e 78 ad cf bd
       -0.06633663 0.11473081 0.1771115 -0.101405084
000070 80 bd 42 3e 19 45 2d 3d 08 3b c1 3d 3e e5 64 be
       0.19017601 0.042302225 0.094350874 -0.22353074

l3.weight f4 [16, 32]
000000 c4 4e 32 3e ab ae bf bd e8 aa 69 3e 1c 22 e3 3d
       0.17412859 -0.09359487 0.22819102 0.1109049
000010 88 a7 5e 3c 89 d6 18 be dd f7 00 be 53 11 86 be
       0.013589747 -0.14925589 -0.12594552 -0.26185092
000020 8e 3a 0d be 60 d9 d4 3c 5a 9d ca 3d 70 04 c9 3b
       -0.13791868 0.025982559 0.09893294 0.006134562
000030 52 71 e0 3c c6 fb 99 3b 98 92 b0 bc 41 1d 03 be
       0.027397785 0.004699203 -0.021554276 -0.12804128
000040 f0 8b 5f bc ac 0f 62 3d b7 7f bc 3c bd 46 dd 3d
       -0.013644204 0.055190727 0.023010118 0.10804508
000050 cf 06 06 3e de 36 57 bd bb 9c c7 bc 57 35 fa 3d
       0.13088535 -0.05254256 -0.024366727 0.12217205
000060 80 d6 2a 3b df b7 88 3e a0 24 0e 3d ac 24 24 be
       0.0026067793 0.26702783 0.034702897 -0.16029614
000070 72 74 aa 3d 82 f7 7f bb cc fb 34 3d fe b5 d7 bf
       0.083229914 -0.0039057438 0.044185445 -1.6852415
000080 d6 05 ea 3d 22 51 aa bd cc 3f 34 3d 01 c5 02 be
       0.11426894 -0.08316256 0.044006154 -0.12770464
000090 58 28 9a bc e8 f9 09 bd 60 a3 44 bd 4e d2 c6 3d
       -0.018818066 -0.033685595 -0.04800737 0.09708081
0000a0 2d 84 cc bd 98 80 e9 3c 30 d9 17 3d b7 59 9e bd
       -0.09986148 0.028503701 0.03707236 -0.077319555
0000b0 a8 64 0b be 94 61 5f bd 80 41 3e 3c 14 33 38 bd
       -0.13612616 -0.054536417 0.011612296 -0.044970587
0000c0 e0 a2 99 bb b8 4c b3 3c ce 49 c4 3d 9c fa ed bd
       -0.0046886057 0.021887168 0.095843896 -0.116200656
0000d0 58 b8 01 be f0 10 75 3d 74 55 57 3d e4 ce 29 bd
       -0.12667978 0.059830606 0.05257173 -0.041457072
0000e0 88 c8 3a 3d b0 e6 8d 3c 60 39 2a 3c d8 a0 d1 3c
       0.045601398 0.017321914 0.010389656 0.025589392
0000f0 3e 3e df 3d 9b 0f 8e bd 44 28 23 be 28 58 a7 bc
       0.10900544 -0.0693657 -0.15933329 -0.020427778
000100 d1 f4 c0 3d a8 d1 b1 bd 91 a5 5a be 7f fb 59 be
       0.09421695 -0.08682567 -0.21352221 -0.21287344
000110 4c f7 ea bd c1 b2 cc bc 67 c5 1d bd a0 56 b4 bd
       -0.114729494 -0.02498758 -0.038518336 -0.08805585
000120 b0 fc b6 3c 22 ee 75 bd 0b 0d 1a 3e b8 48 c2 bd
       0.022337288 -0.060041554 0.15044038 -0.09486526
000130 1c 62 cc 3d f7 76 81 bd 1b bc b2 bd 30 74 7c 3d
       0.099796504 -0.06321519 -0.087272845 0.061634243
000140 39 00 c1 bd 4e c9 24 be 2d 37 2b be e6 57 2f bd
       -0.094238706 -0.16092417 -0.16720267 -0.042808436
000150 d2 63 0c 3e 56 7c 2d be c8 5f d7 3d a1 34 a9 3d
       0.13709953 -0.16941962 0.10516316 0.08261991
000160 b2 c9 d1 3d 0b 1f e6 3d a0 01 3b 3d 2e b0 e4 3d
       0.102435485 0.1123639 0.045655847 0.11166416
000170 00 4e f2 3c f3 f1 0c 3d bc 13 a8 bd 5e 69 01 be
       0.029578209 0.03441043 -0.08206889 -0.1263785
000180 83 2f 88 bd 82 ea e7 bd 87 30 12 3e 39 8e 11 be
       -0.06649687 -0.11324026 0.14276324 -0.1421441
000190 50 71 58 3d 12 b2 02 be 74 68 8f bd 8c 8c 0c 3d
       0.05284244 -0.12763241 -0.07002345 0.034313723
0001a0 8e d1 f1 3d 30 2c fe 3c 40 08 c9 bc 70 88 23 bc
       0.118075475 0.03102693 -0.024540067 -0.00998126
0001b0 af 3f e5 bd c8 a1 ac bc 32 e1 f1 3d d8 00 cf bc
       -0.11193787 -0.021073237 0.11810531 -0.025268957
0001c0 00 76 0a 3a dd 7c 32 3e c0 83 71 bc 8f 87 2f 3e
       0.00052818656 0.17430444 -0.014740884 0.17141555
0001d0 a0 5f 89 3d ee 98 10 be ab 99 e4 bd f0 a6 82 3d
       0.06707692 -0.14120838 -0.11162122 0.06379497
0001e0 25 4e c0 bd 29 6f b3 bd 5e 9a af bd 92 75 aa bd
       -0.09389905 -0.087614365 -0.08574365 -0.08323206
0001f0 c0 f4 01 bc 46 dc dc 3d 80 f2 06 be 60 d6 e1 3c
       -0.007931888 0.10784201 -0.13178444 0.027568042
000200 84 c9 b0 3d b9 3a 67 3d 29 aa 1e 3e 63 eb 19 be
       0.08632186 0.056452487 0.15494598 -0.15031199
000210 a0 3d be bc 85 df 2e be d6 ec a0 3d 27 b6 c1 bd
       -0.023222744 -0.17077453 0.07857673 -0.09458571
000220 c0 b8 fd 3c 44 81 1c bd 99 1c 10 3e 8e 6a 29 be
       0.030971885 -0.038209215 0.14073409 -0.16544554
000230 9b 9f fa bd 96 4e b2 3d 5e 98 90 bd 9c bb 2a be
       -0.122374736 0.08706395 -0.07060312 -0.1667313
000240 c0 c5 21 bb a9 1c e7 bd c8 94 82 3c ac ab b2 3c
       -0.0024684519 -0.11284763 0.015940085 0.021810375
000250 bc ab f7 bd 12 f3 be 3d f0 1f 15 be a4 c1 f0 bb
       -0.120933026 0.09323706 -0.14562964 -0.0073473025
000260 07 6f 1c 3e 7d fd 86 bc 43 dd 02 be 7f 22 09 3e
       0.15276729 -0.016478295 -0.12779717 0.13392065
000270 97 51 10 be 9d 10 30 bd 22 49 ac bd 84 5e 50 bd
       -0.14093624 -0.042984594 -0.084123865 -0.050871387
000280 8f 8f 19 3e 1b 7f be bd 37 34 e8 3d e3 13 50 3d
       0.1499617 -0.09301587 0.11338084 0.050800215
000290 b7 a5 4f be ad ee 69 be d3 66 0e 3d 44 f5 1a be
       -0.20278059 -0.22844954 0.03476603 -0.15132624
0002a0 c8 9e d4 bd 96 53 f5 bd 5f 74 04 3e 4b 0f 2f 3e
       -0.103818476 -0.119788334 0.12935017 0.17095678
0002b0 06 2b 11 bd 89 3b 11 bd 90 55 a2 bc 03 03 0d 3c
       -0.03544142 -0.035457168 -0.01981619 0.008606675
0002c0 48 eb 0f be 32 af bd 3d 50 d8 7e bd 92 81 e2 3e
       -0.14054596 0.092619315 -0.06221801 0.4423948
0002d0 e6 ff 45 3e 74 f5 43 be 29 7d 4e 3e f0 80 8d 3d
       0.19335899 -0.19136602 0.20164932 0.069093585
0002e0 0c 9c 74 3d cf eb 9a 3e 50 b3 86 3c 20 43 f9 bb
       0.05971913 0.30258033 0.016442925 -0.007606879
0002f0 93 10 2a 3e 16 58 bc 3d cf f0 cd bd 73 df db bf
       0.16607885 0.091964886 -0.10055696 -1.7177566
000300 a7 10 c7 3c bc ba b1 bd fb 25 9c 3e f3 eb 89 3d
       0.024299933 -0.08678195 0.30497727 0.06734457
000310 b3 e2 96 bd f7 23 0e 3d 7e 74 f5 3c a6 db 5b be
       -0.07367458 0.034702267 0.029962774 -0.21470508
000320 6a ee 1f be 20 40 dd 3b 50 ae 01 3d 75 95 03 be
       -0.15618291 0.006752029 0.031660378 -0.12849982
000330 f2 89 be 3d a8 00 51 be e6 02 a1 bd 5d 2e 29 3e
       0.09303655 -0.20410407 -0.07861881 0.16521592
000340 52 33 86 3d 02 45 b9 bd 2d 47 61 bd 63 a3 6d 3e
       0.06552757 -0.09046365 -0.05499952 0.23206858
000350 6e 3a 68 3e 22 35 5d be 4a 25 6e 3e 7a 67 4e 3e
       0.22678539 -0.216023 0.23256412 0.2015666
000360 60 dd 85 bb ed d3 d3 3d 38 6e 92 3d a3 4d 0f 3e
       -0.004085228 0.10343156 0.07149929 0.1399446
000370 53 7f d2 bd c2 47 85 3e 86 39 b9 3d 2f 05 dd bf
       -0.102781914 0.2603131 0.09044175 -1.7267207
000380 3f e3 93 bc 65 27 0b be 2b a6 e9 bc fd f4 fc bb
       -0.018052695 -0.13589247 -0.028521618 -0.0077196346
000390 48 58 10 3e 9b 69 67 bb 08 8e e5 3d 5e 46 16 be
       0.14096177 -0.0035310748 0.11208731 -0.1467528
0003a0 14 0b 0f bd f8 78 e3 3c 40 62 25 bb 95 e6 a6 3d
       -0.034922674 0.027767643 -0.0025235564 0.08149449
0003b0 f6 53 6f 3d b9 30 84 3d d3 0f 29 3e b7 38 51 be
       0.05842968 0.064546056 0.16509943 -0.20431791
0003c0 d4 7b 57 bd 06 69 a3 3d 1c 4c 1c bc 90 5e 45 bd
       -0.052608326 0.07979016 -0.00953963 -0.048185885
0003d0 aa c9 45 3d 85 d3 24 3d ad 7c 38 3e f3 db 19 3e
       0.048288025 0.040240783 0.1801631 0.1502531
0003e0 30 e7 66 bc ca 62 ab bd 1c 96 31 3d b4 d5 75 3d
       -0.014093205 -0.08368452 0.043356046 0.060018256
0003f0 20 8a 15 bd 0f 9b d3 bd 86 92 b0 3d 98 fc 3c bd
       -0.03650868 -0.103323095 0.08621697 -0.04613933

l3.bias f4 [16]
000000 a4 5e af 3d 3c 1d 0a be 7e 48 a7 3d 78 7a 15 be
       0.08562973 -0.13487715 0.08168124 -0.145975
000010 ca 45 10 3e 0d da 73 3e eb 42 ae 3b 50 6a 1d be
       0.14089122 0.23813649 0.005318036 -0.15372586
000020 98 98 bb 3d 49 04 ad bd 51 e8 51 3e bc 99 06 3e
       0.09159964 -0.08448083 0.20498778 0.13144583
000030 44 0a 45 3e ae 44 59 3e e5 74 2e 3e ed 1e 16 3e
       0.19242197 0.21217605 0.17036779 0.14660235

l4.weight f4 [1, 16]
000000 37 a9 91 3e a0 e6 b2 bd 96 25 ed bc 54 2b 4e be
       0.28449413 -0.087353945 -0.028948586 -0.20133716
000010 8d 24 1b bd 0c e4 c6 3e 37 ef 9c 3e a6 83 52 3e
       -0.037876654 0.3884586 0.30651256 0.20558032
000020 e2 da 5d be 20 3a 52 bd f0 88 13 3e 8b 82 f0 be
       -0.21665528 -0.051324964 0.14407706 -0.46974596
000030 35 d7 6d 3e ca a0 03 be d4 eb 9f 3d 34 f5 63 be
       0.23226626 -0.12854305 0.078086525 -0.22261506
