project/models/model_w1_0.1_lam_2.0_lam2_1.05_w2_0.05500000000000001.pt_critic.pt (torch, 15622 bytes, 14 tensors)

l1.weight f4 [16, 2]
0	0x3f124c10	0.5714731
1	0x3f07c3c4	0.5303309
2	0xbe185763	-0.14877085
3	0xbf4c053a	-0.79695475
4	0x3df1a9c0	0.11799955
5	0x3db37468	0.08762437
6	0xbef5a26d	-0.47975484
7	0xbc96cb1d	-0.018407399
8	0xbef5a89c	-0.479802
9	0xbe76dc9c	-0.24107593
10	0x3ea4e9b5	0.32209554
11	0xbe25f37d	-0.16206165
12	0x3f14768e	0.579934
13	0xbe7ffd01	-0.24998857
14	0x3eeb91f1	0.46009782
15	0x3d10aec8	0.035322934
16	0x3ebd270a	0.36943847
17	0xbd1e2ecc	-0.038618848
18	0x3e4d7b8b	0.20066659
19	0xbf233459	-0.6375175
20	0xbdb00ea0	-0.085965395
21	0x3eb4c6df	0.35307977
22	0x3ef50f79	0.47863367
23	0xbda53f15	-0.080686726
24	0x3e067354	0.13129932
25	0x3df7b4f8	0.12095064
26	0xbeb73f62	-0.35790545
27	0xbe9b1eef	-0.30297038
28	0xbf26d6d7	-0.6517157
29	0xbe3c7bc5	-0.1840659
30	0x3f4a4124	0.79005647
31	0x3e8ad4ed	0.27115574

l1.bias f4 [16]
0	0xbd7be40f	-0.06149679
1	0xbe8d8f1f	-0.27648255
2	0xbe84dc91	-0.2594953
3	0x3ef6246b	0.4807466
4	0xbece13c7	-0.40249464
5	0x3ecb5b1d	0.3971795
6	0xbd6de804	-0.058082595
7	0xbd63b887	-0.0555959
8	0xbed13c8d	-0.4086651
9	0x3f45e74c	0.77306056
10	0x3f38069f	0.71885103
11	0x3ee1fa4e	0.4413628
12	0xbecb8721	-0.39751533
13	0x3ebed631	0.3727279
14	0x3f28b013	0.6589367
15	0x3ec38055	0.38183847

l2.weight f4 [32, 16]
0	0x3e300000	0.171875
1	0x3d1bf540	0.038075686
2	0x3d8ff1ac	0.07028517
3	0xbdda1a9c	-0.106496066
4	0xbd590668	-0.052984625
5	0xbe29e9c0	-0.16593075
6	0x3d45d5b0	0.04829949
7	0xbe231a00	-0.15927887
8	0x3e2901c2	0.16504577
9	0xbe6c79d8	-0.23093355
10	0x3e3672cc	0.17817229
11	0xbde43c08	-0.111442626
12	0x3e3fd25a	0.18732587
13	0xbe576d7c	-0.21037859
14	0x3e7b65c8	0.24550545
15	0xbded71dc	-0.115939826
16	0x3dba76a4	0.0910466
17	0xbe128670	-0.14309096
18	0xbe06d03e	-0.13165376
19	0xbdc48698	-0.09595984
20	0x3c0af6a0	0.008481652
21	0xbde61070	-0.11233604
22	0xbd9209f4	-0.07130805
23	0xbdaa6b90	-0.08321297
24	0x3e03e2c2	0.1287947
25	0xbe2f5304	-0.17121512
26	0xbe78a16e	-0.2428033
27	0x3cc6c540	0.024263978
28	0x3c1088a0	0.008821636
29	0x3d725090	0.05915886
30	0xbe10a708	-0.14126217
31	0xbdc919e4	-0.09819391
32	0xbbf0e280	-0.0073512197
33	0xbcf48300	-0.029847622
34	0x3da79758	0.081831634
35	0x3ce10390	0.027467519
36	0xbe060f92	-0.13091877
37	0xbe717f76	-0.23583779
38	0xbd1a3ca8	-0.037655503
39	0x3d1d0af0	0.03834051
40	0x3e28efbc	0.16497701
41	0xbd2e4e08	-0.042554885
42	0xbe0049c6	-0.12528142
43	0xbe3ab46c	-0.18232888
44	0xbd4b7818	-0.049675077
45	0xbdfee9f4	-0.12446967
46	0xbe28c018	-0.16479528
47	0x3da6232c	0.08112177
48	0x3e86b188	0.2630732
49	0xbeabf1ca	-0.33582908
50	0x3e492b9a	0.19645539
51	0xbeefc60b	-0.46830782
52	0xbda3a8b0	-0.07991159
53	0x3eb18037	0.34668133
54	0x3b5e84e6	0.0033953725
55	0x3eaff827	0.34369013
56	0xbe5a86a9	-0.21340431
57	0x3e6c980e	0.2310488
58	0x3d599fe8	0.053131014
59	0x3e2556fc	0.16146463
60	0xbe405534	-0.18782502
61	0xbe52a11f	-0.20569275
62	0xbdf554ee	-0.1197909
63	0x3e732f1d	0.23748441
64	0x3ecccd9a	0.40000612
65	0x3d83d812	0.064376965
66	0x3e624abe	0.22098824
67	0xbee9f887	-0.45697424
68	0x3d436310	0.047701895
69	0x3e649ecc	0.22326201
70	0x3d83b50d	0.06431017
71	0x3ed77f0a	0.4208911
72	0xbe5e559b	-0.21712343
73	0x3e7d518e	0.24738142
74	0x3e12f62e	0.14351723
75	0x3e4482d0	0.19190526
76	0xbd790bc8	-0.06080225
77	0xbea88cde	-0.32919973
78	0xbe8cd463	-0.27505788
79	0x3e931a07	0.28730795
80	0x3ecd7e6d	0.40135518
81	0xbe26adb0	-0.16277194
82	0xbe0ad038	-0.13555992
83	0xbeba8151	-0.36426786
84	0x3db9411c	0.09045622
85	0x3b244312	0.002506439
86	0x3dd6e61f	0.10493111
87	0x3e2c1ba6	0.16807422
88	0xbe55a2db	-0.20862906
89	0x3de0a4c6	0.10968928
90	0x3dde76bb	0.1086249
91	0x3e79b733	0.24386291
92	0xbd0c4948	-0.034249574
93	0xbf153310	-0.5828104
94	0xbd6ccdba	-0.057813384
95	0x3ea420a0	0.3205614
96	0x3eba3f33	0.36376342
97	0xbd87a718	-0.066236675
98	0xbe397094	-0.18109351
99	0xbf1214ad	-0.570628
100	0xbe6d9dbe	-0.23204705
101	0x3ec56ef7	0.38561222
102	0x3e993edb	0.29930767
103	0x3da5aedf	0.08089995
104	0x3d666025	0.056244034
105	0x3e62effb	0.22161858
106	0x3d8de318	0.0692808
107	0x3c823d43	0.015898352
108	0x3d99c834	0.07508889
109	0xbf129e64	-0.57272935
110	0xbeb9e215	-0.363053
111	0x3e5d9246	0.2163783
112	0x3ed260c8	0.41089463
113	0xbe3e31a7	-0.18573628
114	0xbe7bb034	-0.24578935
115	0xbe4466f6	-0.19179901
116	0xbd199a58	-0.03750071
117	0x3decddff	0.1156578
118	0x3eefb7d9	0.46819952
119	0x3e0a2203	0.13489537
120	0xbe51f172	-0.2050226
121	0x3e1bd24b	0.15216939
122	0x3e2cc0d0	0.16870427
123	0x3ea0ee32	0.3143173
124	0x3e0616bc	0.1309461
125	0xbe4653db	-0.19367926
126	0xbe66878f	-0.22512649
127	0x3e3a1cb9	0.1817502
128	0x3dcf6f37	0.101286344
129	0xbd403c0e	-0.046932273
130	0x3e554b38	0.20829475
131	0xbeb887ea	-0.36041194
132	0x3cf812b0	0.030282348
133	0x3e17e7f2	0.14834574
134	0x3e84ace9	0.2591317
135	0x3ec0bccd	0.37644044
136	0x3de7a816	0.11311357
137	0x3d59edd3	0.053205322
138	0xbe600b75	-0.2187937
139	0x3e5be6c0	0.21474743
140	0xbc57c140	-0.013168633
141	0xbe67c1b9	-0.22632493
142	0xbf1a84f2	-0.6035911
143	0x3eae3b5c	0.34029663
144	0xbc359400	-0.011082649
145	0xbe1b65dd	-0.15175577
146	0xbe6cc10e	-0.2312052
147	0xbe1b9595	-0.1519378
148	0xbd200b00	-0.03907299
149	0xbd5fab05	-0.054606456
150	0x3c05fd4c	0.008178066
151	0x3e5ff79e	0.21871802
152	0x3dcbf3d5	0.09958617
153	0x3dcefaed	0.10106454
154	0xbd86af64	-0.06576422
155	0xbcf64418	-0.030061767
156	0x3deeb490	0.11655533
157	0xbcc91aab	-0.02454885
158	0x3cda7b7d	0.026670212
159	0xbe263845	-0.16232403
160	0xbdef3938	-0.116808355
161	0xbd2ef180	-0.04271078
162	0xbe1ab904	-0.1510964
163	0xbe28a1d6	-0.16467986
164	0xbe5cf23e	-0.21576783
165	0xbe5a93c4	-0.2134543
166	0xbe486162	-0.19568399
167	0xbdf31cf0	-0.11870754
168	0x3ae02600	0.0017101169
169	0x3e2361ee	0.15955326
170	0x3e4eb26e	0.20185253
171	0xbe3d934a	-0.18513218
172	0xbcdfa640	-0.027300954
173	0x3e0936c4	0.13399798
174	0xbd68e980	-0.056863308
175	0x3dcf163c	0.10111663
176	0x3e758ea5	0.23980196
177	0x3da96e46	0.08272986
178	0x3ddab9a0	0.106799364
179	0xbf0638a4	-0.52430177
180	0x3e4ed03c	0.20196623
181	0x3e972d04	0.29526532
182	0x3f046c3c	0.5172765
183	0x3ef40a3a	0.47664052
184	0xbeace60d	-0.33769265
185	0xbdb231e7	-0.08700924
186	0xbe171b7b	-0.14756577
187	0x3cd816cc	0.026378058
188	0x3b85ce40	0.004083425
189	0xbd2c91b0	-0.042131126
190	0xbf424737	-0.75889915
191	0x3e26f7d0	0.1630547
192	0x3daaef7c	0.08346459
193	0x3d2bd418	0.041950315
194	0xbd7c5c60	-0.061611533
195	0xbe414a98	-0.18876112
196	0x3df060e0	0.117372274
197	0x3cda90c0	0.02668035
198	0x3cd6ade0	0.026205957
199	0x3d360c50	0.044445336
200	0x3dd7c7f8	0.10536188
201	0xbda4b158	-0.08041638
202	0xbe5b838c	-0.214369
203	0xbcb6e300	-0.022325039
204	0x3d76f3d8	0.06029114
205	0x3e152f4a	0.1456882
206	0x3e555788	0.20834172
207	0xbd01e378	-0.03171107
208	0x3dfb7cd0	0.122796655
209	0x39baf000	0.00035655499
210	0xbe76da66	-0.2410675
211	0x3e3aa928	0.1822859
212	0xbd351db0	-0.044217765
213	0xbe5f5c96	-0.21812662
214	0xbe5f84e8	-0.21828043
215	0x3e13899e	0.14407966
216	0xbe4fdea4	-0.20299774
217	0xbd628aa8	-0.055308014
218	0xbd9265bc	-0.071483105
219	0xbd91c394	-0.07117382
220	0x3e2e1048	0.16998398
221	0xbe23d680	-0.15999794
222	0xbe54c56c	-0.20778435
223	0xbe58f3c8	-0.21186745
224	0x3e001a76	0.12510094
225	0xbe00aef8	-0.12566745
226	0xbd3fcff0	-0.046829164
227	0xbefabd22	-0.48972422
228	0x3e27855a	0.16359463
229	0x3e77ed3d	0.24211593
230	0x3ef4107e	0.47668833
231	0x3e95d39e	0.29263014
232	0x3e2c0e99	0.16802444
233	0x3ec51dc2	0.38499266
234	0x3cd00ace	0.025395777
235	0x3e76f252	0.24115875
236	0xbce75c20	-0.02824217
237	0xbeca6956	-0.3953349
238	0xbe723858	-0.23654306
239	0x3e987209	0.29774502
240	0x3eb371d8	0.35047793
241	0xbd7d8b10	-0.0619002
242	0xbd44c140	-0.04803586
243	0xbf3ce56a	-0.7378756
244	0x3e4dd700	0.20101547
245	0x3d0c6842	0.034279115
246	0x3d629c08	0.055324584
247	0x3e5a74af	0.21333574
248	0x3dabd8fb	0.08390995
249	0xbdf4395a	-0.119250014
250	0xbde0738d	-0.109595396
251	0xbe5ea3f5	-0.21742232
252	0x3e6dd642	0.23226264
253	0xbe0b9ece	-0.13634798
254	0xbedec9b5	-0.43513265
255	0x3e2ae1f7	0.16687761

l2.bias f4 [32]
0	0xbe69d0e6	-0.22833595
1	0xbe466b08	-0.19376767
2	0x3dbeb638	0.09312099
3	0x3e674a53	0.22586946
4	0x3eae3db6	0.34031457
5	0x3e85b57e	0.2611503
6	0x3e80fa84	0.25191128
7	0x3dc80dc2	0.09768249
8	0x3ce0bd2f	0.02743396
9	0xb92068c3	-0.00015297816
10	0xbe22d0ac	-0.15899915
11	0xbe99049b	-0.29886326
12	0xbd49faf0	-0.04931158
13	0xbe140d7c	-0.14458269
14	0x3e9cb8f1	0.3060985
15	0x3c324917	0.010881684
16	0xbd9265b5	-0.07148305
17	0xbc3b7af8	-0.011442892
18	0x3c96ce63	0.01840896
19	0x3e79332a	0.24335924
20	0xbe0d07c8	-0.137725
21	0xbe4851c9	-0.19562449
22	0x3ddef3c1	0.10886336
23	0xbe7659e4	-0.24057728
24	0xbe789222	-0.24274495
25	0x3dfcdf46	0.123472735
26	0x3eaef020	0.34167576
27	0x3e72ead2	0.2372239
28	0x3ce88f19	0.028388547
29	0x3eaf7fec	0.34277284
30	0x3de8e33c	0.113714665
31	0x3e8269ab	0.25471243

l3.weight f4 [16, 32]
0	0x3db51e52	0.08843674
1	0x3caf9be0	0.021436632
2	0xbdf3817e	-0.11889933
3	0x3d8519f9	0.064990945
4	0x3cb67e92	0.02227715
5	0x3e0b2dbf	0.1359167
6	0xbd9b6cae	-0.075890884
7	0x3c882203	0.01661778
8	0x3d1ed608	0.038778335
9	0xbddb080f	-0.106948964
10	0xbbaa1e80	-0.005191624
11	0xbed90956	-0.42389935
12	0x3d76ab18	0.06022176
13	0x3dae6b12	0.08516516
14	0xbdd03aa4	-0.10167435
15	0xbf552e2f	-0.83273596
16	0x3e00d49b	0.12581103
17	0xbe99c957	-0.30036423
18	0xbb4aaa0b	-0.0030924107
19	0xbc856da2	-0.016287629
20	0xbe138c79	-0.14409055
21	0xbefc4b41	-0.49276164
22	0x3da9bb6e	0.082877025
23	0xbe250490	-0.16115022
24	0x3e2fb867	0.17160188
25	0x3dd25b05	0.10271267
26	0x3da04eba	0.07827516
27	0x3cb181d7	0.021668358
28	0xbd8632d0	-0.065526605
29	0xbdeed7a7	-0.11662226
30	0xbda3d100	-0.07998848
31	0x3e10f0f3	0.14154415
32	0xbd6f5da2	-0.058438905
33	0xba00e300	-0.0004916638
34	0x3e143a87	0.14475451
35	0x3dc43212	0.09579863
36	0x3e7d788e	0.24753019
37	0x3e24b867	0.16085969
38	0x3e98d053	0.2984644
39	0x3ebabf1f	0.3647394
40	0x3cbc5974	0.022991873
41	0x3d9352e9	0.07193548
42	0x3cc4f410	0.02404216
43	0x3ec508b2	0.38483196
44	0xbd557ca8	-0.052120835
45	0x3dff0e8a	0.12453945
46	0x3e372b92	0.17887715
47	0xbd8ee96d	-0.06978116
48	0x3cf93480	0.030420542
49	0xbeb569c1	-0.35432246
50	0x3eab6bf6	0.33480805
51	0x3e76fe6a	0.24120489
52	0x3deb2219	0.11481113
53	0xbe04178a	-0.12899604
54	0xbe3ce8ca	-0.18448177
55	0xbcd0da68	-0.02549477
56	0xbdae309b	-0.085053645
57	0x3ec1d334	0.37856448
58	0x3ea10b50	0.31453943
59	0x3e8f98f0	0.2804637
60	0x3dc58ccd	0.09645996
61	0xbeb005fa	-0.3437956
62	0xbe924226	-0.28566092
63	0x3e67c98f	0.22635482
64	0xbcff6e00	-0.031180382
65	0x3cb4a1b0	0.022049755
66	0xbe1e6e32	-0.15471724
67	0x3dd89b50	0.105764985
68	0xbe28c56c	-0.1648156
69	0xbe2398e9	-0.159763
70	0xbc894091	-0.01675442
71	0xbd3002d7	-0.04297146
72	0x3e121753	0.1426671
73	0x3c43b178	0.011944167
74	0xbc3bcf30	-0.011462972
75	0xbe0a1fb9	-0.13488664
76	0xbda4329d	-0.08017466
77	0xbd04fd28	-0.03246799
78	0x3da4aa37	0.080402784
79	0x3e2166c1	0.15761854
80	0xbdb6a1d2	-0.089175835
81	0x3db90c36	0.09035532
82	0x3d985aec	0.07439217
83	0x3e0785fc	0.13234705
84	0xbd8cddca	-0.068782404
85	0xbe2e150e	-0.17000219
86	0xbe294fa2	-0.16534284
87	0xbe1183ac	-0.14210385
88	0x3cb18e98	0.02167444
89	0x3d43fff6	0.047851525
90	0x3de2c43e	0.110725865
91	0xbe1e6c16	-0.15470919
92	0x3cf92f7c	0.03041815
93	0x3dff8419	0.124763675
94	0xbe2c1d6c	-0.16808099
95	0x3abcaa44	0.0014394005
96	0xbd0450d8	-0.03230366
97	0xbc0287c0	-0.007966936
98	0xbe1d1c17	-0.15342747
99	0x3eaba1d7	0.33521912
100	0x3d748a22	0.059702046
101	0x3e10b9ab	0.14133327
102	0x3ea746ec	0.32671297
103	0x3e838ff1	0.25695756
104	0x3e640488	0.22267354
105	0x3cd2aa6f	0.025716035
106	0x3d8ea1d2	0.069644585
107	0x3edf3a2e	0.43599075
108	0xbe00c184	-0.1257382
109	0x3db3543e	0.08756302
110	0x3de19b8f	0.110159986
111	0x3dabc56e	0.08387266
112	0x3de0e8a4	0.10981873
113	0xbd6a3530	-0.05717963
114	0x3f09bc66	0.538031
115	0x3eb17479	0.34659174
116	0x3f09de97	0.5385527
117	0x3e15ec21	0.14640857
118	0xbea759b6	-0.32685632
119	0x3e10d799	0.14144744
120	0x3da4ddfa	0.08050151
121	0x3ed5d296	0.41762227
122	0x3e48c750	0.19607282
123	0x3e944671	0.28959993
124	0x3e788b05	0.24271782
125	0xbd5680f2	-0.052369066
126	0xbee1b788	-0.44085336
127	0x3ead33f7	0.3382871
128	0xbdc34194	-0.095339924
129	0xbd2d4ad8	-0.042307705
130	0xbe06f0f2	-0.13177851
131	0x3e9ae4ee	0.30252784
132	0x3e6839a5	0.2267824
133	0x3e108fd2	0.14117363
134	0x3dd2d775	0.102950014
135	0x3ec7ff7f	0.39062116
136	0xbe5f1986	-0.2178708
137	0xbdf87378	-0.12131399
138	0x3db5d2de	0.0887811
139	0xbef24bcc	-0.47323453
140	0xbdf3ae22	-0.118984476
141	0xbe3188fa	-0.17337409
142	0x3dcc7317	0.09982889
143	0xbf901c37	-1.125861
144	0x3d1bd538	0.038045138
145	0xbe23307f	-0.15936469
146	0xbdc886e3	-0.097913526
147	0xbd834039	-0.06408734
148	0xbdf63c6e	-0.12023245
149	0xbef907cd	-0.48638764
150	0xbbb6eef0	-0.005582683
151	0x3e2ee3dd	0.1707911
152	0x3e2c5987	0.16831027
153	0x3e26216f	0.16223691
154	0x3ec46b12	0.38362938
155	0xbe189036	-0.14898762
156	0xbebbdf61	-0.36693862
157	0x3d099e3d	0.033598173
158	0x3e01bf88	0.1267072
159	0x3dd5ed8f	0.10445701
160	0xbde9da69	-0.114186116
161	0x3db10af2	0.08644666
162	0x3de1825a	0.11011191
163	0x3d86cb8f	0.065817945
164	0xbce67960	-0.028134048
165	0xbd89ff1a	-0.0673811
166	0xbde56cc4	-0.11202386
167	0x3dde7f83	0.10864165
168	0x3d1345e9	0.035955343
169	0x3e02ea4e	0.12784693
170	0x3e163b15	0.14670976
171	0x3d3bcf1c	0.04585181
172	0x3d965c5a	0.073418334
173	0x3d6746d8	0.056464046
174	0xbe1e9f91	-0.15490557
175	0xbe42cc5d	-0.19023271
176	0x3e239203	0.15973668
177	0xbc559f35	-0.013038446
178	0x3d879a7b	0.06621262
179	0x3c8f00dc	0.017456464
180	0x3bff2a56	0.0077870293
181	0xbe4f1809	-0.20224012
182	0xbe3101c9	-0.17285837
183	0x3de08d9a	0.10964508
184	0x3b129400	0.0022366047
185	0xbd9af28f	-0.07565796
186	0xbe4f5f41	-0.2025118
187	0xbe146105	-0.14490135
188	0x3db12954	0.08650461
189	0x3d7c976b	0.06166784
190	0xbcae5713	-0.021281755
191	0xbd216dd8	-0.039411396
192	0xbe341c6c	-0.17588967
193	0xbe2bfb15	-0.16794999
194	0xbd28f4b0	-0.041248977
195	0x3dd77a3f	0.105213635
196	0x3ea53eab	0.32274374
197	0x3e8e093d	0.27741423
198	0x3e52b434	0.20576555
199	0x3eb0e138	0.34546828
200	0x3e7e29bf	0.24820612
201	0xbd7fded0	-0.06246835
202	0x3d802552	0.06257118
203	0x3ef20f39	0.4727724
204	0x3df04ad2	0.11733021
205	0x3dc5456e	0.09632383
206	0x3e5ea102	0.21741107
207	0x3dc89764	0.097945005
208	0x3d2e7472	0.04259152
209	0x3ce7bf1c	0.02828937
210	0x3e22c834	0.15896684
211	0x3e886cfa	0.26645643
212	0x3e7cb8fd	0.24679942
213	0xbd0e53a6	-0.034747742
214	0xbe9e75d5	-0.30949274
215	0x3d4215a8	0.047383934
216	0x3e2f212b	0.17102496
217	0x3eaf6f8b	0.34264788
218	0x3ddef359	0.10886259
219	0x3dbe0072	0.09277429
220	0xbcb1b06c	-0.02169057
221	0xbecb45dd	-0.3970174
222	0xbea1ddfb	-0.3161467
223	0x3ea361d3	0.3191057
224	0xbdc96c45	-0.09835104
225	0x3d823766	0.06358223
226	0x3e316db7	0.17327009
227	0x3e72703e	0.2367563
228	0x3db99ada	0.09062739
229	0x3de78c58	0.11306065
230	0x3e672676	0.22573265
231	0x3d9c4408	0.076301634
232	0x3e9a3b41	0.30123332
233	0xbd82ac6a	-0.063805416
234	0xbcd7db08	-0.02634956
235	0x3f0f7d88	0.5605092
236	0x3daf475e	0.08558534
237	0x3d8b6298	0.06805915
238	0x3cf96875	0.030445317
239	0x3f418b53	0.75603217
240	0xbd642c1b	-0.055706125
241	0x3f054e6e	0.520728
242	0x3e1355c1	0.14388181
243	0x3ea5460f	0.32280013
244	0x3ea1236b	0.31472334
245	0x3ef6335d	0.48086062
246	0xbe876287	-0.26442358
247	0xbc541f80	-0.012946963
248	0xbc741b60	-0.014899105
249	0x3df9b1b9	0.12192101
250	0x3e986dfd	0.29771414
251	0x3dce4f15	0.100736775
252	0x3edb3f55	0.42821756
253	0xbe776848	-0.24160874
254	0xbe5c7776	-0.21529946
255	0x3e016fc0	0.12640285

l3.bias f4 [16]
0	0xbdb4c999	-0.08827514
1	0x3e766dee	0.24065372
2	0xbd941703	-0.07230952
3	0x3e5191ec	0.20465821
4	0xbd3b873c	-0.045783266
5	0x3dfcde7c	0.12347123
6	0x3e89006c	0.26758134
7	0xbe7e668f	-0.2484381
8	0xbdfb3c8e	-0.12267409
9	0xbdb814ff	-0.0898838
10	0xbe0aba51	-0.13547637
11	0xbe57395a	-0.21017972
12	0x3dcef329	0.10104973
13	0x3e6f1feb	0.2335202
14	0x3c9bcefb	0.019019594
15	0x3e2b482f	0.16726755

l4.weight f4 [1, 16]
0	0x3dfc95c1	0.12333251
1	0xbed805cd	-0.42191926
2	0x3e727849	0.23678698
3	0xbe8babae	-0.2727942
4	0x3f1d62fd	0.6147917
5	0x3d9a49b3	0.07533588
6	0xbed0573f	-0.40691563
7	0xbea097f1	-0.31365922
8	0x3d9aea94	0.075642735
9	0x3e3a2ef0	0.18181968
10	0xbd4d7ff8	-0.05017087
11	0xbee67acb	-0.4501556
12	0x3db708d7	0.08937233
13	0xbef8cce3	-0.48593816
14	0x3e44e4aa	0.19227853
15	0xbea51e20	-0.32249546

l5.weight f4 [16, 2]
0	0x3f0c646c	0.5484073
1	0x3f041a4b	0.5160262
2	0x3e4f1378	0.2022227
3	0xbe2fbac8	-0.17161095
4	0x3f693015	0.9108899
5	0x3e794ee4	0.243465
6	0xbeeee936	-0.466623
7	0x3e2aaf88	0.16668522
8	0x3f74439d	0.9541567
9	0xbe028bcf	-0.12748645
10	0x3f1a958b	0.60384434
11	0xbe4a4b2d	-0.1975524
12	0x3f89c523	1.0763286
13	0x3ee0ba1f	0.43892
14	0x3e7ca108	0.24670804
15	0xbe1e30b8	-0.15448272
16	0xbee1be96	-0.44090718
17	0xbdd87260	-0.1056869
18	0x3f30df91	0.69091135
19	0xbe5add57	-0.21373497
20	0xbf04380d	-0.51648027
21	0x3c9918fc	0.018688671
22	0xbefd656c	-0.4949144
23	0xbe9663a2	-0.2937289
24	0xbd8edc67	-0.06975632
25	0xbf4ec8dc	-0.8077524
26	0x3e7d1963	0.24716716
27	0xbf026d85	-0.50948364
28	0xbd93b412	-0.0721208
29	0xbe944654	-0.28959906
30	0xbd92fc28	-0.07177001
31	0x3b978e00	0.004625082

l5.bias f4 [16]
0	0x3c579cdd	0.013159958
1	0xbf1d8a4a	-0.6153914
2	0x3edcbe11	0.4311376
3	0xbec7039e	-0.38869947
4	0xbd8de00b	-0.069274984
5	0x3ef4ec90	0.47836733
6	0x3e33ec62	0.17570642
7	0xbf01ba23	-0.5067465
8	0xbeb8bdee	-0.36082405
9	0xbb1514b0	-0.0022747926
10	0x3f35848f	0.70905393
11	0xbed16635	-0.4089829
12	0xbe0140c1	-0.12622358
13	0x3f17db57	0.5931906
14	0x3f3416cc	0.70347285
15	0xbe981ff3	-0.29711875

l6.weight f4 [32, 16]
0	0x3e4790a8	0.19488776
1	0xbdfe240c	-0.12409219
2	0x3e5c7a7f	0.21531104
3	0xbda8c394	-0.082404286
4	0x3e665f6c	0.22497338
5	0x3e7fc686	0.24978074
6	0x3e350b26	0.17680034
7	0x3d704c20	0.05866635
8	0x3e567a4e	0.20945093
9	0x3f080722	0.53135884
10	0x3e293bc1	0.165267
11	0x3bcf5540	0.0063273013
12	0x3e660071	0.22461106
13	0xbcc46b26	-0.023976874
14	0xbdada819	-0.08479328
15	0x3e264610	0.16237664
16	0xbe29615e	-0.16541049
17	0xbe43097a	-0.19046584
18	0x3c8ab020	0.016929686
19	0x3d8ccce0	0.06875014
20	0x3e09a818	0.13443029
21	0x3d2a2070	0.04153484
22	0xbe7bd444	-0.24592692
23	0x3e0ff018	0.14056432
24	0xbe4113be	-0.18855187
25	0x3e7aff86	0.24511537
26	0xbd536d58	-0.05161795
27	0x3dfec770	0.124403834
28	0xbe74ea18	-0.23917425
29	0xbe21698c	-0.15762919
30	0xbd193510	-0.03740412
31	0x3db6dc84	0.08928779
32	0x3ea134d1	0.31485608
33	0xbd5d2720	-0.05399239
34	0x3e1e3024	0.15448052
35	0x3d8614b4	0.065469176
36	0x3e8621d6	0.2619769
37	0x3df8f0ca	0.12155302
38	0x3d7a145d	0.061054576
39	0xbd1088d0	-0.035286725
40	0x3e723358	0.23652399
41	0x3f0ff389	0.5623098
42	0xbe1d2ec9	-0.15349878
43	0x3e2d6cca	0.16936031
44	0xbe5ab7b1	-0.21359135
45	0x3e62c243	0.22144417
46	0xbc44acdb	-0.012004103
47	0x3da872f4	0.082250506
48	0x3d9ec940	0.07753229
49	0x3dacee44	0.08443883
50	0xbd253c88	-0.04034093
51	0xbe3fa226	-0.18714198
52	0xbe11e902	-0.14249042
53	0xbc109f40	-0.008827031
54	0xbd8229a0	-0.063555956
55	0x3de83288	0.11337763
56	0x3bdbedc0	0.0067116916
57	0x3dd371d0	0.103244424
58	0xbe1c1c48	-0.15245163
59	0x3def2890	0.116776586
60	0xbdbdf238	-0.09274715
61	0xbe7314fa	-0.2373847
62	0xbe419a84	-0.189066
63	0xbe2123ea	-0.15736356
64	0x3f0fc61a	0.56161654
65	0x3e4e9b74	0.20176488
66	0x3eac6b4d	0.33675614
67	0x3e682cd2	0.22673348
68	0x3f03766e	0.51352584
69	0xbdb86718	-0.090040386
70	0x3efcd1d8	0.49378848
71	0x3df2c230	0.118534446
72	0xbdbd35d0	-0.092387795
73	0x3efc6dcc	0.49302518
74	0xbe1982f8	-0.14991367
75	0x3e704e82	0.23467448
76	0x3da5b507	0.08091169
77	0x3e315c07	0.17320262
78	0xbdae200e	-0.08502208
79	0x3e1068c0	0.14102459
80	0x3e36d40a	0.17854324
81	0xbdc5a034	-0.09649697
82	0xbe7faff4	-0.24969465
83	0x3e110dac	0.14165372
84	0xbe47c248	-0.19507706
85	0xbd719a48	-0.058985025
86	0xbe3c477e	-0.18386647
87	0x3df49700	0.119428635
88	0x3e6849c6	0.22684392
89	0xbc185560	-0.009297699
90	0x3dcfdb0c	0.10149202
91	0x3d202638	0.03909895
92	0xbd8ab3d0	-0.06772578
93	0x3c492640	0.012277186
94	0xbc1e3fe0	-0.009658784
95	0xbe4aac90	-0.1979239
96	0xbe72e362	-0.23719552
97	0x3e61c6d2	0.220485
98	0x3b831d40	0.0040012896
99	0xbe64483c	-0.2229318
100	0xbe365b12	-0.17808178
101	0xbde32724	-0.1109145
102	0x3e282680	0.16420937
103	0xbe54ae70	-0.20769668
104	0x3d901c08	0.070365965
105	0x3e38f9d2	0.18064049
106	0x3e1942f2	0.14966944
107	0x3e030166	0.12793502
108	0xbe1103a8	-0.14161551
109	0xbd93860c	-0.07203302
110	0xbe101316	-0.1406978
111	0xbe6ce8b6	-0.23135647
112	0xbdae0a04	-0.08498004
113	0x3e702e56	0.23455176
114	0xbe32bf3e	-0.17455766
115	0x3e09bf9e	0.13452002
116	0xbe611ec4	-0.21984392
117	0xbd839200	-0.06424332
118	0xbe24296c	-0.16031426
119	0xbe715476	-0.23567376
120	0x3e004376	0.12525734
121	0xbe6b12e0	-0.22956419
122	0xbe3f1234	-0.18659288
123	0x3e66e472	0.22548082
124	0x3db536d8	0.08848351
125	0xbd1628b8	-0.036659926
126	0xbdaa2d90	-0.083094716
127	0xbe05981a	-0.13046303
128	0x3df74b8d	0.12074957
129	0xbdb273a4	-0.08713463
130	0x3e80570d	0.25066414
131	0xbe6ffe82	-0.23436931
132	0x3e92590d	0.28583565
133	0x3e3a732c	0.18207997
134	0x3e2c5598	0.16829526
135	0x3e067206	0.13129434
136	0x3e57982a	0.2105414
137	0x3e184067	0.14868318
138	0x3dd9c7b4	0.106337935
139	0xbe309ed4	-0.17248088
140	0xbbf44970	-0.0074550435
141	0x3dabe0cf	0.08392488
142	0xbd33c7d4	-0.043891743
143	0x3cf58d00	0.02997446
144	0x3e621b11	0.22080638
145	0xbe794984	-0.2434445
146	0x3e0c8722	0.13723424
147	0x3df92b9c	0.12166521
148	0x3e0ec244	0.13941294
149	0x3e26d855	0.16293462
150	0x3ea493ab	0.32143912
151	0xbcc161f0	-0.02360627
152	0x3dad3004	0.08456424
153	0x3ea910ad	0.33020535
154	0xbe89f78a	-0.2694667
155	0x3e794096	0.24341044
156	0x3ce8ad38	0.02840291
157	0x3d01bb55	0.031672794
158	0xbde31da1	-0.11089636
159	0xbe6e2898	-0.23257673
160	0x3f1fb614	0.62387204
161	0xbdf97c0c	-0.12181863
162	0xbf60515d	-0.8762415
163	0xbb9bdd00	-0.00475657
164	0x3bbc7a56	0.0057518883
165	0xbe80f742	-0.25188643
166	0xbe26150f	-0.1621897
167	0x3de65dd8	0.11248368
168	0xbd84d50c	-0.06485948
169	0x3e754aac	0.23954266
170	0x3f0e9214	0.5569165
171	0x3e4fd546	0.20296201
172	0xbf06e1fa	-0.5268856
173	0x3e247ed4	0.16064006
174	0x3ee5cf93	0.4488493
175	0x3df88524	0.121347696
176	0xbe116514	-0.14198714
177	0xbadd6d00	-0.0016893446
178	0xbe60cf7a	-0.21954146
179	0x3e675b06	0.22593316
180	0x3b879040	0.004137069
181	0xbe064e42	-0.1311579
182	0xbe1207de	-0.14260814
183	0x3e14ad16	0.14519152
184	0xbe54b062	-0.2077041
185	0x3db281ac	0.08716139
186	0x3cd08f00	0.025458813
187	0xbe0d6e42	-0.13811591
188	0x3da11844	0.078659564
189	0xbcf62150	-0.030045182
190	0xbe5afc5c	-0.2138533
191	0xbcb2fca0	-0.021848977
192	0x3dd0a9ce	0.10188638
193	0x3e3b54fa	0.18294135
194	0xbdc7688b	-0.09736737
195	0xbcbcc750	-0.023044258
196	0x3f038ede	0.51389873
197	0xbe548d18	-0.20756948
198	0x3ea24dfd	0.31700125
199	0xbe6a7258	-0.22895181
200	0xbccb4dd0	-0.024817377
201	0x3f19f19c	0.6013429
202	0xbf18ba1e	-0.5965899
203	0xbdc32194	-0.09527889
204	0x3e10ac02	0.14128116
205	0xbea41d21	-0.32053474
206	0xbe02cd5a	-0.12773648
207	0x3dc72674	0.09724131
208	0xbdd4fc80	-0.10399723
209	0x3d8bd308	0.068273604
210	0xbe37e526	-0.17958507
211	0x3e3f9b84	0.18711668
212	0xbdf04178	-0.11731237
213	0xbe255c4e	-0.16148493
214	0xbe47afc4	-0.19500643
215	0xbda5ed8c	-0.08101949
216	0xbe06cb78	-0.13163555
217	0xbd16b188	-0.0367904
218	0x3cbc2c10	0.02297023
219	0xbd6411f0	-0.05568117
220	0xbda00558	-0.07813519
221	0x3d59c1a8	0.0531632
222	0xbe22ca30	-0.15897441
223	0xbe3d7998	-0.18503416
224	0x3ebe6810	0.37188768
225	0xbd52be70	-0.051451147
226	0x3ea71f31	0.32640985
227	0x3de70240	0.11279726
228	0x3e30da84	0.17270857
229	0xbce86a35	-0.028370956
230	0x3b517303	0.0031959421
231	0xbe36d944	-0.17856318
232	0xbe25eade	-0.16202876
233	0x3e61e24d	0.22058983
234	0x3ca3eac2	0.020009402
235	0x3caf11d0	0.021370798
236	0xbd94f94f	-0.07274114
237	0x3de37c11	0.11107648
238	0x3e515227	0.20441495
239	0x3e75169a	0.23934403
240	0x3e849248	0.25892854
241	0xbc23a280	-0.0099874735
242	0x3dd5edc5	0.104457416
243	0xbceb2a10	-0.02870658
244	0x3ed2fdbc	0.4120921
245	0x3e28f0fc	0.16498178
246	0x3efa572e	0.48894638
247	0x3dddfc94	0.10839191
248	0xbe689776	-0.22714028
249	0x3efd4a56	0.49470776
250	0xbe403136	-0.18768772
251	0x3e5dbcc0	0.21654034
252	0x3e97fa45	0.29683128
253	0x3dc34a58	0.09535664
254	0xbeb6809c	-0.35644996
255	0x3dacd03c	0.08438155

l6.bias f4 [32]
0	0x3cab5b4c	0.020917557
1	0xbe5ccf5a	-0.21563473
2	0x3e41dac4	0.18931109
3	0x3e492416	0.19642672
4	0xbe1da1d6	-0.15393767
5	0xbdbf4c50	-0.09340727
6	0xbe535350	-0.2063725
7	0x3db4af00	0.08822441
8	0x3e9a9938	0.30195022
9	0x3d1f083f	0.038826223
10	0x3e0ec43f	0.1394205
11	0x3e4bb260	0.19892263
12	0xbe0b6a25	-0.1361471
13	0xbdc2600c	-0.09490976
14	0x3e495bd2	0.19663933
15	0xbe99d425	-0.30044666
16	0xbd51f3d8	-0.05125794
17	0xbb68e6c8	-0.0035537947
18	0x3de6c630	0.1126827
19	0xbe01df66	-0.12682876
20	0xbe823ee7	-0.25438616
21	0xbbd75880	-0.0065718293
22	0xbd41ea2d	-0.047342468
23	0x3dff5f49	0.12469346
24	0xbe46236b	-0.19349448
25	0x3e9da430	0.30789328
26	0xbdb10edc	-0.08645412
27	0xbda04c82	-0.07827093
28	0xbda838ba	-0.08213945
29	0xbe27f3a2	-0.16401532
30	0xbe8aa802	-0.27081305
31	0xbe5f437c	-0.21803087

l7.weight f4 [16, 32]
0	0x3e9a553c	0.30143154
1	0x3d6b9fe0	0.057525516
2	0x3ec47461	0.3837004
3	0xbd93bf10	-0.07214177
4	0xbe459f10	-0.19298959
5	0x3e22b727	0.1589018
6	0x3d70b5a4	0.058766976
7	0x3d33fcd8	0.043942302
8	0x3ec75ff1	0.38940385
9	0xbe4f33aa	-0.20234552
10	0xbf3d8ac9	-0.74039894
11	0xbe099207	-0.13434611
12	0xbf1af18f	-0.6052484
13	0xbdded66d	-0.10880742
14	0x3edb4977	0.42829487
15	0xbe984042	-0.29736525
16	0xbcc4e630	-0.024035543
17	0xbe096885	-0.13418777
18	0x3b484c80	0.0030563176
19	0xbd8deea2	-0.06930281
20	0x3e49f7fc	0.19723505
21	0xbd86a7eb	-0.065749966
22	0xbf5171d5	-0.8181432
23	0x3e066b0d	0.13126774
24	0xbe0b07e6	-0.13577232
25	0x3f0cb52f	0.54963964
26	0x3dbe6eee	0.09298502
27	0x3e38792e	0.18014976
28	0xbe013990	-0.12619615
29	0xbd8d35ef	-0.06895053
30	0xbd84ffb9	-0.06494088
31	0xbdc6fce9	-0.097162075
32	0xbca941a6	-0.020661186
33	0x3cca4400	0.024690628
34	0xbd6eaf06	-0.058272384
35	0xbd845ab0	-0.0646261
36	0x3d82432a	0.06360467
37	0x3e222015	0.15832551
38	0xbbab5b20	-0.005229369
39	0xbddaabc4	-0.10677293
40	0xbe25be75	-0.16185935
41	0xbcbb3755	-0.022853533
42	0xbe264bd8	-0.1623987
43	0xbe329b6f	-0.17442106
44	0xbdb3ae36	-0.087734625
45	0xbd5c0332	-0.053713985
46	0x3db60c00	0.088890076
47	0xbdd96f0c	-0.10616884
48	0xbdad667f	-0.08466815
49	0xbdf0477c	-0.117323846
50	0x3d0d5144	0.03450133
51	0xbd4b74f4	-0.049672082
52	0x3ded45f9	0.11585612
53	0x3d680538	0.056645602
54	0x3e073e38	0.13207328
55	0x3ce9da58	0.028546497
56	0xbd9cbf77	-0.076537065
57	0xbe234c2d	-0.15947028
58	0x3e1b14db	0.15144674
59	0xbd1c9641	-0.03822923
60	0xbd383733	-0.044974517
61	0xbb161900	-0.0022903085
62	0xbdd50d8b	-0.10402974
63	0xbce8ee88	-0.028434053
64	0x3ec29ba3	0.38009366
65	0x3dcc7862	0.09983899
66	0x3e983e22	0.29734904
67	0xbd3d3d80	-0.04620123
68	0xbc8d5306	-0.017251503
69	0xbdbe605a	-0.09295721
70	0x3e2ca63f	0.16860293
71	0x3df2d872	0.1185769
72	0x3e6d0bde	0.23149058
73	0x3dc597ae	0.09648071
74	0xbf059332	-0.5217773
75	0x3dc42b06	0.095785186
76	0xbf28e5e2	-0.65975773
77	0xbdf24fbc	-0.118316144
78	0x3dc1abc1	0.094565876
79	0xbea402db	-0.3203343
80	0x3d833976	0.06407444
81	0xbe2a00df	-0.16601895
82	0xbe2c58d4	-0.1683076
83	0x3d476c18	0.04868707
84	0x3cb1771c	0.021663241
85	0x3d75b060	0.059982657
86	0xbee9874e	-0.45611042
87	0xbdd604bc	-0.10450122
88	0xbe35fcb2	-0.17772177
89	0x3ee41d5d	0.44553652
90	0xbe1f22ad	-0.15540572
91	0x3db2893b	0.08717581
92	0xbd207b19	-0.039179895
93	0x3dbbf92b	0.091783844
94	0xbd7d6dfc	-0.061872467
95	0x3a094400	0.0005236268
96	0x3e1ff2b9	0.15619935
97	0xba91b480	-0.0011116415
98	0x3e9849b7	0.2974374
99	0x3d4a2244	0.049349084
100	0x3e838381	0.25686267
101	0xbd3f6ae4	-0.0467328
102	0xbd7a1cc8	-0.061062604
103	0x3d8e8db6	0.06960623
104	0x3e5e2c49	0.21696581
105	0x3e867a1d	0.2626504
106	0x3f316548	0.6929517
107	0xbd326544	-0.043553606
108	0x3e97aeb4	0.29625475
109	0x3d7a50f8	0.061112374
110	0xbb343672	-0.0027498272
111	0x3ecfe20b	0.40602145
112	0xbd0c31fc	-0.034227356
113	0x3eec4ba4	0.4615146
114	0x3cfc30c8	0.03078498
115	0x3e97e5c1	0.29667476
116	0x3d82e0bc	0.06390521
117	0x3bcf9c40	0.006335765
118	0x3f87c75b	1.0607713
119	0xba08b860	-0.00052154623
120	0x3eac4c35	0.3365189
121	0xbe9aa752	-0.3020578
122	0x3dfba78a	0.12287815
123	0x3e0b3921	0.13596012
124	0x3e829c56	0.255099
125	0x3e10588a	0.14096275
126	0xbd4eb58d	-0.05046611
127	0xbca99c20	-0.020704329
128	0x3e01725f	0.12641285
129	0xbcb3b430	-0.021936506
130	0x3d30a5a0	0.043126702
131	0xbdd4a25c	-0.1038253
132	0xbb1d3e40	-0.0023993403
133	0xbe227cd1	-0.15867926
134	0xbe0ed43e	-0.13948151
135	0x3d434480	0.04767275
136	0xbe2592c4	-0.16169268
137	0x3d70a824	0.0587541
138	0x3e2029e3	0.15640979
139	0x3cf6afc8	0.030113116
140	0xbe02194c	-0.12704962
141	0x3d704fec	0.05866997
142	0x3c0ee560	0.008721679
143	0xbd867313	-0.065649174
144	0x3e11f771	0.14254548
145	0xbe0ea7da	-0.13931218
146	0xbdfc9580	-0.12333202
147	0x3cd5c4f0	0.026094884
148	0xbc5695d0	-0.0130972415
149	0x3c7c1750	0.0153864175
150	0x3da5b60e	0.08091365
151	0xbd7993c8	-0.06093195
152	0x3dc86662	0.09785153
153	0x39c80800	0.00038152933
154	0x3d919712	0.071088925
155	0x3dbfa7ba	0.09358163
156	0xbd791dfc	-0.06081961
157	0xbd655664	-0.05599059
158	0x3dba9eda	0.0911233
159	0x3e1274cb	0.14302365
160	0xbc6ddc3b	-0.014517839
161	0xbe0e0e67	-0.13872682
162	0xbe1aaf23	-0.15105872
163	0x3e1852cb	0.14875333
164	0xbdbed72e	-0.09318386
165	0xbdc010a6	-0.093781754
166	0xbce1a0e8	-0.027542546
167	0x3e2c4cf1	0.16826226
168	0x3d0b258e	0.03397136
169	0x3deb795d	0.114977576
170	0xbe59a342	-0.21253684
171	0x3e049dc3	0.12950806
172	0xbc376b50	-0.011195019
173	0xbdb8f0d5	-0.0903031
174	0xbe1d2ae2	-0.1534839
175	0x3c93f76f	0.018062321
176	0xbd9debcd	-0.07710991
177	0xbdfda850	-0.12385619
178	0x3a6a9500	0.00089485943
179	0xbd5b9c56	-0.05361589
180	0xbdb83d98	-0.08996123
181	0xbe1a8d16	-0.15092883
182	0x3dd444ee	0.1036471
183	0xbc8c1bc1	-0.017103078
184	0x3d554a21	0.052072648
185	0x3dd4924f	0.10379469
186	0x3d4239e4	0.04741849
187	0xbd8938a7	-0.06700259
188	0xbdf736dc	-0.120710105
189	0x3e0fe1ff	0.14051054
190	0x3df1e422	0.11811091
191	0x3d7f0578	0.062261075
192	0xbdfb8819	-0.12281818
193	0x3ca3e5d0	0.020007044
194	0x3dd3110d	0.103059866
195	0x3dfc6526	0.1232398
196	0x3dca4034	0.09875527
197	0xbd923137	-0.07138293
198	0x3dfe6cd6	0.124231026
199	0xbdbfcdd3	-0.0936543
200	0xbe409a4c	-0.1880886
201	0x3de0da40	0.10979128
202	0x3d969c03	0.073539756
203	0xbe0231da	-0.1271433
204	0x3df33c7a	0.11876769
205	0x3cb42300	0.021989346
206	0xbcd61edf	-0.026137767
207	0x3c352aa1	0.011057527
208	0xbdfc5c0a	-0.123222426
209	0x3e096d89	0.1342069
210	0x3d926ed0	0.07150042
211	0x3d125f18	0.03573522
212	0x3b922505	0.0044599795
213	0x3ddb2fce	0.107024774
214	0x3e21612c	0.15759724
215	0x3d0e4db9	0.03474209
216	0xbdeaf552	-0.114725724
217	0xbde4c9f9	-0.11171336
218	0x3bd591e0	0.006517634
219	0xbde44551	-0.111460336
220	0xbd95c2c5	-0.0731254
221	0x3de53eaa	0.11193593
222	0xbd48bf7c	-0.04901074
223	0xbd884755	-0.066542305
224	0x3e852c1e	0.2601022
225	0x3d05ba98	0.032648653
226	0x3e9e706b	0.30945143
227	0x3e14755b	0.14497893
228	0x3ebfd5f2	0.37467915
229	0x3d249d00	0.04018879
230	0x3e1f7d65	0.15575178
231	0xbdeb7b54	-0.11498132
232	0x3d8da1f8	0.06915659
233	0x3e611e81	0.21984293
234	0x3f27bb1c	0.6551988
235	0xbd6b1c28	-0.0573999
236	0x3f0c4902	0.547989
237	0xbe024156	-0.12720236
238	0x3da3e56b	0.080027424
239	0x3e7d3402	0.2472687
240	0xbe0f5378	-0.13996685
241	0x3e552a0f	0.20816825
242	0x3df85e02	0.121273056
243	0x3e46d2f2	0.19416407
244	0x3e0d74cc	0.13814086
245	0x3e004693	0.12526922
246	0x3f321390	0.695611
247	0x3e72f4d4	0.23726207
248	0x3e3eaab0	0.186198
249	0xbdde710f	-0.10861408
250	0x3cac1608	0.021006599
251	0x3de62f15	0.11239449
252	0x3eb4cb18	0.35311198
253	0xbd3fe7a6	-0.046851777
254	0xbda6a538	-0.08136982
255	0x3d72c124	0.059266225

l7.bias f4 [16]
0	0x3d663249	0.0562003
1	0x3c8cbfe2	0.01718134
2	0x3e235696	0.15950999
3	0xbc3c220d	-0.011482728
4	0xbe2cd386	-0.16877565
5	0x3dde6ef5	0.10861007
6	0x3d4f1091	0.05055291
7	0x3c3de34c	0.011589836
8	0x3dda57fb	0.10661312
9	0x3ddd11c4	0.10794404
10	0xbdd0ab42	-0.10188915
11	0x3dd42737	0.10359042
12	0x3d9157c8	0.07096821
13	0xbe4454df	-0.19173001
14	0x3d1c4fc8	0.038162023
15	0x3e063067	0.13104402

l8.weight f4 [1, 16]
0	0x3f65fabb	0.8983571
1	0x3e200d99	0.15630187
2	0x3eeffdc7	0.46873304
3	0xbe7540c3	-0.23950486
4	0x3e6fbf4c	0.23412818
5	0x3e628638	0.22121513
6	0x3e694823	0.22781424
7	0xbebef564	-0.37296593
8	0x3e403dd8	0.18773592
9	0xbe996bfb	-0.29965195
10	0x3e31a053	0.17346315
11	0xbe91810c	-0.28418767
12	0xbe81e524	-0.25370133
13	0x3e616c6e	0.22014019
14	0xbedec604	-0.4351045
15	0x3e26c16a	0.16284719
