project/models/model_w1_2.0_lam_2.0_lam2_1.525_w2_0.01.pt_critic.pt (torch, 15278 bytes, 14 tensors)

l1.weight f4 [16, 2]
0.6400035 0.45585558 -0.24914089 -0.74206954 0.11799955 0.08762437 -0.48771867 -0.019771982
-0.479802 -0.24107593 0.33605224 -0.09303822 0.61401725 -0.24612729 0.48549005 0.034159753
0.36943847 -0.038618848 0.16086735 -0.5399029 -0.16430672 0.4494546 0.49830893 -0.023283277
0.13129932 0.12095064 -0.3707938 -0.27346182 -0.667313 -0.17721543 0.82540214 0.287181
00000000: 45d7 233f e765 e93e ca1e 7fbe 45f8 3dbf
00000010: c0a9 f13d 6874 b33d 43b6 f9be daf8 a1bc
00000020: 9ca8 f5be 9cdc 76be 0a0f ac3e d38a bebd
00000030: 3c30 1d3f cb08 7cbe 2792 f83e 19eb 0b3d
00000040: 0a27 bd3e cc2e 1ebd 69ba 243e 1437 0abf
00000050: 0540 28be ea1e e63e 5922 ff3e 92bc bebc
00000060: 5473 063e f8b4 f73d afd8 bdbe 3003 8cbe
00000070: 06d5 2abf f677 35be 8e4d 533f 6309 933e

l1.bias f4 [16]
-0.04456384 -0.38302925 -0.2594953 0.48925033 -0.40249464 0.3548055 -0.029212134 -0.056541633
-0.4086651 0.69984955 0.4916601 0.39345905 -0.39751533 0.3829742 0.6670078 0.39981994
00000000: 9388 36bd 691c c4be 91dc 84be 057f fa3e
00000010: c713 cebe 11a9 b53e 494e efbc 3398 67bd
00000020: 8d3c d1be 5729 333f dfba fb3e 7773 c93e
00000030: 2187 cbbe 3215 c43e 06c1 2a3f 33b5 cc3e

l2.weight f4 [32, 16]
0.171875 0.038075686 0.07028517 -0.106496066 -0.052984625 -0.16593075 0.04829949 -0.15927887
0.16504577 -0.23093355 0.17817229 -0.111442626 0.18732587 -0.21037859 0.24550545 -0.115939826
0.0910466 -0.14309096 -0.13165376 -0.09595984 0.008481652 -0.11233604 -0.07130805 -0.08321297
0.1287947 -0.17121512 -0.2428033 0.024263978 0.008821636 0.05915886 -0.14126217 -0.09819391
-0.0073512197 -0.029847622 0.081831634 0.027467519 -0.13091877 -0.23583779 -0.037655503 0.03834051
0.16497701 -0.042554885 -0.12528142 -0.18232888 -0.049675077 -0.12446967 -0.16479528 0.08112177
0.25820842 -0.47555563 0.19645539 -0.4383217 -0.07991159 0.31775603 -0.032275677 0.28659353
-0.21340431 0.21051231 0.047971237 0.13534766 -0.18782502 -0.1845233 -0.10137924 0.22691102
0.39658555 -0.0069199237 0.22098824 -0.42177644 0.047701895 0.21847913 0.07743603 0.38500178
-0.21712343 0.25049546 0.139205 0.18908638 -0.06080225 -0.29243693 -0.24902771 0.29156616
0.4067902 -0.1720356 -0.13555992 -0.32618698 0.09045622 -0.01715941 0.07824708 0.16078995
-0.20862906 0.0907842 0.1462835 0.22864597 -0.034249574 -0.56698406 -0.048213787 0.31459594
0.39255515 -0.07011329 -0.18109351 -0.5505989 -0.23204705 0.37744638 0.27459127 0.095143504
0.056244034 0.19484806 0.18933214 0.021296851 0.07508889 -0.59742606 -0.38445428 0.26588187
0.40024307 -0.32616377 -0.24578935 -0.15399243 -0.03750071 0.107008845 0.49443263 0.09107476
-0.2050226 0.14797851 0.17895408 0.3094227 0.1309461 -0.16382237 -0.19883253 0.19567631
0.30514616 -0.008750753 0.20829475 -0.40521953 0.030282348 0.14779338 0.26829058 0.39694703
0.11311357 0.04388565 -0.18944262 0.22337331 -0.013168633 -0.23395185 -0.6514281 0.37357792
-0.011082649 -0.15175577 -0.2312052 -0.1519378 -0.03907299 -0.054606456 0.008178066 0.21871802
0.09958617 0.10106454 -0.06576422 -0.030061767 0.11655533 -0.02454885 0.026670212 -0.16232403
-0.116808355 -0.04271078 -0.1510964 -0.16467986 -0.21576783 -0.2134543 -0.19568399 -0.11870754
0.0017101169 0.15955326 0.20185253 -0.18513218 -0.027300954 0.13399798 -0.056863308 0.10111663
0.21290912 0.047662247 0.106799364 -0.74269146 0.20196623 0.28468558 0.5212755 0.484606
-0.33769265 -0.10027495 -0.14119127 0.025076136 0.004083425 -0.051530715 -0.85191643 0.17627148
0.08346459 0.004311406 -0.061611533 -0.22068016 0.117372274 -0.008700221 -0.01039711 0.006923299
0.10536188 -0.115541175 -0.19091661 -0.05773477 0.06029114 0.11125371 0.17516455 -0.06724177
0.122796655 0.00035655499 -0.2410675 0.1822859 -0.044217765 -0.21812662 -0.21828043 0.14407966
-0.20299774 -0.055308014 -0.071483105 -0.07117382 0.16998398 -0.15999794 -0.20778435 -0.21186745
0.1385719 -0.15464935 -0.046829164 -0.4565139 0.16359463 0.23726726 0.43505397 0.27936646
0.16802444 0.38188496 0.039262816 0.24103914 -0.02824217 -0.36786604 -0.21699235 0.31165773
0.4324868 -0.0619002 -0.04803586 -1.1616614 0.20101547 0.03672782 0.11466508 0.2923534
0.08390995 -0.16154213 -0.1292203 -0.20003186 0.23226264 -0.69420946 -1.2232785 0.2053391
00000000: 0000 303e 40f5 1b3d acf1 8f3d 9c1a dabd
00000010: 6806 59bd c0e9 29be b0d5 453d 001a 23be
00000020: c201 293e d879 6cbe cc72 363e 083c e4bd
00000030: 5ad2 3f3e 7c6d 57be c865 7b3e dc71 edbd
00000040: a476 ba3d 7086 12be 3ed0 06be 9886 c4bd
00000050: a0f6 0a3c 7010 e6bd f409 92bd 906b aabd
00000060: c2e2 033e 0453 2fbe 6ea1 78be 40c5 c63c
00000070: a088 103c 9050 723d 08a7 10be e419 c9bd
00000080: 80e2 f0bb 0083 f4bc 5897 a73d 9003 e13c
00000090: 920f 06be 767f 71be a83c 1abd f00a 1d3d
000000a0: bcef 283e 084e 2ebd c649 00be 6cb4 3abe
000000b0: 1878 4bbd f4e9 febd 18c0 28be 2c23 a63d
000000c0: e533 843e 077c f3be 9a2b 493e b46b e0be
000000d0: b0a8 a3bd ebb0 a23e 8033 04bd 63bc 923e
000000e0: a986 5abe 8a90 573e 7d7d 443d 9498 0a3e
000000f0: 3455 40be adf3 3cbe eb9f cfbd 5d5b 683e
00000100: 430d cb3e 87c0 e2bb be4a 623e 15f3 d7be
00000110: 1063 433d feb8 5f3e c896 9e3d f41e c53e
00000120: 9b55 5ebe f140 803e c18b 0e3e dc9f 413e
00000130: c80b 79bd 4bba 95be 1f01 7fbe 2948 953e
00000140: ce46 d03e 1a2a 30be 38d0 0abe fb01 a7be
00000150: 1c41 b93d e491 8cbc 0140 a03d 1fa6 243e
00000160: dba2 55be 11ed b93d 58cb 153e 2b22 6a3e
00000170: 4849 0cbd de25 11bf d27b 45bd b812 a13e
00000180: fdfc c83e 8e97 8fbd 9470 39be 0df4 0cbf
00000190: be9d 6dbe a740 c13e 3a97 8c3e 99da c23d
000001a0: 2560 663d 4086 473e 49e0 413e bc76 ae3c
000001b0: 34c8 993d eaf0 18bf 31d7 c4be ab21 883e
000001c0: a9ec cc3e f0fe a6be 34b0 7bbe 31b0 1dbe
000001d0: 589a 19bd 7427 db3d 4626 fd3e 6785 ba3d
000001e0: 72f1 51be ae87 173e bd3f 373e a76c 9e3e
000001f0: bc16 063e 0dc1 27be c19a 4bbe 5f5f 483e
00000200: 1e3c 9c3e 515f 0fbc 384b 553e ef78 cfbe
00000210: b012 f83c 2657 173e 625d 893e a43c cb3e
00000220: 16a8 e73d 70c1 333d 3ffd 41be f9bb 643e
00000230: 40c1 57bc 1391 6fbe fec3 26bf 9b45 bf3e
00000240: 0094 35bc dd65 1bbe 0ec1 6cbe 9595 1bbe
00000250: 000b 20bd 05ab 5fbd 4cfd 053c 9ef7 5f3e
00000260: d5f3 cb3d edfa ce3d 64af 86bd 1844 f6bc
00000270: 90b4 ee3d ab1a c9bc 7d7b da3c 4538 26be
00000280: 3839 efbd 80f1 2ebd 04b9 1abe d6a1 28be
00000290: 3ef2 5cbe c493 5abe 6261 48be f01c f3bd
000002a0: 0026 e03a ee61 233e 6eb2 4e3e 4a93 3dbe
000002b0: 40a6 dfbc c436 093e 80e9 68bd 3c16 cf3d
000002c0: d904 5a3e 7d39 433d a0b9 da3d 0721 3ebf
000002d0: 3cd0 4e3e 4fc2 913e 5072 053f 471e f83e
000002e0: 0de6 acbe f45c cdbd 7294 10be 786c cd3c
000002f0: 40ce 853b df11 53bd 3217 5abf 8380 343e
00000300: 7cef aa3d b246 8d3b 605c 7cbd fbf9 61be
00000310: e060 f03d 5f8b 0ebc a458 2abc d7dc e23b
00000320: f8c7 d73d daa0 ecbd a57f 43be 4b7b 6cbd
00000330: d8f3 763d fcd8 e33d 565e 333e 0eb6 89bd
00000340: d07c fb3d 00f0 ba39 66da 76be 28a9 3a3e
00000350: b01d 35bd 965c 5fbe e884 5fbe 9e89 133e
00000360: a4de 4fbe a88a 62bd bc65 92bd 94c3 91bd
00000370: 4810 2e3e 80d6 23be 6cc5 54be c8f3 58be
00000380: cbe5 0d3e 665c 1ebe f0cf 3fbd 31bc e9be
00000390: 5a85 273e 30f6 723e 65bf de3e 1f09 8f3e
000003a0: 990e 2c3e 6d86 c33e 0cd2 203d f7d2 763e
000003b0: 205c e7bc f058 bcbe 3e33 5ebe 9a91 9f3e
000003c0: e96e dd3e 108b 7dbd 40c1 44bd 52b1 94bf
000003d0: 00d7 4d3e e96f 163d 87d5 ea3d 58af 953e
000003e0: fbd8 ab3d 4d6b 25be 5452 04be 27d5 4cbe
000003f0: 42d6 6d3e b6b7 31bf 6494 9cbf 6a44 523e

l2.bias f4 [32]
-0.22833595 -0.19376767 0.09312099 0.22924055 0.3576771 0.257992 0.2640381 0.118015386
0.030434417 -0.00015297816 -0.15899915 -0.31241515 -0.08357034 -0.14458269 0.32296625 -0.01660629
-0.10263949 -0.07797306 0.033981137 0.25691986 -0.141784 -0.19562449 0.0970435 -0.24057728
-0.24274495 0.14531521 0.3500963 0.25090963 0.024980457 0.33849305 0.11461351 0.254474
00000000: e6d0 69be 086b 46be 38b6 be3d 09be 6a3e
00000010: 7421 b73e 8717 843e 0030 873e 0db2 f13d
00000020: 9951 f93c c368 20b9 acd0 22be e1f4 9fbe
00000030: ed26 abbd 7c0d 14be d55b a53e ea09 88bc
00000040: a734 d2bd 57b0 9fbd ce2f 0b3d 008b 833e
00000050: d32f 11be c951 48be bebe c63d e459 76be
00000060: 2292 78be 83cd 143e d23f b33e 3a77 803e
00000070: d1a3 cc3c f64e ad3e 7dba ea3d 6b4a 823e

l3.weight f4 [16, 32]
0.08843674 0.021436632 -0.11889933 0.04807942 0.0010783479 0.121316 -0.09525037 -0.0031493718
0.021684522 -0.106948964 -0.005191624 -0.4152179 0.06022176 0.08516516 -0.12259206 -0.6955092
0.12581103 -0.29228225 -0.017274514 -0.034647092 -0.1543356 -0.49276164 0.05479363 -0.16115022
0.17160188 0.086643144 0.061142173 -0.00094606844 -0.02263919 -0.13626139 -0.1047976 0.12470366
-0.058438905 -0.0004916638 0.14475451 0.08877797 0.24056159 0.14738844 0.29154855 0.3509422
0.0280844 0.07193548 0.02404216 0.33034492 -0.09454786 0.12453945 0.16154762 -0.20303123
0.04352112 -0.5052545 0.3417301 0.25196722 0.12801057 -0.12899604 -0.20487338 -0.02549477
-0.085053645 0.3562223 0.32112795 0.29546335 0.021337373 -0.4150651 -0.27415282 0.19356558
-0.031180382 0.022049755 -0.15471724 0.099221595 -0.1714904 -0.16518706 -0.023074877 -0.049597196
0.1361024 0.011944167 -0.011462972 -0.14088531 -0.08017466 -0.03246799 0.072870694 0.15907589
-0.089175835 0.09035532 0.0684848 0.12562768 -0.07479274 -0.17000219 -0.19833499 -0.14210385
0.02167444 0.041274033 0.104934596 -0.16107503 0.03074215 0.124763675 -0.2006259 -0.005342732
-0.03230366 -0.007966936 -0.15342747 0.31550556 0.050372563 0.12909913 0.31449836 0.23831682
0.22072096 0.025716035 0.069644585 0.3741874 -0.16755523 0.08756302 0.09163048 -0.05135273
0.119615816 -0.11806326 0.5376348 0.34780794 0.54440016 0.14640857 -0.32585758 0.14144744
0.08050151 0.3952239 0.19541425 0.2956223 0.16539575 -0.09731275 -0.39752224 0.30591866
-0.095339924 -0.042307705 -0.13177851 0.29803538 0.21289949 0.18019061 0.13669981 0.38728347
-0.24065019 -0.12131399 0.0887811 -0.43506977 -0.07683925 -0.17337409 0.118035235 -0.9956838
0.022052808 -0.16224308 -0.12230553 -0.082318656 -0.15065265 -0.48638764 -0.02291944 0.1707911
0.16831027 0.19873857 0.3559517 -0.17260036 -0.29688787 0.058016825 0.09987398 0.1502772
-0.114186116 0.08644666 0.11011191 0.065817945 -0.028134048 -0.0673811 -0.11202386 0.10864165
0.035955343 0.12784693 0.14670976 0.04585181 0.073418334 0.056464046 -0.15490557 -0.19023271
0.15973668 -0.013038446 0.06621262 0.017456464 0.0077870293 -0.20224012 -0.17285837 0.10964508
0.0022366047 -0.07565796 -0.2025118 -0.14490135 0.08650461 0.06166784 -0.021281755 -0.039411396
-0.17588967 -0.16794999 -0.041248977 0.097002976 0.32577384 0.23740005 0.21167241 0.34144408
0.25267836 -0.06246835 0.06257118 0.41755491 0.07495967 0.09632383 0.22632243 -0.03531349
0.05536498 -0.1607437 0.16521613 0.27596766 0.25930476 -0.034747742 -0.29038575 0.047383934
0.17102496 0.3144054 0.09487946 0.107309446 -0.09677458 -0.40180457 -0.30514583 0.29810706
-0.09835104 0.06358223 0.17327009 0.22248356 0.08680287 0.110251695 0.23113951 0.07361914
0.300641 -0.063805416 -0.02634956 0.49864307 0.054335624 0.06805915 0.031305835 0.62044233
-0.045019217 1.2128346 0.14423573 0.3298942 0.32112798 0.48086062 -0.2321255 -0.012946963
-0.014899105 0.10337569 0.28286758 0.11209554 0.35095066 -0.1588822 -0.19196431 0.124782115
00000000: 521e b53d e09b af3c 7e81 f3bd edee 443d
00000010: 5a57 8d3a 8674 f83d a012 c3bd b165 4ebb
00000020: bda3 b13c 0f08 dbbd 801e aabb 7197 d4be
00000030: 18ab 763d 126b ae3d 8c11 fbbd e40c 32bf
00000040: 9bd4 003e 05a6 95be 4883 8dbc 1cea 0dbd
00000050: 270a 1ebe 414b fcbe 496f 603d 9004 25be
00000060: 67b8 2f3e f671 b13d 3770 7a3d 9401 78ba
00000070: d375 b9bc 1b88 0bbe 20a0 d6bd a264 ff3d
00000080: a25d 6fbd 00e3 00ba 873a 143e 39d1 b53d
00000090: c755 763e ffec 163e da45 953e b2ae b33e
000000a0: 4111 e63c e952 933d 10f4 c43c f822 a93e
000000b0: 4fa2 c1bd 8a0e ff3d bd6c 253e 6be7 4fbe
000000c0: 3443 323d 5c58 01bf 3ff7 ae3e d901 813e
000000d0: 3415 033e 8a17 04be 54ca 51be 68da d0bc
000000e0: 9b30 aebd c562 b63e e26a a43e f946 973e
000000f0: b7cb ae3c 6a83 d4be c25d 8cbe 0e36 463e
00000100: 006e ffbc b0a1 b43c 326e 1ebe b134 cb3d
00000110: 2e9b 2fbe cc26 29be 8607 bdbc 6e26 4bbd
00000120: 6d5e 0b3e 78b1 433c 30cf 3bbc 3d44 10be
00000130: 9d32 a4bd 28fd 04bd 3b3d 953d cae4 223e
00000140: d2a1 b6bd 360c b93d c241 8c3d 8ba4 003e
00000150: f02c 99bd 0e15 2ebe 5418 4bbe ac83 11be
00000160: 988e b13c f60e 293d f3e7 d63d daf0 24be
00000170: f6d6 fb3c 1984 ff3d e070 4dbe 1612 afbb
00000180: d850 04bd c087 02bc 171c 1dbe f289 a13e
00000190: 7653 4e3d 9032 043e ee05 a13e 5309 743e
000001a0: ad04 623e 6faa d23c d2a1 8e3d 7e95 bf3e
000001b0: 9993 2bbe 3e54 b33d c3a8 bb3d 3d57 52bd
000001c0: 23f9 f43d 27cb f1bd 6fa2 093f e213 b23e
000001d0: cf5d 0b3f 21ec 153e ced6 a6be 99d7 103e
000001e0: fadd a43d c95a ca3e ac1a 483e ce5b 973e
000001f0: 815d 293e e84b c7bd 0988 cbbe 5fa1 9c3e
00000200: 9441 c3bd d84a 2dbd f2f0 06be 1898 983e
00000210: 5302 5a3e e383 383e 09fb 0b3e 054a c63e
00000220: 016d 76be 7873 f8bd ded2 b53d 77c1 debe
00000230: e65d 9dbd fa88 31be 75bc f13d 22e5 7ebf
00000240: 17a8 b43c 0d23 26be 527b fabd af96 a8bd
00000250: b044 1abe cd07 f9be 8dc1 bbbc dde3 2e3e
00000260: 8759 2c3e 2082 4b3e 4d3f b63e 26be 30be
00000270: b001 98be 0da3 6d3d bb8a cc3d 44e2 193e
00000280: 69da e9bd f20a b13d 5a82 e13d 8fcb 863d
00000290: 6079 e6bc 1aff 89bd c46c e5bd 837f de3d
000002a0: e945 133d 4eea 023e 153b 163e 1ccf 3b3d
000002b0: 5a5c 963d d846 673d 919f 1ebe 5dcc 42be
000002c0: 0392 233e 359f 55bc 7b9a 873d dc00 8f3c
000002d0: 562a ff3b 0918 4fbe c901 31be 9a8d e03d
000002e0: 0094 123b 8ff2 9abd 415f 4fbe 0561 14be
000002f0: 5429 b13d 6b97 7c3d 1357 aebc d86d 21bd
00000300: 6c1c 34be 15fb 2bbe b0f4 28bd 7fa9 c63d
00000310: d4cb a63e 0019 733e a7c0 583e c2d1 ae3e
00000320: 0f5f 813e d0de 7fbd 5225 803d c2c9 d53e
00000330: 7584 993d 6e45 c53d 11c1 673e e1a4 10bd
00000340: 64c6 623d ff99 24be 6b2e 293e a24b 8d3e
00000350: 98c3 843e a653 0ebd 71ad 94be a815 423d
00000360: 2b21 2f3e bff9 a03e 2a50 c23d 0ec5 db3d
00000370: c031 c6bd 54b9 cdbe 133c 9cbe 7da1 983e
00000380: 456c c9bd 6637 823d b76d 313e bbd2 633e
00000390: b4c5 b13d a4cb e13d d6af 6c3e a2c5 963d
000003a0: 9eed 993e 6aac 82bd 08db d7bc 254e ff3e
000003b0: 088f 5e3d 9862 8b3d 8c3a 003d 4fd5 1e3f
000003c0: 1266 38bd 2a3e 9b3f 88b2 133e e5e7 a83e
000003d0: e36a a43e 5d33 f63e 4fb2 6dbe 801f 54bc
000003e0: 601b 74bc a2b6 d33d 05d4 903e 5992 e53d
000003f0: ceaf b33e 04b2 22be 4b92 44be c48d ff3d

l3.bias f4 [16]
-0.10731232 0.22463194 -0.07959155 0.19729006 -0.03839392 0.12347123 0.2547108 -0.2591658
-0.12267409 -0.0898838 -0.13547637 -0.22652687 0.10104973 0.21129334 0.019019594 0.17365322
00000000: 90c6 dbbd ea05 663e e500 a3bd 6806 4a3e
00000010: f142 1dbd 7cde fc3d 7469 823e 61b1 84be
00000020: 8e3c fbbd ff14 b8bd 51ba 0abe a9f6 67be
00000030: 29f3 ce3d 485d 583e fbce 9b3c 26d2 313e

l4.weight f4 [1, 16]
-0.0063425787 -0.40148818 0.17058761 -0.24627303 0.56309056 0.07533588 -0.38162187 -0.2782726
0.075642735 0.18181968 -0.05017087 -0.36440167 0.08937233 -0.4396867 0.19227853 -0.30592364
00000000: 68d5 cfbb dc8f cdbe 85ae 2e3e ff2e 7cbe
00000010: b426 103f b349 9a3d f163 c3be bf79 8ebe
00000020: 94ea 9a3d f02e 3a3e f87f 4dbd db92 babe
00000030: d708 b73d 9d1e e1be aae4 443e 06a2 9cbe

l5.weight f4 [16, 2]
0.60506153 0.49545568 0.2022227 -0.17161095 0.88195336 0.30472767 -0.466623 0.16668522
0.95035535 -0.05021264 0.659419 0.010338429 1.1108389 0.44578105 0.24670804 -0.15448272
-0.44090718 -0.1056869 0.7143593 -0.18207067 -0.5873201 0.034836825 -0.4949144 -0.2937289
-0.14267378 -0.6905992 0.03878999 -0.26686236 -0.32362562 -0.29854366 -0.07177001 0.004625082
00000000: 50e5 1a3f 5eac fd3e 7813 4f3e c8ba 2fbe
00000010: b2c7 613f 4405 9c3e 36e9 eebe 88af 2a3e
00000020: 7d4a 733f c5ab 4dbd afcf 283f 8462 293c
00000030: f82f 8e3f 6a3d e43e 08a1 7c3e b830 1ebe
00000040: 96be e1be 6072 d8bd 40e0 363f bc70 3abe
00000050: 9c5a 16bf 0fb1 0e3d 6c65 fdbe a263 96be
00000060: 1319 12be 1ccb 30bf 41e2 1e3d 2fa2 88be
00000070: 42b2 a5be b7da 98be 28fc 92bd 008e 973b

l5.bias f4 [16]
0.031113135 -0.6153914 0.42579255 -0.38869947 -0.08128606 0.4057733 0.18369105 -0.5067465
-0.36082405 0.007611921 0.6873732 -0.4089829 -0.06431088 0.4585902 0.6687121 -0.29711875
00000000: f9e0 fe3c 4a8a 1dbf 7b01 da3e 9e03 c7be
00000010: 4e79 a6bd 85c1 cf3e 8219 3c3e 23ba 01bf
00000020: eebd b8be 6c6d f93b b1f7 2f3f 3566 d1be
00000030: 6cb5 83bd 56cc ea3e b730 2b3f f31f 98be

l6.weight f4 [32, 16]
0.3090593 -0.12409219 -0.5631881 -0.082404286 0.044350907 -0.15669635 -0.11983899 0.05866635
0.20945093 0.2619983 0.3463527 0.0063273013 -0.019179402 -0.12557141 -0.0414536 0.16237664
-0.16541049 -0.19046584 0.016929686 0.06875014 0.13443029 0.04153484 -0.24592692 0.14056432
-0.18855187 0.24511537 -0.05161795 0.124403834 -0.23917425 -0.15762919 -0.03740412 0.08928779
0.6686842 -0.05399239 -0.0012042066 0.065469176 0.17467242 -0.017292306 -0.04635521 -0.035286725
0.23652399 0.42846534 -0.1318604 0.16936031 -0.39475387 0.12251682 -0.07528992 0.082250506
0.07753229 0.08443883 -0.04034093 -0.18714198 -0.14249042 -0.008827031 -0.063555956 0.11337763
0.0067116916 0.103244424 -0.15245163 0.116776586 -0.09274715 -0.2373847 -0.189066 -0.15736356
0.73516196 0.20176488 0.37274453 0.22673348 0.48560297 -0.077073105 0.6120519 0.118534446
-0.092387795 0.49455476 -0.17244911 0.23467448 0.11039987 0.15420824 -0.115707435 0.14102459
0.17854324 -0.09649697 -0.24969465 0.14165372 -0.19507706 -0.058985025 -0.18386647 0.119428635
0.22684392 -0.009297699 0.10149202 0.03909895 -0.06772578 0.012277186 -0.009658784 -0.1979239
-0.23719552 0.220485 0.0040012896 -0.2229318 -0.17808178 -0.1109145 0.16420937 -0.20769668
0.070365965 0.18064049 0.14966944 0.12793502 -0.14161551 -0.07203302 -0.1406978 -0.23135647
-0.08498004 0.23455176 -0.17455766 0.13452002 -0.21984392 -0.06424332 -0.16031426 -0.23567376
0.12525734 -0.22956419 -0.18659288 0.22548082 0.08848351 -0.036659926 -0.083094716 -0.13046303
0.5806822 -0.08713463 0.17590386 -0.23436931 0.26682848 0.09320384 0.119865574 0.13129434
0.2105414 0.076693274 0.077387266 -0.17248088 -0.13095467 0.00510635 -0.1074541 0.02997446
0.39815027 -0.2434445 0.17173202 0.12166521 0.11068331 0.17107055 0.44348893 -0.02360627
0.08456424 0.32583857 -0.28557172 0.24341044 0.06152003 0.008334636 -0.14332889 -0.23257673
0.48574805 -0.12181863 -0.8619887 -0.00475657 -0.116632424 -0.2378092 0.0153162 0.11248368
-0.06485948 0.25638968 0.5598304 0.20296201 -0.4557928 0.14791475 0.44093108 0.121347696
-0.14198714 -0.0016893446 -0.25835824 0.22593316 0.004137069 -0.17211977 -0.14260814 0.14519152
-0.2077041 0.08716139 -0.014249729 -0.13811591 0.037868064 -0.07004344 -0.25365222 -0.021848977
0.20517962 0.18294135 -0.1111587 -0.023044258 0.49635243 -0.24075292 0.32986575 -0.22895181
-0.024817377 0.5674043 -0.81442636 -0.09527889 0.055123057 -0.37546784 -0.2237026 0.09724131
-0.10399723 0.068273604 -0.17958507 0.18711668 -0.11731237 -0.16148493 -0.19500643 -0.08101949
-0.13163555 -0.0367904 0.02297023 -0.05568117 -0.07813519 0.0531632 -0.15897441 -0.18503416
0.8122464 -0.051451147 0.2626983 0.11279726 0.16319875 -0.10492351 -0.041202325 -0.17856318
-0.16202876 0.1596697 2.766239e-06 0.021370798 -0.17751347 0.04625118 0.15416676 0.23934403
0.28653577 -0.0099874735 0.11998626 -0.02870658 0.4246246 0.17052732 0.50726324 0.10839191
-0.22714028 0.49887514 -0.22753735 0.21654034 0.31482062 0.089811906 -0.3789596 0.08438155
00000000: 053d 9e3e 0c24 febd 182d 10bf 94c3 a8bd
00000010: 4ca9 353d 0275 20be 256e f5bd 204c 703d
00000020: 4e7a 563e a424 863e 2455 b13e 4055 cf3b
00000030: 1f1e 9dbc cb95 00be 40cb 29bd 1046 263e
00000040: 5e61 29be 7a09 43be 20b0 8a3c e0cc 8c3d
00000050: 18a8 093e 7020 2a3d 44d4 7bbe 18f0 0f3e
00000060: be13 41be 86ff 7a3e 586d 53bd 70c7 fe3d
00000070: 18ea 74be 8c69 21be 1035 19bd 84dc b63d
00000080: e32e 2b3f 2027 5dbd 78d6 9dba b414 863d
00000090: 54dd 323e 98a8 8dbc f6de 3dbd d088 10bd
000000a0: 5833 723e cf5f db3e 6a06 07be ca6c 2d3e
000000b0: 2e1d cabe 19ea fa3d 9a31 9abd f472 a83d
000000c0: 40c9 9e3d 44ee ac3d 883c 25bd 26a2 3fbe
000000d0: 02e9 11be 409f 10bc a029 82bd 8832 e83d
000000e0: c0ed db3b d071 d33d 481c 1cbe 9028 ef3d
000000f0: 38f2 bdbd fa14 73be 849a 41be ea23 21be
00000100: 9333 3c3f 749b 4e3e 5fd8 be3e d22c 683e
00000110: f4a0 f83e 81d8 9dbd 6faf 1c3f 30c2 f23d
00000120: d035 bdbd 4836 fd3e 8096 30be 824e 703e
00000130: 5419 e23d c4e8 1d3e 05f8 ecbd c068 103e
00000140: 0ad4 363e 34a0 c5bd f4af 7fbe ac0d 113e
00000150: 48c2 47be 489a 71bd 7e47 3cbe 0097 f43d
00000160: c649 683e 6055 18bc 0cdb cf3d 3826 203d
00000170: d0b3 8abd 4026 493c e03f 1ebc 90ac 4abe
00000180: 62e3 72be d2c6 613e 401d 833b 3c48 64be
00000190: 125b 36be 2427 e3bd 8026 283e 70ae 54be
000001a0: 081c 903d d2f9 383e f242 193e 6601 033e
000001b0: a803 11be 0c86 93bd 1613 10be b6e8 6cbe
000001c0: 040a aebd 562e 703e 3ebf 32be 9ebf 093e
000001d0: c41e 61be 0092 83bd 6c29 24be 7654 71be
000001e0: 7643 003e e012 6bbe 3412 3fbe 72e4 663e
000001f0: d836 b53d b828 16bd 902d aabd 1a98 05be
00000200: 97a7 143f a473 b2bd 2420 343e 82fe 6fbe
00000210: be9d 883e a8e1 be3d 157c f53d 0672 063e
00000220: 2a98 573e 5d11 9d3d 377d 9e3d d49e 30be
00000230: fb18 06be 2b53 a73b e510 dcbd 008d f53c
00000240: 5ada cb3e 8449 79be 85da 2f3e 9c2b f93d
00000250: eead e23d 1e2d 2f3e fb10 e33e f061 c1bc
00000260: 0430 ad3d 50d4 a63e 7536 92be 9640 793e
00000270: 6dfc 7b3d ff8d 083c cfc4 12be 9828 6ebe
00000280: f8b3 f83e 0c7c f9bd 4bab 5cbf 00dd 9bbb
00000290: fbdc eebd 4184 73be cdf0 7a3c d85d e63d
000002a0: 0cd5 84bd 8245 833e 0c51 0f3f 46d5 4f3e
000002b0: ad5d e9be f776 173e b8c1 e13e 2485 f83d
000002c0: 1465 11be 006d ddba 8847 84be 065b 673e
000002d0: 4090 873b 2a40 30be de07 12be 16ad 143e
000002e0: 62b0 54be ac81 b23d b277 69bc 426e 0dbe
000002f0: 8b1b 1b3d ef72 8fbd b4de 81be a0fc b2bc
00000300: 9b1a 523e fa54 3b3e 2ca7 e3bd 50c7 bcbc
00000310: e821 fe3e ef87 76be 2ae4 a83e 5872 6abe
00000320: d04d cbbc 6941 113f 3f7e 50bf 9421 c3bd
00000330: b7c8 613d 523d c0be 4b12 65be 7426 c73d
00000340: 80fc d4bd 08d3 8b3d 26e5 37be 849b 3f3e
00000350: 7841 f0bd 4e5c 25be c4af 47be 8ced a5bd
00000360: 78cb 06be 88b1 16bd 102c bc3c f011 64bd
00000370: 5805 a0bd a8c1 593d 30ca 22be 9879 3dbe
00000380: 61ef 4f3f 70be 52bd 6480 863e 4002 e73d
00000390: 931d 273e 23e2 d6bd c5c3 28bd 44d9 36be
000003a0: deea 25be 7480 233e a0a3 3936 d011 af3c
000003b0: 17c6 35be e171 3d3d e4dd 1d3e 9a16 753e
000003c0: d1b4 923e 80a2 23bc 5bbb f53d 102a ebbc
000003d0: 6568 d93e b79e 2e3e 01dc 013f 94fc dd3d
000003e0: 7697 68be 906c ff3e 8dff 68be c0bc 5d3e
000003f0: 2b30 a13e 4eef b73d fe06 c2be 3cd0 ac3d

l6.bias f4 [32]
-0.029199319 -0.21563473 0.12535045 0.19642672 -0.16584672 -0.09340727 -0.2063725 0.08822441
0.24509437 0.027502026 0.14395456 0.15921715 -0.21130805 -0.09490976 0.15171823 -0.31824425
-0.05125794 -0.014101344 0.1126827 -0.15173905 -0.15599424 -0.0065718293 -0.07972682 -0.07715001
-0.2070957 0.30828732 -0.08645412 -0.18623604 -0.09206324 -0.16401532 -0.27081305 -0.21803087
00000000: 6933 efbc 5acf 5cbe de5b 003e 1624 493e
00000010: b9d3 29be 504c bfbd 5053 53be 00af b43d
00000020: 05fa 7a3e ee4b e13c d368 133e d209 233e
00000030: 2361 58be 0c60 c2bd 065c 1b3e e9f0 a2be
00000040: d8f3 51bd 5309 67bc 30c6 e63d 7b61 1bbe
00000050: f4bc 1fbe 8058 d7bb d147 a3bd d300 9ebd
00000060: e510 54be d6d7 9d3e dc0e b1bd a9b4 3ebe
00000070: a78b bcbd a2f3 27be 02a8 8abe 7c43 5fbe

l7.weight f4 [16, 32]
0.29019004 0.057525516 0.3785245 -0.07214177 -0.20974788 0.1589018 0.058766976 0.043942302
0.38474616 -0.20071135 -0.60104865 -0.11500735 -0.6012813 -0.10880742 0.43116218 -0.27487904
-0.024035543 -0.05901835 0.0030563176 0.0073105255 0.17786548 -0.065749966 0.033821907 -0.23640992
-0.13208324 0.5349735 0.09298502 0.21549727 -0.10421604 -0.06895053 -0.06494088 -0.097162075
-0.020661186 0.024690628 -0.058272384 -0.0646261 0.06360467 0.15832551 -0.005229369 -0.10677293
-0.16185935 -0.022853533 -0.1623987 -0.17442106 -0.087734625 -0.053713985 0.088890076 -0.10616884
-0.08466815 -0.117323846 0.03450133 -0.049672082 0.11585612 0.056645602 0.13207328 0.028546497
-0.076537065 -0.15947028 0.15144674 -0.03822923 -0.044974517 -0.0022903085 -0.10402974 -0.028434053
0.3469878 0.09983899 0.30470657 -0.04620123 -0.046374768 -0.09295721 0.16860293 0.1185769
0.21772538 0.08411173 -0.4046597 0.08338987 -0.5609466 -0.118316144 0.08986462 -0.32083955
0.06407444 -0.12327993 -0.1683076 0.09102836 -0.0700125 0.059982657 0.25118607 -0.08779898
-0.1891227 0.41505373 -0.15540572 0.14588237 -0.03498652 0.091783844 -0.061872467 0.0005236268
0.24190411 -0.0011116415 0.298011 0.049349084 0.29123357 -0.0467328 -0.061062604 0.06960623
0.23140442 0.28116402 0.6197031 -0.032868266 0.2467831 0.061112374 0.004609192 0.41002172
-0.034227356 0.4226366 0.03078498 0.25311035 0.5093149 0.006335765 0.8708031 0.058835797
0.35717437 -0.27761498 0.12287815 0.079810455 0.25940534 0.14096275 -0.05046611 -0.020704329
0.12641285 -0.021936506 0.043126702 -0.1038253 -0.0023993403 -0.15867926 -0.13948151 0.04767275
-0.16169268 0.0587541 0.15640979 0.030113116 -0.12704962 0.05866997 0.008721679 -0.065649174
0.14254548 -0.13931218 -0.12333202 0.026094884 -0.0130972415 0.0153864175 0.08091365 -0.06093195
0.09785153 0.00038152933 0.071088925 0.09358163 -0.06081961 -0.05599059 0.0911233 0.14302365
-0.014517839 -0.13872682 -0.18247953 0.14875333 -0.124525465 -0.093781754 -0.027542546 0.16826226
0.002279478 0.08450141 -0.24421833 0.12950806 -0.011195019 -0.0903031 -0.18517213 0.018062321
-0.07710991 -0.1550675 0.00089485943 -0.08507915 -0.08996123 -0.15092883 0.1036471 -0.017103078
0.052072648 0.07208168 0.04741849 -0.09851561 -0.120710105 0.14051054 0.11811091 0.062261075
-0.16186412 0.020007044 0.07358018 0.1232398 0.066753305 -0.07138293 0.124231026 -0.0936543
-0.23583695 0.07779948 0.053887367 -0.1271433 0.08701822 0.021989346 -0.07381537 -0.020935087
-0.123222426 0.10219323 0.07150042 0.0037192625 -0.023884343 0.107024774 0.117668085 0.024242118
-0.14671874 -0.15185729 0.006517634 -0.15488434 -0.10512013 0.11193593 -0.04901074 -0.066542305
0.34968853 0.032648653 0.31679857 0.14497893 0.41729322 0.04018879 0.15575178 -0.11498132
0.08911693 0.24661858 0.5838938 -0.045527045 0.50589144 -0.12720236 0.09265598 0.25962
-0.13996685 0.17734368 0.121273056 0.1585 0.5860174 0.12526922 0.5071181 0.30256942
0.21517642 -0.079288326 0.021006599 0.0631876 0.3656932 -0.046851777 -0.08136982 0.059266225
00000000: ca93 943e e09f 6b3d f7cd c13e 10bf 93bd
00000010: 26c8 56be 27b7 223e a4b5 703d d8fc 333d
00000020: 73fd c43e 4787 4dbe 53de 19bf f988 ebbd
00000030: 92ed 19bf 6dd6 debd 4ac1 dc3e f2bc 8cbe
00000040: 30e6 c4bc 3abd 71bd 804c 483b 228d ef3b
00000050: 5e22 363e eba7 86bd d788 0a3d 7115 72be
00000060: d440 07be 06f4 083f ee6e be3d 51ab 5c3e
00000070: 386f d5bd ef35 8dbd b9ff 84bd e9fc c6bd
00000080: a641 a9bc 0044 ca3c 06af 6ebd b05a 84bd
00000090: 2a43 823d 1520 223e 205b abbb c4ab dabd
000000a0: 75be 25be 5537 bbbc d84b 26be 6f9b 32be
000000b0: 36ae b3bd 3203 5cbd 000c b63d 0c6f d9bd
000000c0: 7f66 adbd 7c47 f0bd 4451 0d3d f474 4bbd
000000d0: f945 ed3d 3805 683d 383e 073e 58da e93c
000000e0: 77bf 9cbd 2d4c 23be db14 1b3e 4196 1cbd
000000f0: 3337 38bd 0019 16bb 8b0d d5bd 88ee e8bc
00000100: 63a8 b13e 6278 cc3d 8002 9c3e 803d 3dbd
00000110: 78f3 3dbd 5a60 bebd 3fa6 2c3e 72d8 f23d
00000120: 67f3 5e3e c542 ac3d 8e2f cfbe 4fc8 aa3d
00000130: 329a 0fbf bc4f f2bd f10a b83d 1545 a4be
00000140: 7639 833d 307a fcbd d458 2cbe 146d ba3d
00000150: b762 8fbd 60b0 753d 769b 803e f4cf b3bd
00000160: 62a9 41be ec81 d43e ad22 1fbe 3062 153e
00000170: 064e 0fbd 2bf9 bb3d fc6d 7dbd 0044 093a
00000180: b6b5 773e 80b4 91ba e694 983e 4422 4a3d
00000190: 911c 953e e46a 3fbd c81c 7abd b68d 8e3d
000001a0: 48f5 6c3e bbf4 8f3e dda4 1e3f e0a0 06bd
000001b0: b5b4 7c3e f850 7a3d b408 973b 5eee d13e
000001c0: fc31 0cbd d363 d83e c830 fc3c ae97 813e
000001d0: 7662 023f 409c cf3b f4ec 5e3f cefd 703d
000001e0: 8fdf b63e 8d23 8ebe 8aa7 fb3d aa73 a33d
000001f0: c7d0 843e 8a58 103e 8db5 4ebd 209c a9bc
00000200: 5f72 013e 30b4 b3bc a0a5 303d 5ca2 d4bd
00000210: 403e 1dbb d17c 22be 3ed4 0ebe 8044 433d
00000220: c492 25be 24a8 703d e329 203e c8af f63c
00000230: 4c19 02be ec4f 703d 60e5 0e3c 1373 86bd
00000240: 71f7 113e daa7 0ebe 8095 fcbd f0c4 d53c
00000250: d095 56bc 5017 7c3c 0eb6 a53d c893 79bd
00000260: 6266 c83d 0008 c839 1297 913d baa7 bf3d
00000270: fc1d 79bd 6456 65bd da9e ba3d cb74 123e
00000280: 3bdc 6dbc 670e 0ebe eadb 3abe cb52 183e
00000290: 3507 ffbd a610 c0bd e8a0 e1bc f14c 2c3e
000002a0: 4b63 153b 130f ad3d 5f14 7abe c39d 043e
000002b0: 506b 37bc d5f0 b8bd c39d 3dbe 6ff7 933c
000002c0: cdeb 9dbd 04ca 1ebe 0095 6a3a fa3d aebd
000002d0: 983d b8bd 168d 1abe ee44 d43d c11b 8cbc
000002e0: 214a 553d 8f9f 933d e439 423d 8dc2 c9bd
000002f0: dc36 f7bd ffe1 0f3e 22e4 f13d 7805 7f3d
00000300: b5bf 25be d0e5 a33c 35b1 963d 2665 fc3d
00000310: f5b5 883d 3731 92bd d66c fe3d d3cd bfbd
00000320: 3e7f 71be 5555 9f3d 00b9 5c3d da31 02be
00000330: 9c36 b23d 0023 b43c 832c 97bd 0f80 abbc
00000340: 0a5c fcbd af4a d13d d06e 923d dfbe 733b
00000350: 19a9 c3bc ce2f db3d f7fb f03d 6897 c63c
00000360: 703d 16be 7a80 1bbe e091 d53b 009a 1ebe
00000370: 3949 d7bd aa3e e53d 7cbf 48bd 5547 88bd
00000380: 600a b33e 98ba 053d 6c33 a23e 5b75 143e
00000390: 75a7 d53e 009d 243d 657d 1f3e 547b ebbd
000003a0: f082 b63d 9589 7c3e 107a 153f 917a 3abd
000003b0: 1a82 013f 5641 02be 6bc2 bd3d eaec 843e
000003c0: 7853 0fbe 9599 353e 025e f83d d34d 223e
000003d0: 3c05 163f 9346 003e 7ed2 013f 61ea 9a3e
000003e0: 3557 5c3e eb61 a2bd 0816 ac3c 8068 813d
000003f0: 243c bb3e a6e7 3fbd 38a5 a6bd 24c1 723d

l7.bias f4 [16]
0.0811705 0.01718134 0.16715643 -0.017034482 -0.16877565 0.0768772 0.0014660913 0.01039201
0.06523138 0.10397723 -0.10188915 0.09958635 0.064216964 -0.19173001 0.037431385 0.11923945
00000000: b83c a63d e2bf 8c3c 0e2b 2b3e e68b 8bbc
00000010: 86d3 2cbe cb71 9d3d dc29 c03a 4043 2a3c
00000020: 0898 853d 04f2 d43d 42ab d0bd eef3 cb3d
00000030: 2f84 833d df54 44be a751 193d d033 f43d

l8.weight f4 [1, 16]
0.7950387 0.15630187 0.348509 -0.21227337 0.23412818 0.21237373 -0.029007046 -0.35322443
0.13093342 -0.26030475 0.17346315 -0.2615766 -0.23204352 0.22014019 -0.39323902 0.028999474
00000000: a887 4b3f 990d 203e c66f b23e 315e 59be
00000010: 4cbf 6f3e 8078 593e 2fa0 edbc d5d9 b4be
00000020: 6913 063e aa46 85be 53a0 313e 5eed 85be
00000030: d19c 6dbe 6e6c 613e a056 c9be 4e90 ed3c
