project/models/model_w1_0.575_lam_0.575_lam2_0.575_w2_0.01.pt_critic.pt (torch, 15358 bytes, 14 tensors)

l1.weight f4 [16, 2]
00000000: d274 123f 801e 063f d805 26be 4c46 4abf
00000010: c0a9 f13d 6874 b33d 9965 f6be f6eb 9fbc
00000020: 9ca8 f5be 9cdc 76be da0b a63e d658 20be
00000030: 1bf0 143f 5509 7cbe 5419 ec3e df08 1b3d
00000040: 0a27 bd3e cc2e 1ebd ccce 4f3e 7d86 21bf
00000050: cf3c b0bd 41ff b63e 6d21 f63e 35a0 9ebd
00000060: 5473 063e f8b4 f73d 171e b8be 8469 99be
00000070: 0543 27bf c613 3dbe 4bde 4a3f dd69 8b3e
0.57209504 0.5239029 -0.16213167 -0.79013515 0.11799955 0.08762437 -0.48124388 -0.019521695
-0.479802 -0.24107593 0.32430917 -0.15658888 0.5817887 -0.24612935 0.46113074 0.037850257
0.36943847 -0.038618848 0.2029373 -0.6309584 -0.08605348 0.35741618 0.48072377 -0.07745401
0.13129932 0.12095064 -0.35960457 -0.29963315 -0.6533664 -0.18464574 0.7924544 0.27229205

l1.bias f4 [16]
00000000: 864d 82bd 420e 90be 91dc 84be 139e f63e
00000010: c713 cebe 7c7d c93e 862d 6abd 99f7 68bd
00000020: 8d3c d1be 3b0b 453f b48a 353f e3fa df3e
00000030: 2187 cbbe be68 bf3e 98f6 283f 1603 c43e
-0.06362443 -0.28135878 -0.2594953 0.48167476 -0.40249464 0.3935355 -0.05717232 -0.056876753
-0.4086651 0.7697026 0.7091477 0.437461 -0.39751533 0.373846 0.6600127 0.38283604

l2.weight f4 [32, 16]
00000000: 0000 303e 40f5 1b3d acf1 8f3d 9c1a dabd
00000010: 6806 59bd c0e9 29be b0d5 453d 001a 23be
00000020: c201 293e d879 6cbe cc72 363e 083c e4bd
00000030: 5ad2 3f3e 7c6d 57be c865 7b3e dc71 edbd
00000040: a476 ba3d 7086 12be 3ed0 06be 9886 c4bd
00000050: a0f6 0a3c 7010 e6bd f409 92bd 906b aabd
00000060: c2e2 033e 0453 2fbe 6ea1 78be 40c5 c63c
00000070: a088 103c 9050 723d 08a7 10be e419 c9bd
00000080: 80e2 f0bb 0083 f4bc 5897 a73d 9003 e13c
00000090: 920f 06be 767f 71be a83c 1abd f00a 1d3d
000000a0: bcef 283e 084e 2ebd c649 00be 6cb4 3abe
000000b0: 1878 4bbd f4e9 febd 18c0 28be 2c23 a63d
000000c0: 9226 853e e604 adbe 9a2b 493e aa07 f1be
000000d0: b0a8 a3bd fdfa b03e 436f 71ba 24a7 ae3e
000000e0: a986 5abe b14f 6a3e b742 543d 4e6a 253e
000000f0: 3455 40be 8c47 55be de6b fbbd d36d 793e
00000100: 5cc8 cb3e bb12 883d be4a 623e 867d e9be
00000110: 1063 433d a218 663e 7b27 7f3d aa7e d63e
00000120: 9b55 5ebe 5c11 7e3e 98f0 143e 8db6 463e
00000130: c80b 79bd f10c a8be b9a0 8cbe 37eb 953e
00000140: 24c5 cc3e 7f55 23be 38d0 0abe 4b71 bbbe
00000150: 1c41 b93d 46d0 ce3a 1d0c d23d b216 2c3e
00000160: dba2 55be 09b5 de3d 9474 db3d d10c 793e
00000170: 4849 0cbd 072b 15bf 8866 75bd e308 a43e
00000180: e44c ba3e 7b8f 82bd 9470 39be 3747 11bf
00000190: be9d 6dbe 29b4 c53e 6337 983e 2a4a a83d
000001a0: 2560 663d cc3a 623e a34a 9c3d 412f 8e3c
000001b0: 34c8 993d 91a9 12bf 53a3 b9be 5225 623e
000001c0: 215c d13e 5bce 3fbe 34b0 7bbe 9e11 43be
000001d0: 589a 19bd c237 ef3d 6931 ee3e 0c06 083e
000001e0: 72f1 51be 98cd 1b3e 620b 303e 3707 a23e
000001f0: bc16 063e f204 46be 2a18 66be 0871 413e
00000200: 019c f13d 49b3 15bd 384b 553e 1f7c bfbe
00000210: b012 f83c 99dd 163e 2350 853e 3bd9 c13e
00000220: 16a8 e73d c0bc 533d aabb 62be 0372 5b3e
00000230: 40c1 57bc e24a 6abe 8eba 1cbf 9dbe ae3e
00000240: 0094 35bc dd65 1bbe 0ec1 6cbe 9595 1bbe
00000250: 000b 20bd 05ab 5fbd 4cfd 053c 9ef7 5f3e
00000260: d5f3 cb3d edfa ce3d 64af 86bd 1844 f6bc
00000270: 90b4 ee3d ab1a c9bc 7d7b da3c 4538 26be
00000280: 3839 efbd 80f1 2ebd 04b9 1abe d6a1 28be
00000290: 3ef2 5cbe c493 5abe 6261 48be f01c f3bd
000002a0: 0026 e03a ee61 233e 6eb2 4e3e 4a93 3dbe
000002b0: 40a6 dfbc c436 093e 80e9 68bd 3c16 cf3d
000002c0: 6ab0 783e d54e a33d a0b9 da3d 0e58 0bbf
000002d0: 3cd0 4e3e 9010 953e 1caa 033f 5f84 f33e
000002e0: 0de6 acbe 7199 bcbd 5e0a 18be f765 bd3c
000002f0: 40ce 853b 3828 49bd f8b5 45bf 88f0 253e
00000300: 7cef aa3d 18d4 2b3d 605c 7cbd 984a 41be
00000310: e060 f03d c090 da3c e0ad d63c 500c 363d
00000320: f8c7 d73d 58b1 a4bd 8c83 5bbe 00e3 b6bc
00000330: d8f3 763d 4a2f 153e 8857 553e 78e3 01bd
00000340: d07c fb3d 00f0 ba39 66da 76be 28a9 3a3e
00000350: b01d 35bd 965c 5fbe e884 5fbe 9e89 133e
00000360: a4de 4fbe a88a 62bd bc65 92bd 94c3 91bd
00000370: 4810 2e3e 80d6 23be 6cc5 54be c8f3 58be
00000380: 3868 003e 0092 fdbd f0cf 3fbd 025c fabe
00000390: 5a85 273e 8670 793e a392 f23e 34dc 953e
000003a0: 990e 2c3e 1e93 c53e b077 df3c 4315 793e
000003b0: 205c e7bc 07ca c9be 27f9 71be 76af 9a3e
000003c0: 1076 b63e 108b 7dbd 40c1 44bd d08e 42bf
000003d0: 00d7 4d3e 6f76 033d 464b 5e3d 79e7 5d3e
000003e0: fbd8 ab3d 4d6a 01be 9833 debd e726 5fbe
000003f0: 42d6 6d3e c3a8 39be 85ce f8be d73e 2d3e
0.171875 0.038075686 0.07028517 -0.106496066 -0.052984625 -0.16593075 0.04829949 -0.15927887
0.16504577 -0.23093355 0.17817229 -0.111442626 0.18732587 -0.21037859 0.24550545 -0.115939826
0.0910466 -0.14309096 -0.13165376 -0.09595984 0.008481652 -0.11233604 -0.07130805 -0.08321297
0.1287947 -0.17121512 -0.2428033 0.024263978 0.008821636 0.05915886 -0.14126217 -0.09819391
-0.0073512197 -0.029847622 0.081831634 0.027467519 -0.13091877 -0.23583779 -0.037655503 0.03834051
0.16497701 -0.042554885 -0.12528142 -0.18232888 -0.049675077 -0.12446967 -0.16479528 0.08112177
0.2600599 -0.337928 0.19645539 -0.4707616 -0.07991159 0.3456649 -0.00092099997 0.34111893
-0.21340431 0.22881962 0.051821437 0.16153833 -0.18782502 -0.20828074 -0.122764334 0.24358301
0.398013 0.066441976 0.22098824 -0.4560358 0.047701895 0.22470334 0.06229351 0.41893512
-0.21712343 0.2481131 0.14544904 0.19405575 -0.06080225 -0.32822374 -0.27466372 0.29281017
0.39994156 -0.15950583 -0.13555992 -0.36609873 0.09045622 0.0015778623 0.10256217 0.16805533
-0.20862906 0.108743735 0.10715595 0.24321295 -0.034249574 -0.5826878 -0.059912235 0.3203803
0.36386788 -0.06375023 -0.18109351 -0.5674929 -0.23204705 0.38614014 0.29729757 0.08217271
0.056244034 0.22092742 0.07631423 0.017356517 0.07508889 -0.5728999 -0.3625742 0.22084549
0.408906 -0.18731062 -0.24578935 -0.19049689 -0.03750071 0.11680557 0.46522072 0.13283557
-0.2050226 0.15215147 0.17191842 0.3164613 0.1309461 -0.19337824 -0.22470155 0.18890774
0.117973335 -0.036547933 0.20829475 -0.37399384 0.030282348 0.1473297 0.26037702 0.37861046
0.11311357 0.051693678 -0.221419 0.21430211 -0.013168633 -0.22880128 -0.6122216 0.341298
-0.011082649 -0.15175577 -0.2312052 -0.1519378 -0.03907299 -0.054606456 0.008178066 0.21871802
0.09958617 0.10106454 -0.06576422 -0.030061767 0.11655533 -0.02454885 0.026670212 -0.16232403
-0.116808355 -0.04271078 -0.1510964 -0.16467986 -0.21576783 -0.2134543 -0.19568399 -0.11870754
0.0017101169 0.15955326 0.20185253 -0.18513218 -0.027300954 0.13399798 -0.056863308 0.10111663
0.24286047 0.079740204 0.106799364 -0.54431236 0.20196623 0.291142 0.5143144 0.4756193
-0.33769265 -0.09208954 -0.14847705 0.02311991 0.004083425 -0.04911062 -0.7723079 0.16205037
0.08346459 0.041950315 -0.061611533 -0.18876112 0.117372274 0.02668035 0.026205957 0.044445336
0.10536188 -0.08041638 -0.214369 -0.022325039 0.06029114 0.1456882 0.20834172 -0.03171107
0.122796655 0.00035655499 -0.2410675 0.1822859 -0.044217765 -0.21812662 -0.21828043 0.14407966
-0.20299774 -0.055308014 -0.071483105 -0.07117382 0.16998398 -0.15999794 -0.20778435 -0.21186745
0.12539756 -0.12381363 -0.046829164 -0.4889832 0.16359463 0.2435933 0.473775 0.29269564
0.16802444 0.38588804 0.027278751 0.24324517 -0.02824217 -0.39411947 -0.236302 0.3021199
0.3563695 -0.0619002 -0.04803586 -0.75999165 0.20101547 0.03209537 0.054271005 0.21670331
0.08390995 -0.12638207 -0.108496845 -0.21792184 0.23226264 -0.18130784 -0.48595062 0.16918503

l2.bias f4 [32]
00000000: e6d0 69be 086b 46be 38b6 be3d 5546 663e
00000010: b953 af3e c512 853e d62c 823e 0c2a cd3d
00000020: ca8d ce3c c368 20b9 acd0 22be 804e 9bbe
00000030: f0fa 49bd 7c0d 14be 21b8 9d3e 6e8c 0e3c
00000040: b565 92bd 25ef 6bbc b079 8c3c 327b 793e
00000050: bf0f 0fbe c951 48be 247e db3d e459 76be
00000060: 2292 78be 7c90 003e 9e71 ae3e 6eed 723e
00000070: 6229 e83c e60d af3e 93d6 e93d de2c 823e
-0.22833595 -0.19376767 0.09312099 0.22487767 0.34243563 0.25990883 0.25424832 0.100177854
0.025214095 -0.00015297816 -0.15899915 -0.30333328 -0.04931158 -0.14458269 0.30804542 0.008700473
-0.07148305 -0.014400278 0.017147869 0.24363402 -0.1397085 -0.19562449 0.10717419 -0.24057728
-0.24274495 0.12555116 0.34071058 0.23723385 0.028340045 0.3419029 0.1141788 0.25424856

l3.weight f4 [16, 32]
00000000: 521e b53d e09b af3c 7e81 f3bd 55eb 843d
00000010: d47f a93c 5615 0c3e 1db7 9fbd 6332 7b3c
00000020: 1d02 0e3d 0f08 dbbd 801e aabb b99e dabe
00000030: 18ab 763d 126b ae3d 6a29 d4bd efb4 52bf
00000040: 9bd4 003e 8255 a2be 42be 18bc fb42 93bc
00000050: fcd1 1bbe 414b fcbe 7f85 aa3d 9004 25be
00000060: 67b8 2f3e 05bd d23d 8594 a03d 8cbe 983c
00000070: d711 85bd 8ca0 e5bd e6b8 99bd 4c6c 103e
00000080: a25d 6fbd 00e3 00ba 873a 143e 89a4 c43d
00000090: 2b0a 7e3e 65bd 243e e27d 983e 468e ba3e
000000a0: 8abe cf3c e952 933d 10f4 c43c c592 c63e
000000b0: a87c 55bd 8a0e ff3d 5c8c 363e 8137 c3bd
000000c0: 8034 f93c de0c b7be 7bea ad3e a4a0 773e
000000d0: 333e fa3d 8a17 04be 25c2 3cbe 68da d0bc
000000e0: 9b30 aebd 6d70 c13e 35c6 a13e c673 903e
000000f0: 341a bc3d d30d b1be 9b1d 91be c91b 663e
00000100: 006e ffbc b0a1 b43c 326e 1ebe 509b d83d
00000110: 6cc5 28be e998 23be 9140 89bc d702 30bd
00000120: 5317 123e 78b1 433c 30cf 3bbc b91f 0abe
00000130: 9d32 a4bd 28fd 04bd 37aa a43d c166 213e
00000140: d2a1 b6bd 360c b93d ec5a 983d fc85 073e
00000150: cadd 8cbd 0e15 2ebe a24f 29be ac83 11be
00000160: 988e b13c f6ff 433d 3ec4 e23d 166c 1ebe
00000170: 7c2f f93c 1984 ff3d 6c1d 2cbe 44aa bc3a
00000180: d850 04bd c087 02bc 171c 1dbe 5fd4 aa3e
00000190: 7c6f 713d a794 103e c889 a63e faa7 823e
000001a0: e50b 663e 6faa d23c d2a1 8e3d 9d8a e03e
000001b0: 84c1 00be 3e54 b33d d554 dd3d 94fc 6c3d
000001c0: a4e8 e03d b96d 74bd 0ce0 0a3f c47f b13e
000001d0: 6fa6 0b3f 21ec 153e 0214 a8be 99d7 103e
000001e0: fadd a43d 0107 d53e 662e 493e b1f3 943e
000001f0: 7f9f 733e a391 67bd 10aa e0be 26e1 ab3e
00000200: 9441 c3bd d84a 2dbd f2f0 06be 2ab4 9a3e
00000210: f64b 673e 1100 133e 08a1 d43d c7b7 c73e
00000220: 1889 62be 7873 f8bd ded2 b53d 6f54 f4be
00000230: 22ae f3bd fa88 31be 27ad cd3d 34da 8cbf
00000240: 38d5 1b3d 6246 1fbe da92 d4bd 70d6 85bd
00000250: f0af 03be cd07 f9be 4b0d afbb dde3 2e3e
00000260: 8759 2c3e 5b3c 283e b583 c33e 0197 1abe
00000270: 34c0 b9be 3c29 113d c6df 013e 8719 db3d
00000280: 69da e9bd f20a b13d 5a82 e13d 8fcb 863d
00000290: 6079 e6bc 1aff 89bd c46c e5bd 837f de3d
000002a0: e945 133d 4eea 023e 153b 163e 1ccf 3b3d
000002b0: 5a5c 963d d846 673d 919f 1ebe 5dcc 42be
000002c0: 0392 233e 359f 55bc 7b9a 873d dc00 8f3c
000002d0: 562a ff3b 0918 4fbe c901 31be 9a8d e03d
000002e0: 0094 123b 8ff2 9abd 415f 4fbe 0561 14be
000002f0: 5429 b13d 6b97 7c3d 1357 aebc d86d 21bd
00000300: 6c1c 34be 15fb 2bbe b0f4 28bd 0fdb d63d
00000310: 81b2 a53e ba0c 8d3e fe51 533e 5ecb b03e
00000320: 9c46 803e d0de 7fbd 5225 803d d292 f33e
00000330: d24a f03d 6e45 c53d 4b60 5f3e f04e 943d
00000340: 7274 2e3d 68af b83c beba 273e 52b4 883e
00000350: d31d 823e a653 0ebd 52b0 9dbe a815 423d
00000360: 2b21 2f3e 8a94 ae3e 6a69 de3d d58a c13d
00000370: 3b84 d7bc 8124 cbbe ef5d a1be 0fd0 a23e
00000380: 456c c9bd 6637 823d b76d 313e caa8 703e
00000390: fb1f b93d 5968 e13d b217 673e 980a 9b3d
000003a0: c947 9b3e 6aac 82bd 08db d7bc b624 103f
000003b0: 5e47 af3d 9862 8b3d dcdb fa3c 19e1 3a3f
000003c0: 1b2c 64bd 10a7 2a3f b4eb 173e 960c a53e
000003d0: 90b5 a43e 5d33 f63e efa7 87be 801f 54bc
000003e0: 601b 74bc 2882 f53d ea60 973e 8a1a d03d
000003f0: 62c8 d83e ba8e 78be 42ff 60be c9e6 ff3d
0.08843674 0.021436632 -0.11889933 0.064901985 0.020690836 0.13680014 -0.07798598 0.015331837
0.034669984 -0.106948964 -0.005191624 -0.4269922 0.06022176 0.08516516 -0.103594616 -0.8230733
0.12581103 -0.31705862 -0.009322705 -0.017976275 -0.15216821 -0.49276164 0.083262436 -0.16115022
0.17160188 0.10289959 0.07840828 0.018645547 -0.06497543 -0.112122625 -0.0750597 0.14103812
-0.058438905 -0.0004916638 0.14475451 0.09601695 0.24808566 0.16087873 0.2978354 0.3643667
0.02535941 0.07193548 0.02404216 0.3878385 -0.052120835 0.12453945 0.1782698 -0.09532071
0.030420542 -0.35752004 0.33967957 0.24182373 0.12218895 -0.12899604 -0.18433435 -0.02549477
-0.085053645 0.37781087 0.31596532 0.28213328 0.09184685 -0.3458086 -0.283429 0.22471537
-0.031180382 0.022049755 -0.15471724 0.105764985 -0.1648156 -0.159763 -0.01675442 -0.04297146
0.1426671 0.011944167 -0.011462972 -0.13488664 -0.08017466 -0.03246799 0.080402784 0.15761854
-0.089175835 0.09035532 0.07439217 0.13234705 -0.068782404 -0.17000219 -0.16534284 -0.14210385
0.02167444 0.047851525 0.110725865 -0.15470919 0.03041815 0.124763675 -0.16808099 0.0014394005
-0.03230366 -0.007966936 -0.15342747 0.3336515 0.05894421 0.14119206 0.32526994 0.2551878
0.22465475 0.025716035 0.069644585 0.43855754 -0.1257382 0.08756302 0.10807196 0.057858065
0.10981873 -0.059674952 0.5424812 0.3466779 0.5455083 0.14640857 -0.32827765 0.14144744
0.08050151 0.41606906 0.19646606 0.29092172 0.23791312 -0.056535374 -0.43879747 0.33570212
-0.095339924 -0.042307705 -0.13177851 0.3021558 0.2258757 0.14355494 0.10382277 0.39007398
-0.2212261 -0.12131399 0.0887811 -0.47720668 -0.118984476 -0.17337409 0.10042792 -1.100409
0.038045138 -0.15554193 -0.10379572 -0.06535041 -0.12860084 -0.48638764 -0.005342161 0.1707911
0.16831027 0.16429274 0.38186422 -0.15096666 -0.36279452 0.035439715 0.12683019 0.10698228
-0.114186116 0.08644666 0.11011191 0.065817945 -0.028134048 -0.0673811 -0.11202386 0.10864165
0.035955343 0.12784693 0.14670976 0.04585181 0.073418334 0.056464046 -0.15490557 -0.19023271
0.15973668 -0.013038446 0.06621262 0.017456464 0.0077870293 -0.20224012 -0.17285837 0.10964508
0.0022366047 -0.07565796 -0.2025118 -0.14490135 0.08650461 0.06166784 -0.021281755 -0.039411396
-0.17588967 -0.16794999 -0.041248977 0.10491001 0.3236275 0.27548772 0.20636746 0.34530157
0.2505387 -0.06246835 0.06257118 0.47572953 0.11733021 0.09632383 0.21814077 0.07241619
0.04259152 0.022544578 0.1637983 0.26700073 0.2541338 -0.034747742 -0.30798584 0.047383934
0.17102496 0.340977 0.1085995 0.09450308 -0.02630817 -0.39676288 -0.31516978 0.3179936
-0.09835104 0.06358223 0.17327009 0.23501888 0.09039303 0.11006231 0.22567633 0.0757038
0.30328205 -0.063805416 -0.02634956 0.56306016 0.08558534 0.06805915 0.030622415 0.7299972
-0.055706125 0.6666117 0.14836007 0.32236165 0.3216977 0.48086062 -0.2649531 -0.012946963
-0.014899105 0.11987716 0.29566127 0.10161312 0.4234038 -0.24273196 -0.21972373 0.12495191

l3.bias f4 [16]
00000000: cf4c b1bd e2b2 763e 0317 94bd 42b7 503e
00000010: c43a 35bd 7cde fc3d abc4 883e 2eb1 80be
00000020: 8e3c fbbd ff14 b8bd 51ba 0abe 1dff 5abe
00000030: 29f3 ce3d 6c52 6d3e fbce 9b3c ac92 2a3e
-0.08657228 0.24091676 -0.07230952 0.20382407 -0.044245496 0.12347123 0.26712546 -0.25135177
-0.12267409 -0.0898838 -0.13547637 -0.2138638 0.10104973 0.23175973 0.019019594 0.16657513

l4.weight f4 [1, 16]
00000000: 5237 b53d 2c8c d7be 4978 723e 1e18 8bbe
00000010: 698d 1c3f b349 9a3d 2caf cfbe ecc6 9fbe
00000020: 94ea 9a3d f02e 3a3e f87f 4dbd 3251 e3be
00000030: d708 b73d 98ce f6be aae4 443e 57a2 a4be
0.08848442 -0.4209913 0.23678698 -0.27166837 0.61153275 0.07533588 -0.40563333 -0.31206453
0.075642735 0.18181968 -0.05017087 -0.44397885 0.08937233 -0.48204494 0.19227853 -0.32155105

l5.weight f4 [16, 2]
00000000: 4a63 0c3f ff9d 023f 7813 4f3e c8ba 2fbe
00000010: c98d 6b3f fb94 803e 36e9 eebe 88af 2a3e
00000020: 9af8 733f 9a10 f7bd 85c5 1a3f 0c77 38be
00000030: 6401 8a3f 74c9 df3e 08a1 7c3e b830 1ebe
00000040: 96be e1be 6072 d8bd b735 313f 01f2 55be
00000050: 4798 05bf 981f 9b3c 6c65 fdbe a263 96be
00000060: 6f68 a2bd 58d2 4cbf 86e1 6c3e 2299 fdbe
00000070: 8317 c4bd 1c6b 92be 28fc 92bd 008e 973b
0.54839003 0.5102233 0.2022227 -0.17161095 0.9201322 0.25113663 -0.466623 0.16668522
0.9530121 -0.12063713 0.6045764 -0.18014163 1.0781674 0.43708384 0.24670804 -0.15448272
-0.44090718 -0.1056869 0.6922259 -0.20893098 -0.5218548 0.018935964 -0.4949144 -0.2937289
-0.079300754 -0.8000846 0.23132905 -0.49530894 -0.09574797 -0.28597343 -0.07177001 0.004625082

l5.bias f4 [16]
00000000: 9bc1 7a3c 4a8a 1dbf 67ff db3e 9e03 c7be
00000010: de3e 8cbd aad4 f23e 620b 353e 23ba 01bf
00000020: eebd b8be d4c6 42bb 7bbf 343f 3566 d1be
00000030: 9c89 ffbd 2498 153f b15f 333f f31f 98be
0.015304948 -0.6153914 0.42968294 -0.38869947 -0.068479285 0.47427875 0.17680123 -0.5067465
-0.36082405 -0.0029720562 0.70604676 -0.4089829 -0.12477419 0.58435273 0.7006789 -0.29711875

l6.weight f4 [32, 16]
00000000: 2b0a 513e 0c24 febd c0b2 4e3e 94c3 a8bd
00000010: 3145 583e e7f0 753e 76d0 223e 204c 703d
00000020: 4e7a 563e 51ce 033f b40f 313e 4055 cf3b
00000030: 1525 593e ccdf eabc f076 adbd 1046 263e
00000040: 5e61 29be 7a09 43be 20b0 8a3c e0cc 8c3d
00000050: 18a8 093e 7020 2a3d 44d4 7bbe 18f0 0f3e
00000060: be13 41be 86ff 7a3e 586d 53bd 70c7 fe3d
00000070: 18ea 74be 8c69 21be 1035 19bd 84dc b63d
00000080: 5b2b a33e 2027 5dbd 7469 113e b414 863d
00000090: 55f3 803e b8e7 e83d 7d85 353d d088 10bd
000000a0: 5833 723e 90d2 0c3f 7d53 14be ca6c 2d3e
000000b0: 519e 63be b8eb 5f3e 17c9 2bbc f472 a83d
000000c0: 40c9 9e3d 44ee ac3d 883c 25bd 26a2 3fbe
000000d0: 02e9 11be 409f 10bc a029 82bd 8832 e83d
000000e0: c0ed db3b d071 d33d 481c 1cbe 9028 ef3d
000000f0: 38f2 bdbd fa14 73be 849a 41be ea23 21be
00000100: ab28 0e3f 749b 4e3e 3397 ad3e d22c 683e
00000110: 39c5 023f b6b8 b5bd 9805 ff3e 30c2 f23d
00000120: d035 bdbd d3e9 fc3e bf78 1abe 824e 703e
00000130: 254a aa3d 075b 313e 04df afbd c068 103e
00000140: 0ad4 363e 34a0 c5bd f4af 7fbe ac0d 113e
00000150: 48c2 47be 489a 71bd 7e47 3cbe 0097 f43d
00000160: c649 683e 6055 18bc 0cdb cf3d 3826 203d
00000170: d0b3 8abd 4026 493c e03f 1ebc 90ac 4abe
00000180: 62e3 72be d2c6 613e 401d 833b 3c48 64be
00000190: 125b 36be 2427 e3bd 8026 283e 70ae 54be
000001a0: 081c 903d d2f9 383e f242 193e 6601 033e
000001b0: a803 11be 0c86 93bd 1613 10be b6e8 6cbe
000001c0: 040a aebd 562e 703e 3ebf 32be 9ebf 093e
000001d0: c41e 61be 0092 83bd 6c29 24be 7654 71be
000001e0: 7643 003e e012 6bbe 3412 3fbe 72e4 663e
000001f0: d836 b53d b828 16bd 902d aabd 1a98 05be
00000200: 9b4a 0a3e a473 b2bd c55b 7a3e 82fe 6fbe
00000210: 9aa0 8f3e 7b4c 353e 9aa8 213e 0672 063e
00000220: 2a98 573e 1315 103e 50b5 df3d d49e 30be
00000230: 4644 76bc 826d a63d 11fc 34bd 008d f53c
00000240: 61e6 5f3e 8449 79be 9a1c 0f3e 9c2b f93d
00000250: 37f2 0b3e d5a0 263e 86af a73e f061 c1bc
00000260: 0430 ad3d d8fa a73e 0f96 89be 9640 793e
00000270: a252 fa3c e3dc f03c c34b e7bd 9828 6ebe
00000280: b477 1d3f 0c7c f9bd eb84 60bf 00dd 9bbb
00000290: e283 913b 1e52 81be 31ae 15be d85d e63d
000002a0: 0cd5 84bd 18cb 793e 446c 0e3f 46d5 4f3e
000002b0: fa7f 04bf 3986 223e 220c e53e 2485 f83d
000002c0: 1465 11be 006d ddba 8847 84be 065b 673e
000002d0: 4090 873b 2a40 30be de07 12be 16ad 143e
000002e0: 62b0 54be ac81 b23d b277 69bc 426e 0dbe
000002f0: 8b1b 1b3d ef72 8fbd b4de 81be a0fc b2bc
00000300: 76d6 dc3d fa54 3b3e 0484 c9bd 50c7 bcbc
00000310: e174 033f 81d3 56be bfa9 a23e 5872 6abe
00000320: d04d cbbc 6697 193f 60e6 1cbf 9421 c3bd
00000330: 181b 003e 2cc6 a5be c199 08be 7426 c73d
00000340: 80fc d4bd 08d3 8b3d 26e5 37be 849b 3f3e
00000350: 7841 f0bd 4e5c 25be c4af 47be 8ced a5bd
00000360: 78cb 06be 88b1 16bd 102c bc3c f011 64bd
00000370: 5805 a0bd a8c1 593d 30ca 22be 9879 3dbe
00000380: 2f9d c53e 70be 52bd 4af3 a33e 4002 e73d
00000390: 1795 2b3e cc2c 08bd 0a1c edbb 44d9 36be
000003a0: deea 25be c5e0 593e 0e39 bf3c d011 af3c
000003b0: 72d4 a3bd a89d de3d 435e 513e 9a16 753e
000003c0: b457 883e 80a2 23bc d939 d73d 102a ebbc
000003d0: d861 d33e 4d41 2a3e 5ed6 f93e 94fc dd3d
000003e0: 7697 68be d6b6 fd3e 602d 40be c0bc 5d3e
000003f0: cac5 9b3e f2fe c53d b651 b6be 3cd0 ac3d
0.20414035 -0.12409219 0.20185375 -0.082404286 0.21120144 0.24017678 0.15899834 0.05866635
0.20945093 0.5148669 0.17291147 0.0063273013 0.21205552 -0.028671168 -0.08469951 0.16237664
-0.16541049 -0.19046584 0.016929686 0.06875014 0.13443029 0.04153484 -0.24592692 0.14056432
-0.18855187 0.24511537 -0.05161795 0.124403834 -0.23917425 -0.15762919 -0.03740412 0.08928779
0.31869015 -0.05399239 0.14200383 0.065469176 0.25185648 0.11372322 0.044316757 -0.035286725
0.23652399 0.5500879 -0.14484973 0.16936031 -0.22228362 0.21867263 -0.010484955 0.082250506
0.07753229 0.08443883 -0.04034093 -0.18714198 -0.14249042 -0.008827031 -0.063555956 0.11337763
0.0067116916 0.103244424 -0.15245163 0.116776586 -0.09274715 -0.2373847 -0.189066 -0.15736356
0.55530804 0.20176488 0.33904418 0.22673348 0.5108219 -0.088731214 0.49808955 0.118534446
-0.092387795 0.49397144 -0.15085123 0.23467448 0.08314923 0.1731988 -0.08587459 0.14102459
0.17854324 -0.09649697 -0.24969465 0.14165372 -0.19507706 -0.058985025 -0.18386647 0.119428635
0.22684392 -0.009297699 0.10149202 0.03909895 -0.06772578 0.012277186 -0.009658784 -0.1979239
-0.23719552 0.220485 0.0040012896 -0.2229318 -0.17808178 -0.1109145 0.16420937 -0.20769668
0.070365965 0.18064049 0.14966944 0.12793502 -0.14161551 -0.07203302 -0.1406978 -0.23135647
-0.08498004 0.23455176 -0.17455766 0.13452002 -0.21984392 -0.06424332 -0.16031426 -0.23567376
0.12525734 -0.22956419 -0.18659288 0.22548082 0.08848351 -0.036659926 -0.083094716 -0.13046303
0.13505022 -0.08713463 0.2444907 -0.23436931 0.28052217 0.17704956 0.15786973 0.13129434
0.2105414 0.14070539 0.109232545 -0.17248088 -0.015030926 0.08126356 -0.0441857 0.02997446
0.21865226 -0.2434445 0.13975754 0.12166521 0.13666616 0.1627229 0.327511 -0.02360627
0.08456424 0.32808566 -0.26872298 0.24341044 0.03055698 0.029402202 -0.11293747 -0.23257673
0.6151078 -0.12181863 -0.87702817 -0.00475657 0.0044407705 -0.25257963 -0.1461723 0.11248368
-0.06485948 0.2439388 0.5563395 0.20296201 -0.51757777 0.15871514 0.4473582 0.121347696
-0.14198714 -0.0016893446 -0.25835824 0.22593316 0.004137069 -0.17211977 -0.14260814 0.14519152
-0.2077041 0.08716139 -0.014249729 -0.13811591 0.037868064 -0.07004344 -0.25365222 -0.021848977
0.10783093 0.18294135 -0.09839633 -0.023044258 0.5135022 -0.2097912 0.3177013 -0.22895181
-0.024817377 0.5999664 -0.61289024 -0.09527889 0.12510335 -0.32377756 -0.13339902 0.09724131
-0.10399723 0.068273604 -0.17958507 0.18711668 -0.11731237 -0.16148493 -0.19500643 -0.08101949
-0.13163555 -0.0367904 0.02297023 -0.05568117 -0.07813519 0.0531632 -0.15897441 -0.18503416
0.38596484 -0.051451147 0.32021552 0.11279726 0.16756092 -0.033245847 -0.0072360085 -0.17856318
-0.16202876 0.21277149 0.023342635 0.021370798 -0.07999505 0.10869914 0.20446114 0.23934403
0.26629412 -0.0099874735 0.105090804 -0.02870658 0.41285586 0.16626473 0.48796362 0.10839191
-0.22714028 0.49553555 -0.18767309 0.21654034 0.3042434 0.096677676 -0.35609215 0.08438155

l6.bias f4 [32]
00000000: b06a ab3c 5acf 5cbe 43d3 423e 1624 493e
00000010: 24df 1dbe 504c bfbd 5053 53be 00af b43d
00000020: 7469 9a3e a3ee 1e3d 6e0e 0e3e d209 233e
00000030: e644 11be 0c60 c2bd d549 493e 6ae6 99be
00000040: d8f3 51bd 2ce6 a4bb 30c6 e63d fca0 03be
00000050: 938a 8abe 8058 d7bb 827b 47bd 8759 f43d
00000060: 00f4 46be 6030 9d3e dc0e b1bd a46d a3bd
00000070: b57a a8bd a2f3 27be 02a8 8abe 7c43 5fbe
0.020924896 -0.21563473 0.19025902 0.19642672 -0.15417153 -0.09340727 -0.2063725 0.08822441
0.3015858 0.0388018 0.13872692 0.15921715 -0.14186439 -0.09490976 0.19657071 -0.30058604
-0.05125794 -0.0050323214 0.1126827 -0.1285438 -0.2705885 -0.0065718293 -0.04870177 0.119311385
-0.19429016 0.3070097 -0.08645412 -0.07979897 -0.082265295 -0.16401532 -0.27081305 -0.21803087

l7.weight f4 [16, 32]
00000000: 14d2 983e e09f 6b3d d789 c33e 10bf 93bd
00000010: a44a 46be 27b7 223e a4b5 703d d8fc 333d
00000020: cfa4 c63e 726d 4ebe 2ff0 39bf f988 ebbd
00000030: 4059 1abf 6dd6 debd 4fd9 da3e 0e9e 98be
00000040: 30e6 c4bc c57d 07be 804c 483b 036b 8abd
00000050: 2c93 483e eba7 86bd 17d0 43bf 2657 093e
00000060: 2070 0abe 3845 0c3f ee6e be3d fe70 3b3e
00000070: 4443 ffbd ef35 8dbd b9ff 84bd e9fc c6bd
00000080: a641 a9bc 0044 ca3c 06af 6ebd b05a 84bd
00000090: 2a43 823d 1520 223e 205b abbb c4ab dabd
000000a0: 75be 25be 5537 bbbc d84b 26be 6f9b 32be
000000b0: 36ae b3bd 3203 5cbd 000c b63d 0c6f d9bd
000000c0: 7f66 adbd 7c47 f0bd 4451 0d3d f474 4bbd
000000d0: f945 ed3d 3805 683d 383e 073e 58da e93c
000000e0: 77bf 9cbd 2d4c 23be db14 1b3e 4196 1cbd
000000f0: 3337 38bd 0019 16bb 8b0d d5bd 88ee e8bc
00000100: 56bf c03e 6278 cc3d 3ff9 963e 803d 3dbd
00000110: f235 94bc 5a60 bebd 3fa6 2c3e 72d8 f23d
00000120: a773 6a3e 78c0 c63d 2730 03bf 4fc8 aa3d
00000130: db54 28bf bc4f f2bd a488 bd3d 9177 a4be
00000140: 7639 833d 844a 28be d458 2cbe 9394 4d3d
00000150: f658 a13c 60b0 753d a0cb dcbe ac3f d2bd
00000160: ea93 35be 8cb4 e23e ad22 1fbe 9659 b63d
00000170: 3fe0 1abd 2bf9 bb3d fc6d 7dbd 0044 093a
00000180: 9dca 223e 80b4 91ba 561f 993e 4422 4a3d
00000190: e236 833e e46a 3fbd c81c 7abd b68d 8e3d
000001a0: f077 603e 6e74 853e ea38 303f e0a0 06bd
000001b0: 6af6 953e f850 7a3d 095f 76ba 779e cf3e
000001c0: fc31 0cbd 16b3 ea3e c830 fc3c 7961 963e
000001d0: 14a7 853d 409c cf3b 5024 893f 17e9 36bb
000001e0: eb5e ab3e 796b 99be 8aa7 fb3d f6e3 083e
000001f0: d12e 813e 8a58 103e 8db5 4ebd 209c a9bc
00000200: 5f72 013e 30b4 b3bc a0a5 303d 5ca2 d4bd
00000210: 403e 1dbb d17c 22be 3ed4 0ebe 8044 433d
00000220: c492 25be 24a8 703d e329 203e c8af f63c
00000230: 4c19 02be ec4f 703d 60e5 0e3c 1373 86bd
00000240: 71f7 113e daa7 0ebe 8095 fcbd f0c4 d53c
00000250: d095 56bc 5017 7c3c 0eb6 a53d c893 79bd
00000260: 6266 c83d 0008 c839 1297 913d baa7 bf3d
00000270: fc1d 79bd 6456 65bd da9e ba3d cb74 123e
00000280: 3bdc 6dbc 670e 0ebe 23af 1abe cb52 183e
00000290: 2ed7 bebd a610 c0bd e8a0 e1bc f14c 2c3e
000002a0: 8e25 0b3d 5d79 eb3d 42a3 59be c39d 043e
000002b0: 506b 37bc d5f0 b8bd e22a 1dbe 6ff7 933c
000002c0: cdeb 9dbd 50a8 fdbd 0095 6a3a 569c 5bbd
000002d0: 983d b8bd 168d 1abe ee44 d43d c11b 8cbc
000002e0: 214a 553d 4f92 d43d e439 423d a738 89bd
000002f0: dc36 f7bd ffe1 0f3e 22e4 f13d 7805 7f3d
00000300: 1988 fbbd d0e5 a33c 0d11 d33d 2665 fc3d
00000310: 3440 ca3d 3731 92bd d66c fe3d d3cd bfbd
00000320: 4c9a 40be 40da e03d 039c 963d da31 02be
00000330: 7a3c f33d 0023 b43c df1e d6bc a12a 353c
00000340: 0a5c fcbd 896d 093e d06e 923d 185f 123d
00000350: 0525 923b ce2f db3d 2c61 213e b94d 0e3d
00000360: 52f5 eabd f9c9 e4bd e091 d53b 5145 e4bd
00000370: c5c2 95bd aa3e e53d 7cbf 48bd 5547 88bd
00000380: 65c6 863e 98ba 053d b773 9f3e 5b75 143e
00000390: 06c0 bf3e 009d 243d 657d 1f3e 547b ebbd
000003a0: b5dd 923d ff7f 5f3e a397 263f 917a 3abd
000003b0: 8685 0b3f 5641 02be 0d3c a83d 6a1b 7d3e
000003c0: 7853 0fbe 3763 523e 025e f83d 5731 443e
000003d0: cd28 0f3e 9346 003e 2ad6 343f 89f5 703e
000003e0: 713e 3d3e 1aed d8bd 0816 ac3c a832 e23d
000003f0: d493 b33e a6e7 3fbd 38a5 a6bd 24c1 723d
0.29847777 0.057525516 0.381911 -0.07214177 -0.1936441 0.1589018 0.058766976 0.043942302
0.38797614 -0.20158938 -0.72632116 -0.11500735 -0.60292435 -0.10880742 0.42743918 -0.29808086
-0.024035543 -0.13231571 0.0030563176 -0.06758692 0.19587392 -0.065749966 -0.76489395 0.1341215
-0.13519335 0.5479312 0.09298502 0.18304822 -0.12464002 -0.06895053 -0.06494088 -0.097162075
-0.020661186 0.024690628 -0.058272384 -0.0646261 0.06360467 0.15832551 -0.005229369 -0.10677293
-0.16185935 -0.022853533 -0.1623987 -0.17442106 -0.087734625 -0.053713985 0.088890076 -0.10616884
-0.08466815 -0.117323846 0.03450133 -0.049672082 0.11585612 0.056645602 0.13207328 0.028546497
-0.076537065 -0.15947028 0.15144674 -0.03822923 -0.044974517 -0.0022903085 -0.10402974 -0.028434053
0.37645978 0.09983899 0.29487035 -0.04620123 -0.01809213 -0.09295721 0.16860293 0.1185769
0.2289568 0.09704679 -0.5124535 0.08338987 -0.6575448 -0.118316144 0.09254578 -0.32122472
0.06407444 -0.16434675 -0.1683076 0.05019052 0.01969574 0.059982657 -0.43124104 -0.10266051
-0.17732206 0.4427837 -0.15540572 0.08903806 -0.037811514 0.091783844 -0.061872467 0.0005236268
0.15897603 -0.0011116415 0.2990672 0.049349084 0.2562781 -0.0467328 -0.061062604 0.06960623
0.21920753 0.2606539 0.68836844 -0.032868266 0.29289562 0.061112374 -0.00093983166 0.40550587
-0.034227356 0.45839757 0.03078498 0.2937124 0.06526008 0.006335765 1.0714207 -0.0027909928
0.33470854 -0.29964808 0.12287815 0.1336821 0.2523103 0.14096275 -0.05046611 -0.020704329
0.12641285 -0.021936506 0.043126702 -0.1038253 -0.0023993403 -0.15867926 -0.13948151 0.04767275
-0.16169268 0.0587541 0.15640979 0.030113116 -0.12704962 0.05866997 0.008721679 -0.065649174
0.14254548 -0.13931218 -0.12333202 0.026094884 -0.0130972415 0.0153864175 0.08091365 -0.06093195
0.09785153 0.00038152933 0.071088925 0.09358163 -0.06081961 -0.05599059 0.0911233 0.14302365
-0.014517839 -0.13872682 -0.15105872 0.14875333 -0.09318386 -0.093781754 -0.027542546 0.16826226
0.03397136 0.114977576 -0.21253684 0.12950806 -0.011195019 -0.0903031 -0.1534839 0.018062321
-0.07710991 -0.12385619 0.00089485943 -0.05361589 -0.08996123 -0.15092883 0.1036471 -0.017103078
0.052072648 0.10379469 0.04741849 -0.06700259 -0.120710105 0.14051054 0.11811091 0.062261075
-0.12281818 0.020007044 0.103059866 0.1232398 0.09875527 -0.07138293 0.124231026 -0.0936543
-0.1880886 0.10979128 0.073539756 -0.1271433 0.11876769 0.021989346 -0.026137767 0.011057527
-0.123222426 0.1342069 0.07150042 0.03573522 0.0044599795 0.107024774 0.15759724 0.03474209
-0.114725724 -0.11171336 0.006517634 -0.111460336 -0.0731254 0.11193593 -0.04901074 -0.066542305
0.26323238 0.032648653 0.3114297 0.14497893 0.3745119 0.04018879 0.15575178 -0.11498132
0.071711935 0.2182617 0.6507513 -0.045527045 0.54500616 -0.12720236 0.08214579 0.24717489
-0.13996685 0.2054566 0.121273056 0.19159447 0.13980408 0.12526922 0.7063929 0.23531164
0.18480851 -0.105920985 0.021006599 0.11044818 0.3507372 -0.046851777 -0.08136982 0.059266225

l7.bias f4 [16]
00000000: c3db 6a3d e2bf 8c3c 3bb3 223e 26b6 27bc
00000010: 86d3 2cbe f56e de3d 9110 4f3d de7f 563c
00000020: fb57 da3d 65de df3d 42ab d0bd dae5 d63d
00000030: 3fd3 933d df54 44be c5ae 223d 6034 073e
0.057338487 0.01718134 0.15888683 -0.010236299 -0.16877565 0.10861007 0.05055291 0.013092009
0.10661312 0.1093109 -0.10188915 0.104930595 0.07218026 -0.19173001 0.039717454 0.13203573

l8.weight f4 [1, 16]
00000000: b73d 643f 990d 203e d6c1 eb3e a1c1 72be
00000010: 4cbf 6f3e 3886 623e 2348 693e b10e bebe
00000020: d83d 403e 9729 98be 53a0 313e 8c8d 90be
00000030: 5805 81be 6e6c 613e 1171 ddbe 52b4 153e
0.8915667 0.15630187 0.46046323 -0.23706676 0.23412818 0.22121513 0.22781424 -0.37120584
0.18773592 -0.2971923 0.17346315 -0.28232992 -0.2519939 0.22014019 -0.43250325 0.14619568
