project/models/model_w1_2.0_lam_1.05_lam2_1.05_w2_0.01.pt_critic.pt (torch, 15278 bytes, 14 tensors)

l1.weight f4 [16, 2]
0.62587196 0.46932837 -0.23287466 -0.75276023 0.11799955 0.08762437 -0.48612258 -0.020020204
-0.479802 -0.24107593 0.33581218 -0.10370296 0.609638 -0.24472395 0.48149118 0.034417424
0.36943847 -0.038618848 0.16905116 -0.5529073 -0.18050958 0.45047507 0.49705628 -0.035055898
0.13129932 0.12095064 -0.3704509 -0.27690053 -0.6659583 -0.17813462 0.82115597 0.28363153
00000000: 2539 203f cf4b f03e b276 6ebe e5b4 40bf
00000010: c0a9 f13d 6874 b33d 0fe5 f8be 6901 a4bc
00000020: 9ca8 f5be 9cdc 76be 93ef ab3e 3862 d4bd
00000030: 3c11 1c3f ea98 7abe 0386 f63e 49f9 0c3d
00000040: 0a27 bd3e cc2e 1ebd bf1b 2d3e 558b 0dbf
00000050: 81d7 38be aba4 e63e 297e fe3e c696 0fbd
00000060: 5473 063e f8b4 f73d beab bdbe e8c5 8dbe
00000070: 3e7c 2abf ec68 36be 4737 523f 2738 913e

l1.bias f4 [16]
-0.04566889 -0.3580487 -0.2594953 0.48805782 -0.40249464 0.36149982 -0.029911546 -0.057097312
-0.4086651 0.7123766 0.51865906 0.40035635 -0.39751533 0.3806322 0.66495514 0.397165
00000000: 4d0f 3bbd 2952 b7be 91dc 84be b7e2 f93e
00000010: c713 cebe 8116 b93e 0f09 f5bc dfde 69bd
00000020: 8d3c d1be 505e 363f d7c6 043f 82fb cc3e
00000030: 2187 cbbe 39e2 c23e 803a 2a3f 3659 cb3e

l2.weight f4 [32, 16]
0.171875 0.038075686 0.07028517 -0.106496066 -0.052984625 -0.16593075 0.04829949 -0.15927887
0.16504577 -0.23093355 0.17817229 -0.111442626 0.18732587 -0.21037859 0.24550545 -0.115939826
0.0910466 -0.14309096 -0.13165376 -0.09595984 0.008481652 -0.11233604 -0.07130805 -0.08321297
0.1287947 -0.17121512 -0.2428033 0.024263978 0.008821636 0.05915886 -0.14126217 -0.09819391
-0.0073512197 -0.029847622 0.081831634 0.027467519 -0.13091877 -0.23583779 -0.037655503 0.03834051
0.16497701 -0.042554885 -0.12528142 -0.18232888 -0.049675077 -0.12446967 -0.16479528 0.08112177
0.2575181 -0.454471 0.19645539 -0.44906822 -0.07991159 0.32396644 -0.026453141 0.29595515
-0.21340431 0.21357384 0.046159472 0.14201196 -0.18782502 -0.19227764 -0.10965309 0.2347976
0.397724 0.011152722 0.22098824 -0.42975476 0.047701895 0.22325657 0.07973915 0.38991278
-0.21712343 0.25433668 0.13508679 0.19342609 -0.06080225 -0.29630527 -0.25383058 0.29395822
0.40690583 -0.16986297 -0.13555992 -0.3330698 0.09045622 -0.0121504 0.08259539 0.1626316
-0.20862906 0.09599788 0.13216949 0.23278902 -0.034249574 -0.56725216 -0.04896073 0.3165988
0.3879278 -0.080306895 -0.18109351 -0.55097944 -0.23204705 0.37686747 0.27293682 0.09249474
0.056244034 0.19538663 0.18347952 0.019422535 0.07508889 -0.59810585 -0.38184065 0.26100755
0.4032896 -0.29741776 -0.24578935 -0.16378416 -0.03750071 0.11220605 0.49374202 0.09775766
-0.2050226 0.15204589 0.17289567 0.3143017 0.1309461 -0.16870134 -0.20549896 0.19820578
0.28642273 -0.014213975 0.20829475 -0.40059027 0.030282348 0.14812465 0.26738876 0.3948177
0.11311357 0.045566898 -0.19497168 0.2223 -0.013168633 -0.23299424 -0.6452947 0.3691108
-0.011082649 -0.15175577 -0.2312052 -0.1519378 -0.03907299 -0.054606456 0.008178066 0.21871802
0.09958617 0.10106454 -0.06576422 -0.030061767 0.11655533 -0.02454885 0.026670212 -0.16232403
-0.116808355 -0.04271078 -0.1510964 -0.16467986 -0.21576783 -0.2134543 -0.19568399 -0.11870754
0.0017101169 0.15955326 0.20185253 -0.18513218 -0.027300954 0.13399798 -0.056863308 0.10111663
0.21057923 0.053763077 0.106799364 -0.7115969 0.20196623 0.2870865 0.5219589 0.48398066
-0.33769265 -0.096876666 -0.13615362 0.02589706 0.004083425 -0.047263686 -0.8365478 0.17431739
0.08346459 0.004311406 -0.061611533 -0.22068016 0.117372274 -0.008700221 -0.01039711 0.006923299
0.10536188 -0.115541175 -0.19091661 -0.05773477 0.06029114 0.11125371 0.17516455 -0.06724177
0.122796655 0.00035655499 -0.2410675 0.1822859 -0.044217765 -0.21812662 -0.21828043 0.14407966
-0.20299774 -0.055308014 -0.071483105 -0.07117382 0.16998398 -0.15999794 -0.20778435 -0.21186745
0.13851453 -0.15124299 -0.046829164 -0.4623592 0.16359463 0.23987617 0.441323 0.28139138
0.16802444 0.38383833 0.037234824 0.24311824 -0.02824217 -0.3717433 -0.22021759 0.3124243
0.4304026 -0.0619002 -0.04803586 -1.078411 0.20101547 0.03256517 0.09469962 0.27950037
0.08390995 -0.1674058 -0.110855326 -0.20442963 0.23226264 -0.7026934 -1.1127663 0.20255096
00000000: 0000 303e 40f5 1b3d acf1 8f3d 9c1a dabd
00000010: 6806 59bd c0e9 29be b0d5 453d 001a 23be
00000020: c201 293e d879 6cbe cc72 363e 083c e4bd
00000030: 5ad2 3f3e 7c6d 57be c865 7b3e dc71 edbd
00000040: a476 ba3d 7086 12be 3ed0 06be 9886 c4bd
00000050: a0f6 0a3c 7010 e6bd f409 92bd 906b aabd
00000060: c2e2 033e 0453 2fbe 6ea1 78be 40c5 c63c
00000070: a088 103c 9050 723d 08a7 10be e419 c9bd
00000080: 80e2 f0bb 0083 f4bc 5897 a73d 9003 e13c
00000090: 920f 06be 767f 71be a83c 1abd f00a 1d3d
000000a0: bcef 283e 084e 2ebd c649 00be 6cb4 3abe
000000b0: 1878 4bbd f4e9 febd 18c0 28be 2c23 a63d
000000c0: 6ad9 833e 6cb0 e8be 9a2b 493e 45ec e5be
000000d0: b0a8 a3bd eede a53e 42b4 d8bc 6f87 973e
000000e0: a986 5abe 1ab3 5a3e b711 3d3d 956b 113e
000000f0: 3455 40be 6ee4 44be cd91 e0bd c86e 703e
00000100: 7ba2 cb3e e8b9 363c be4a 623e d108 dcbe
00000110: 1063 433d 5f9d 643e 484e a33d a6a2 c73e
00000120: 9b55 5ebe 6b38 823e 3154 0a3e 7d11 463e
00000130: c80b 79bd 53b5 97be 15f6 81be b181 963e
00000140: f655 d03e 8ff0 2dbe 38d0 0abe 2088 aabe
00000150: 1c41 b93d 7912 47bc c627 a93d e688 263e
00000160: dba2 55be 899a c43d 7057 073e 3f60 6e3e
00000170: 4849 0cbd 7037 11bf 0c8b 48bd 3d19 a23e
00000180: 799e c63e f177 a4bd 9470 39be fd0c 0dbf
00000190: be9d 6dbe c6f4 c03e 60be 8b3e e26d bd3d
000001a0: 2560 663d 6f13 483e 0ee2 3b3e 021c 9f3c
000001b0: 34c8 993d 771d 19bf 9e80 c3be c8a2 853e
000001c0: f97b ce3e 2447 98be 34b0 7bbe 09b7 27be
000001d0: 589a 19bd 49cc e53d c1cb fc3e 2b35 c83d
000001e0: 72f1 51be ebb1 1b3e 900b 313e 27ec a03e
000001f0: bc16 063e 0bc0 2cbe 526e 52be 75f6 4a3e
00000200: 00a6 923e bbe1 68bc 384b 553e 2b1a cdbe
00000210: b012 f83c fdad 173e 2ee7 883e 8c25 ca3e
00000220: 16a8 e73d 5ba4 3a3d a8a6 47be 9ca2 633e
00000230: 40c1 57bc 0b96 6ebe 0932 25bf 17fc bc3e
00000240: 0094 35bc dd65 1bbe 0ec1 6cbe 9595 1bbe
00000250: 000b 20bd 05ab 5fbd 4cfd 053c 9ef7 5f3e
00000260: d5f3 cb3d edfa ce3d 64af 86bd 1844 f6bc
00000270: 90b4 ee3d ab1a c9bc 7d7b da3c 4538 26be
00000280: 3839 efbd 80f1 2ebd 04b9 1abe d6a1 28be
00000290: 3ef2 5cbe c493 5abe 6261 48be f01c f3bd
000002a0: 0026 e03a ee61 233e 6eb2 4e3e 4a93 3dbe
000002b0: 40a6 dfbc c436 093e 80e9 68bd 3c16 cf3d
000002c0: 15a2 573e ac36 5c3d a0b9 da3d 372b 36bf
000002d0: 3cd0 4e3e 00fd 923e 199f 053f 50cc f73e
000002e0: 0de6 acbe 4667 c6bd db6b 0bbe 1226 d43c
000002f0: 40ce 853b 9197 41bd ff27 56bf 4280 323e
00000300: 7cef aa3d b246 8d3b 605c 7cbd fbf9 61be
00000310: e060 f03d 5f8b 0ebc a458 2abc d7dc e23b
00000320: f8c7 d73d daa0 ecbd a57f 43be 4b7b 6cbd
00000330: d8f3 763d fcd8 e33d 565e 333e 0eb6 89bd
00000340: d07c fb3d 00f0 ba39 66da 76be 28a9 3a3e
00000350: b01d 35bd 965c 5fbe e884 5fbe 9e89 133e
00000360: a4de 4fbe a88a 62bd bc65 92bd 94c3 91bd
00000370: 4810 2e3e 80d6 23be 6cc5 54be c8f3 58be
00000380: c1d6 0d3e 71df 1abe f0cf 3fbd 58ba ecbe
00000390: 5a85 273e 19a2 753e 17f5 e13e 8812 903e
000003a0: 990e 2c3e 7586 c43e 8b83 183d fdf3 783e
000003b0: 205c e7bc 2355 bebe b880 61be 14f6 9f3e
000003c0: bb5d dc3e 108b 7dbd 40c1 44bd 5f09 8abf
000003d0: 00d7 4d3e 0e63 053d e0f1 c13d ac1a 8f3e
000003e0: fbd8 ab3d 6d6c 2bbe 1e08 e3bd 0056 51be
000003f0: 42d6 6d3e b7e3 33bf 206f 8ebf 8569 4f3e

l2.bias f4 [32]
-0.22833595 -0.19376767 0.09312099 0.22741483 0.3563236 0.25970685 0.2631139 0.11539826
0.030054979 -0.00015297816 -0.15899915 -0.3099973 -0.08357034 -0.14458269 0.32179582 -0.011415325
-0.10263949 -0.06839403 0.0323484 0.25471583 -0.14208405 -0.19562449 0.098242074 -0.24057728
-0.24274495 0.14331853 0.3496091 0.24800462 0.03265155 0.33829775 0.114206605 0.2546368
00000000: e6d0 69be 086b 46be 38b6 be3d 6fdf 683e
00000010: 0c70 b63e 4cf8 843e ddb6 863e ec55 ec3d
00000020: dc35 f63c c368 20b9 acd0 22be f7b7 9ebe
00000030: ed26 abbd 7c0d 14be 6cc2 a43e 5807 3bbc
00000040: a734 d2bd 2b12 8cbd c27f 043d 1d6a 823e
00000050: 7b7e 11be c951 48be 2433 c93d e459 76be
00000060: 2292 78be 18c2 123e f7ff b23e ecf4 7d3e
00000070: a2bd 053d 5d35 ad3e 27e5 e93d c15f 823e

l3.weight f4 [16, 32]
0.08843674 0.021436632 -0.11889933 0.04807942 0.0010783479 0.121316 -0.09525037 -0.0031493718
0.021684522 -0.106948964 -0.005191624 -0.4152179 0.06022176 0.08516516 -0.12259206 -0.6955092
0.12581103 -0.29228225 -0.017274514 -0.034647092 -0.1543356 -0.49276164 0.05479363 -0.16115022
0.17160188 0.086643144 0.061142173 -0.00094606844 -0.02263919 -0.13626139 -0.1047976 0.12470366
-0.058438905 -0.0004916638 0.14475451 0.09021286 0.24130301 0.15082552 0.29121995 0.3524924
0.028017303 0.07193548 0.02404216 0.3372666 -0.09454786 0.12453945 0.16284132 -0.1790405
0.04352112 -0.4701796 0.3415662 0.24955612 0.12749077 -0.12899604 -0.20280476 -0.02549477
-0.085053645 0.35998923 0.32210013 0.2926544 0.02587184 -0.4032137 -0.27462202 0.1976503
-0.031180382 0.022049755 -0.15471724 0.099221595 -0.1714904 -0.16518706 -0.023074877 -0.049597196
0.1361024 0.011944167 -0.011462972 -0.14088531 -0.08017466 -0.03246799 0.072870694 0.15907589
-0.089175835 0.09035532 0.0684848 0.12562768 -0.07479274 -0.17000219 -0.19833499 -0.14210385
0.02167444 0.041274033 0.104934596 -0.16107503 0.03074215 0.124763675 -0.2006259 -0.005342732
-0.03230366 -0.007966936 -0.15342747 0.31920084 0.051280916 0.1335635 0.31546175 0.240294
0.2218342 0.025716035 0.069644585 0.38229823 -0.16755523 0.08756302 0.09240262 -0.02721794
0.119615816 -0.10381582 0.5386768 0.34713814 0.54509276 0.14640857 -0.32860243 0.14144744
0.08050151 0.3993977 0.1985595 0.29442897 0.17017484 -0.09197487 -0.40285638 0.30990982
-0.095339924 -0.042307705 -0.13177851 0.30000117 0.21622884 0.17544858 0.13624483 0.38907778
-0.23769307 -0.12131399 0.0887811 -0.43937382 -0.07683925 -0.17337409 0.117790066 -1.0193976
0.022052808 -0.1447807 -0.11930248 -0.07799369 -0.14732921 -0.48638764 -0.01967082 0.1707911
0.16831027 0.19454524 0.3591338 -0.16781887 -0.30089045 0.05289774 0.10299878 0.14600286
-0.114186116 0.08644666 0.11011191 0.065817945 -0.028134048 -0.0673811 -0.11202386 0.10864165
0.035955343 0.12784693 0.14670976 0.04585181 0.073418334 0.056464046 -0.15490557 -0.19023271
0.15973668 -0.013038446 0.06621262 0.017456464 0.0077870293 -0.20224012 -0.17285837 0.10964508
0.0022366047 -0.07565796 -0.2025118 -0.14490135 0.08650461 0.06166784 -0.021281755 -0.039411396
-0.17588967 -0.16794999 -0.041248977 0.099340916 0.32651377 0.24281526 0.21128835 0.34309545
0.25270873 -0.06246835 0.06257118 0.42457882 0.07495967 0.09632383 0.22657725 -0.011327355
0.05536498 -0.14819095 0.16515066 0.27379802 0.25888574 -0.034747742 -0.29326794 0.047383934
0.17102496 0.31851166 0.09732747 0.10457311 -0.09225133 -0.3991113 -0.3095799 0.3020245
-0.09835104 0.06358223 0.17327009 0.22376676 0.08635479 0.10756376 0.22901897 0.07296743
0.30150443 -0.063805416 -0.02634956 0.5067125 0.054335624 0.06805915 0.030564507 0.644638
-0.045019217 1.1917193 0.14511167 0.32739422 0.32167983 0.48086062 -0.23895302 -0.012946963
-0.014899105 0.104821116 0.28378025 0.108649254 0.35571462 -0.1594518 -0.19921537 0.123178415
00000000: 521e b53d e09b af3c 7e81 f3bd edee 443d
00000010: 5a57 8d3a 8674 f83d a012 c3bd b165 4ebb
00000020: bda3 b13c 0f08 dbbd 801e aabb 7197 d4be
00000030: 18ab 763d 126b ae3d 8c11 fbbd e40c 32bf
00000040: 9bd4 003e 05a6 95be 4883 8dbc 1cea 0dbd
00000050: 270a 1ebe 414b fcbe 496f 603d 9004 25be
00000060: 67b8 2f3e f671 b13d 3770 7a3d 9401 78ba
00000070: d375 b9bc 1b88 0bbe 20a0 d6bd a264 ff3d
00000080: a25d 6fbd 00e3 00ba 873a 143e 85c1 b83d
00000090: 2318 773e 0172 1a3e c81a 953e e279 b43e
000000a0: 8b84 e53c e952 933d 10f4 c43c 35ae ac3e
000000b0: 4fa2 c1bd 8a0e ff3d e0bf 263e 6556 37be
000000c0: 3443 323d 61bb f0be c4e1 ae3e a48b 7f3e
000000d0: f18c 023e 8a17 04be 0dac 4fbe 68da d0bc
000000e0: 9b30 aebd 8250 b83e 4fea a43e ccd6 953e
000000f0: 2ef1 d33c 0772 cebe 429b 8cbe d764 4a3e
00000100: 006e ffbc b0a1 b43c 326e 1ebe b134 cb3d
00000110: 2e9b 2fbe cc26 29be 8607 bdbc 6e26 4bbd
00000120: 6d5e 0b3e 78b1 433c 30cf 3bbc 3d44 10be
00000130: 9d32 a4bd 28fd 04bd 3b3d 953d cae4 223e
00000140: d2a1 b6bd 360c b93d c241 8c3d 8ba4 003e
00000150: f02c 99bd 0e15 2ebe 5418 4bbe ac83 11be
00000160: 988e b13c f60e 293d f3e7 d63d daf0 24be
00000170: f6d6 fb3c 1984 ff3d e070 4dbe 1612 afbb
00000180: d850 04bd c087 02bc 171c 1dbe 4b6e a33e
00000190: f00b 523d dfc4 083e 3484 a13e a10f 763e
000001a0: 8128 633e 6faa d23c d2a1 8e3d 98bc c33e
000001b0: 9993 2bbe 3e54 b33d 963d bd3d 28f8 debc
000001c0: 23f9 f43d 639d d4bd b9e6 093f 17bc b13e
000001d0: 338b 0b3f 21ec 153e 943e a8be 99d7 103e
000001e0: fadd a43d db7d cc3e 2e53 4b3e 65bf 963e
000001f0: 5042 2e3e 525d bcbd 3143 cebe 80ac 9e3e
00000200: 9441 c3bd d84a 2dbd f2f0 06be c199 993e
00000210: 186b 5d3e cba8 333e c483 0b3e 3435 c73e
00000220: d065 73be 7873 f8bd ded2 b53d 9bf5 e0be
00000230: e65d 9dbd fa88 31be eb3b f13d 9f7b 82bf
00000240: 17a8 b43c 6441 14be dc54 f4bd 28bb 9fbd
00000250: 78dd 16be cd07 f9be b324 a1bc dde3 2e3e
00000260: 8759 2c3e de36 473e 63e0 b73e b6d8 2bbe
00000270: 500e 9abe 4dab 583d 06f1 d23d c681 153e
00000280: 69da e9bd f20a b13d 5a82 e13d 8fcb 863d
00000290: 6079 e6bc 1aff 89bd c46c e5bd 837f de3d
000002a0: e945 133d 4eea 023e 153b 163e 1ccf 3b3d
000002b0: 5a5c 963d d846 673d 919f 1ebe 5dcc 42be
000002c0: 0392 233e 359f 55bc 7b9a 873d dc00 8f3c
000002d0: 562a ff3b 0918 4fbe c901 31be 9a8d e03d
000002e0: 0094 123b 8ff2 9abd 415f 4fbe 0561 14be
000002f0: 5429 b13d 6b97 7c3d 1357 aebc d86d 21bd
00000300: 6c1c 34be 15fb 2bbe b0f4 28bd 4073 cb3d
00000310: d02c a73e 90a4 783e f95b 583e 35aa af3e
00000320: 0a63 813e d0de 7fbd 5225 803d 6562 d93e
00000330: 7584 993d 6e45 c53d de03 683e 5f96 39bc
00000340: 64c6 623d 5ebf 17be 411d 293e 412f 8c3e
00000350: ac8c 843e a653 0ebd 3727 96be a815 423d
00000360: 2b21 2f3e f613 a33e a053 c73d 6d2a d63d
00000370: 44ee bcbd 5158 ccbe 4281 9ebe f5a2 9a3e
00000380: 456c c9bd 6637 823d b76d 313e 1d23 653e
00000390: c8da b03d 634a dc3d f383 6a3e f36f 953d
000003a0: ca5e 9a3e 6aac 82bd 08db d7bc e9b7 013f
000003b0: 088f 5e3d 9862 8b3d 6b62 fa3c ff06 253f
000003c0: 1266 38bd 428a 983f 2798 143e 37a0 a73e
000003d0: 38b3 a43e 5d33 f63e 1ab0 74be 801f 54bc
000003e0: 601b 74bc 74ac d63d a54b 913e 8083 de3d
000003f0: 3a20 b63e 5547 23be 1dff 4bbe f744 fc3d

l3.bias f4 [16]
-0.10731232 0.22748071 -0.07959155 0.19898748 -0.038957085 0.12347123 0.2565121 -0.2592112
-0.12267409 -0.0898838 -0.13547637 -0.22510092 0.10104973 0.2149379 0.019019594 0.17382365
00000000: 90c6 dbbd b4f0 683e e500 a3bd 60c3 4b3e
00000010: 7791 1fbd 7cde fc3d 8e55 833e 55b7 84be
00000020: 8e3c fbbd ff14 b8bd 51ba 0abe db80 66be
00000030: 29f3 ce3d ae18 5c3e fbce 9b3c d4fe 313e

l4.weight f4 [1, 16]
-0.0063425787 -0.404202 0.17058761 -0.24984182 0.5716816 0.07533588 -0.38498348 -0.2820308
0.075642735 0.18181968 -0.05017087 -0.36486498 0.08937233 -0.44574344 0.19227853 -0.30728936
00000000: 68d5 cfbb 91f3 cebe 85ae 2e3e 89d6 7fbe
00000010: ba59 123f b349 9a3d 8e1c c5be 5766 90be
00000020: 94ea 9a3d f02e 3a3e f87f 4dbd 95cf babe
00000030: d708 b73d 7c38 e4be aae4 443e 0855 9dbe

l5.weight f4 [16, 2]
0.58942336 0.5010701 0.2022227 -0.17161095 0.8873623 0.2978374 -0.466623 0.16668522
0.94939226 -0.059826218 0.6545566 -0.011797918 1.1058443 0.44236967 0.24670804 -0.15448272
-0.44090718 -0.1056869 0.7103799 -0.1864577 -0.57911855 0.035337057 -0.4949144 -0.2937289
-0.09655066 -0.71063954 0.06419071 -0.29462177 -0.30456173 -0.29914495 -0.07177001 0.004625082
00000000: 73e4 163f 2146 003f 7813 4f3e c8ba 2fbe
00000010: 2d2a 633f 257e 983e 36e9 eebe 88af 2a3e
00000020: 5f0b 733f 560c 75bd 0591 273f 0e4c 41bc
00000030: 4e8c 8d3f 477e e23e 08a1 7c3e b830 1ebe
00000040: 96be e1be 6072 d8bd 75db 353f c4ee 3ebe
00000050: 1d41 14bf 97bd 103d 6c65 fdbe a263 96be
00000060: 5abc c5bd 79ec 35bf 6b76 833d aad8 96be
00000070: 84ef 9bbe 8729 99be 28fc 92bd 008e 973b

l5.bias f4 [16]
0.03166805 -0.6153914 0.4273399 -0.38869947 -0.07561294 0.41629973 0.18251427 -0.5067465
-0.36082405 0.0039939024 0.69000393 -0.4089829 -0.072705366 0.476243 0.67303026 -0.29711875
00000000: 5bb6 013d 4a8a 1dbf 4ccc da3e 9e03 c7be
00000010: f5da 9abd 3d25 d53e 05e5 3a3e 23ba 01bf
00000020: eebd b8be 48df 823b 19a4 303f 3566 d1be
00000030: 8de6 94bd 1fd6 f33e b64b 2c3f f31f 98be

l6.weight f4 [32, 16]
0.3090593 -0.12409219 -0.26374412 -0.082404286 0.044350907 -0.08492618 -0.121773295 0.05866635
0.20945093 0.2619983 0.32830802 0.0063273013 -0.10571875 -0.1333045 -0.05731016 0.16237664
-0.16541049 -0.19046584 0.016929686 0.06875014 0.13443029 0.04153484 -0.24592692 0.14056432
-0.18855187 0.24511537 -0.05161795 0.124403834 -0.23917425 -0.15762919 -0.03740412 0.08928779
0.6354596 -0.05399239 0.0026705083 0.065469176 0.17279701 -0.01358175 -0.046488333 -0.035286725
0.23652399 0.42768657 -0.12832613 0.16936031 -0.39923936 0.12382379 -0.071456626 0.082250506
0.07753229 0.08443883 -0.04034093 -0.18714198 -0.14249042 -0.008827031 -0.063555956 0.11337763
0.0067116916 0.103244424 -0.15245163 0.116776586 -0.09274715 -0.2373847 -0.189066 -0.15736356
0.71049505 0.20176488 0.36574376 0.22673348 0.48700243 -0.07954238 0.5941041 0.118534446
-0.092387795 0.49484384 -0.17007798 0.23467448 0.10740786 0.15790717 -0.11081528 0.14102459
0.17854324 -0.09649697 -0.24969465 0.14165372 -0.19507706 -0.058985025 -0.18386647 0.119428635
0.22684392 -0.009297699 0.10149202 0.03909895 -0.06772578 0.012277186 -0.009658784 -0.1979239
-0.23719552 0.220485 0.0040012896 -0.2229318 -0.17808178 -0.1109145 0.16420937 -0.20769668
0.070365965 0.18064049 0.14966944 0.12793502 -0.14161551 -0.07203302 -0.1406978 -0.23135647
-0.08498004 0.23455176 -0.17455766 0.13452002 -0.21984392 -0.06424332 -0.16031426 -0.23567376
0.12525734 -0.22956419 -0.18659288 0.22548082 0.08848351 -0.036659926 -0.083094716 -0.13046303
0.5321617 -0.08713463 0.18587488 -0.23436931 0.26206672 0.105823144 0.11883019 0.13129434
0.2105414 0.0771958 0.09473556 -0.17248088 -0.122655526 0.019902341 -0.089263216 0.02997446
0.37956315 -0.2434445 0.16710937 0.12166521 0.11133047 0.16906145 0.42930585 -0.02360627
0.08456424 0.32286766 -0.280573 0.24341044 0.052267976 0.010988747 -0.13868584 -0.23257673
0.5005863 -0.12181863 -0.86635494 -0.00475657 -0.10094369 -0.24145664 0.00058241514 0.11248368
-0.06485948 0.25930783 0.5599669 0.20296201 -0.46010527 0.14955084 0.44217432 0.121347696
-0.14198714 -0.0016893446 -0.25835824 0.22593316 0.004137069 -0.17211977 -0.14260814 0.14519152
-0.2077041 0.08716139 -0.014249729 -0.13811591 0.037868064 -0.07004344 -0.25365222 -0.021848977
0.18979935 0.18294135 -0.105764434 -0.023044258 0.503638 -0.23134775 0.33018932 -0.22895181
-0.024817377 0.5780066 -0.77615386 -0.09527889 0.041279525 -0.36106315 -0.20105287 0.09724131
-0.10399723 0.068273604 -0.17958507 0.18711668 -0.11731237 -0.16148493 -0.19500643 -0.08101949
-0.13163555 -0.0367904 0.02297023 -0.05568117 -0.07813519 0.0531632 -0.15897441 -0.18503416
0.7698533 -0.051451147 0.27047914 0.11279726 0.15598756 -0.095296405 -0.042092927 -0.17856318
-0.16202876 0.15753192 0.0129212905 0.021370798 -0.1746524 0.05635299 0.1669861 0.23934403
0.2954243 -0.0099874735 0.1162642 -0.02870658 0.42140448 0.16964808 0.501011 0.10839191
-0.22714028 0.49750444 -0.2213256 0.21654034 0.31559464 0.09107088 -0.37547508 0.08438155
00000000: 053d 9e3e 0c24 febd 7809 87be 94c3 a8bd
00000010: 4ca9 353d c7ed adbd 4764 f9bd 204c 703d
00000020: 4e7a 563e a424 863e fd17 a83e 4055 cf3b
00000030: 1283 d8bd fa80 08be 0fbe 6abd 1046 263e
00000040: 5e61 29be 7a09 43be 20b0 8a3c e0cc 8c3d
00000050: 18a8 093e 7020 2a3d 44d4 7bbe 18f0 0f3e
00000060: be13 41be 86ff 7a3e 586d 53bd 70c7 fe3d
00000070: 18ea 74be 8c69 21be 1035 19bd 84dc b63d
00000080: 7bad 223f 2027 5dbd b203 2f3b b414 863d
00000090: b3f1 303e fd85 5ebc 8d6a 3ebd d088 10bd
000000a0: 5833 723e bcf9 da3e ed67 03be ca6c 2d3e
000000b0: 1a69 ccbe 5497 fd3d da57 92bd f472 a83d
000000c0: 40c9 9e3d 44ee ac3d 883c 25bd 26a2 3fbe
000000d0: 02e9 11be 409f 10bc a029 82bd 8832 e83d
000000e0: c0ed db3b d071 d33d 481c 1cbe 9028 ef3d
000000f0: 38f2 bdbd fa14 73be 849a 41be ea23 21be
00000100: 01e3 353f 749b 4e3e c442 bb3e d22c 683e
00000110: 6258 f93e 1ee7 a2bd 3517 183f 30c2 f23d
00000120: d035 bdbd 2c5c fd3e ec28 2ebe 824e 703e
00000130: a7f8 db3d 6bb2 213e 1ff3 e2bd c068 103e
00000140: 0ad4 363e 34a0 c5bd f4af 7fbe ac0d 113e
00000150: 48c2 47be 489a 71bd 7e47 3cbe 0097 f43d
00000160: c649 683e 6055 18bc 0cdb cf3d 3826 203d
00000170: d0b3 8abd 4026 493c e03f 1ebc 90ac 4abe
00000180: 62e3 72be d2c6 613e 401d 833b 3c48 64be
00000190: 125b 36be 2427 e3bd 8026 283e 70ae 54be
000001a0: 081c 903d d2f9 383e f242 193e 6601 033e
000001b0: a803 11be 0c86 93bd 1613 10be b6e8 6cbe
000001c0: 040a aebd 562e 703e 3ebf 32be 9ebf 093e
000001d0: c41e 61be 0092 83bd 6c29 24be 7654 71be
000001e0: 7643 003e e012 6bbe 3412 3fbe 72e4 663e
000001f0: d836 b53d b828 16bd 902d aabd 1a98 05be
00000200: c03b 083f a473 b2bd fc55 3e3e 82fe 6fbe
00000210: 9c2d 863e ceb9 d83d 3e5d f33d 0672 063e
00000220: 2a98 573e d518 9e3d b804 c23d d49e 30be
00000230: d232 fbbd 3c0a a33c a2cf b6bd 008d f53c
00000240: 1a56 c23e 8449 79be b81e 2b3e 9c2b f93d
00000250: 3b01 e43d 721e 2d3e facd db3e f061 c1bc
00000260: 0430 ad3d e94e a53e 44a7 8fbe 9640 793e
00000270: f216 563d 250a 343c a903 0ebe 9828 6ebe
00000280: 6c26 003f 0c7c f9bd 70c9 5dbf 00dd 9bbb
00000290: 91bb cebd 6940 77be 38ad 183a d85d e63d
000002a0: 0cd5 84bd ffc3 843e fe59 0f3f 46d5 4f3e
000002b0: eb92 ebbe db23 193e ac64 e23e 2485 f83d
000002c0: 1465 11be 006d ddba 8847 84be 065b 673e
000002d0: 4090 873b 2a40 30be de07 12be 16ad 143e
000002e0: 62b0 54be ac81 b23d b277 69bc 426e 0dbe
000002f0: 8b1b 1b3d ef72 8fbd b4de 81be a0fc b2bc
00000300: c35a 423e fa54 3b3e 069b d8bd 50c7 bcbc
00000310: 6cee 003f 6de6 6cbe 930e a93e 5872 6abe
00000320: d04d cbbc 3ef8 133f 05b2 46bf 9421 c3bd
00000330: b814 293d 45dd b8be cee0 4dbe 7426 c73d
00000340: 80fc d4bd 08d3 8b3d 26e5 37be 849b 3f3e
00000350: 7841 f0bd 4e5c 25be c4af 47be 8ced a5bd
00000360: 78cb 06be 88b1 16bd 102c bc3c f011 64bd
00000370: 5805 a0bd a8c1 593d 30ca 22be 9879 3dbe
00000380: 1b15 453f 70be 52bd 3e7c 8a3e 4002 e73d
00000390: 34bb 1f3e c32a c3bd a269 2cbd 44d9 36be
000003a0: deea 25be 0c50 213e d2b3 533c d011 af3c
000003b0: 14d8 32be 65d2 663d 67fe 2a3e 9a16 753e
000003c0: db41 973e 80a2 23bc ed1b ee3d 102a ebbc
000003d0: 54c2 d73e 3ab8 2d3e 4242 003f 94fc dd3d
000003e0: 7697 68be e7b8 fe3e 2ea3 62be c0bc 5d3e
000003f0: 9f95 a13e 5f83 ba3d 453e c0be 3cd0 ac3d

l6.bias f4 [32]
-0.033146866 -0.21563473 0.13049491 0.19642672 -0.16491674 -0.09340727 -0.2063725 0.08822441
0.2621625 0.029812716 0.14309205 0.15921715 -0.19605835 -0.09490976 0.16420726 -0.31634608
-0.05125794 -0.013722623 0.1126827 -0.1504877 -0.16687317 -0.0065718293 -0.069139495 -0.06726302
-0.20734182 0.30793548 -0.08645412 -0.18065445 -0.090100914 -0.16401532 -0.27081305 -0.21803087
00000000: 02c5 07bd 5acf 5cbe 75a0 053e 1624 493e
00000010: efdf 28be 504c bfbd 5053 53be 00af b43d
00000020: 2a3a 863e cc39 f43c b986 123e d209 233e
00000030: 85c3 48be 0c60 c2bd f325 283e 1df8 a1be
00000040: d8f3 51bd dad4 60bc 30c6 e63d 7319 1abe
00000050: cde0 2abe 8058 d7bb 0299 8dbd 32c1 89bd
00000060: 6a51 54be b8a9 9d3e dc0e b1bd 7bfd 38be
00000070: d486 b8bd a2f3 27be 02a8 8abe 7c43 5fbe

l7.weight f4 [16, 32]
0.31564975 0.057525516 0.38048887 -0.07214177 -0.20657308 0.1589018 0.058766976 0.043942302
0.3846063 -0.20021376 -0.61516184 -0.11500735 -0.57515454 -0.10880742 0.43027592 -0.28064793
-0.024035543 -0.07366432 0.0030563176 -0.009125018 0.20574589 -0.065749966 -0.04167717 -0.10219003
-0.13323317 0.5365429 0.09298502 0.2270381 -0.108033285 -0.06895053 -0.06494088 -0.097162075
-0.020661186 0.024690628 -0.058272384 -0.0646261 0.06360467 0.15832551 -0.005229369 -0.10677293
-0.16185935 -0.022853533 -0.1623987 -0.17442106 -0.087734625 -0.053713985 0.088890076 -0.10616884
-0.08466815 -0.117323846 0.03450133 -0.049672082 0.11585612 0.056645602 0.13207328 0.028546497
-0.076537065 -0.15947028 0.15144674 -0.03822923 -0.044974517 -0.0022903085 -0.10402974 -0.028434053
0.3677085 0.09983899 0.29479137 -0.04620123 -0.044007454 -0.09295721 0.16860293 0.1185769
0.2167687 0.083898306 -0.41807666 0.08338987 -0.5874213 -0.118316144 0.087398216 -0.3225593
0.06407444 -0.13215482 -0.1683076 0.08264301 -0.04642269 0.059982657 0.17283727 -0.07280999
-0.19118744 0.41918185 -0.15540572 0.13750459 -0.038624633 0.091783844 -0.061872467 0.0005236268
0.19797331 -0.0011116415 0.30160764 0.049349084 0.28396386 -0.0467328 -0.061062604 0.06960623
0.23174009 0.27605134 0.6333617 -0.032868266 0.25472173 0.061112374 0.006128587 0.40768594
-0.034227356 0.42651436 0.03078498 0.25843608 0.4600102 0.006335765 0.91930324 0.030959358
0.3528764 -0.28079444 0.12287815 0.08724076 0.25692248 0.14096275 -0.05046611 -0.020704329
0.12641285 -0.021936506 0.043126702 -0.1038253 -0.0023993403 -0.15867926 -0.13948151 0.04767275
-0.16169268 0.0587541 0.15640979 0.030113116 -0.12704962 0.05866997 0.008721679 -0.065649174
0.14254548 -0.13931218 -0.12333202 0.026094884 -0.0130972415 0.0153864175 0.08091365 -0.06093195
0.09785153 0.00038152933 0.071088925 0.09358163 -0.06081961 -0.05599059 0.0911233 0.14302365
-0.014517839 -0.13872682 -0.18247953 0.14875333 -0.124525465 -0.093781754 -0.027542546 0.16826226
0.002279478 0.08450141 -0.24421833 0.12950806 -0.011195019 -0.0903031 -0.18517213 0.018062321
-0.07710991 -0.1550675 0.00089485943 -0.08507915 -0.08996123 -0.15092883 0.1036471 -0.017103078
0.052072648 0.07208168 0.04741849 -0.09851561 -0.120710105 0.14051054 0.11811091 0.062261075
-0.16186412 0.020007044 0.07358018 0.1232398 0.066753305 -0.07138293 0.124231026 -0.0936543
-0.23583695 0.07779948 0.053887367 -0.1271433 0.08701822 0.021989346 -0.07381537 -0.020935087
-0.123222426 0.10219323 0.07150042 0.0037192625 -0.023884343 0.107024774 0.117668085 0.024242118
-0.14671874 -0.15185729 0.006517634 -0.15488434 -0.10512013 0.11193593 -0.04901074 -0.066542305
0.30549508 0.032648653 0.31916118 0.14497893 0.40861157 0.04018879 0.15575178 -0.11498132
0.088624105 0.24008787 0.59741217 -0.045527045 0.51257473 -0.12720236 0.093406685 0.2558412
-0.13996685 0.17984755 0.121273056 0.1624629 0.5364738 0.12526922 0.5555416 0.27342296
0.20946053 -0.08313687 0.021006599 0.069238834 0.36179376 -0.046851777 -0.08136982 0.059266225
00000000: d89c a13e e09f 6b3d 70cf c23e 10bf 93bd
00000010: e587 53be 27b7 223e a4b5 703d d8fc 333d
00000020: 1eeb c43e d604 4dbe 3f7b 1dbf f988 ebbd
00000030: 543d 13bf 6dd6 debd 204d dc3e 16b1 8fbe
00000040: 30e6 c4bc 52dd 96bd 804c 483b 1981 15bc
00000050: 0daf 523e eba7 86bd aeb5 2abd 0249 d1bd
00000060: 476e 08be e05a 093f ee6e be3d ad7c 683e
00000070: 8e40 ddbd ef35 8dbd b9ff 84bd e9fc c6bd
00000080: a641 a9bc 0044 ca3c 06af 6ebd b05a 84bd
00000090: 2a43 823d 1520 223e 205b abbb c4ab dabd
000000a0: 75be 25be 5537 bbbc d84b 26be 6f9b 32be
000000b0: 36ae b3bd 3203 5cbd 000c b63d 0c6f d9bd
000000c0: 7f66 adbd 7c47 f0bd 4451 0d3d f474 4bbd
000000d0: f945 ed3d 3805 683d 383e 073e 58da e93c
000000e0: 77bf 9cbd 2d4c 23be db14 1b3e 4196 1cbd
000000f0: 3337 38bd 0019 16bb 8b0d d5bd 88ee e8bc
00000100: 4a44 bc3e 6278 cc3d e5ee 963e 803d 3dbd
00000110: 2941 34bd 5a60 bebd 3fa6 2c3e 72d8 f23d
00000120: 9df8 5d3e e0d2 ab3d 250e d6be 4fc8 aa3d
00000130: 3e61 16bf bc4f f2bd d6fd b23d 7e26 a5be
00000140: 7639 833d 9853 07be d458 2cbe bd40 a93d
00000150: b825 3ebd 60b0 753d 41fc 303e 671d 95bd
00000160: a4c6 43be 019f d63e ad22 1fbe 01ce 0c3e
00000170: dd34 1ebd 2bf9 bb3d fc6d 7dbd 0044 093a
00000180: 84b9 4a3e 80b4 91ba 516c 9a3e 4422 4a3d
00000190: b663 913e e46a 3fbd c81c 7abd b68d 8e3d
000001a0: 464d 6d3e 9a56 8d3e fe23 223f e0a0 06bd
000001b0: e36a 823e f850 7a3d 50d2 c83b 36bc d03e
000001c0: fc31 0cbd 1760 da3e c830 fc3c bc51 843e
000001d0: 7586 eb3e 409c cf3b 7557 6b3f 7b9e fd3c
000001e0: 37ac b43e 4ac4 8fbe 8aa7 fb3d 49ab b23d
000001f0: 588b 833e 8a58 103e 8db5 4ebd 209c a9bc
00000200: 5f72 013e 30b4 b3bc a0a5 303d 5ca2 d4bd
00000210: 403e 1dbb d17c 22be 3ed4 0ebe 8044 433d
00000220: c492 25be 24a8 703d e329 203e c8af f63c
00000230: 4c19 02be ec4f 703d 60e5 0e3c 1373 86bd
00000240: 71f7 113e daa7 0ebe 8095 fcbd f0c4 d53c
00000250: d095 56bc 5017 7c3c 0eb6 a53d c893 79bd
00000260: 6266 c83d 0008 c839 1297 913d baa7 bf3d
00000270: fc1d 79bd 6456 65bd da9e ba3d cb74 123e
00000280: 3bdc 6dbc 670e 0ebe eadb 3abe cb52 183e
00000290: 3507 ffbd a610 c0bd e8a0 e1bc f14c 2c3e
000002a0: 4b63 153b 130f ad3d 5f14 7abe c39d 043e
000002b0: 506b 37bc d5f0 b8bd c39d 3dbe 6ff7 933c
000002c0: cdeb 9dbd 04ca 1ebe 0095 6a3a fa3d aebd
000002d0: 983d b8bd 168d 1abe ee44 d43d c11b 8cbc
000002e0: 214a 553d 8f9f 933d e439 423d 8dc2 c9bd
000002f0: dc36 f7bd ffe1 0f3e 22e4 f13d 7805 7f3d
00000300: b5bf 25be d0e5 a33c 35b1 963d 2665 fc3d
00000310: f5b5 883d 3731 92bd d66c fe3d d3cd bfbd
00000320: 3e7f 71be 5555 9f3d 00b9 5c3d da31 02be
00000330: 9c36 b23d 0023 b43c 832c 97bd 0f80 abbc
00000340: 0a5c fcbd af4a d13d d06e 923d dfbe 733b
00000350: 19a9 c3bc ce2f db3d f7fb f03d 6897 c63c
00000360: 703d 16be 7a80 1bbe e091 d53b 009a 1ebe
00000370: 3949 d7bd aa3e e53d 7cbf 48bd 5547 88bd
00000380: da69 9c3e 98ba 053d 1869 a33e 5b75 143e
00000390: 8935 d13e 009d 243d 657d 1f3e 547b ebbd
000003a0: 8e80 b53d 98d9 753e 01f0 183f 917a 3abd
000003b0: 1938 033f 5641 02be 014c bf3d 9efd 823e
000003c0: 7853 0fbe f529 383e 025e f83d ad5c 263e
000003d0: 5956 093f 9346 003e f937 0e3f 18fe 8b3e
000003e0: d27c 563e aa43 aabd 0816 ac3c 17cd 8d3d
000003f0: 083d b93e a6e7 3fbd 38a5 a6bd 24c1 723d

l7.bias f4 [16]
0.07775439 0.01718134 0.1663529 -0.014787752 -0.16877565 0.0768772 0.0014660913 0.0120572215
0.0749827 0.10609576 -0.10188915 0.10165308 0.066761 -0.19173001 0.039096788 0.12777153
00000000: b23d 9f3d e2bf 8c3c 6a58 2a3e 5448 72bc
00000010: 86d3 2cbe cb71 9d3d dc29 c03a a78b 453c
00000020: 8890 993d bc48 d93d 42ab d0bd 7d2f d03d
00000030: feb9 883d df54 44be f423 203d 8ad6 023e

l8.weight f4 [1, 16]
0.8107377 0.15630187 0.36580908 -0.21596809 0.23412818 0.21237373 -0.029007046 -0.35577267
0.16834652 -0.26659605 0.17346315 -0.26447242 -0.23535468 0.22014019 -0.39993405 0.04219047
00000000: 828c 4f3f 990d 203e 544b bb3e bd26 5dbe
00000010: 4cbf 6f3e 8078 593e 2fa0 edbc d627 b6be
00000020: 0863 2c3e 477f 88be 53a0 313e ee68 87be
00000030: d100 71be 6e6c 613e 28c4 ccbe eacf 2c3d
