project/models/model_w1_0.575_lam_0.1_lam2_1.525_w2_0.05500000000000001.pt_actor.pt (torch, 8440 bytes, 7 tensors)

l1.weight f4 [16, 1]
000000 48 53 4b 3f 45 1a e4 3e 1a 8a 0a be f4 97 cd 3e
       0.7942395 0.44551292 -0.13529244 0.40154994
000010 70 b1 8e bd 80 53 9e 3d 70 ac 14 3f 10 40 ec 3d
       -0.06967437 0.0773077 0.5807562 0.115356565
000020 f0 7f ac 3f 0d 05 c1 bd c2 2b 6b bf e8 d6 d9 be
       1.3476543 -0.094247915 -0.91863644 -0.42546773
000030 1b 2e 4d bf 1e 59 0a 3f c4 1b 34 3f 1a 41 18 3f
       -0.80148476 0.5404223 0.70354867 0.5947434

l1.bias f4 [16]
000000 80 a5 54 3f 7e c3 33 3e 53 9d 57 3f 8a d8 2e bf
       0.8306503 0.17555043 0.8422443 -0.6829916
000010 36 31 12 bf 78 b5 7f bf 3b b1 69 3e 44 b9 03 bf
       -0.5710634 -0.99886274 0.22821514 -0.5145457
000020 e9 02 9a bd fb 7b 41 3f e9 19 5d 3f 7c 40 bf 3e
       -0.07520086 0.75579804 0.8636766 0.37353885
000030 c2 04 5b 3e 56 81 63 3f 9a ad 04 3f 2e 6c 83 3e
       0.21388534 0.88869226 0.51827395 0.25668472

l2.weight f4 [32, 16]
000000 5f a2 de 3d 6c 5e 8f 3d b8 dc af 3e 2c e3 28 be
       0.108708136 0.070004314 0.34348083 -0.16492909
000010 2a ff 1f 3e e0 ad d9 bd a6 e9 a2 3d dc b2 9c 3d
       0.15624681 -0.10628867 0.07954721 0.07651302
000020 cb b8 d4 3f 2d 49 42 bc 65 bf 52 3e 26 51 1d 3e
       1.6618894 -0.011858267 0.20580824 0.15362987
000030 6e e0 2c 3e 5f 01 28 3e d9 40 cc 3e f2 6f 66 bd
       0.16882488 0.16406773 0.39893225 -0.056259103
000040 13 5e b8 3d 16 e3 86 3e 3e 7c fb bd c0 54 f2 3d
       0.09002318 0.26345128 -0.12279557 0.11832571
000050 34 a0 97 bd 74 8c 0b be 2a ee 67 3d 08 e9 40 be
       -0.07403603 -0.13627797 0.056623615 -0.18838894
000060 53 9a 4c 3f 19 4c f7 3b 98 29 17 be 72 82 3e 3d
       0.7992298 0.0075469133 -0.1476196 0.04651112
000070 e1 70 3c be 01 78 46 3e 19 27 b3 3e 3f 5f d1 3e
       -0.18402435 0.19381715 0.34990767 0.4089298
000080 d8 d3 ee 3b 08 11 c1 be ba c9 5c 3e 28 ea b0 3d
       0.0072884373 -0.37708306 0.21561328 0.08638412
000090 58 18 b8 3d 88 cc 5f be 72 f5 7b be fa e9 6f be
       0.08989018 -0.21855366 -0.24605349 -0.23429099
0000a0 ca 6e 44 be 28 79 06 3e cb 80 ca 3e d2 a8 99 3e
       -0.19182888 0.13132155 0.39551386 0.30011612
0000b0 30 64 fb 3e 42 87 97 bd 15 8a 1e 3e 66 5a 3c be
       0.49099874 -0.07398845 0.15482362 -0.1839386
0000c0 f9 5c ba 3e e1 4b f4 3e e3 b5 8a 3e c4 cb a5 bd
       0.36399058 0.4771414 0.27091894 -0.08095506
0000d0 50 32 36 bd b8 f6 5b 3e 0b 4a 6d 3e 58 bc 2b 3d
       -0.044481575 0.21480834 0.23172776 0.041927665
0000e0 26 ed a9 3f 63 2f b9 3e 86 41 90 3e 3c d1 54 3c
       1.3275497 0.36168966 0.2817499 0.0129893385
0000f0 7f e7 a2 3d cc 8a b2 3e 7a 6d 99 3d 3f a3 bf 3e
       0.079543106 0.3487152 0.07491584 0.37429234
000100 cb f0 14 3e 1f 77 da 3e eb 7d 96 3e 80 20 63 bb
       0.1454498 0.42669007 0.29392943 -0.0034656823
000110 12 bb 0a 3e 6c f4 1e 3e 23 f8 73 bd 9c 5d ed 3d
       0.13547924 0.15522927 -0.059562813 0.1159012
000120 41 77 5e 3f dc 57 30 3e 78 93 65 be 34 7c ba 3d
       0.8690072 0.17221016 -0.22419536 0.09105721
000130 5c 23 09 bf ba 9f a1 3e 16 db 0c bd 91 c0 b6 3e
       -0.5356958 0.31567174 -0.034388624 0.35693792
000140 fd 53 70 3e 13 fe 9d 3e c8 35 4b be 64 b0 7b be
       0.23469539 0.30857906 -0.19844735 -0.24579006
000150 00 ca 80 3b c0 37 d1 3d 8e d8 a5 3e c8 79 11 be
       0.0039303303 0.102157116 0.3239178 -0.14206612
000160 7b 56 60 3f 52 b2 24 be fc a8 bb 3d 68 c1 6e bd
       0.8763196 -0.16083649 0.091630906 -0.058289915
000170 d3 0e d2 be f1 c7 91 3e c0 f9 c3 3d e6 e0 b5 3e
       -0.41026935 0.28472856 0.095691204 0.35523146
000180 27 1d cd 3c f6 a9 bc 3e a5 81 5d 3e 70 68 80 bc
       0.025038315 0.3684842 0.21631487 -0.0156748
000190 e0 87 93 bd 10 c7 9b 3d ea 37 c1 3e da 02 0c be
       -0.072036505 0.076063275 0.37737972 -0.13672963
0001a0 04 e8 a6 3f 15 bd 3f 3e f0 3f 6e 3e ff 20 59 3e
       1.3039556 0.18724473 0.23266578 0.21203993
0001b0 13 9f 33 3d 63 e9 16 3d 52 54 70 3e 86 86 0b 3e
       0.043852877 0.03684367 0.23469666 0.13625535
0001c0 32 66 4b bd e4 22 ac 3e 10 e2 70 3e 00 81 aa 3b
       -0.049658008 0.3362037 0.23523736 0.0052033663
0001d0 cc 2a e5 3d 80 00 9f bc 05 a9 ab 3e 22 ab 6f be
       0.111898035 -0.019409418 0.3352739 -0.23405126
0001e0 74 76 7f 3f 8c 38 6a 3e 6d 2f e3 bd 8f e2 81 be
       0.9979012 0.22873133 -0.1109303 -0.25368163
0001f0 1d 86 5d be 2f 38 c5 bd 06 fc f4 3d 1d 48 64 3d
       -0.21633191 -0.09629857 0.11962132 0.055732835
000200 7a c4 14 3e 58 f9 6f 3e e0 b6 77 3d 48 90 dc bd
       0.14528075 0.23434961 0.060477138 -0.10769707
000210 88 52 d0 bd 78 1a f8 3d e8 11 05 3d 80 62 93 3b
       -0.101719916 0.121144235 0.03248778 0.004497826
000220 58 ad 67 be fa 3c 22 be 50 5d 37 be 76 61 79 3e
       -0.22624719 -0.15843573 -0.1790669 0.24353585
000230 c0 fa df bc 7c f5 64 be 36 aa 3b be 20 64 28 bc
       -0.027341247 -0.2235927 -0.18326649 -0.010277778
000240 06 31 59 be 0e 4c 6a be 10 41 a1 3c 2a e9 00 3e
       -0.21210107 -0.22880575 0.019684345 0.12588945
000250 98 57 d7 3d a2 47 3c be 10 9a c8 bc 94 c0 a8 3d
       0.10514754 -0.18386701 -0.024487525 0.08239856
000260 d2 00 29 3e c4 6d 4d be c6 0a 3e be 78 5c f1 3d
       0.16504219 -0.20061404 -0.18558797 0.11785215
000270 36 66 7f be 04 f5 d8 bd 28 17 a9 bd d0 c5 f9 3c
       -0.24941334 -0.10593608 -0.0825637 0.030489832
000280 d6 dc 29 be fc df 08 be 00 4c c3 b9 e8 9e c0 3d
       -0.16588148 -0.13366693 -0.00037249923 0.09405309
000290 7e 74 5f be 20 6e 5a be e2 96 6c be f4 e5 b0 bd
       -0.21821782 -0.21331072 -0.23104432 -0.0863761
0002a0 d0 1d 31 be 0e c6 61 be 00 48 24 bc 64 54 5e 3e
       -0.17296529 -0.22048208 -0.010026932 0.2171188
0002b0 c4 aa 0d be 50 a3 1c 3e 20 48 7c bd ee 80 04 3e
       -0.13834673 0.15296674 -0.06159222 0.12939808
0002c0 b5 ea 27 bd 69 7b 3a be 03 c4 f9 3d d4 6c 43 be
       -0.04099532 -0.1821114 0.121955894 -0.19084483
0002d0 12 54 69 3e a0 30 67 3d 8a ff e9 3d d8 77 3b bd
       0.22785977 0.056442857 0.11425693 -0.04576859
0002e0 2a 1b da bd 55 5f d6 3c 01 23 e8 bc 52 3a 81 3d
       -0.106497124 0.026168505 -0.028337004 0.06309952
0002f0 f8 db 15 3d 16 aa 54 be 73 0d 38 3d fd 40 73 3e
       0.03658673 -0.20768008 0.0449347 0.2375526
000300 77 02 21 3e e0 e5 e2 be 78 23 4f 3e f4 56 1f be
       0.15723597 -0.44316006 0.20228374 -0.15560514
000310 28 30 38 be e0 81 9f 3d 1f 08 1a bd b0 aa ed 3d
       -0.1798712 0.077884436 -0.0376054 0.11604822
000320 b8 f2 aa be 99 11 dc 3d f1 01 d2 3d 33 39 4f 3e
       -0.33388305 0.10745544 0.102542765 0.20236664
000330 27 a6 88 3e b0 17 2a be 7a d5 07 3e 76 8b 92 be
       0.26689264 -0.16610599 0.13265029 -0.28622025
000340 9d e3 3e 3e cb 86 f1 3e b9 bb 18 be ca 94 4a 3e
       0.18641515 0.4717315 -0.1491536 0.19783321
000350 90 a4 6a 3d c0 21 3c 3c 53 89 d5 3e a8 d3 44 be
       0.057285845 0.011482656 0.41706333 -0.19221365
000360 f2 06 85 3f fc 62 b1 bc a1 44 24 be b4 e2 19 be
       1.0392745 -0.021653645 -0.16041805 -0.15027887
000370 11 6f 50 be 82 2a 44 3e d1 d6 bf 3e 10 a7 c1 3e
       -0.20354868 0.1915684 0.3746858 0.3782277
000380 24 71 74 be 30 07 2f 3e 50 87 7d 3d 10 3f 3c 3d
       -0.23871285 0.17092586 0.061896622 0.04595858
000390 58 3f d5 bd de 5b 1e 3e 50 9d 26 be dc 87 dd bd
       -0.104124725 0.15464732 -0.16270947 -0.10816929
0003a0 ba 18 20 3e bc 62 77 3e 54 a3 b2 bd b4 fe 25 3e
       0.15634432 0.24158758 -0.087225586 0.16210443
0003b0 34 16 00 be 46 1a 74 be fc 5d d3 3d 50 74 ab 3d
       -0.1250847 -0.23838148 0.103206605 0.08371794
0003c0 66 b3 98 3d 34 22 d6 3e 1f f2 dd 3d 10 6b 42 3e
       0.074560925 0.4182297 0.108371966 0.18986154
0003d0 82 7d 39 be 54 56 b1 3d 45 83 ec 3d 9c b4 b9 3d
       -0.18114284 0.08659044 0.11548475 0.09067652
0003e0 d1 44 8a 3f 8f e8 05 3d 82 0c ae 3d af a8 a3 be
       1.0802251 0.03269249 0.084984794 -0.31964633
0003f0 a0 b1 9b be 63 3a 13 3e 4e 0c 0e 3e 26 e4 70 3e
       -0.30408955 0.14377742 0.13871881 0.23524532

l2.bias f4 [32]
000000 16 1a 4c 3e df 72 f6 3d 8f 31 75 bc db 22 ca 3e
       0.19931826 0.12033629 -0.014965429 0.39479718
000010 31 53 25 be 39 23 05 3e 84 2d 60 3e 53 f8 6a 3d
       -0.16145016 0.13001718 0.21892363 0.057365727
000020 04 bf 44 3e 6e 30 4c be 80 e9 44 bd 11 a4 e0 bc
       0.19213492 -0.1994035 -0.048074245 -0.027421983
000030 67 6e 05 bd 78 7b 6c 3e 6e 3f 25 be a5 f3 a5 3e
       -0.03257599 0.23093975 -0.16137478 0.3241245
000040 a0 40 5e be fe 57 65 be b4 c7 87 3e 13 c7 60 3e
       -0.2170434 -0.22396848 0.2651955 0.21950941
000050 1a f0 f3 3d 8d 0c 89 3e 57 75 97 3e c0 74 70 3e
       0.1191103 0.26767388 0.2958171 0.23482037
000060 80 db 87 bd 1f 1b ed 3d b8 5c 35 3e 78 ad cf bd
       -0.06633663 0.115774386 0.1771115 -0.101405084
000070 80 bd 42 3e 8a 25 38 3d 08 3b c1 3d 76 f5 5e be
       0.19017601 0.044957675 0.094350874 -0.21773323

l3.weight f4 [16, 32]
000000 22 3a 30 3e 71 af d2 bd 79 33 6d 3e 14 0c db 3d
       0.17209676 -0.10287369 0.23164167 0.10695663
000010 38 a7 94 3b fc d2 21 be 7b 91 02 be b5 40 8d be
       0.0045365356 -0.1580314 -0.12750809 -0.2758843
000020 8e 3a 0d be 60 d9 d4 3c 5a 9d ca 3d 70 04 c9 3b
       -0.13791868 0.025982559 0.09893294 0.006134562
000030 1a 6c 11 3d 8a dd 57 bb 98 92 b0 bc a5 0d 0a be
       0.035503484 -0.0032938444 -0.021554276 -0.13481767
000040 f0 8b 5f bc ac 0f 62 3d 07 9c 6f 3c 66 46 e3 3d
       -0.013644204 0.055190727 0.014624602 0.11097412
000050 49 ff 05 3e 3b 9c 76 bd 0c ff b1 bc c0 e9 fc 3d
       0.13085665 -0.060207587 -0.021728061 0.12349272
000060 80 d6 2a 3b d5 0e 8a 3e a0 24 0e 3d ac 24 24 be
       0.0026067793 0.2696444 0.034702897 -0.16029614
000070 72 74 aa 3d d2 13 3f 3b cc fb 34 3d c4 bb 13 be
       0.083229914 0.00291561 0.044185445 -0.14427096
000080 d6 05 ea 3d 22 51 aa bd cc 3f 34 3d 01 c5 02 be
       0.11426894 -0.08316256 0.044006154 -0.12770464
000090 58 28 9a bc e8 f9 09 bd 60 a3 44 bd 4e d2 c6 3d
       -0.018818066 -0.033685595 -0.04800737 0.09708081
0000a0 2d 84 cc bd 98 80 e9 3c 30 d9 17 3d b7 59 9e bd
       -0.09986148 0.028503701 0.03707236 -0.077319555
0000b0 a8 64 0b be 94 61 5f bd 80 41 3e 3c 14 33 38 bd
       -0.13612616 -0.054536417 0.011612296 -0.044970587
0000c0 e0 a2 99 bb b8 4c b3 3c ce 49 c4 3d 9c fa ed bd
       -0.0046886057 0.021887168 0.095843896 -0.116200656
0000d0 58 b8 01 be f0 10 75 3d 74 55 57 3d e4 ce 29 bd
       -0.12667978 0.059830606 0.05257173 -0.041457072
0000e0 88 c8 3a 3d b0 e6 8d 3c 60 39 2a 3c d8 a0 d1 3c
       0.045601398 0.017321914 0.010389656 0.025589392
0000f0 3e 3e df 3d 9b 0f 8e bd 44 28 23 be 28 58 a7 bc
       0.10900544 -0.0693657 -0.15933329 -0.020427778
000100 d1 f4 c0 3d a8 d1 b1 bd 91 a5 5a be 7f fb 59 be
       0.09421695 -0.08682567 -0.21352221 -0.21287344
000110 4c f7 ea bd c1 b2 cc bc 67 c5 1d bd a0 56 b4 bd
       -0.114729494 -0.02498758 -0.038518336 -0.08805585
000120 b0 fc b6 3c 22 ee 75 bd 0b 0d 1a 3e b8 48 c2 bd
       0.022337288 -0.060041554 0.15044038 -0.09486526
000130 1c 62 cc 3d f7 76 81 bd 1b bc b2 bd 30 74 7c 3d
       0.099796504 -0.06321519 -0.087272845 0.061634243
000140 39 00 c1 bd 4e c9 24 be 2d 37 2b be e6 57 2f bd
       -0.094238706 -0.16092417 -0.16720267 -0.042808436
000150 d2 63 0c 3e 56 7c 2d be c8 5f d7 3d a1 34 a9 3d
       0.13709953 -0.16941962 0.10516316 0.08261991
000160 b2 c9 d1 3d 0b 1f e6 3d a0 01 3b 3d 2e b0 e4 3d
       0.102435485 0.1123639 0.045655847 0.11166416
000170 00 4e f2 3c f3 f1 0c 3d bc 13 a8 bd 5e 69 01 be
       0.029578209 0.03441043 -0.08206889 -0.1263785
000180 83 2f 88 bd 82 ea e7 bd 87 30 12 3e 39 8e 11 be
       -0.06649687 -0.11324026 0.14276324 -0.1421441
000190 50 71 58 3d 12 b2 02 be 74 68 8f bd 8c 8c 0c 3d
       0.05284244 -0.12763241 -0.07002345 0.034313723
0001a0 8e d1 f1 3d 30 2c fe 3c 40 08 c9 bc 70 88 23 bc
       0.118075475 0.03102693 -0.024540067 -0.00998126
0001b0 af 3f e5 bd c8 a1 ac bc 32 e1 f1 3d d8 00 cf bc
       -0.11193787 -0.021073237 0.11810531 -0.025268957
0001c0 00 76 0a 3a dd 7c 32 3e c0 83 71 bc 8f 87 2f 3e
       0.00052818656 0.17430444 -0.014740884 0.17141555
0001d0 a0 5f 89 3d ee 98 10 be ab 99 e4 bd f0 a6 82 3d
       0.06707692 -0.14120838 -0.11162122 0.06379497
0001e0 25 4e c0 bd 29 6f b3 bd 5e 9a af bd 92 75 aa bd
       -0.09389905 -0.087614365 -0.08574365 -0.08323206
0001f0 c0 f4 01 bc 46 dc dc 3d 80 f2 06 be 60 d6 e1 3c
       -0.007931888 0.10784201 -0.13178444 0.027568042
000200 84 c9 b0 3d b9 3a 67 3d 29 aa 1e 3e 63 eb 19 be
       0.08632186 0.056452487 0.15494598 -0.15031199
000210 a0 3d be bc 85 df 2e be d6 ec a0 3d 27 b6 c1 bd
       -0.023222744 -0.17077453 0.07857673 -0.09458571
000220 c0 b8 fd 3c 44 81 1c bd 99 1c 10 3e 8e 6a 29 be
       0.030971885 -0.038209215 0.14073409 -0.16544554
000230 9b 9f fa bd 96 4e b2 3d 5e 98 90 bd 9c bb 2a be
       -0.122374736 0.08706395 -0.07060312 -0.1667313
000240 c0 c5 21 bb a9 1c e7 bd c8 94 82 3c ac ab b2 3c
       -0.0024684519 -0.11284763 0.015940085 0.021810375
000250 bc ab f7 bd 12 f3 be 3d f0 1f 15 be a4 c1 f0 bb
       -0.120933026 0.09323706 -0.14562964 -0.0073473025
000260 07 6f 1c 3e 7d fd 86 bc 43 dd 02 be 7f 22 09 3e
       0.15276729 -0.016478295 -0.12779717 0.13392065
000270 97 51 10 be 9d 10 30 bd 22 49 ac bd 84 5e 50 bd
       -0.14093624 -0.042984594 -0.084123865 -0.050871387
000280 f9 e1 16 3e 33 2b d3 bd 9f 9d ee 3d 4b a2 3d 3d
       0.14734639 -0.10310974 0.116511576 0.046297353
000290 0f c2 59 be a5 bf 73 be ae 99 05 3d 0b 5b 2a be
       -0.21265434 -0.23803575 0.032617263 -0.16636293
0002a0 c8 9e d4 bd 96 53 f5 bd 5f 74 04 3e 4b 0f 2f 3e
       -0.103818476 -0.119788334 0.12935017 0.17095678
0002b0 66 e2 e1 bc d2 4b 35 bd 90 55 a2 bc bd 8e 93 3a
       -0.027573776 -0.04426176 -0.01981619 0.0011257749
0002c0 48 eb 0f be 32 af bd 3d e1 49 92 bd 51 d8 e3 3e
       -0.14054596 0.092619315 -0.071429975 0.44500974
0002d0 59 6c 45 3e 3f 9d 4c be 3a c6 50 3e d2 41 8f 3d
       0.19279613 -0.1998186 0.20388117 0.06994976
0002e0 0c 9c 74 3d 38 15 9c 3e 50 b3 86 3c 20 43 f9 bb
       0.05971913 0.3048494 0.016442925 -0.007606879
0002f0 93 10 2a 3e 5f c1 c9 3d cf f0 cd bd 86 30 d3 bd
       0.16607885 0.09851336 -0.10055696 -0.103119895
000300 f7 02 bb 3c 2f 19 c3 bd 14 f4 9d 3e e3 d5 82 3d
       0.022828562 -0.09526288 0.3085028 0.06388452
000310 64 c7 a7 bd 00 b3 da 3c 30 02 ed 3c 53 30 69 be
       -0.081923276 0.026696682 0.028931707 -0.2277234
000320 6a ee 1f be 20 40 dd 3b 50 ae 01 3d 75 95 03 be
       -0.15618291 0.006752029 0.031660378 -0.12849982
000330 bd 12 cf 3d 74 61 58 be e6 02 a1 bd 2b e7 22 3e
       0.10110996 -0.21130925 -0.07861881 0.15908496
000340 52 33 86 3d 02 45 b9 bd 9e 1b 80 bd 70 b0 70 3e
       0.06552757 -0.09046365 -0.062552676 0.23504806
000350 03 b0 68 3e 57 4c 64 be c5 17 71 3e ba 1a 50 3e
       0.22723393 -0.22294746 0.23544224 0.20322695
000360 60 dd 85 bb a4 6d d9 3d 38 6e 92 3d a3 4d 0f 3e
       -0.004085228 0.106166154 0.07149929 0.1399446
000370 53 7f d2 bd 23 ce 88 3e 86 39 b9 3d b2 1d 75 bd
       -0.102781914 0.2671977 0.09044175 -0.059842773
000380 d0 09 4c bc 7f 74 06 be 2b a6 e9 bc 54 c0 2b bb
       -0.012453511 -0.13130377 -0.028521618 -0.0026207166
000390 ca 6b 15 3e 99 8e 18 3a 5f c4 ef 3d c0 95 11 be
       0.145919 0.00058195886 0.11707377 -0.14217281
0003a0 14 0b 0f bd f8 78 e3 3c 40 62 25 bb 95 e6 a6 3d
       -0.034922674 0.027767643 -0.0025235564 0.08149449
0003b0 f6 53 6f 3d 08 d8 8d 3d d3 0f 29 3e f9 95 4b be
       0.05842968 0.0692597 0.16509943 -0.19881429
0003c0 d4 7b 57 bd 06 69 a3 3d 1f 5f ad bb 90 5e 45 bd
       -0.052608326 0.07979016 -0.0052908803 -0.048185885
0003d0 4f 7c 52 3d a9 05 3a 3d 05 95 39 3e 83 b2 1b 3e
       0.05138808 0.045415554 0.18123253 0.15204816
0003e0 30 e7 66 bc 92 0b ab bd 1c 96 31 3d b4 d5 75 3d
       -0.014093205 -0.08351816 0.043356046 0.060018256
0003f0 20 8a 15 bd f2 94 d3 bd 86 92 b0 3d b4 48 37 bd
       -0.03650868 -0.103311434 0.08621697 -0.04474707

l3.bias f4 [16]
000000 6e ee ac 3d 3c 1d 0a be 7e 48 a7 3d 78 7a 15 be
       0.08443914 -0.13487715 0.08168124 -0.145975
000010 ca 45 10 3e 4d 1e 72 3e 2c 05 91 3b c0 19 1c be
       0.14089122 0.23644371 0.0044256654 -0.15244198
000020 98 98 bb 3d 49 04 ad bd b4 35 52 3e 1b 68 05 3e
       0.09159964 -0.08448083 0.20528299 0.13027994
000030 e8 17 46 3e 8a bf 59 3e e5 74 2e 3e ed 1e 16 3e
       0.19345057 0.21264473 0.17036779 0.14660235

l4.weight f4 [1, 16]
000000 38 9c 96 3e a0 e6 b2 bd 96 25 ed bc 54 2b 4e be
       0.2941606 -0.087353945 -0.028948586 -0.20133716
000010 8d 24 1b bd 4d 2c cb 3e 7b b8 a1 3e d7 83 52 3e
       -0.037876654 0.39682236 0.3158606 0.20558105
000020 e2 da 5d be 20 3a 52 bd 7b 15 1d 3e c1 67 f0 be
       -0.21665528 -0.051324964 0.15340225 -0.46954158
000030 fa fe 75 3e 64 c5 04 be d4 eb 9f 3d 34 f5 63 be
       0.24023047 -0.12965924 0.078086525 -0.22261506
