project/models/model_w1_1.05_lam_0.575_lam2_1.525_w2_0.1.pt_actor.pt (torch, 8196 bytes, 7 tensors)

l1.weight f4 [16, 1]
00000000: a901 563f abac e53e b3a8 13be f497 cd3e
00000010: 70b1 8ebd 8053 9e3d 0545 153f 1040 ec3d
00000020: a305 b43f c6d4 c1bd 1b1e 6ebf ce06 e3be
00000030: cb61 39bf 23dd 163f c18d 433f 9097 203f
0.83596283 0.44858298 -0.14419822 0.40154994 -0.06967437 0.0773077 0.5830844 0.115356565
1.406422 -0.094644114 -0.9301469 -0.4434113 -0.72414845 0.5893118 0.76388174 0.62731266

l1.bias f4 [16]
00000000: 4a54 543f f87b 343e 1b35 573f 8ad8 2ebf
00000010: 3631 12bf 78b5 7fbf ba17 6a3e 44b9 03bf
00000020: 41cb 93bd 812d 413f 62ee 5c3f cef1 be3e
00000030: f3d9 5e3e 7e50 633f d659 043f 6946 833e
0.82941115 0.17625415 0.8406541 -0.6829916 -0.5710634 -0.99886274 0.22860613 -0.5145457
-0.07216502 0.7546006 0.86301243 0.37293857 0.21762829 0.88794696 0.5169958 0.25639656

l2.weight f4 [32, 16]
00000000: f85d e23d 6cc0 973d acf2 af3e 2ce3 28be
00000010: 2aff 1f3e e0ad d9bd 1817 ab3d dcb2 9c3d
00000020: f5bd 1e40 afdf 3ebc fbb8 513e 5b07 1c3e
00000030: c74e 293e b36b 293e ad7d cd3e bf0c 57bd
00000040: 812b b93d af4d 873e 377c fbbd c054 f23d
00000050: 34a0 97bd 748c 0bbe 2cb2 6b3d 08e9 40be
00000060: 0525 463f 6e4e f83b e2a7 17be 35dd 3c3d
00000070: 95e7 3cbe 50b1 463e a16e b33e 8fd1 d13e
00000080: cf38 e23b 9c36 c1be 7464 5c3e 28ea b03d
00000090: 5818 b83d 88cc 5fbe e75b 7cbe fae9 6fbe
000000a0: 9ccc af3c 900f 063e be63 ca3e bd7c 993e
000000b0: e00d fb3e ae34 98bd 9622 1e3e dbc3 3cbe
000000c0: 5946 bd3e c35f fb3e ae6c 8a3e c4cb a5bd
000000d0: 5032 36bd b8f6 5b3e 7092 7b3e 58bc 2b3d
000000e0: 9c0d 2240 5804 b93e 824d 8d3e cecc de3b
000000f0: 6b60 893d 1f77 b43e 82c8 a93d db56 c63e
00000100: fb65 153e 78e4 da3e a688 963e 8020 63bb
00000110: 12bb 0a3e 6cf4 1e3e 1b1e 70bd 9c5d ed3d
00000120: f8ea 543f e574 303e a4f6 65be 5ae0 b93d
00000130: 9e38 09bf 91c4 a13e ed6d 0abd 5c36 b73e
00000140: 865d 703e 9f1e 9e3e 3969 4bbe 64b0 7bbe
00000150: 00ca 803b c037 d13d c206 a63e c879 11be
00000160: c27f 463f d6de 24be 1489 ba3d ad9e 70bd
00000170: dd3a d2be e4bc 913e a33f c43d 680c b63e
00000180: d617 9f3c d177 ba3e 80ce 563e 7068 80bc
00000190: e087 93bd 10c7 9b3d 71f8 be3e da02 0cbe
000001a0: 8524 f33f 5f0d 393e 71f2 663e 98a2 513e
000001b0: b83b 123d aff3 fd3c 4be8 6a3e 93df 063e
000001c0: ac6f 4cbd d70a ac3e 707f 703e 0081 aa3b
000001d0: cc2a e53d 8000 9fbc db9e ab3e 22ab 6fbe
000001e0: 9dad 5a3f 8edb 693e 6f80 e4bd 5529 82be
000001f0: 69ca 5dbe 90ed c5bd 5394 f43d caea 633d
00000200: 7ac4 143e 58f9 6f3e e0b6 773d 4890 dcbd
00000210: 8852 d0bd 781a f83d e811 053d 8062 933b
00000220: 58ad 67be fa3c 22be 505d 37be 7661 793e
00000230: c0fa dfbc 7cf5 64be 36aa 3bbe 2064 28bc
00000240: 0631 59be 0e4c 6abe 1041 a13c 2ae9 003e
00000250: 9857 d73d a247 3cbe 109a c8bc 94c0 a83d
00000260: d200 293e c46d 4dbe c60a 3ebe 785c f13d
00000270: 3666 7fbe 04f5 d8bd 2817 a9bd d0c5 f93c
00000280: d6dc 29be fcdf 08be 004c c3b9 e89e c03d
00000290: 7e74 5fbe 206e 5abe e296 6cbe f4e5 b0bd
000002a0: d01d 31be 0ec6 61be 0048 24bc 6454 5e3e
000002b0: c4aa 0dbe 50a3 1c3e 2048 7cbd ee80 043e
000002c0: b5ea 27bd 697b 3abe 03c4 f93d d46c 43be
000002d0: 1254 693e a030 673d 8aff e93d d877 3bbd
000002e0: 2a1b dabd 555f d63c 0123 e8bc 523a 813d
000002f0: f8db 153d 16aa 54be 730d 383d fd40 733e
00000300: 92d4 1f3e 0978 e3be 5602 4e3e f456 1fbe
00000310: 2830 38be e081 9f3d 0d09 1fbd b0aa ed3d
00000320: 466f 0ebe 32c5 d93d 522a d03d f130 4e3e
00000330: 6409 883e 8e33 2bbe 7f9f 063e 742c 93be
00000340: 683e 3f3e 47df f13e 4bb5 18be ca94 4a3e
00000350: 90a4 6a3d c021 3c3c d8ef d53e a8d3 44be
00000360: c6dd 7a3f fcf4 b0bc b4ad 24be 5435 1abe
00000370: 51c7 50be 925d 443e ef14 c03e 9808 c23e
00000380: 2471 74be 3007 2f3e 5087 7d3d 103f 3c3d
00000390: 583f d5bd de5b 1e3e 509d 26be dc87 ddbd
000003a0: ba18 203e bc62 773e 54a3 b2bd b4fe 253e
000003b0: 3416 00be 461a 74be fc5d d33d 5074 ab3d
000003c0: 7847 9a3d a2e8 d63e 0639 de3d 106b 423e
000003d0: 827d 39be 5456 b13d e5d4 ef3d 9cb4 b93d
000003e0: 8061 953f 089f 063d 1aef ac3d 79e8 a3be
000003f0: 731c 9cbe d3c3 133e d415 0f3e d777 723e
0.11053079 0.074097484 0.3436483 -0.16492909 0.15624681 -0.10628867 0.08354014 0.07651302
2.480344 -0.01165001 0.2048072 0.15237181 0.16533957 0.1654499 0.40134946 -0.05250239
0.09041501 0.26426455 -0.122795515 0.11832571 -0.07403603 -0.13627797 0.057542965 -0.18838894
0.7740024 0.007577709 -0.14810136 0.046109397 -0.18447717 0.19403577 0.3504534 0.40980193
0.006903745 -0.37736976 0.21522695 0.08638412 0.08989018 -0.21855366 -0.24644433 -0.23429099
0.02145987 0.13091874 0.39529222 0.2997798 0.49034023 -0.07431923 0.15442881 -0.18434088
0.36967734 0.49096498 0.2703604 -0.08095506 -0.044481575 0.21480834 0.2456758 0.041927665
2.5320807 0.36136127 0.27598196 0.006799317 0.067078434 0.35247132 0.08290197 0.3873814
0.14589684 0.42752433 0.2940113 -0.0034656823 0.13547924 0.15522927 -0.05862246 0.1159012
0.83171034 0.17232092 -0.22457367 0.09075995 -0.53602016 0.3159528 -0.03379624 0.3578366
0.23473176 0.30882737 -0.19864358 -0.24579006 0.0039303303 0.102157116 0.3242703 -0.14206612
0.7753869 -0.1610063 0.09108177 -0.058745075 -0.41060534 0.28464425 0.0958245 0.3555634
0.019420546 0.36419538 0.20977211 -0.0156748 -0.072036505 0.076063275 0.3729892 -0.13672963
1.899552 0.18071507 0.22553422 0.20472181 0.035701483 0.030999986 0.22940175 0.13171224
-0.049911186 0.3360202 0.23486114 0.0052033663 0.111898035 -0.019409418 0.33519635 -0.23405126
0.8542116 0.2283766 -0.11157309 -0.2542216 -0.21659245 -0.09664452 0.11942353 0.055643834
0.14528075 0.23434961 0.060477138 -0.10769707 -0.101719916 0.121144235 0.03248778 0.004497826
-0.22624719 -0.15843573 -0.1790669 0.24353585 -0.027341247 -0.2235927 -0.18326649 -0.010277778
-0.21210107 -0.22880575 0.019684345 0.12588945 0.10514754 -0.18386701 -0.024487525 0.08239856
0.16504219 -0.20061404 -0.18558797 0.11785215 -0.24941334 -0.10593608 -0.0825637 0.030489832
-0.16588148 -0.13366693 -0.00037249923 0.09405309 -0.21821782 -0.21331072 -0.23104432 -0.0863761
-0.17296529 -0.22048208 -0.010026932 0.2171188 -0.13834673 0.15296674 -0.06159222 0.12939808
-0.04099532 -0.1821114 0.121955894 -0.19084483 0.22785977 0.056442857 0.11425693 -0.04576859
-0.106497124 0.026168505 -0.028337004 0.06309952 0.03658673 -0.20768008 0.0449347 0.2375526
0.15608433 -0.44427517 0.20118079 -0.15560514 -0.1798712 0.077884436 -0.03882699 0.11604822
-0.13909635 0.10633315 0.10164322 0.20135857 0.26569664 -0.16718885 0.1314678 -0.28744853
0.1867615 0.4724066 -0.14912908 0.19783321 0.057285845 0.011482656 0.4178455 -0.19221365
0.9799465 -0.021601193 -0.16081887 -0.15059406 -0.20388533 0.19176319 0.3751597 0.37897182
-0.23871285 0.17092586 0.061896622 0.04595858 -0.104124725 0.15464732 -0.16270947 -0.10816929
0.15634432 0.24158758 -0.087225586 0.16210443 -0.1250847 -0.23838148 0.103206605 0.08371794
0.07533163 0.4197436 0.1085072 0.18986154 -0.18114284 0.08659044 0.11710528 0.09067652
1.167038 0.032866508 0.084440425 -0.320133 -0.30490455 0.1443017 0.1397317 0.23678528

l2.bias f4 [32]
00000000: 3798 4c3e 5b6b f63d e05b 7abc 2247 ca3e
00000010: da42 25be 08e6 043e 99af 593e 9c35 693d
00000020: 04bf 443e 6e30 4cbe 80e9 44bd 11a4 e0bc
00000030: 10b0 09bd 697b 6c3e 6e3f 25be 1308 a63e
00000040: a040 5ebe fe57 65be cbc9 873e 0ba6 603e
00000050: 765c f43d 93fd 883e 6739 973e 2dda 6f3e
00000060: 80db 87bd f325 ed3d b85c 353e 78ad cfbd
00000070: 80bd 423e 5781 353d 083b c13d d412 4fbe
0.1997994 0.12032195 -0.015280694 0.39507395 -0.16138783 0.12978375 0.21258391 0.05693589
0.19213492 -0.1994035 -0.048074245 -0.027421983 -0.033615172 0.23093952 -0.16137478 0.32428035
-0.2170434 -0.22396848 0.26521143 0.2193834 0.11931698 0.26755962 0.29535982 0.23423071
-0.06633663 0.11579504 0.1771115 -0.101405084 0.19017601 0.0443128 0.094350874 -0.20222026

l3.weight f4 [16, 32]
00000000: d1fc 313e decd cabd 4673 6c3e 80fb de3d
00000010: 1f9a 093c de13 1ebe ac0f 01be 3837 8abe
00000020: 8e3a 0dbe 60d9 d43c 5a9d ca3d 7004 c93b
00000030: 5f26 083d 4a3d fb38 9892 b0bc d6f0 06be
00000040: f08b 5fbc ac0f 623d 5468 963c 3b02 e23d
00000050: 3503 073e 3878 69bd e161 b5bc 372e fd3d
00000060: 80d6 2a3b 34c4 893e a024 0e3d ac24 24be
00000070: 7274 aa3d 9d39 923a ccfb 343d 7cab 67bf
00000080: d605 ea3d 2251 aabd cc3f 343d 01c5 02be
00000090: 5828 9abc e8f9 09bd 60a3 44bd 4ed2 c63d
000000a0: 2d84 ccbd 9880 e93c 30d9 173d b759 9ebd
000000b0: a864 0bbe 9461 5fbd 8041 3e3c 1433 38bd
000000c0: e0a2 99bb b84c b33c ce49 c43d 9cfa edbd
000000d0: 58b8 01be f010 753d 7455 573d e4ce 29bd
000000e0: 88c8 3a3d b0e6 8d3c 6039 2a3c d8a0 d13c
000000f0: 3e3e df3d 9b0f 8ebd 4428 23be 2858 a7bc
00000100: d1f4 c03d a8d1 b1bd 91a5 5abe 7ffb 59be
00000110: 4cf7 eabd c1b2 ccbc 67c5 1dbd a056 b4bd
00000120: b0fc b63c 22ee 75bd 0b0d 1a3e b848 c2bd
00000130: 1c62 cc3d f776 81bd 1bbc b2bd 3074 7c3d
00000140: 3900 c1bd 4ec9 24be 2d37 2bbe e657 2fbd
00000150: d263 0c3e 567c 2dbe c85f d73d a134 a93d
00000160: b2c9 d13d 0b1f e63d a001 3b3d 2eb0 e43d
00000170: 004e f23c f3f1 0c3d bc13 a8bd 5e69 01be
00000180: 832f 88bd 82ea e7bd 8730 123e 398e 11be
00000190: 5071 583d 12b2 02be 7468 8fbd 8c8c 0c3d
000001a0: 8ed1 f13d 302c fe3c 4008 c9bc 7088 23bc
000001b0: af3f e5bd c8a1 acbc 32e1 f13d d800 cfbc
000001c0: 0076 0a3a dd7c 323e c083 71bc 8f87 2f3e
000001d0: a05f 893d ee98 10be ab99 e4bd f0a6 823d
000001e0: 254e c0bd 296f b3bd 5e9a afbd 9275 aabd
000001f0: c0f4 01bc 46dc dc3d 80f2 06be 60d6 e13c
00000200: 84c9 b03d b93a 673d 29aa 1e3e 63eb 19be
00000210: a03d bebc 85df 2ebe d6ec a03d 27b6 c1bd
00000220: c0b8 fd3c 4481 1cbd 991c 103e 8e6a 29be
00000230: 9b9f fabd 964e b23d 5e98 90bd 9cbb 2abe
00000240: c0c5 21bb a91c e7bd c894 823c acab b23c
00000250: bcab f7bd 12f3 be3d f01f 15be a4c1 f0bb
00000260: 076f 1c3e 7dfd 86bc 43dd 02be 7f22 093e
00000270: 9751 10be 9d10 30bd 2249 acbd 845e 50bd
00000280: b122 193e 41c9 c9bd e06b ed3d 514d 473d
00000290: b40b 55be b442 6fbe b395 0d3d 2350 23be
000002a0: c89e d4bd 9653 f5bd 5f74 043e 4b0f 2f3e
000002b0: 17f9 f3bc 0355 24bd 9055 a2bc 6745 9c3b
000002c0: 48eb 0fbe 32af bd3d 241a 89bd a399 e33e
000002d0: 0cde 463e 459d 48be 829d 503e fe32 903d
000002e0: 0c9c 743d 7be2 9b3e 50b3 863c 2043 f9bb
000002f0: 9310 2a3e 6a48 c63d cff0 cdbd 1f9f 67bf
00000300: 53af c43c 0bc4 bcbd 1d86 9d3e 0dcc 853d
00000310: 9a6e a1bd caab f23c f6db f43c 2817 64be
00000320: 6aee 1fbe 2040 dd3b 50ae 013d 7595 03be
00000330: f969 ca3d 96a6 55be e602 a1bd 8261 253e
00000340: 5233 863d 0245 b9bd fe22 74bd d2f7 6f3e
00000350: f939 693e a8bc 61be cb68 703e d5e2 4f3e
00000360: 60dd 85bb 7cf6 d73d 386e 923d a34d 0f3e
00000370: 537f d2bd afd5 873e 8639 b93d 2021 6cbf
00000380: 38fd 87bc 6a51 0abe 2ba6 e9bc 7970 c1bb
00000390: 6f29 113e 8385 30bb 3f23 e83d f29c 15be
000003a0: 140b 0fbd f878 e33c 4062 25bb 95e6 a63d
000003b0: f653 6f3d 685e 863d d30f 293e 773a 50be
000003c0: d47b 57bd 0669 a33d 0bf6 09bc 905e 45bd
000003d0: f52b 493d 15c3 283d c9c0 383e ec5d 1a3e
000003e0: 30e7 66bc 5f5b abbd 1c96 313d b4d5 753d
000003f0: 208a 15bd f294 d3bd 8692 b03d e6d7 3abd
0.17381598 -0.09902547 0.23090848 0.108878136 0.008398562 -0.15437266 -0.12603635 -0.26995254
-0.13791868 0.025982559 0.09893294 0.006134562 0.03323972 0.00011980029 -0.021554276 -0.13177809
-0.013644204 0.055190727 0.018360294 0.11035582 0.13184817 -0.056999415 -0.022141399 0.123623304
0.0026067793 0.26907504 0.034702897 -0.16029614 0.083229914 0.0011156086 0.044185445 -0.9049604
0.11426894 -0.08316256 0.044006154 -0.12770464 -0.018818066 -0.033685595 -0.04800737 0.09708081
-0.09986148 0.028503701 0.03707236 -0.077319555 -0.13612616 -0.054536417 0.011612296 -0.044970587
-0.0046886057 0.021887168 0.095843896 -0.116200656 -0.12667978 0.059830606 0.05257173 -0.041457072
0.045601398 0.017321914 0.010389656 0.025589392 0.10900544 -0.0693657 -0.15933329 -0.020427778
0.09421695 -0.08682567 -0.21352221 -0.21287344 -0.114729494 -0.02498758 -0.038518336 -0.08805585
0.022337288 -0.060041554 0.15044038 -0.09486526 0.099796504 -0.06321519 -0.087272845 0.061634243
-0.094238706 -0.16092417 -0.16720267 -0.042808436 0.13709953 -0.16941962 0.10516316 0.08261991
0.102435485 0.1123639 0.045655847 0.11166416 0.029578209 0.03441043 -0.08206889 -0.1263785
-0.06649687 -0.11324026 0.14276324 -0.1421441 0.05284244 -0.12763241 -0.07002345 0.034313723
0.118075475 0.03102693 -0.024540067 -0.00998126 -0.11193787 -0.021073237 0.11810531 -0.025268957
0.00052818656 0.17430444 -0.014740884 0.17141555 0.06707692 -0.14120838 -0.11162122 0.06379497
-0.09389905 -0.087614365 -0.08574365 -0.08323206 -0.007931888 0.10784201 -0.13178444 0.027568042
0.08632186 0.056452487 0.15494598 -0.15031199 -0.023222744 -0.17077453 0.07857673 -0.09458571
0.030971885 -0.038209215 0.14073409 -0.16544554 -0.122374736 0.08706395 -0.07060312 -0.1667313
-0.0024684519 -0.11284763 0.015940085 0.021810375 -0.120933026 0.09323706 -0.14562964 -0.0073473025
0.15276729 -0.016478295 -0.12779717 0.13392065 -0.14093624 -0.042984594 -0.084123865 -0.050871387
0.1495464 -0.09852839 0.11592841 0.04865772 -0.20805246 -0.23365289 0.034566592 -0.15948538
-0.103818476 -0.119788334 0.12935017 0.17095678 -0.029781861 -0.040120136 -0.01981619 0.0047690156
-0.14054596 0.092619315 -0.06694439 0.44453153 0.19420642 -0.19591244 0.20372584 0.07040976
0.05971913 0.30446228 0.016442925 -0.007606879 0.16607885 0.09681781 -0.10055696 -0.90477175
0.024009382 -0.0921708 0.30766383 0.0653306 -0.07882424 0.029622931 0.029890042 -0.22274458
-0.15618291 0.006752029 0.031660378 -0.12849982 0.09883494 -0.20864329 -0.07861881 0.16150478
0.06552757 -0.09046365 -0.059603684 0.2343438 0.22776021 -0.22044623 0.23477475 0.20301373
-0.004085228 0.1054506 0.07149929 0.1399446 -0.102781914 0.26530215 0.09044175 -0.92238045
-0.016600236 -0.1350762 -0.028521618 -0.0059033004 0.14175962 -0.0026935048 0.11334848 -0.14610651
-0.034922674 0.027767643 -0.0025235564 0.08149449 0.05842968 0.06560975 0.16509943 -0.20334803
-0.052608326 0.07979016 -0.008420478 -0.048185885 0.049114186 0.04120167 0.18042292 0.15074891
-0.014093205 -0.08367037 0.043356046 0.060018256 -0.03650868 -0.103311434 0.08621697 -0.045616053

l3.bias f4 [16]
00000000: 656b ae3d 3c1d 0abe 7e48 a73d 787a 15be
00000010: ca45 103e e339 733e a9a8 9e3b e10f 1dbe
00000020: 9898 bb3d 4904 adbd ba2c 523e 328d 063e
00000030: ee42 453e 766c 5a3e e574 2e3e ed1e 163e
0.08516578 -0.13487715 0.08168124 -0.145975 0.14089122 0.23752551 0.004841883 -0.15338089
0.09159964 -0.08448083 0.20524874 0.13139799 0.19263813 0.21330437 0.17036779 0.14660235

l4.weight f4 [1, 16]
00000000: 3c3b 953e a0e6 b2bd 9625 edbc 542b 4ebe
00000010: 8d24 1bbd 26fe c93e d56c a03e a683 523e
00000020: e2da 5dbe 203a 52bd 7ba1 1a3e 5f69 f1be
00000030: fbd8 733e 9553 06be d4eb 9f3d 34f5 63be
0.29146755 -0.087353945 -0.028948586 -0.20133716 -0.037876654 0.39451712 0.31333032 0.20558032
-0.21665528 -0.051324964 0.15100662 -0.47150704 0.2381324 -0.13117822 0.078086525 -0.22261506
