project/models/model_w1_2.0_lam_1.05_lam2_1.05_w2_0.1.pt_critic.pt (torch, 15258 bytes, 14 tensors)

l1.weight f4 [16, 2]
0	0x3f20b719	0.62779385
1	0x3eef597b	0.46747956
2	0xbe7132b7	-0.23554502
3	0xbf3ffd9a	-0.7499634
4	0x3df1a9c0	0.11799955
5	0x3db37468	0.08762437
6	0xbef9140c	-0.48648107
7	0xbca2c523	-0.019869393
8	0xbef5a89c	-0.479802
9	0xbe76dc9c	-0.24107593
10	0x3eac1156	0.33606976
11	0xbdd0c5ba	-0.10193963
12	0x3f1c2df7	0.61007637
13	0xbe7a8cb4	-0.24467736
14	0x3ef6b198	0.48182368
15	0x3d0d0a7f	0.034433838
16	0x3ebd270a	0.36943847
17	0xbd1e2ecc	-0.038618848
18	0x3e2c8ed8	0.16851366
19	0xbf0d7dba	-0.5526997
20	0xbe322698	-0.17397535
21	0x3ee47244	0.44618428
22	0x3efeb8f1	0.49750474
23	0xbd0c2c87	-0.034222152
24	0x3e067354	0.13129932
25	0x3df7b4f8	0.12095064
26	0xbebe6277	-0.37184498
27	0xbe8dd643	-0.2770253
28	0xbf2a7abe	-0.6659354
29	0xbe366ba0	-0.17814493
30	0x3f5265bf	0.821865
31	0x3e9125e3	0.28349218

l1.bias f4 [16]
0	0xbd39290d	-0.045205165
1	0xbeb97de0	-0.36228848
2	0xbe84dc91	-0.2594953
3	0x3ef9fa82	0.48823935
4	0xbece13c7	-0.40249464
5	0x3eb8abfc	0.36068714
6	0xbcf6a798	-0.030109212
7	0xbd6a3f8e	-0.057189517
8	0xbed13c8d	-0.4086651
9	0x3f362064	0.71143174
10	0x3f04a3f7	0.5181269
11	0x3eccb587	0.39982244
12	0xbecb8721	-0.39751533
13	0x3ec277e2	0.37982088
14	0x3f2a5ccb	0.6654784
15	0x3ecb87f5	0.39752164

l2.weight f4 [32, 16]
0	0x3e300000	0.171875
1	0x3d1bf540	0.038075686
2	0x3d8ff1ac	0.07028517
3	0xbdda1a9c	-0.106496066
4	0xbd590668	-0.052984625
5	0xbe29e9c0	-0.16593075
6	0x3d45d5b0	0.04829949
7	0xbe231a00	-0.15927887
8	0x3e2901c2	0.16504577
9	0xbe6c79d8	-0.23093355
10	0x3e3672cc	0.17817229
11	0xbde43c08	-0.111442626
12	0x3e3fd25a	0.18732587
13	0xbe576d7c	-0.21037859
14	0x3e7b65c8	0.24550545
15	0xbded71dc	-0.115939826
16	0x3dba76a4	0.0910466
17	0xbe128670	-0.14309096
18	0xbe06d03e	-0.13165376
19	0xbdc48698	-0.09595984
20	0x3c0af6a0	0.008481652
21	0xbde61070	-0.11233604
22	0xbd9209f4	-0.07130805
23	0xbdaa6b90	-0.08321297
24	0x3e03e2c2	0.1287947
25	0xbe2f5304	-0.17121512
26	0xbe78a16e	-0.2428033
27	0x3cc6c540	0.024263978
28	0x3c1088a0	0.008821636
29	0x3d725090	0.05915886
30	0xbe10a708	-0.14126217
31	0xbdc919e4	-0.09819391
32	0xbbf0e280	-0.0073512197
33	0xbcf48300	-0.029847622
34	0x3da79758	0.081831634
35	0x3ce10390	0.027467519
36	0xbe060f92	-0.13091877
37	0xbe717f76	-0.23583779
38	0xbd1a3ca8	-0.037655503
39	0x3d1d0af0	0.03834051
40	0x3e28efbc	0.16497701
41	0xbd2e4e08	-0.042554885
42	0xbe0049c6	-0.12528142
43	0xbe3ab46c	-0.18232888
44	0xbd4b7818	-0.049675077
45	0xbdfee9f4	-0.12446967
46	0xbe28c018	-0.16479528
47	0x3da6232c	0.08112177
48	0x3e83eaf7	0.257652
49	0xbee90711	-0.45513204
50	0x3e492b9a	0.19645539
51	0xbee6372c	-0.44963968
52	0xbda3a8b0	-0.07991159
53	0x3ea5a84f	0.32354972
54	0xbcd88d1c	-0.026434474
55	0x3e973d01	0.2953873
56	0xbe5a86a9	-0.21340431
57	0x3e5a4f92	0.21319416
58	0x3d375e23	0.04476751
59	0x3e111085	0.14166458
60	0xbe405534	-0.18782502
61	0xbe454013	-0.19262724
62	0xbde1c4f0	-0.11023891
63	0x3e703d5b	0.23460905
64	0x3ecb8b62	0.39754778
65	0x3c3012b1	0.010746644
66	0x3e624abe	0.22098824
67	0xbedb8ff6	-0.4288327
68	0x3d436310	0.047701895
69	0x3e64d3fc	0.2234649
70	0x3da40cde	0.08010267
71	0x3ec78e39	0.38975695
72	0xbe5e559b	-0.21712343
73	0x3e8267fd	0.25469962
74	0x3e0a9bf9	0.13536061
75	0x3e464787	0.19363223
76	0xbd790bc8	-0.06080225
77	0xbe97455e	-0.2954511
78	0xbe818cea	-0.2530282
79	0x3e969b9f	0.29415604
80	0x3ed04bbc	0.4068278
81	0xbe2d26dc	-0.16909355
82	0xbe0ad038	-0.13555992
83	0xbeaaabea	-0.33334285
84	0x3db9411c	0.09045622
85	0xbc4f7c16	-0.012663862
86	0x3da96497	0.08271139
87	0x3e26a671	0.1627443
88	0xbe55a2db	-0.20862906
89	0x3dc3df37	0.09564059
90	0x3e05ddcb	0.13072889
91	0x3e6dda97	0.23227917
92	0xbd0c4948	-0.034249574
93	0xbf11383e	-0.56726444
94	0xbd49e8af	-0.04929417
95	0x3ea1c449	0.31595066
96	0x3ec6c1d3	0.3881975
97	0xbda31c85	-0.07964424
98	0xbe397094	-0.18109351
99	0xbf0db8ee	-0.55360305
100	0xbe6d9dbe	-0.23204705
101	0x3ec095ae	0.37614197
102	0x3e8bc82f	0.27301165
103	0x3dbe50ce	0.09292756
104	0x3d666025	0.056244034
105	0x3e472552	0.1944783
106	0x3e396841	0.18106176
107	0x3c9a5d6b	0.018843373
108	0x3d99c834	0.07508889
109	0xbf1981f7	-0.59963936
110	0xbec4b4be	-0.38419145
111	0x3e858095	0.26074663
112	0x3ece4f5a	0.40294915
113	0xbe98b894	-0.29828322
114	0xbe7bb034	-0.24578935
115	0xbe27107c	-0.16314882
116	0xbd199a58	-0.03750071
117	0x3de61293	0.112340115
118	0x3efd2eb7	0.49449703
119	0x3dc7a0f2	0.09747495
120	0xbe51f172	-0.2050226
121	0x3e1beaf7	0.1522635
122	0x3e312177	0.17297922
123	0x3ea101b5	0.31446615
124	0x3e0616bc	0.1309461
125	0xbe2c27f4	-0.16812116
126	0xbe51e2e0	-0.20496702
127	0x3e4b4854	0.1985181
128	0x3e93ac10	0.2884221
129	0xbc723b88	-0.014784701
130	0x3e554b38	0.20829475
131	0xbece0a1b	-0.40242085
132	0x3cf812b0	0.030282348
133	0x3e174d10	0.14775491
134	0x3e88c88c	0.26715505
135	0x3eca4017	0.39502022
136	0x3de7a816	0.11311357
137	0x3d380269	0.044924174
138	0xbe443590	-0.19161057
139	0x3e6371dc	0.22211403
140	0xbc57c140	-0.013168633
141	0xbe6fc1b3	-0.23413734
142	0xbf259e7f	-0.6469497
143	0x3ebd27e1	0.36944488
144	0xbc359400	-0.011082649
145	0xbe1b65dd	-0.15175577
146	0xbe6cc10e	-0.2312052
147	0xbe1b9595	-0.1519378
148	0xbd200b00	-0.03907299
149	0xbd5fab05	-0.054606456
150	0x3c05fd4c	0.008178066
151	0x3e5ff79e	0.21871802
152	0x3dcbf3d5	0.09958617
153	0x3dcefaed	0.10106454
154	0xbd86af64	-0.06576422
155	0xbcf64418	-0.030061767
156	0x3deeb490	0.11655533
157	0xbcc91aab	-0.02454885
158	0x3cda7b7d	0.026670212
159	0xbe263845	-0.16232403
160	0xbdef3938	-0.116808355
161	0xbd2ef180	-0.04271078
162	0xbe1ab904	-0.1510964
163	0xbe28a1d6	-0.16467986
164	0xbe5cf23e	-0.21576783
165	0xbe5a93c4	-0.2134543
166	0xbe486162	-0.19568399
167	0xbdf31cf0	-0.11870754
168	0x3ae02600	0.0017101169
169	0x3e2361ee	0.15955326
170	0x3e4eb26e	0.20185253
171	0xbe3d934a	-0.18513218
172	0xbcdfa640	-0.027300954
173	0x3e0936c4	0.13399798
174	0xbd68e980	-0.056863308
175	0x3dcf163c	0.10111663
176	0x3e5cac32	0.21550062
177	0x3d51fc75	0.051266152
178	0x3ddab9a0	0.106799364
179	0xbf3766c9	-0.7164121
180	0x3e4ed03c	0.20196623
181	0x3e92c290	0.28664064
182	0x3f05764e	0.52133644
183	0x3ef7ec87	0.48422644
184	0xbeace60d	-0.33769265
185	0xbdc88397	-0.09790724
186	0xbe02b777	-0.12765299
187	0x3cd31204	0.025765426
188	0x3b85ce40	0.004083425
189	0xbd4c75e6	-0.049917124
190	0xbf5707fc	-0.8399656
191	0x3e33436d	0.1750619
192	0x3daaef7c	0.08346459
193	0x3b8d46b2	0.004311406
194	0xbd7c5c60	-0.061611533
195	0xbe61f9fb	-0.22068016
196	0x3df060e0	0.117372274
197	0xbc0e8b5f	-0.008700221
198	0xbc2a58a4	-0.01039711
199	0x3be2dcd7	0.006923299
200	0x3dd7c7f8	0.10536188
201	0xbdeca0da	-0.115541175
202	0xbe437fa5	-0.19091661
203	0xbd6c7b4b	-0.05773477
204	0x3d76f3d8	0.06029114
205	0x3de3d8fc	0.11125371
206	0x3e335e56	0.17516455
207	0xbd89b60e	-0.06724177
208	0x3dfb7cd0	0.122796655
209	0x39baf000	0.00035655499
210	0xbe76da66	-0.2410675
211	0x3e3aa928	0.1822859
212	0xbd351db0	-0.044217765
213	0xbe5f5c96	-0.21812662
214	0xbe5f84e8	-0.21828043
215	0x3e13899e	0.14407966
216	0xbe4fdea4	-0.20299774
217	0xbd628aa8	-0.055308014
218	0xbd9265bc	-0.071483105
219	0xbd91c394	-0.07117382
220	0x3e2e1048	0.16998398
221	0xbe23d680	-0.15999794
222	0xbe54c56c	-0.20778435
223	0xbe58f3c8	-0.21186745
224	0x3e0db3f9	0.13838185
225	0xbe1a28b3	-0.15054588
226	0xbd3fcff0	-0.046829164
227	0xbeec79a8	-0.46186566
228	0x3e27855a	0.16359463
229	0x3e75ed0f	0.24016212
230	0x3ee1f37e	0.44131082
231	0x3e902120	0.28150272
232	0x3e2c0e99	0.16802444
233	0x3ec4b734	0.38421023
234	0x3d179ba5	0.03701367
235	0x3e7945e0	0.24343061
236	0xbce75c20	-0.02824217
237	0xbebe01d4	-0.3711077
238	0xbe610e0a	-0.21978012
239	0x3ea01fb9	0.31274202
240	0x3edcf544	0.43155873
241	0xbd7d8b10	-0.0619002
242	0xbd44c140	-0.04803586
243	0xbf8b86e0	-1.0900536
244	0x3e4dd700	0.20101547
245	0x3d172303	0.036898624
246	0x3dd24810	0.10267651
247	0x3e91ac75	0.28451887
248	0x3dabd8fb	0.08390995
249	0xbe250f6a	-0.16119161
250	0xbde96953	-0.11397042
251	0xbe4d4574	-0.20046026
252	0x3e6dd642	0.23226264
253	0xbf31284d	-0.6920212
254	0xbf8fbddd	-1.1229817
255	0x3e525a97	0.2054237

l2.bias f4 [32]
0	0xbe69d0e6	-0.22833595
1	0xbe466b08	-0.19376767
2	0x3dbeb638	0.09312099
3	0x3e6862c6	0.22693929
4	0x3eb6c1f0	0.35694838
5	0x3e84b215	0.25917116
6	0x3e861758	0.26189685
7	0x3ded4d14	0.11586967
8	0x3cf31939	0.029675113
9	0xb92068c3	-0.00015297816
10	0xbe22d0ac	-0.15899915
11	0xbe9ed591	-0.31022313
12	0xbdab26ed	-0.08357034
13	0xbe140d7c	-0.14458269
14	0x3ea4fae5	0.32222667
15	0xbc15f4e2	-0.009152623
16	0xbdd234a7	-0.10263949
17	0xbd8f7233	-0.07004204
18	0x3cff87a8	0.031192616
19	0x3e82ed84	0.25571835
20	0xbe115878	-0.14193904
21	0xbe4851c9	-0.19562449
22	0x3dcac120	0.09900117
23	0xbe7659e4	-0.24057728
24	0xbe789222	-0.24274495
25	0x3e130f37	0.14361273
26	0x3eb396f7	0.35076115
27	0x3e7e853d	0.24855514
28	0x3ca21ef4	0.01979015
29	0x3ead4353	0.33840427
30	0x3deb80e2	0.11499192
31	0x3e8222f6	0.25417298

l3.weight f4 [16, 32]
0	0x3db51e52	0.08843674
1	0x3caf9be0	0.021436632
2	0xbdf3817e	-0.11889933
3	0x3d44eeed	0.04807942
4	0x3a8d575a	0.0010783479
5	0x3df87486	0.121316
6	0xbdc312a0	-0.09525037
7	0xbb4e65b1	-0.0031493718
8	0x3cb1a3bd	0.021684522
9	0xbddb080f	-0.106948964
10	0xbbaa1e80	-0.005191624
11	0xbed49771	-0.4152179
12	0x3d76ab18	0.06022176
13	0x3dae6b12	0.08516516
14	0xbdfb118c	-0.12259206
15	0xbf320ce4	-0.6955092
16	0x3e00d49b	0.12581103
17	0xbe95a605	-0.29228225
18	0xbc8d8348	-0.017274514
19	0xbd0dea1c	-0.034647092
20	0xbe1e0a27	-0.1543356
21	0xbefc4b41	-0.49276164
22	0x3d606f49	0.05479363
23	0xbe250490	-0.16115022
24	0x3e2fb867	0.17160188
25	0x3db171f6	0.086643144
26	0x3d7a7037	0.061142173
27	0xba780194	-0.00094606844
28	0xbcb975d3	-0.02263919
29	0xbe0b881b	-0.13626139
30	0xbdd6a020	-0.1047976
31	0x3dff64a2	0.12470366
32	0xbd6f5da2	-0.058438905
33	0xba00e300	-0.0004916638
34	0x3e143a87	0.14475451
35	0x3db9df34	0.09075776
36	0x3e77afd1	0.24188162
37	0x3e1adeba	0.15124026
38	0x3e9526bb	0.29131112
39	0x3eb4b37e	0.35293192
40	0x3ce77642	0.028254632
41	0x3d9352e9	0.07193548
42	0x3cc4f410	0.02404216
43	0x3eaccd0a	0.33750182
44	0xbdc1a24f	-0.09454786
45	0x3dff0e8a	0.12453945
46	0x3e2729f1	0.16324593
47	0xbe34fcae	-0.17674515
48	0x3d324334	0.04352112
49	0xbeefb554	-0.4681803
50	0x3eaf258b	0.3420833
51	0x3e7fce77	0.24981104
52	0x3e02d653	0.1277707
53	0xbe04178a	-0.12899604
54	0xbe4e3116	-0.20135912
55	0xbcd0da68	-0.02549477
56	0xbdae309b	-0.085053645
57	0x3eb8824c	0.3603691
58	0x3ea547dd	0.3228139
59	0x3e95fdb7	0.29295132
60	0x3cce7c15	0.025205651
61	0xbecddbf1	-0.40206864
62	0xbe8b9ae2	-0.27266604
63	0x3e4a90d5	0.19781812
64	0xbcff6e00	-0.031180382
65	0x3cb4a1b0	0.022049755
66	0xbe1e6e32	-0.15471724
67	0x3dcb34b1	0.099221595
68	0xbe2f9b2e	-0.1714904
69	0xbe2926cc	-0.16518706
70	0xbcbd0786	-0.023074877
71	0xbd4b266e	-0.049597196
72	0x3e0b5e6d	0.1361024
73	0x3c43b178	0.011944167
74	0xbc3bcf30	-0.011462972
75	0xbe10443d	-0.14088531
76	0xbda4329d	-0.08017466
77	0xbd04fd28	-0.03246799
78	0x3d953d3b	0.072870694
79	0x3e22e4ca	0.15907589
80	0xbdb6a1d2	-0.089175835
81	0x3db90c36	0.09035532
82	0x3d8c41c2	0.0684848
83	0x3e00a48b	0.12562768
84	0xbd992cf0	-0.07479274
85	0xbe2e150e	-0.17000219
86	0xbe4b1854	-0.19833499
87	0xbe1183ac	-0.14210385
88	0x3cb18e98	0.02167444
89	0x3d290ef6	0.041274033
90	0x3dd6e7f3	0.104934596
91	0xbe24f0da	-0.16107503
92	0x3cfbd6f6	0.03074215
93	0x3dff8419	0.124763675
94	0xbe4d70e0	-0.2006259
95	0xbbaf1216	-0.005342732
96	0xbd0450d8	-0.03230366
97	0xbc0287c0	-0.007966936
98	0xbe1d1c17	-0.15342747
99	0x3ea31f13	0.31859645
100	0x3d5107cc	0.051032826
101	0x3e07d52e	0.13264915
102	0x3ea185e6	0.3154747
103	0x3e75c559	0.24001063
104	0x3e634e0e	0.22197744
105	0x3cd2aa6f	0.025716035
106	0x3d8ea1d2	0.069644585
107	0x3ec3cedc	0.3824376
108	0xbe2b9399	-0.16755523
109	0x3db3543e	0.08756302
110	0x3dbd2b03	0.092367195
111	0xbccc4d99	-0.024939345
112	0x3df4f923	0.119615816
113	0xbdd6f1b4	-0.1049532
114	0x3f0a025c	0.5390985
115	0x3eb1cb79	0.3472555
116	0x3f0b9725	0.54527503
117	0x3e15ec21	0.14640857
118	0xbea8b8ec	-0.32953584
119	0x3e10d799	0.14144744
120	0x3da4ddfa	0.08050151
121	0x3ecc20ef	0.39868876
122	0x3e4a7753	0.19772081
123	0x3e96d120	0.29456425
124	0x3e2d8ea0	0.16948938
125	0xbdbf7ebf	-0.09350347
126	0xbecf1009	-0.4044192
127	0x3e9e7523	0.30948743
128	0xbdc34194	-0.095339924
129	0xbd2d4ad8	-0.042307705
130	0xbe06f0f2	-0.13177851
131	0x3e999ae2	0.3000098
132	0x3e5d3d5f	0.21605442
133	0x3e33ff64	0.17577893
134	0x3e0b8de1	0.13628341
135	0x3ec72900	0.38898468
136	0xbe73de48	-0.23815262
137	0xbdf87378	-0.12131399
138	0x3db5d2de	0.0887811
139	0xbee12e4d	-0.43980637
140	0xbd9d5de6	-0.07683925
141	0xbe3188fa	-0.17337409
142	0x3df179b3	0.117907904
143	0xbf82c7d4	-1.0217233
144	0x3cb4a817	0.022052808
145	0xbe171e83	-0.14757733
146	0xbdf5d4cb	-0.12003478
147	0xbda06e24	-0.07833508
148	0xbe175f5c	-0.1478247
149	0xbef907cd	-0.48638764
150	0xbca1cc74	-0.019750811
151	0x3e2ee3dd	0.1707911
152	0x3e2c5987	0.16831027
153	0x3e47bc9e	0.19505545
154	0x3eb7d1d4	0.35902274
155	0xbe2c41a5	-0.16821916
156	0xbe99bdd1	-0.3002763
157	0x3d5a00a7	0.05322328
158	0x3dd2e24f	0.10297071
159	0x3e15c25f	0.14624928
160	0xbde9da69	-0.114186116
161	0x3db10af2	0.08644666
162	0x3de1825a	0.11011191
163	0x3d86cb8f	0.065817945
164	0xbce67960	-0.028134048
165	0xbd89ff1a	-0.0673811
166	0xbde56cc4	-0.11202386
167	0x3dde7f83	0.10864165
168	0x3d1345e9	0.035955343
169	0x3e02ea4e	0.12784693
170	0x3e163b15	0.14670976
171	0x3d3bcf1c	0.04585181
172	0x3d965c5a	0.073418334
173	0x3d6746d8	0.056464046
174	0xbe1e9f91	-0.15490557
175	0xbe42cc5d	-0.19023271
176	0x3e239203	0.15973668
177	0xbc559f35	-0.013038446
178	0x3d879a7b	0.06621262
179	0x3c8f00dc	0.017456464
180	0x3bff2a56	0.0077870293
181	0xbe4f1809	-0.20224012
182	0xbe3101c9	-0.17285837
183	0x3de08d9a	0.10964508
184	0x3b129400	0.0022366047
185	0xbd9af28f	-0.07565796
186	0xbe4f5f41	-0.2025118
187	0xbe146105	-0.14490135
188	0x3db12954	0.08650461
189	0x3d7c976b	0.06166784
190	0xbcae5713	-0.021281755
191	0xbd216dd8	-0.039411396
192	0xbe341c6c	-0.17588967
193	0xbe2bfb15	-0.16794999
194	0xbd28f4b0	-0.041248977
195	0x3dc98f83	0.09841826
196	0x3ea6d52f	0.3258452
197	0x3e774c03	0.2415009
198	0x3e5874bb	0.21138279
199	0x3eaf57df	0.34246728
200	0x3e818116	0.25293797
201	0xbd7fded0	-0.06246835
202	0x3d802552	0.06257118
203	0x3ed98013	0.42480525
204	0x3d998475	0.07495967
205	0x3dc5456e	0.09632383
206	0x3e67a5ea	0.22621885
207	0xbc13f7f1	-0.009031282
208	0x3d62c664	0.05536498
209	0xbe1be01e	-0.15222213
210	0x3e29a273	0.16565876
211	0x3e8c4e33	0.2740341
212	0x3e84b035	0.25915685
213	0xbd0e53a6	-0.034747742
214	0xbe975267	-0.29555055
215	0x3d4215a8	0.047383934
216	0x3e2f212b	0.17102496
217	0x3ea28204	0.3173982
218	0x3dc4ce4c	0.096096605
219	0x3dd6b53f	0.10483789
220	0xbdbe4aed	-0.09291635
221	0xbecdea2d	-0.40217724
222	0xbea00573	-0.31254157
223	0x3e9a4486	0.30130404
224	0xbdc96c45	-0.09835104
225	0x3d823766	0.06358223
226	0x3e316db7	0.17327009
227	0x3e64b9de	0.22336528
228	0x3db03c6a	0.08605273
229	0x3ddce935	0.10786668
230	0x3e6ac4f2	0.22926691
231	0x3d94ea5e	0.072712645
232	0x3e9a7420	0.3016672
233	0xbd82ac6a	-0.063805416
234	0xbcd7db08	-0.02634956
235	0x3f01c11d	0.5068529
236	0x3d5e8f08	0.054335624
237	0x3d8b6298	0.06805915
238	0x3cf80b73	0.030278897
239	0x3f259ce3	0.64692515
240	0xbd386612	-0.045019217
241	0x3f999a8e	1.2000291
242	0x3e15093a	0.14554301
243	0x3ea7c2ea	0.32765895
244	0x3ea4cc5a	0.32187158
245	0x3ef6335d	0.48086062
246	0xbe73a071	-0.23791672
247	0xbc541f80	-0.012946963
248	0xbc741b60	-0.014899105
249	0x3dd5eb64	0.10445288
250	0x3e9123fd	0.2834777
251	0x3ddf3c24	0.10900143
252	0x3eb5c6ec	0.35503328
253	0xbe1fa31a	-0.15589562
254	0xbe4a83dc	-0.19776863
255	0x3dfc5a1c	0.123218745

l3.bias f4 [16]
0	0xbddbc690	-0.10731232
1	0x3e69fe75	0.22850974
2	0xbda300e5	-0.07959155
3	0x3e4ac939	0.19803323
4	0xbd1e92d0	-0.03871423
5	0x3dfcde7c	0.12347123
6	0x3e825a58	0.25459552
7	0xbe84c19d	-0.25928965
8	0xbdfb3c8e	-0.12267409
9	0xbdb814ff	-0.0898838
10	0xbe0aba51	-0.13547637
11	0xbe65d431	-0.22444226
12	0x3dcef329	0.10104973
13	0x3e5b9e8a	0.21447197
14	0x3c9bcefb	0.019019594
15	0x3e31dcda	0.17369404

l4.weight f4 [1, 16]
0	0xbbcfd568	-0.0063425787
1	0xbeceddfb	-0.40403733
2	0x3e2eae85	0.17058761
3	0xbe7fadbe	-0.24968621
4	0x3f123b54	0.5712178
5	0x3d9a49b3	0.07533588
6	0xbec506ff	-0.384819
7	0xbe9080f7	-0.28223392
8	0x3d9aea94	0.075642735
9	0x3e3a2ef0	0.18181968
10	0xbd4d7ff8	-0.05017087
11	0xbec07a7f	-0.37593457
12	0x3db708d7	0.08937233
13	0xbee46f88	-0.44616342
14	0x3e44e4aa	0.19227853
15	0xbe9d5c62	-0.30734545

l5.weight f4 [16, 2]
0	0x3f171d70	0.59029293
1	0x3f00a1b3	0.50246733
2	0x3e4f1378	0.2022227
3	0xbe2fbac8	-0.17161095
4	0x3f62d8fd	0.8861235
5	0x3e9900d0	0.29883432
6	0xbeeee936	-0.466623
7	0x3e2aaf88	0.16668522
8	0x3f731c22	0.949648
9	0xbd713ca9	-0.05889574
10	0x3f2795cd	0.6546295
11	0xbc20a3a7	-0.009804643
12	0x3f8d9cde	1.1063497
13	0x3ee25af9	0.44210032
14	0x3e7ca108	0.24670804
15	0xbe1e30b8	-0.15448272
16	0xbee1be96	-0.44090718
17	0xbdd87260	-0.1056869
18	0x3f35f408	0.7107549
19	0xbe3e4b2c	-0.18583363
20	0xbf148039	-0.5800815
21	0x3d0fe18f	0.03512722
22	0xbefd656c	-0.4949144
23	0xbe9663a2	-0.2937289
24	0xbdc8448a	-0.09778698
25	0xbf35948e	-0.709298
26	0x3d752ac9	0.059855256
27	0xbe9511b2	-0.29115063
28	0xbe9cecab	-0.30649313
29	0xbe995d83	-0.29954156
30	0xbd92fc28	-0.07177001
31	0x3b978e00	0.004625082

l5.bias f4 [16]
0	0x3d03639c	0.032077417
1	0xbf1d8a4a	-0.6153914
2	0x3edab4f9	0.42716196
3	0xbec7039e	-0.38869947
4	0xbd9abd55	-0.075556435
5	0x3ed4788b	0.41498217
6	0x3e3ba463	0.18324427
7	0xbf01ba23	-0.5067465
8	0xbeb8bdee	-0.36082405
9	0x3b88df89	0.004177038
10	0x3f30a4c1	0.69001395
11	0xbed16635	-0.4089829
12	0xbd8a9ad6	-0.06767814
13	0x3ef3152a	0.47477084
14	0x3f2c2fee	0.67260635
15	0xbe981ff3	-0.29711875

l6.weight f4 [32, 16]
0	0x3e9e3d05	0.3090593
1	0xbdfe240c	-0.12409219
2	0xbe92ea82	-0.2869454
3	0xbda8c394	-0.082404286
4	0x3d35a94c	0.044350907
5	0xbdc2effd	-0.095184304
6	0xbdf95d32	-0.12175979
7	0x3d704c20	0.05866635
8	0x3e567a4e	0.20945093
9	0x3e8624a4	0.2619983
10	0x3ea67d30	0.32517385
11	0x3bcf5540	0.0063273013
12	0xbdd37d47	-0.10326629
13	0xbe0c8218	-0.13721502
14	0xbd7830f3	-0.060593557
15	0x3e264610	0.16237664
16	0xbe29615e	-0.16541049
17	0xbe43097a	-0.19046584
18	0x3c8ab020	0.016929686
19	0x3d8ccce0	0.06875014
20	0x3e09a818	0.13443029
21	0x3d2a2070	0.04153484
22	0xbe7bd444	-0.24592692
23	0x3e0ff018	0.14056432
24	0xbe4113be	-0.18855187
25	0x3e7aff86	0.24511537
26	0xbd536d58	-0.05161795
27	0x3dfec770	0.124403834
28	0xbe74ea18	-0.23917425
29	0xbe21698c	-0.15762919
30	0xbd193510	-0.03740412
31	0x3db6dc84	0.08928779
32	0x3f257a94	0.64640164
33	0xbd5d2720	-0.05399239
34	0x3b38dbee	0.002820726
35	0x3d8614b4	0.065469176
36	0x3e308152	0.17236832
37	0xbc6aefb8	-0.01433938
38	0xbd39fb51	-0.04540569
39	0xbd1088d0	-0.035286725
40	0x3e723358	0.23652399
41	0x3eda764f	0.42668387
42	0xbe037c39	-0.12840356
43	0x3e2d6cca	0.16936031
44	0xbece46a1	-0.4028826
45	0x3dfa5fde	0.122253165
46	0xbd960bf5	-0.073264994
47	0x3da872f4	0.082250506
48	0x3d9ec940	0.07753229
49	0x3dacee44	0.08443883
50	0xbd253c88	-0.04034093
51	0xbe3fa226	-0.18714198
52	0xbe11e902	-0.14249042
53	0xbc109f40	-0.008827031
54	0xbd8229a0	-0.063555956
55	0x3de83288	0.11337763
56	0x3bdbedc0	0.0067116916
57	0x3dd371d0	0.103244424
58	0xbe1c1c48	-0.15245163
59	0x3def2890	0.116776586
60	0xbdbdf238	-0.09274715
61	0xbe7314fa	-0.2373847
62	0xbe419a84	-0.189066
63	0xbe2123ea	-0.15736356
64	0x3f36e38e	0.7144097
65	0x3e4e9b74	0.20176488
66	0x3ebb6125	0.36597553
67	0x3e682cd2	0.22673348
68	0x3ef93cfb	0.48679337
69	0xbda35b44	-0.07976392
70	0x3f1870d2	0.5954715
71	0x3df2c230	0.118534446
72	0xbdbd35d0	-0.092387795
73	0x3efd30a6	0.49451178
74	0xbe2ef64f	-0.17086147
75	0x3e704e82	0.23467448
76	0x3ddca0ef	0.10772883
77	0x3e20d68e	0.15706846
78	0xbde4f0d8	-0.1117875
79	0x3e1068c0	0.14102459
80	0x3e36d40a	0.17854324
81	0xbdc5a034	-0.09649697
82	0xbe7faff4	-0.24969465
83	0x3e110dac	0.14165372
84	0xbe47c248	-0.19507706
85	0xbd719a48	-0.058985025
86	0xbe3c477e	-0.18386647
87	0x3df49700	0.119428635
88	0x3e6849c6	0.22684392
89	0xbc185560	-0.009297699
90	0x3dcfdb0c	0.10149202
91	0x3d202638	0.03909895
92	0xbd8ab3d0	-0.06772578
93	0x3c492640	0.012277186
94	0xbc1e3fe0	-0.009658784
95	0xbe4aac90	-0.1979239
96	0xbe72e362	-0.23719552
97	0x3e61c6d2	0.220485
98	0x3b831d40	0.0040012896
99	0xbe64483c	-0.2229318
100	0xbe365b12	-0.17808178
101	0xbde32724	-0.1109145
102	0x3e282680	0.16420937
103	0xbe54ae70	-0.20769668
104	0x3d901c08	0.070365965
105	0x3e38f9d2	0.18064049
106	0x3e1942f2	0.14966944
107	0x3e030166	0.12793502
108	0xbe1103a8	-0.14161551
109	0xbd93860c	-0.07203302
110	0xbe101316	-0.1406978
111	0xbe6ce8b6	-0.23135647
112	0xbdae0a04	-0.08498004
113	0x3e702e56	0.23455176
114	0xbe32bf3e	-0.17455766
115	0x3e09bf9e	0.13452002
116	0xbe611ec4	-0.21984392
117	0xbd839200	-0.06424332
118	0xbe24296c	-0.16031426
119	0xbe715476	-0.23567376
120	0x3e004376	0.12525734
121	0xbe6b12e0	-0.22956419
122	0xbe3f1234	-0.18659288
123	0x3e66e472	0.22548082
124	0x3db536d8	0.08848351
125	0xbd1628b8	-0.036659926
126	0xbdaa2d90	-0.083094716
127	0xbe05981a	-0.13046303
128	0x3f0a944e	0.54132545
129	0xbdb273a4	-0.08713463
130	0x3e3e2b9c	0.18571323
131	0xbe6ffe82	-0.23436931
132	0x3e863479	0.26211908
133	0x3dd6cab7	0.104878835
134	0x3df56e86	0.11983971
135	0x3e067206	0.13129434
136	0x3e57982a	0.2105414
137	0x3d9d0407	0.07666784
138	0x3dbf610d	0.09344683
139	0xbe309ed4	-0.17248088
140	0xbe00ead9	-0.12589587
141	0x3c957c55	0.018247763
142	0xbdba9cf3	-0.09111967
143	0x3cf58d00	0.02997446
144	0x3ec4e9fd	0.3845977
145	0xbe794984	-0.2434445
146	0x3e2b85e5	0.16750295
147	0x3df92b9c	0.12166521
148	0x3de33c6c	0.11095509
149	0x3e2ced43	0.16887383
150	0x3edca04e	0.43091053
151	0xbcc161f0	-0.02360627
152	0x3dad3004	0.08456424
153	0x3ea5080a	0.32232696
154	0xbe8fe2ba	-0.28102666
155	0x3e794096	0.24341044
156	0x3d55b521	0.05217469
157	0x3c26a448	0.010171004
158	0xbe0eee9a	-0.13958207
159	0xbe6e2898	-0.23257673
160	0x3f005285	0.50125915
161	0xbdf97c0c	-0.12181863
162	0xbf5da5e0	-0.8658123
163	0xbb9bdd00	-0.00475657
164	0xbdcc3db4	-0.099727064
165	0xbe76bb75	-0.24094947
166	0x3b23aa11	0.0024973194
167	0x3de65dd8	0.11248368
168	0xbd84d50c	-0.06485948
169	0x3e8510ed	0.25989476
170	0x3f0f65e7	0.56014866
171	0x3e4fd546	0.20296201
172	0xbeeade49	-0.45872715
173	0x3e193be5	0.14964254
174	0x3ee273db	0.44229016
175	0x3df88524	0.121347696
176	0xbe116514	-0.14198714
177	0xbadd6d00	-0.0016893446
178	0xbe844788	-0.25835824
179	0x3e675b06	0.22593316
180	0x3b879040	0.004137069
181	0xbe30402a	-0.17211977
182	0xbe1207de	-0.14260814
183	0x3e14ad16	0.14519152
184	0xbe54b062	-0.2077041
185	0x3db281ac	0.08716139
186	0xbc6977b2	-0.014249729
187	0xbe0d6e42	-0.13811591
188	0x3d1b1b8b	0.037868064
189	0xbd8f72ef	-0.07004344
190	0xbe81deb4	-0.25365222
191	0xbcb2fca0	-0.021848977
192	0x3e44b9f9	0.19211568
193	0x3e3b54fa	0.18294135
194	0xbdd7060a	-0.10499199
195	0xbcbcc750	-0.023044258
196	0x3f010599	0.50399166
197	0xbe6c84d7	-0.2309755
198	0x3ea9a2c5	0.33131996
199	0xbe6a7258	-0.22895181
200	0xbccb4dd0	-0.024817377
201	0x3f13fdca	0.57809126
202	0xbf46a224	-0.77591157
203	0xbdc32194	-0.09527889
204	0x3d38d3f8	0.045124024
205	0xbeb8e8c5	-0.3611509
206	0xbe4e732e	-0.20161125
207	0x3dc72674	0.09724131
208	0xbdd4fc80	-0.10399723
209	0x3d8bd308	0.068273604
210	0xbe37e526	-0.17958507
211	0x3e3f9b84	0.18711668
212	0xbdf04178	-0.11731237
213	0xbe255c4e	-0.16148493
214	0xbe47afc4	-0.19500643
215	0xbda5ed8c	-0.08101949
216	0xbe06cb78	-0.13163555
217	0xbd16b188	-0.0367904
218	0x3cbc2c10	0.02297023
219	0xbd6411f0	-0.05568117
220	0xbda00558	-0.07813519
221	0x3d59c1a8	0.0531632
222	0xbe22ca30	-0.15897441
223	0xbe3d7998	-0.18503416
224	0x3f45f872	0.7733222
225	0xbd52be70	-0.051451147
226	0x3e8a6d62	0.27036577
227	0x3de70240	0.11279726
228	0x3e209de5	0.15685232
229	0xbdc3f0df	-0.09567427
230	0xbd2a569c	-0.041586503
231	0xbe36d944	-0.17856318
232	0xbe25eade	-0.16202876
233	0x3e21edbe	0.15813348
234	0x3c422b1c	0.011851098
235	0x3caf11d0	0.021370798
236	0xbe3385d1	-0.17531516
237	0x3d642cdd	0.055706847
238	0x3e2a03a8	0.16602957
239	0x3e75169a	0.23934403
240	0x3e96a71a	0.29424363
241	0xbc23a280	-0.0099874735
242	0x3deee119	0.11664028
243	0xbceb2a10	-0.02870658
244	0x3ed7d698	0.4215591
245	0x3e2e0755	0.16994984
246	0x3f005075	0.5012277
247	0x3dddfc94	0.10839191
248	0xbe689776	-0.22714028
249	0x3efed1f1	0.49769548
250	0xbe61a70d	-0.22036381
251	0x3e5dbcc0	0.21654034
252	0x3ea20627	0.3164532
253	0x3dbb53ca	0.09146841
254	0xbec00460	-0.37503338
255	0x3dacd03c	0.08438155

l6.bias f4 [32]
0	0xbd194a1b	-0.037424188
1	0xbe5ccf5a	-0.21563473
2	0x3e04da46	0.1297389
3	0x3e492416	0.19642672
4	0xbe297acf	-0.16550754
5	0xbdbf4c50	-0.09340727
6	0xbe535350	-0.2063725
7	0x3db4af00	0.08822441
8	0x3e8590a0	0.26086903
9	0x3cf0c55d	0.029390985
10	0x3e12cde5	0.14336355
11	0x3e2309d2	0.15921715
12	0xbe4899f3	-0.19589977
13	0xbdc2600c	-0.09490976
14	0x3e274c14	0.16337615
15	0xbea1c0cc	-0.31592405
16	0xbd51f3d8	-0.05125794
17	0xbc5e271d	-0.01355913
18	0x3de6c630	0.1126827
19	0xbe1a1b2c	-0.15049428
20	0xbe2941a8	-0.16528952
21	0xbbd75880	-0.0065718293
22	0xbd91a209	-0.07110984
23	0xbd84711c	-0.064668864
24	0xbe5609aa	-0.20902124
25	0x3e9dbac6	0.3080656
26	0xbdb10edc	-0.08645412
27	0xbe3a5ee8	-0.18200266
28	0xbdb9a449	-0.09064538
29	0xbe27f3a2	-0.16401532
30	0xbe8aa802	-0.27081305
31	0xbe5f437c	-0.21803087

l7.weight f4 [16, 32]
0	0x3e9f02b7	0.3105676
1	0x3d6b9fe0	0.057525516
2	0x3ec2e7a2	0.38067347
3	0xbd93bf10	-0.07214177
4	0xbe53d7ee	-0.2068784
5	0x3e22b727	0.1589018
6	0x3d70b5a4	0.058766976
7	0x3d33fcd8	0.043942302
8	0x3ec4f630	0.38469076
9	0xbe4d1374	-0.20026952
10	0xbf1d418b	-0.61428136
11	0xbdeb88f9	-0.11500735
12	0xbf1315b6	-0.57455003
13	0xbdded66d	-0.10880742
14	0x3edc57c5	0.43035713
15	0xbe8ed0a8	-0.27893567
16	0xbcc4e630	-0.024035543
17	0xbd939a94	-0.07207218
18	0x3b484c80	0.0030563176
19	0xbbf2646d	-0.0073972256
20	0x3e4b3327	0.19843732
21	0xbd86a7eb	-0.065749966
22	0xbd07de91	-0.03317124
23	0xbdec3a7c	-0.115345925
24	0xbe0861b1	-0.13318516
25	0x3f095ce5	0.5365737
26	0x3dbe6eee	0.09298502
27	0x3e688571	0.22707154
28	0xbddcbff4	-0.107788
29	0xbd8d35ef	-0.06895053
30	0xbd84ffb9	-0.06494088
31	0xbdc6fce9	-0.097162075
32	0xbca941a6	-0.020661186
33	0x3cca4400	0.024690628
34	0xbd6eaf06	-0.058272384
35	0xbd845ab0	-0.0646261
36	0x3d82432a	0.06360467
37	0x3e222015	0.15832551
38	0xbbab5b20	-0.005229369
39	0xbddaabc4	-0.10677293
40	0xbe25be75	-0.16185935
41	0xbcbb3755	-0.022853533
42	0xbe264bd8	-0.1623987
43	0xbe329b6f	-0.17442106
44	0xbdb3ae36	-0.087734625
45	0xbd5c0332	-0.053713985
46	0x3db60c00	0.088890076
47	0xbdd96f0c	-0.10616884
48	0xbdad667f	-0.08466815
49	0xbdf0477c	-0.117323846
50	0x3d0d5144	0.03450133
51	0xbd4b74f4	-0.049672082
52	0x3ded45f9	0.11585612
53	0x3d680538	0.056645602
54	0x3e073e38	0.13207328
55	0x3ce9da58	0.028546497
56	0xbd9cbf77	-0.076537065
57	0xbe234c2d	-0.15947028
58	0x3e1b14db	0.15144674
59	0xbd1c9641	-0.03822923
60	0xbd383733	-0.044974517
61	0xbb161900	-0.0022903085
62	0xbdd50d8b	-0.10402974
63	0xbce8ee88	-0.028434053
64	0x3ebab2be	0.36464494
65	0x3dcc7862	0.09983899
66	0x3e98b18a	0.29822952
67	0xbd3d3d80	-0.04620123
68	0xbd3375c8	-0.043813497
69	0xbdbe605a	-0.09295721
70	0x3e2ca63f	0.16860293
71	0x3df2d872	0.1185769
72	0x3e5eb4e1	0.21748687
73	0x3dace60a	0.08442314
74	0xbed583ac	-0.4170202
75	0x3daac84f	0.08338987
76	0xbf1500d8	-0.5820441
77	0xbdf24fbc	-0.118316144
78	0x3db519a8	0.08842784
79	0xbea50d98	-0.32236934
80	0x3d833976	0.06407444
81	0xbe0665f5	-0.13124831
82	0xbe2c58d4	-0.1683076
83	0x3da979a0	0.08275151
84	0xbd516672	-0.05112309
85	0x3d75b060	0.059982657
86	0x3e3ca55d	0.18422456
87	0xbd86ae1f	-0.0657618
88	0xbe42d775	-0.19027503
89	0x3ed684b7	0.41898128
90	0xbe1f22ad	-0.15540572
91	0x3e0dd914	0.1385234
92	0xbd1a897c	-0.03772877
93	0x3dbbf92b	0.091783844
94	0xbd7d6dfc	-0.061872467
95	0x3a094400	0.0005236268
96	0x3e50ad48	0.20378602
97	0xba91b480	-0.0011116415
98	0x3e9a1cdb	0.3010014
99	0x3d4a2244	0.049349084
100	0x3e91c360	0.28469372
101	0xbd3f6ae4	-0.0467328
102	0xbd7a1cc8	-0.061062604
103	0x3d8e8db6	0.06960623
104	0x3e6d3681	0.23165323
105	0x3e8d9c78	0.2765844
106	0x3f21e93d	0.6324652
107	0xbd06a0e0	-0.032868266
108	0x3e82484b	0.2544578
109	0x3d7a50f8	0.061112374
110	0x3bc44efa	0.00599086
111	0x3ed09cd5	0.40744653
112	0xbd0c31fc	-0.034227356
113	0x3eda2b6e	0.4261126
114	0x3cfc30c8	0.03078498
115	0x3e840fec	0.25793397
116	0x3eefa08f	0.46802184
117	0x3bcf9c40	0.006335765
118	0x3f698b85	0.91228515
119	0x3d0f3362	0.03496111
120	0x3eb4eba4	0.3533603
121	0xbe8fb077	-0.2806432
122	0x3dfba78a	0.12287815
123	0x3db0ae61	0.0862701
124	0x3e83b8fc	0.2572707
125	0x3e10588a	0.14096275
126	0xbd4eb58d	-0.05046611
127	0xbca99c20	-0.020704329
128	0x3e01725f	0.12641285
129	0xbcb3b430	-0.021936506
130	0x3d30a5a0	0.043126702
131	0xbdd4a25c	-0.1038253
132	0xbb1d3e40	-0.0023993403
133	0xbe227cd1	-0.15867926
134	0xbe0ed43e	-0.13948151
135	0x3d434480	0.04767275
136	0xbe2592c4	-0.16169268
137	0x3d70a824	0.0587541
138	0x3e2029e3	0.15640979
139	0x3cf6afc8	0.030113116
140	0xbe02194c	-0.12704962
141	0x3d704fec	0.05866997
142	0x3c0ee560	0.008721679
143	0xbd867313	-0.065649174
144	0x3e11f771	0.14254548
145	0xbe0ea7da	-0.13931218
146	0xbdfc9580	-0.12333202
147	0x3cd5c4f0	0.026094884
148	0xbc5695d0	-0.0130972415
149	0x3c7c1750	0.0153864175
150	0x3da5b60e	0.08091365
151	0xbd7993c8	-0.06093195
152	0x3dc86662	0.09785153
153	0x39c80800	0.00038152933
154	0x3d919712	0.071088925
155	0x3dbfa7ba	0.09358163
156	0xbd791dfc	-0.06081961
157	0xbd655664	-0.05599059
158	0x3dba9eda	0.0911233
159	0x3e1274cb	0.14302365
160	0xbc6ddc3b	-0.014517839
161	0xbe0e0e67	-0.13872682
162	0xbe3adbea	-0.18247953
163	0x3e1852cb	0.14875333
164	0xbdff0735	-0.124525465
165	0xbdc010a6	-0.093781754
166	0xbce1a0e8	-0.027542546
167	0x3e2c4cf1	0.16826226
168	0x3b15634b	0.002279478
169	0x3dad0f13	0.08450141
170	0xbe7a145f	-0.24421833
171	0x3e049dc3	0.12950806
172	0xbc376b50	-0.011195019
173	0xbdb8f0d5	-0.0903031
174	0xbe3d9dc3	-0.18517213
175	0x3c93f76f	0.018062321
176	0xbd9debcd	-0.07710991
177	0xbe1eca04	-0.1550675
178	0x3a6a9500	0.00089485943
179	0xbdae3dfa	-0.08507915
180	0xbdb83d98	-0.08996123
181	0xbe1a8d16	-0.15092883
182	0x3dd444ee	0.1036471
183	0xbc8c1bc1	-0.017103078
184	0x3d554a21	0.052072648
185	0x3d939f8f	0.07208168
186	0x3d4239e4	0.04741849
187	0xbdc9c28d	-0.09851561
188	0xbdf736dc	-0.120710105
189	0x3e0fe1ff	0.14051054
190	0x3df1e422	0.11811091
191	0x3d7f0578	0.062261075
192	0xbe25bfb5	-0.16186412
193	0x3ca3e5d0	0.020007044
194	0x3d96b135	0.07358018
195	0x3dfc6526	0.1232398
196	0x3d88b5f5	0.066753305
197	0xbd923137	-0.07138293
198	0x3dfe6cd6	0.124231026
199	0xbdbfcdd3	-0.0936543
200	0xbe717f3e	-0.23583695
201	0x3d9f5555	0.07779948
202	0x3d5cb900	0.053887367
203	0xbe0231da	-0.1271433
204	0x3db2369c	0.08701822
205	0x3cb42300	0.021989346
206	0xbd972c83	-0.07381537
207	0xbcab800f	-0.020935087
208	0xbdfc5c0a	-0.123222426
209	0x3dd14aaf	0.10219323
210	0x3d926ed0	0.07150042
211	0x3b73bedf	0.0037192625
212	0xbcc3a919	-0.023884343
213	0x3ddb2fce	0.107024774
214	0x3df0fbf7	0.117668085
215	0x3cc69768	0.024242118
216	0xbe163d70	-0.14671874
217	0xbe1b807a	-0.15185729
218	0x3bd591e0	0.006517634
219	0xbe1e9a00	-0.15488434
220	0xbdd74939	-0.10512013
221	0x3de53eaa	0.11193593
222	0xbd48bf7c	-0.04901074
223	0xbd884755	-0.066542305
224	0x3e9f66b3	0.3113304
225	0x3d05ba98	0.032648653
226	0x3ea32660	0.31865215
227	0x3e14755b	0.14497893
228	0x3ed1a475	0.40945783
229	0x3d249d00	0.04018879
230	0x3e1f7d65	0.15575178
231	0xbdeb7b54	-0.11498132
232	0x3db57614	0.08860412
233	0x3e7683bd	0.24073692
234	0x3f18b5ce	0.5965241
235	0xbd3a7a91	-0.045527045
236	0x3f032d9b	0.51241463
237	0xbe024156	-0.12720236
238	0x3dbf2480	0.09333134
239	0x3e82ed85	0.25571838
240	0xbe0f5378	-0.13996685
241	0x3e37de38	0.17955863
242	0x3df85e02	0.121273056
243	0x3e25f678	0.16207302
244	0x3f0b64c6	0.54450643
245	0x3e004693	0.12526922
246	0x3f0c6c5f	0.5485286
247	0x3e8e183d	0.27752867
248	0x3e571a3d	0.21006103
249	0xbda9d7cc	-0.08293113
250	0x3cac1608	0.021006599
251	0x3d8c0ae5	0.068380155
252	0x3eb979fc	0.3622588
253	0xbd3fe7a6	-0.046851777
254	0xbda6a538	-0.08136982
255	0x3d72c124	0.059266225

l7.bias f4 [16]
0	0x3da01d4c	0.07818088
1	0x3c8cbfe2	0.01718134
2	0x3e2a4a71	0.1662996
3	0xbc7703f2	-0.015076624
4	0xbe2cd386	-0.16877565
5	0x3d9d71cb	0.0768772
6	0x3ac029dc	0.0014660913
7	0x3c41934e	0.011814905
8	0x3d999088	0.0749827
9	0x3dd8b6bd	0.105817296
10	0xbdd0ab42	-0.10188915
11	0x3dcf9f63	0.101378225
12	0x3d8815a2	0.06644751
13	0xbe4454df	-0.19173001
14	0x3d1f25e3	0.03885449
15	0x3e03b0a3	0.1286035

l8.weight f4 [1, 16]
0	0x3f4f41fb	0.80960053
1	0x3e200d99	0.15630187
2	0x3ebac73d	0.36480132
3	0xbe5ce14f	-0.21570323
4	0x3e6fbf4c	0.23412818
5	0x3e597880	0.21237373
6	0xbceda02f	-0.029007046
7	0xbeb618f5	-0.35565916
8	0x3e2c6308	0.16834652
9	0xbe884386	-0.26614016
10	0x3e31a053	0.17346315
11	0xbe874a59	-0.2642391
12	0xbe70caeb	-0.23514907
13	0x3e616c6e	0.22014019
14	0xbecc86ef	-0.39946696
15	0x3d2a36b5	0.04155608
