project/models/model_w1_1.05_lam_0.1_lam2_0.575_w2_0.05500000000000001.pt_actor.pt (torch, 8428 bytes, 7 tensors)

l1.weight f4 [16, 1]
0.8334911 0.45124814 -0.14359596 0.40154994 -0.06967437 0.0773077 0.58667713 0.115356565
1.3947606 -0.09741151 -0.9329774 -0.4441467 -0.7364641 0.58291656 0.7536381 0.6249561
00000000: ac5f 553f ff09 e73e d20a 13be f497 cd3e
00000010: 70b1 8ebd 8053 9e3d 7930 163f 1040 ec3d
00000020: 8487 b23f b07f c7bd 9bd7 6ebf 3267 e3be
00000030: e988 3cbf 053a 153f 6dee 403f 1ffd 1f3f

l1.bias f4 [16]
0.8298236 0.1762439 0.84104127 -0.6829916 -0.5710634 -0.99886274 0.22868301 -0.5145457
-0.08745498 0.7549134 0.8631647 0.37304488 0.21711141 0.8882375 0.5174958 0.25654113
00000000: 526f 543f 4879 343e 7b4e 573f 8ad8 2ebf
00000010: 3631 12bf 78b5 7fbf e12b 6a3e 44b9 03bf
00000020: 991b b3bd 0142 413f 5df8 5c3f bdff be3e
00000030: 7452 5e3e 8863 633f 9b7a 043f 5c59 833e

l2.weight f4 [32, 16]
0.1100456 0.07297985 0.34363732 -0.16492909 0.15624681 -0.10628867 0.082450144 0.07651302
2.2794201 -0.011674168 0.20512663 0.15276828 0.16645175 0.16508801 0.4006873 -0.053541437
0.09050077 0.26440284 -0.1227265 0.11832571 -0.07403603 -0.13627797 0.05765158 -0.18838894
0.82497203 0.0076418053 -0.14800099 0.046176884 -0.18447341 0.1941313 0.3505412 0.40990326
0.006879548 -0.37754354 0.21529725 0.08638412 0.08989018 -0.21855366 -0.24658929 -0.23429099
-0.059641268 0.13098998 0.39539096 0.2999196 0.4906505 -0.07433064 0.15437333 -0.1844708
0.36872882 0.48837182 0.27072942 -0.08095506 -0.044481575 0.21480834 0.24304776 0.041927665
2.247979 0.36167505 0.27743968 0.008352634 0.07045604 0.35192117 0.081443675 0.3848712
0.14595194 0.42763466 0.29404718 -0.0034656823 0.13547924 0.15522927 -0.05854116 0.1159012
0.8836215 0.17235221 -0.22450864 0.09079233 -0.5360533 0.31601793 -0.03373834 0.3579099
0.2348608 0.30903947 -0.19855604 -0.24579006 0.0039303303 0.102157116 0.32445362 -0.14206612
0.83609545 -0.16092253 0.09118168 -0.05868037 -0.4106342 0.28477496 0.0959643 0.35573578
0.021163432 0.3656204 0.21174257 -0.0156748 -0.072036505 0.076063275 0.37444258 -0.13672963
1.7723361 0.18268177 0.22763959 0.20687973 0.038133893 0.032794558 0.23106214 0.13319236
-0.049650274 0.33642375 0.23503302 0.0052033663 0.111898035 -0.019409418 0.3355696 -0.23405126
0.9308635 0.22854683 -0.11142609 -0.25411317 -0.21665885 -0.09639475 0.11971362 0.056004137
0.14528075 0.23434961 0.060477138 -0.10769707 -0.101719916 0.121144235 0.03248778 0.004497826
-0.22624719 -0.15843573 -0.1790669 0.24353585 -0.027341247 -0.2235927 -0.18326649 -0.010277778
-0.21210107 -0.22880575 0.019684345 0.12588945 0.10514754 -0.18386701 -0.024487525 0.08239856
0.16504219 -0.20061404 -0.18558797 0.11785215 -0.24941334 -0.10593608 -0.0825637 0.030489832
-0.16588148 -0.13366693 -0.00037249923 0.09405309 -0.21821782 -0.21331072 -0.23104432 -0.0863761
-0.17296529 -0.22048208 -0.010026932 0.2171188 -0.13834673 0.15296674 -0.06159222 0.12939808
-0.04099532 -0.1821114 0.121955894 -0.19084483 0.22785977 0.056442857 0.11425693 -0.04576859
-0.106497124 0.026168505 -0.028337004 0.06309952 0.03658673 -0.20768008 0.0449347 0.2375526
0.156323 -0.4441531 0.20148702 -0.15560514 -0.1798712 0.077884436 -0.038674507 0.11604822
-0.21006589 0.10664203 0.101957336 0.20171043 0.26616088 -0.16694461 0.13168651 -0.28728318
0.18685739 0.47257495 -0.14906518 0.19783321 0.057285845 0.011482656 0.41798425 -0.19221365
1.0367941 -0.021541499 -0.1607361 -0.15054548 -0.20391701 0.1918646 0.37526354 0.37910143
-0.23871285 0.17092586 0.061896622 0.04595858 -0.104124725 0.15464732 -0.16270947 -0.10816929
0.15634432 0.24158758 -0.087225586 0.16210443 -0.1250847 -0.23838148 0.103206605 0.08371794
0.07535616 0.4197577 0.108564064 0.18986154 -0.18114284 0.08659044 0.117089204 0.09067652
1.1980343 0.03291703 0.08456816 -0.3200323 -0.30479792 0.14435087 0.13973898 0.23676626
00000000: 965f e13d 7676 953d 3bf1 af3e 2ce3 28be
00000010: 2aff 1f3e e0ad d9bd 9fdb a83d dcb2 9c3d
00000020: 05e2 1140 0245 3fbc b70c 523e 4a6f 1c3e
00000030: 5472 2a3e d50c 293e e326 cd3e 444e 5bbd
00000040: 7858 b93d cf5f 873e 0858 fbbd c054 f23d
00000050: 34a0 97bd 748c 0bbe 1024 6c3d 08e9 40be
00000060: 5e31 533f 1c68 fa3b 928d 17be f923 3d3d
00000070: 99e6 3cbe 5bca 463e 237a b33e d7de d13e
00000080: d56d e13b 634d c1be e276 5c3e 28ea b03d
00000090: 5818 b83d 88cc 5fbe e781 7cbe fae9 6fbe
000000a0: 674a 74bd 3d22 063e af70 ca3e 108f 993e
000000b0: 8b36 fb3e aa3a 98bd 0b14 1e3e eae5 3cbe
000000c0: 06ca bc3e df0b fa3e 0c9d 8a3e c4cb a5bd
000000d0: 5032 36bd b8f6 5b3e 83e1 783e 58bc 2b3d
000000e0: e3de 0f40 792d b93e 930c 8e3e 7cd9 083c
000000f0: 424b 903d 032f b43e f1cb a63d d70d c53e
00000100: 6d74 153e eef2 da3e 5a8d 963e 8020 63bb
00000110: 12bb 0a3e 6cf4 1e3e dbc8 6fbd 9c5d ed3d
00000120: 0535 623f 197d 303e 98e5 65be 54f1 b93d
00000130: ca3a 09bf 1acd a13e 3731 0abd f73f b73e
00000140: 597f 703e 6c3a 9e3e 4652 4bbe 64b0 7bbe
00000150: 00ca 803b c037 d13d c91e a63e c879 11be
00000160: 5a0a 563f e0c8 24be 76bd ba3d d45a 70bd
00000170: a53e d2be 06ce 913e ee88 c43d 0023 b63e
00000180: ef5e ad3c 9932 bb3e 0bd3 583e 7068 80bc
00000190: e087 93bd 10c7 9b3d f0b6 bf3e da02 0cbe
000001a0: e9db e23f ee10 3b3e 5a1a 693e 48d8 533e
000001b0: 4932 1c3d 9653 063d 8e9b 6c3e 9463 083e
000001c0: 165e 4bbd bc3f ac3e 7fac 703e 0081 aa3b
000001d0: cc2a e53d 8000 9fbc c7cf ab3e 22ab 6fbe
000001e0: 124d 6e3f 2e08 6a3e 5d33 e4bd 1f1b 82be
000001f0: d1db 5dbe 9c6a c5bd 6a2c f53d 9864 653d
00000200: 7ac4 143e 58f9 6f3e e0b6 773d 4890 dcbd
00000210: 8852 d0bd 781a f83d e811 053d 8062 933b
00000220: 58ad 67be fa3c 22be 505d 37be 7661 793e
00000230: c0fa dfbc 7cf5 64be 36aa 3bbe 2064 28bc
00000240: 0631 59be 0e4c 6abe 1041 a13c 2ae9 003e
00000250: 9857 d73d a247 3cbe 109a c8bc 94c0 a83d
00000260: d200 293e c46d 4dbe c60a 3ebe 785c f13d
00000270: 3666 7fbe 04f5 d8bd 2817 a9bd d0c5 f93c
00000280: d6dc 29be fcdf 08be 004c c3b9 e89e c03d
00000290: 7e74 5fbe 206e 5abe e296 6cbe f4e5 b0bd
000002a0: d01d 31be 0ec6 61be 0048 24bc 6454 5e3e
000002b0: c4aa 0dbe 50a3 1c3e 2048 7cbd ee80 043e
000002c0: b5ea 27bd 697b 3abe 03c4 f93d d46c 43be
000002d0: 1254 693e a030 673d 8aff e93d d877 3bbd
000002e0: 2a1b dabd 555f d63c 0123 e8bc 523a 813d
000002f0: f8db 153d 16aa 54be 730d 383d fd40 733e
00000300: 2313 203e 0968 e3be 9d52 4e3e f456 1fbe
00000310: 2830 38be e081 9f3d 2969 1ebd b0aa ed3d
00000320: 831b 57be 2367 da3d 02cf d03d 2e8d 4e3e
00000330: 3d46 883e 87f3 2abe d4d8 063e c816 93be
00000340: 8b57 3f3e 58f5 f13e 8ba4 18be ca94 4a3e
00000350: 90a4 6a3d c021 3c3c 0802 d63e a8d3 44be
00000360: abb5 843f cc77 b0bc 0198 24be 9828 1abe
00000370: 9fcf 50be 2778 443e 8b22 c03e 9519 c23e
00000380: 2471 74be 3007 2f3e 5087 7d3d 103f 3c3d
00000390: 583f d5bd de5b 1e3e 509d 26be dc87 ddbd
000003a0: ba18 203e bc62 773e 54a3 b2bd b4fe 253e
000003b0: 3416 00be 461a 74be fc5d d33d 5074 ab3d
000003c0: 5554 9a3d 7bea d63e d656 de3d 106b 423e
000003d0: 827d 39be 5456 b13d 77cc ef3d 9cb4 b93d
000003e0: 3059 993f 02d4 063d 1232 ad3d 46db a3be
000003f0: 790e 9cbe b7d0 133e bc17 0f3e db72 723e

l2.bias f4 [32]
0.19969799 0.12041316 -0.01524452 0.39526945 -0.16132903 0.1298971 0.21450104 0.057141088
0.19213492 -0.1994035 -0.048074245 -0.027421983 -0.0333388 0.23102781 -0.16137478 0.32435304
-0.2170434 -0.22396848 0.2652837 0.21941309 0.11918295 0.26766062 0.2954757 0.23431672
-0.06633663 0.115713194 0.1771115 -0.101405084 0.19017601 0.044455115 0.094350874 -0.19582047
00000000: a17d 4c3e 2d9b f63d 27c4 79bc c260 ca3e
00000010: 7033 25be bf03 053e 29a6 5b3e c60c 6a3d
00000020: 04bf 443e 6e30 4cbe 80e9 44bd 11a4 e0bc
00000030: 448e 08bd 8e92 6c3e 6e3f 25be 9a11 a63e
00000040: a040 5ebe fe57 65be 44d3 873e d3ad 603e
00000050: 3116 f43d d00a 893e 9748 973e b9f0 6f3e
00000060: 80db 87bd 0afb ec3d b85c 353e 78ad cfbd
00000070: 80bd 423e 9116 363d 083b c13d 2985 48be

l3.weight f4 [16, 32]
0.1729139 -0.10069481 0.23114109 0.10798265 0.0067319255 -0.15595551 -0.12683165 -0.27235436
-0.13791868 0.025982559 0.09893294 0.006134562 0.033979136 -0.0014243809 -0.021554276 -0.13308792
-0.013644204 0.055190727 0.016688934 0.11058834 0.13121209 -0.05843848 -0.022169966 0.12334561
0.0026067793 0.26921085 0.034702897 -0.16029614 0.083229914 0.0016168475 0.044185445 -0.725055
0.11426894 -0.08316256 0.044006154 -0.12770464 -0.018818066 -0.033685595 -0.04800737 0.09708081
-0.09986148 0.028503701 0.03707236 -0.077319555 -0.13612616 -0.054536417 0.011612296 -0.044970587
-0.0046886057 0.021887168 0.095843896 -0.116200656 -0.12667978 0.059830606 0.05257173 -0.041457072
0.045601398 0.017321914 0.010389656 0.025589392 0.10900544 -0.0693657 -0.15933329 -0.020427778
0.09421695 -0.08682567 -0.21352221 -0.21287344 -0.114729494 -0.02498758 -0.038518336 -0.08805585
0.022337288 -0.060041554 0.15044038 -0.09486526 0.099796504 -0.06321519 -0.087272845 0.061634243
-0.094238706 -0.16092417 -0.16720267 -0.042808436 0.13709953 -0.16941962 0.10516316 0.08261991
0.102435485 0.1123639 0.045655847 0.11166416 0.029578209 0.03441043 -0.08206889 -0.1263785
-0.06649687 -0.11324026 0.14276324 -0.1421441 0.05284244 -0.12763241 -0.07002345 0.034313723
0.118075475 0.03102693 -0.024540067 -0.00998126 -0.11193787 -0.021073237 0.11810531 -0.025268957
0.00052818656 0.17430444 -0.014740884 0.17141555 0.06707692 -0.14120838 -0.11162122 0.06379497
-0.09389905 -0.087614365 -0.08574365 -0.08323206 -0.007931888 0.10784201 -0.13178444 0.027568042
0.08632186 0.056452487 0.15494598 -0.15031199 -0.023222744 -0.17077453 0.07857673 -0.09458571
0.030971885 -0.038209215 0.14073409 -0.16544554 -0.122374736 0.08706395 -0.07060312 -0.1667313
-0.0024684519 -0.11284763 0.015940085 0.021810375 -0.120933026 0.09323706 -0.14562964 -0.0073473025
0.15276729 -0.016478295 -0.12779717 0.13392065 -0.14093624 -0.042984594 -0.084123865 -0.050871387
0.14883292 -0.099937774 0.116189554 0.047926977 -0.20945711 -0.23498562 0.033949513 -0.16155963
-0.103818476 -0.119788334 0.12935017 0.17095678 -0.029046582 -0.04140754 -0.01981619 0.0036710836
-0.14054596 0.092619315 -0.068343125 0.44478336 0.19373398 -0.19710988 0.20378093 0.07024984
0.05971913 0.30464137 0.016442925 -0.007606879 0.16607885 0.09734806 -0.10055696 -0.6796868
0.023293015 -0.09358945 0.30793518 0.06459861 -0.08023822 0.028281774 0.029270524 -0.22483389
-0.15618291 0.006752029 0.031660378 -0.12849982 0.09958363 -0.20993955 -0.07861881 0.16040236
0.06552757 -0.09046365 -0.061012894 0.23460726 0.22728686 -0.22165152 0.23483601 0.20285624
-0.004085228 0.1056384 0.07149929 0.1399446 -0.102781914 0.26584274 0.09044175 -0.7028039
-0.014830198 -0.13375549 -0.028521618 -0.0040419716 0.14306833 -0.0013682401 0.1149823 -0.14495601
-0.034922674 0.027767643 -0.0025235564 0.08149449 0.05842968 0.06714693 0.16509943 -0.20187724
-0.052608326 0.07979016 -0.00688557 -0.048185885 0.050285753 0.042672563 0.18080376 0.15145941
-0.014093205 -0.08367037 0.043356046 0.060018256 -0.03650868 -0.103311434 0.08621697 -0.04474707
00000000: 5710 313e 1539 cebd 40b0 6c3e 0226 dd3d
00000010: 7c97 dc3b cdb2 1fbe 28e0 01be 0872 8bbe
00000020: 8e3a 0dbe 60d9 d43c 5a9d ca3d 7004 c93b
00000030: b52d 0b3d 4bb2 baba 9892 b0bc 3348 08be
00000040: f08b 5fbc ac0f 623d 3bb7 883c 247c e23d
00000050: 765c 063e 305d 6fbd ca9d b5bc a09c fc3d
00000060: 80d6 2a3b 01d6 893e a024 0e3d ac24 24be
00000070: 7274 aa3d 66ec d33a ccfb 343d 349d 39bf
00000080: d605 ea3d 2251 aabd cc3f 343d 01c5 02be
00000090: 5828 9abc e8f9 09bd 60a3 44bd 4ed2 c63d
000000a0: 2d84 ccbd 9880 e93c 30d9 173d b759 9ebd
000000b0: a864 0bbe 9461 5fbd 8041 3e3c 1433 38bd
000000c0: e0a2 99bb b84c b33c ce49 c43d 9cfa edbd
000000d0: 58b8 01be f010 753d 7455 573d e4ce 29bd
000000e0: 88c8 3a3d b0e6 8d3c 6039 2a3c d8a0 d13c
000000f0: 3e3e df3d 9b0f 8ebd 4428 23be 2858 a7bc
00000100: d1f4 c03d a8d1 b1bd 91a5 5abe 7ffb 59be
00000110: 4cf7 eabd c1b2 ccbc 67c5 1dbd a056 b4bd
00000120: b0fc b63c 22ee 75bd 0b0d 1a3e b848 c2bd
00000130: 1c62 cc3d f776 81bd 1bbc b2bd 3074 7c3d
00000140: 3900 c1bd 4ec9 24be 2d37 2bbe e657 2fbd
00000150: d263 0c3e 567c 2dbe c85f d73d a134 a93d
00000160: b2c9 d13d 0b1f e63d a001 3b3d 2eb0 e43d
00000170: 004e f23c f3f1 0c3d bc13 a8bd 5e69 01be
00000180: 832f 88bd 82ea e7bd 8730 123e 398e 11be
00000190: 5071 583d 12b2 02be 7468 8fbd 8c8c 0c3d
000001a0: 8ed1 f13d 302c fe3c 4008 c9bc 7088 23bc
000001b0: af3f e5bd c8a1 acbc 32e1 f13d d800 cfbc
000001c0: 0076 0a3a dd7c 323e c083 71bc 8f87 2f3e
000001d0: a05f 893d ee98 10be ab99 e4bd f0a6 823d
000001e0: 254e c0bd 296f b3bd 5e9a afbd 9275 aabd
000001f0: c0f4 01bc 46dc dc3d 80f2 06be 60d6 e13c
00000200: 84c9 b03d b93a 673d 29aa 1e3e 63eb 19be
00000210: a03d bebc 85df 2ebe d6ec a03d 27b6 c1bd
00000220: c0b8 fd3c 4481 1cbd 991c 103e 8e6a 29be
00000230: 9b9f fabd 964e b23d 5e98 90bd 9cbb 2abe
00000240: c0c5 21bb a91c e7bd c894 823c acab b23c
00000250: bcab f7bd 12f3 be3d f01f 15be a4c1 f0bb
00000260: 076f 1c3e 7dfd 86bc 43dd 02be 7f22 093e
00000270: 9751 10be 9d10 30bd 2249 acbd 845e 50bd
00000280: a867 183e 2dac ccbd caf4 ed3d 144f 443d
00000290: ed7b 56be 12a0 70be a50e 0b3d e36f 25be
000002a0: c89e d4bd 9653 f5bd 5f74 043e 4b0f 2f3e
000002b0: 19f3 edbc f49a 29bd 9055 a2bc 9096 703b
000002c0: 48eb 0fbe 32af bd3d 7bf7 8bbd a5ba e33e
000002d0: 3362 463e 2cd7 49be f3ab 503e 26df 8f3d
000002e0: 0c9c 743d f4f9 9b3e 50b3 863c 2043 f9bb
000002f0: 9310 2a3e 6b5e c73d cff0 cdbd f4ff 2dbf
00000300: fed0 be3c d3ab bfbd aea9 9d3e 474c 843d
00000310: f053 a4bd 2eaf e73c bdc8 ef3c db3a 66be
00000320: 6aee 1fbe 2040 dd3b 50ae 013d 7595 03be
00000330: 81f2 cb3d 65fa 56be e602 a1bd 8440 243e
00000340: 5233 863d 0245 b9bd a8e8 79bd e33c 703e
00000350: e3bd 683e 9ef8 62be da78 703e 8cb9 4f3e
00000360: 60dd 85bb f258 d83d 386e 923d a34d 0f3e
00000370: 537f d2bd 8a1c 883e 8639 b93d f5ea 33bf
00000380: 5cfa 72bc 33f7 08be 2ba6 e9bc 8472 84bb
00000390: 8180 123e 8556 b3ba d77b eb3d 596f 14be
000003a0: 140b 0fbd f878 e33c 4062 25bb 95e6 a63d
000003b0: f653 6f3d 5484 893d d30f 293e e8b8 4ebe
000003c0: d47b 57bd 0669 a33d 59a0 e1bb 905e 45bd
000003d0: 6ff8 4d3d 6dc9 2e3d 9f24 393e 2d18 1b3e
000003e0: 30e7 66bc 5f5b abbd 1c96 313d b4d5 753d
000003f0: 208a 15bd f294 d3bd 8692 b03d b448 37bd

l3.bias f4 [16]
0.08480594 -0.13487715 0.08168124 -0.145975 0.14089122 0.23726371 0.0045851395 -0.15290584
0.09159964 -0.08448083 0.20504235 0.13118552 0.19290586 0.21322015 0.17036779 0.14660235
00000000: bdae ad3d 3c1d 0abe 7e48 a73d 787a 15be
00000010: ca45 103e 42f5 723e f03e 963b 5993 1cbe
00000020: 9898 bb3d 4904 adbd 9ff6 513e 7f55 063e
00000030: 1d89 453e 6256 5a3e e574 2e3e ed1e 163e

l4.weight f4 [1, 16]
0.29221302 -0.087353945 -0.028948586 -0.20133716 -0.037876654 0.39521444 0.31407294 0.20558088
-0.21665528 -0.051324964 0.15171139 -0.47148356 0.23875904 -0.13121341 0.078086525 -0.22261506
00000000: f29c 953e a0e6 b2bd 9625 edbc 542b 4ebe
00000010: 8d24 1bbd 8c59 ca3e 2bce a03e cb83 523e
00000020: e2da 5dbe 203a 52bd 3b5a 1b3e 4b66 f1be
00000030: 407d 743e cf5c 06be d4eb 9f3d 34f5 63be
