project/models/model_w1_1.525_lam_0.1_lam2_0.1_w2_0.1.pt_critic.pt (torch, 15258 bytes, 14 tensors)

l1.weight f4 [16, 2]
0.6001721 0.49384287 -0.19998318 -0.7711477 0.11799955 0.08762437 -0.48543566 -0.019622177
-0.479802 -0.24107593 0.33193555 -0.13109109 0.5957484 -0.24249937 0.47128522 0.0346798
0.36943847 -0.038618848 0.19212724 -0.5918602 -0.13586493 0.4022927 0.48963028 -0.058665548
0.13129932 0.12095064 -0.36730945 -0.28594685 -0.66219723 -0.18136574 0.80630976 0.27516654
00000000: e1a4 193f f9d8 fc3e 64c8 4cbe f069 45bf
00000010: c0a9 f13d 6874 b33d 068b f8be b0be a0bc
00000020: 9ca8 f5be 9cdc 76be 75f3 a93e be3c 06be
00000030: f882 183f c151 78be 4c4c f13e 680c 0e3d
00000040: 0a27 bd3e cc2e 1ebd 01bd 443e 2684 17bf
00000050: 2d20 0bbe 4ff9 cd3e d2b0 fa3e 494b 70bd
00000060: 5473 063e f8b4 f73d fc0f bcbe a067 92be
00000070: c285 29bf f1b7 39be 516a 4e3f a1e2 8c3e

l1.bias f4 [16]
-0.047876354 -0.30432215 -0.2594953 0.48470637 -0.40249464 0.37511033 -0.03472458 -0.05814923
-0.4086651 0.74537957 0.61124045 0.41522244 -0.39751533 0.37671843 0.6622675 0.3890276
00000000: ff19 44bd 1dd0 9bbe 91dc 84be 6f2b f83e
00000010: c713 cebe 760e c03e 5c3b 0ebd e32d 6ebd
00000020: 8d3c d1be 32d1 3e3f 417a 1c3f 0998 d43e
00000030: 2187 cbbe 3de1 c03e 5d8a 293f a02e c73e

l2.weight f4 [32, 16]
0.171875 0.038075686 0.07028517 -0.106496066 -0.052984625 -0.16593075 0.04829949 -0.15927887
0.16504577 -0.23093355 0.17817229 -0.111442626 0.18732587 -0.21037859 0.24550545 -0.115939826
0.0910466 -0.14309096 -0.13165376 -0.09595984 0.008481652 -0.11233604 -0.07130805 -0.08321297
0.1287947 -0.17121512 -0.2428033 0.024263978 0.008821636 0.05915886 -0.14126217 -0.09819391
-0.0073512197 -0.029847622 0.081831634 0.027467519 -0.13091877 -0.23583779 -0.037655503 0.03834051
0.16497701 -0.042554885 -0.12528142 -0.18232888 -0.049675077 -0.12446967 -0.16479528 0.08112177
0.25779545 -0.3765225 0.19645539 -0.47077107 -0.07991159 0.3404309 -0.011036567 0.3189469
-0.21340431 0.22348271 0.04614785 0.15891397 -0.18782502 -0.20747852 -0.12585081 0.25225937
0.39894524 0.05412033 0.22098824 -0.44735834 0.047701895 0.22876076 0.07214539 0.40392816
-0.21712343 0.25486377 0.14287436 0.19892062 -0.06080225 -0.3136313 -0.26765147 0.29961282
0.40489516 -0.16001332 -0.13555992 -0.34555426 0.09045622 -0.0035391827 0.0912797 0.16579133
-0.20862906 0.104731776 0.121898904 0.23942296 -0.034249574 -0.57075506 -0.050126493 0.31869093
0.37567973 -0.07361128 -0.18109351 -0.55845326 -0.23204705 0.37876895 0.2818225 0.08658094
0.056244034 0.20528091 0.123991825 0.015896676 0.07508889 -0.5880944 -0.3729764 0.23973317
0.40814915 -0.22026852 -0.24578935 -0.18163016 -0.03750071 0.120307975 0.48032612 0.11539519
-0.2050226 0.15666899 0.17306265 0.32169917 0.1309461 -0.1820518 -0.21846251 0.2012258
0.24152912 -0.025080787 0.20829475 -0.39440146 0.030282348 0.14596792 0.26191786 0.38776824
0.11311357 0.045812745 -0.19301425 0.21703368 -0.013168633 -0.23619625 -0.63510174 0.3562448
-0.011082649 -0.15175577 -0.2312052 -0.1519378 -0.03907299 -0.054606456 0.008178066 0.21871802
0.09958617 0.10106454 -0.06576422 -0.030061767 0.11655533 -0.02454885 0.026670212 -0.16232403
-0.116808355 -0.04271078 -0.1510964 -0.16467986 -0.21576783 -0.2134543 -0.19568399 -0.11870754
0.0017101169 0.15955326 0.20185253 -0.18513218 -0.027300954 0.13399798 -0.056863308 0.10111663
0.23287596 0.06097243 0.106799364 -0.67306405 0.20196623 0.28800717 0.5183512 0.48122025
-0.33769265 -0.09617426 -0.13835561 0.023528906 0.004083425 -0.0522851 -0.8177382 0.16800627
0.08346459 0.041950315 -0.061611533 -0.18876112 0.117372274 0.02668035 0.026205957 0.044445336
0.10536188 -0.08041638 -0.214369 -0.022325039 0.06029114 0.1456882 0.20834172 -0.03171107
0.122796655 0.00035655499 -0.2410675 0.1822859 -0.044217765 -0.21812662 -0.21828043 0.14407966
-0.20299774 -0.055308014 -0.071483105 -0.07117382 0.16998398 -0.15999794 -0.20778435 -0.21186745
0.13379309 -0.13551046 -0.046829164 -0.47937876 0.16359463 0.24229544 0.45511547 0.28695428
0.16802444 0.38363338 0.0383587 0.24458282 -0.02824217 -0.38705578 -0.2321798 0.3121963
0.396642 -0.0619002 -0.04803586 -0.9273646 0.20101547 0.02200459 0.060788173 0.24234533
0.08390995 -0.16333865 -0.10956826 -0.21967945 0.23226264 -0.5164843 -0.8345245 0.18155304
00000000: 0000 303e 40f5 1b3d acf1 8f3d 9c1a dabd
00000010: 6806 59bd c0e9 29be b0d5 453d 001a 23be
00000020: c201 293e d879 6cbe cc72 363e 083c e4bd
00000030: 5ad2 3f3e 7c6d 57be c865 7b3e dc71 edbd
00000040: a476 ba3d 7086 12be 3ed0 06be 9886 c4bd
00000050: a0f6 0a3c 7010 e6bd f409 92bd 906b aabd
00000060: c2e2 033e 0453 2fbe 6ea1 78be 40c5 c63c
00000070: a088 103c 9050 723d 08a7 10be e419 c9bd
00000080: 80e2 f0bb 0083 f4bc 5897 a73d 9003 e13c
00000090: 920f 06be 767f 71be a83c 1abd f00a 1d3d
000000a0: bcef 283e 084e 2ebd c649 00be 6cb4 3abe
000000b0: 1878 4bbd f4e9 febd 18c0 28be 2c23 a63d
000000c0: c4fd 833e 8fc7 c0be 9a2b 493e e808 f1be
000000d0: b0a8 a3bd f54c ae3e b8d2 34bc 024d a33e
000000e0: a986 5abe a7d8 643e 8705 3d3d 58ba 223e
000000f0: 3455 40be 4075 54be 09df 00be 2428 813e
00000100: 8d42 cc3e 47ad 5d3d be4a 623e 270c e5be
00000110: 1063 433d 4340 6a3e f6c0 933d accf ce3e
00000120: 9b55 5ebe 817d 823e a84d 123e d9b1 4b3e
00000130: c80b 79bd 4894 a0be 9d09 89be da66 993e
00000140: 6b4e cf3e 88da 23be 38d0 0abe 7dec b0be
00000150: 1c41 b93d a2f1 67bb daf0 ba3d 34c5 293e
00000160: dba2 55be 9d7d d63d 22a6 f93d 4b2b 753e
00000170: 4849 0cbd 011d 12bf 7051 4dbd 752b a33e
00000180: 1859 c03e 83c1 96bd 9470 39be cbf6 0ebf
00000190: be9d 6dbe 01ee c13e 0a4b 903e 5951 b13d
000001a0: 2560 663d 2935 523e 6def fd3d bf39 823c
000001b0: 34c8 993d 5b8d 16bf c3f6 bebe 9d7c 753e
000001c0: edf8 d03e 128e 61be 34b0 7bbe 42fd 39be
000001d0: 589a 19bd 0764 f63d 4eed f53e 5054 ec3d
000001e0: 72f1 51be d66d 203e 5637 313e c1b5 a43e
000001f0: bc16 063e c96b 3abe a3b4 5fbe 230e 4e3e
00000200: 6953 773e 3976 cdbc 384b 553e fdee c9be
00000210: b012 f83c 9d78 153e 191a 863e 8f89 c63e
00000220: 16a8 e73d 25a6 3b3d 87a5 45be 143e 5e3e
00000230: 40c1 57bc 6edd 71be 0796 22bf b865 b63e
00000240: 0094 35bc dd65 1bbe 0ec1 6cbe 9595 1bbe
00000250: 000b 20bd 05ab 5fbd 4cfd 053c 9ef7 5f3e
00000260: d5f3 cb3d edfa ce3d 64af 86bd 1844 f6bc
00000270: 90b4 ee3d ab1a c9bc 7d7b da3c 4538 26be
00000280: 3839 efbd 80f1 2ebd 04b9 1abe d6a1 28be
00000290: 3ef2 5cbe c493 5abe 6261 48be f01c f3bd
000002a0: 0026 e03a ee61 233e 6eb2 4e3e 4a93 3dbe
000002b0: 40a6 dfbc c436 093e 80e9 68bd 3c16 cf3d
000002c0: 0977 6e3e 3abe 793d a0b9 da3d ed4d 2cbf
000002d0: 3cd0 4e3e ad75 933e aab2 043f 8062 f63e
000002e0: 0de6 acbe 03f7 c4bd 18ad 0dbe b1bf c03c
000002f0: 40ce 853b e728 56bd 4a57 51bf d609 2c3e
00000300: 7cef aa3d 18d4 2b3d 605c 7cbd 984a 41be
00000310: e060 f03d c090 da3c e0ad d63c 500c 363d
00000320: f8c7 d73d 58b1 a4bd 8c83 5bbe 00e3 b6bc
00000330: d8f3 763d 4a2f 153e 8857 553e 78e3 01bd
00000340: d07c fb3d 00f0 ba39 66da 76be 28a9 3a3e
00000350: b01d 35bd 965c 5fbe e884 5fbe 9e89 133e
00000360: a4de 4fbe a88a 62bd bc65 92bd 94c3 91bd
00000370: 4810 2e3e 80d6 23be 6cc5 54be c8f3 58be
00000380: 0e01 093e 41c3 0abe f0cf 3fbd 2271 f5be
00000390: 5a85 273e 4c1c 783e e504 e93e aceb 923e
000003a0: 990e 2c3e 986b c43e 031e 1d3d eb73 7a3e
000003b0: 205c e7bc 2d2c c6be 8bc0 6dbe 32d8 9f3e
000003c0: a914 cb3e 108b 7dbd 40c1 44bd c467 6dbf
000003d0: 00d7 4d3e f842 b43c 05fd 783d 6029 783e
000003e0: fbd8 ab3d 3f42 27be 5365 e0bd a6f3 60be
000003f0: 42d6 6d3e 5138 04bf 66a3 55bf 0ae9 393e

l2.bias f4 [32]
-0.22833595 -0.19376767 0.09312099 0.22463019 0.35047606 0.2621172 0.25747618 0.10905003
0.026109137 -0.00015297816 -0.15899915 -0.30932832 -0.04931158 -0.14458269 0.31489003 -0.008558898
-0.10263949 -0.02575539 0.023914767 0.24865508 -0.14362368 -0.19562449 0.10379966 -0.24057728
-0.24274495 0.13510036 0.34786922 0.24205332 0.034261726 0.33712044 0.1134052 0.25556248
00000000: e6d0 69be 086b 46be 38b6 be3d 7505 663e
00000010: 9971 b33e 3a34 863e ebd3 833e 9f55 df3d
00000020: d4e2 d53c c368 20b9 acd0 22be 4860 9ebe
00000030: f0fa 49bd 7c0d 14be 4439 a13e 9f3a 0cbc
00000040: a734 d2bd f8fc d2bc e7e8 c33c 709f 7e3e
00000050: 1612 13be c951 48be eb94 d43d e459 76be
00000060: 2292 78be c057 0a3e ea1b b23e d3dc 773e
00000070: 0656 0c3d 0d9b ac3e fc40 e83d 16d9 823e

l3.weight f4 [16, 32]
0.08843674 0.021436632 -0.11889933 0.04807942 0.0010783479 0.121316 -0.09525037 -0.0031493718
0.021684522 -0.106948964 -0.005191624 -0.4152179 0.06022176 0.08516516 -0.12259206 -0.6955092
0.12581103 -0.29228225 -0.017274514 -0.034647092 -0.1543356 -0.49276164 0.05479363 -0.16115022
0.17160188 0.086643144 0.061142173 -0.00094606844 -0.02263919 -0.13626139 -0.1047976 0.12470366
-0.058438905 -0.0004916638 0.14475451 0.092784986 0.2435683 0.15986265 0.28970984 0.35679594
0.027923543 0.07193548 0.02404216 0.37218106 -0.052120835 0.12453945 0.16671187 -0.13535666
0.04352112 -0.39719984 0.34533843 0.24301511 0.13199243 -0.12899604 -0.1926259 -0.02549477
-0.085053645 0.37110996 0.32319766 0.28543693 0.018519003 -0.3729245 -0.27107808 0.2087194
-0.031180382 0.022049755 -0.15471724 0.099221595 -0.1714904 -0.16518706 -0.023074877 -0.049597196
0.1361024 0.011944167 -0.011462972 -0.14088531 -0.08017466 -0.03246799 0.072870694 0.15907589
-0.089175835 0.09035532 0.0684848 0.12562768 -0.07479274 -0.17000219 -0.19833499 -0.14210385
0.02167444 0.041274033 0.104934596 -0.16107503 0.03074215 0.124763675 -0.2006259 -0.005342732
-0.03230366 -0.007966936 -0.15342747 0.3261024 0.055136155 0.1363432 0.31778395 0.24746297
0.22462638 0.025716035 0.069644585 0.42022526 -0.1257382 0.08756302 0.09994003 0.017047407
0.119615816 -0.09958098 0.54544854 0.34467164 0.55261177 0.14640857 -0.32751215 0.14144744
0.08050151 0.40765247 0.1973328 0.2909049 0.16370063 -0.07160256 -0.42062014 0.32161072
-0.095339924 -0.042307705 -0.13177851 0.30460575 0.22428039 0.16013424 0.12469943 0.39248404
-0.23047382 -0.12131399 0.0887811 -0.4676536 -0.118984476 -0.17337409 0.11384907 -1.0618943
0.022052808 -0.13862374 -0.116036005 -0.06786249 -0.14487089 -0.48638764 -0.01052404 0.1707911
0.16831027 0.18014391 0.37002367 -0.15735658 -0.29164764 0.04505835 0.11337638 0.13100918
-0.114186116 0.08644666 0.11011191 0.065817945 -0.028134048 -0.0673811 -0.11202386 0.10864165
0.035955343 0.12784693 0.14670976 0.04585181 0.073418334 0.056464046 -0.15490557 -0.19023271
0.15973668 -0.013038446 0.06621262 0.017456464 0.0077870293 -0.20224012 -0.17285837 0.10964508
0.0022366047 -0.07565796 -0.2025118 -0.14490135 0.08650461 0.06166784 -0.021281755 -0.039411396
-0.17588967 -0.16794999 -0.041248977 0.09968846 0.32452852 0.2558219 0.20829666 0.34304237
0.25287026 -0.06246835 0.06257118 0.45978397 0.11733021 0.09632383 0.2220896 0.03235079
0.05536498 -0.0664109 0.16919765 0.26786512 0.26366895 -0.034747742 -0.3010002 0.047383934
0.17102496 0.32732382 0.09999839 0.09757643 -0.09962375 -0.39676318 -0.316466 0.30866233
-0.09835104 0.06358223 0.17327009 0.2316012 0.09085027 0.102361016 0.22448917 0.07593527
0.30376872 -0.063805416 -0.02634956 0.54469365 0.08558534 0.06805915 0.03225545 0.6890261
-0.045019217 1.1129559 0.15160644 0.32167646 0.32900378 0.48086062 -0.2530978 -0.012946963
-0.014899105 0.11534226 0.29286394 0.10197924 0.34922147 -0.20689148 -0.20595104 0.119007446
00000000: 521e b53d e09b af3c 7e81 f3bd edee 443d
00000010: 5a57 8d3a 8674 f83d a012 c3bd b165 4ebb
00000020: bda3 b13c 0f08 dbbd 801e aabb 7197 d4be
00000030: 18ab 763d 126b ae3d 8c11 fbbd e40c 32bf
00000040: 9bd4 003e 05a6 95be 4883 8dbc 1cea 0dbd
00000050: 270a 1ebe 414b fcbe 496f 603d 9004 25be
00000060: 67b8 2f3e f671 b13d 3770 7a3d 9401 78ba
00000070: d375 b9bc 1b88 0bbe 20a0 d6bd a264 ff3d
00000080: a25d 6fbd 00e3 00ba 873a 143e 0e06 be3d
00000090: f869 793e 09b3 233e d954 943e f5ad b63e
000000a0: eabf e43c e952 933d 10f4 c43c 848e be3e
000000b0: a87c 55bd 8a0e ff3d 84b6 2a3e f09a 0abe
000000c0: 3443 323d c75d cbbe 33d0 b03e f4d8 783e
000000d0: 0629 073e 8a17 04be b93f 45be 68da d0bc
000000e0: 9b30 aebd 2002 be3e 2a7a a53e ca24 923e
000000f0: 2ab5 973c f6ef bebe bfca 8abe 8aba 553e
00000100: 006e ffbc b0a1 b43c 326e 1ebe b134 cb3d
00000110: 2e9b 2fbe cc26 29be 8607 bdbc 6e26 4bbd
00000120: 6d5e 0b3e 78b1 433c 30cf 3bbc 3d44 10be
00000130: 9d32 a4bd 28fd 04bd 3b3d 953d cae4 223e
00000140: d2a1 b6bd 360c b93d c241 8c3d 8ba4 003e
00000150: f02c 99bd 0e15 2ebe 5418 4bbe ac83 11be
00000160: 988e b13c f60e 293d f3e7 d63d daf0 24be
00000170: f6d6 fb3c 1984 ff3d e070 4dbe 1612 afbb
00000180: d850 04bd c087 02bc 171c 1dbe e5f6 a63e
00000190: 73d6 613d 8d9d 0b3e 94b4 a23e ef66 7d3e
000001a0: 7504 663e 6faa d23c d2a1 8e3d c427 d73e
000001b0: 84c1 00be 3e54 b33d 5cad cc3d 01a7 8b3c
000001c0: 23f9 f43d 1df1 cbbd 84a2 0b3f cd78 b03e
000001d0: f777 0d3f 21ec 153e acaf a7be 99d7 103e
000001e0: fadd a43d d3b7 d03e 9c11 4a3e 7df1 943e
000001f0: 23a1 273e 5da4 92bd 865b d7be 29aa a43e
00000200: 9441 c3bd d84a 2dbd f2f0 06be 49f5 9b3e
00000210: c2a9 653e 3bfa 233e 6a62 ff3d abf3 c83e
00000220: 5401 6cbe 7873 f8bd ded2 b53d 4b70 efbe
00000230: 22ae f3bd fa88 31be b429 e93d 27ec 87bf
00000240: 17a8 b43c 62f3 0dbe 49a4 edbd 7dfb 8abd
00000250: 0959 14be cd07 f9be 066d 2cbc dde3 2e3e
00000260: 8759 2c3e a577 383e be73 bd3e 1522 21be
00000270: d752 95be 1b8f 383d e031 e83d 4527 063e
00000280: 69da e9bd f20a b13d 5a82 e13d 8fcb 863d
00000290: 6079 e6bc 1aff 89bd c46c e5bd 837f de3d
000002a0: e945 133d 4eea 023e 153b 163e 1ccf 3b3d
000002b0: 5a5c 963d d846 673d 919f 1ebe 5dcc 42be
000002c0: 0392 233e 359f 55bc 7b9a 873d dc00 8f3c
000002d0: 562a ff3b 0918 4fbe c901 31be 9a8d e03d
000002e0: 0094 123b 8ff2 9abd 415f 4fbe 0561 14be
000002f0: 5429 b13d 6b97 7c3d 1357 aebc d86d 21bd
00000300: 6c1c 34be 15fb 2bbe b0f4 28bd 7729 cc3d
00000310: 9a28 a63e 17fb 823e b84b 553e 40a3 af3e
00000320: 3678 813e d0de 7fbd 5225 803d ce68 eb3e
00000330: d24a f03d 6e45 c53d 756b 633e 4382 043d
00000340: 64c6 623d 7002 88bd 2642 2d3e 9e25 893e
00000350: 9eff 863e a653 0ebd b31c 9abe a815 423d
00000360: 2b21 2f3e fd96 a73e f5cb cc3d 27d6 c73d
00000370: 8907 ccbd 8b24 cbbe d507 a2be fd08 9e3e
00000380: 456c c9bd 6637 823d b76d 313e dd28 6d3e
00000390: b50f ba3d a7a2 d13d 7de0 653e f383 9b3d
000003a0: 9387 9b3e 6aac 82bd 08db d7bc 0b71 0b3f
000003b0: 5e47 af3d 9862 8b3d 4a1e 043d 0464 303f
000003c0: 1266 38bd 5775 8e3f b83e 1b3e c7b2 a43e
000003d0: 2f73 a83e 5d33 f63e 0996 81be 801f 54bc
000003e0: 601b 74bc 9038 ec3d 43f2 953e 7eda d03d
000003f0: 28cd b23e 5cdb 53be d4e4 52be 2dba f33d

l3.bias f4 [16]
-0.10731232 0.23701434 -0.07959155 0.20216432 -0.04019911 0.12347123 0.25866562 -0.2530112
-0.12267409 -0.0898838 -0.13547637 -0.23451187 0.10104973 0.22427958 0.019019594 0.17021763
00000000: 90c6 dbbd e3b3 723e e500 a3bd 2a04 4f3e
00000010: d2a7 24bd 7cde fc3d d26f 843e af8a 81be
00000020: 8e3c fbbd ff14 b8bd 51ba 0abe e123 70be
00000030: 29f3 ce3d 8ca9 653e fbce 9b3c 884d 2e3e

l4.weight f4 [1, 16]
-0.0063425787 -0.4113007 0.17058761 -0.25973362 0.594066 0.07533588 -0.39335817 -0.2947187
0.075642735 0.18181968 -0.05017087 -0.40213978 0.08937233 -0.4697689 0.19227853 -0.31163812
00000000: 68d5 cfbb 0196 d2be 85ae 2e3e cefb 84be
00000010: b614 183f b349 9a3d 3e66 c9be 5fe5 96be
00000020: 94ea 9a3d f02e 3a3e f87f 4dbd 44e5 cdbe
00000030: d708 b73d 8d85 f0be aae4 443e 088f 9fbe

l5.weight f4 [16, 2]
0.5596592 0.5009388 0.2022227 -0.17161095 0.9035994 0.28212437 -0.466623 0.16668522
0.947429 -0.08698918 0.6188666 -0.088171944 1.0899643 0.44041613 0.24670804 -0.15448272
-0.44090718 -0.1056869 0.6973019 -0.1950268 -0.5523851 0.026647614 -0.4949144 -0.2937289
-0.042368006 -0.75358444 0.14355792 -0.40423107 -0.22742312 -0.2924091 -0.07177001 0.004625082
00000000: d345 0f3f 863d 003f 7813 4f3e c8ba 2fbe
00000010: 4a52 673f 9b72 903e 36e9 eebe 88af 2a3e
00000020: b58a 723f 6227 b2bd 0b6e 1e3f 7e93 b4bd
00000030: f383 8b3f 397e e13e 08a1 7c3e b830 1ebe
00000040: 96be e1be 6072 d8bd 6182 323f 1bb5 47be
00000050: 1c69 0dbf 194c da3c 6c65 fdbe a263 96be
00000060: 138a 2dbd e9ea 40bf d900 133e 60f7 cebe
00000070: 9be1 68be a5b6 95be 28fc 92bd 008e 973b

l5.bias f4 [16]
0.025162509 -0.6153914 0.42912692 -0.38869947 -0.07174387 0.44614616 0.18134218 -0.5067465
-0.36082405 -0.001659988 0.69661313 -0.4089829 -0.11288204 0.52872247 0.68537533 -0.29711875
00000000: 9b21 ce3c 4a8a 1dbf 86b6 db3e 9e03 c7be
00000010: 73ee 92bd 456d e43e c4b1 393e 23ba 01bf
00000020: eebd b8be f493 d9ba 3d55 323f 3566 d1be
00000030: b32e e7bd 5b5a 073f c274 2f3f f31f 98be

l6.weight f4 [32, 16]
0.27710673 -0.12409219 -0.021341078 -0.082404286 0.024573896 0.0625093 -0.038325667 0.05866635
0.20945093 0.28717443 0.2570468 0.0063273013 -0.06854844 -0.13170597 -0.109135106 0.16237664
-0.16541049 -0.19046584 0.016929686 0.06875014 0.13443029 0.04153484 -0.24592692 0.14056432
-0.18855187 0.24511537 -0.05161795 0.124403834 -0.23917425 -0.15762919 -0.03740412 0.08928779
0.39455748 -0.05399239 0.0425033 0.065469176 0.17060937 0.034072794 -0.06575593 -0.035286725
0.23652399 0.45075747 -0.10746768 0.16936031 -0.3144901 0.17069878 -0.025081364 0.082250506
0.07753229 0.08443883 -0.04034093 -0.18714198 -0.14249042 -0.008827031 -0.063555956 0.11337763
0.0067116916 0.103244424 -0.15245163 0.116776586 -0.09274715 -0.2373847 -0.189066 -0.15736356
0.6261196 0.20176488 0.3493572 0.22673348 0.4952367 -0.08486169 0.5440709 0.118534446
-0.092387795 0.49399698 -0.15993823 0.23467448 0.095582776 0.16752878 -0.09658231 0.14102459
0.17854324 -0.09649697 -0.24969465 0.14165372 -0.19507706 -0.058985025 -0.18386647 0.119428635
0.22684392 -0.009297699 0.10149202 0.03909895 -0.06772578 0.012277186 -0.009658784 -0.1979239
-0.23719552 0.220485 0.0040012896 -0.2229318 -0.17808178 -0.1109145 0.16420937 -0.20769668
0.070365965 0.18064049 0.14966944 0.12793502 -0.14161551 -0.07203302 -0.1406978 -0.23135647
-0.08498004 0.23455176 -0.17455766 0.13452002 -0.21984392 -0.06424332 -0.16031426 -0.23567376
0.12525734 -0.22956419 -0.18659288 0.22548082 0.08848351 -0.036659926 -0.083094716 -0.13046303
0.27534512 -0.08713463 0.2041169 -0.23436931 0.24627495 0.13699126 0.097089715 0.13129434
0.2105414 0.08769358 0.1179668 -0.17248088 -0.06714513 0.053128228 -0.05640308 0.02997446
0.30636734 -0.2434445 0.15196037 0.12166521 0.120147556 0.1640234 0.38055012 -0.02360627
0.08456424 0.32069823 -0.27195075 0.24341044 0.04010365 0.019451981 -0.12537476 -0.23257673
0.5472432 -0.12181863 -0.8769331 -0.00475657 -0.052937925 -0.25086212 -0.044404957 0.11248368
-0.06485948 0.25340053 0.55791855 0.20296201 -0.48031482 0.1526136 0.44369373 0.121347696
-0.14198714 -0.0016893446 -0.25835824 0.22593316 0.004137069 -0.17211977 -0.14260814 0.14519152
-0.2077041 0.08716139 -0.014249729 -0.13811591 0.037868064 -0.07004344 -0.25365222 -0.021848977
0.15683864 0.18294135 -0.09936074 -0.023044258 0.51240194 -0.21793659 0.32666612 -0.22895181
-0.024817377 0.59289545 -0.6995159 -0.09527889 0.04729608 -0.339665 -0.16337891 0.09724131
-0.10399723 0.068273604 -0.17958507 0.18711668 -0.11731237 -0.16148493 -0.19500643 -0.08101949
-0.13163555 -0.0367904 0.02297023 -0.05568117 -0.07813519 0.0531632 -0.15897441 -0.18503416
0.5259573 -0.051451147 0.2823745 0.11279726 0.13655365 -0.07132064 -0.06547844 -0.17856318
-0.16202876 0.16299675 0.031057134 0.021370798 -0.12973754 0.0817703 0.19258186 0.23934403
0.30336815 -0.0099874735 0.10920371 -0.02870658 0.41604427 0.16881469 0.48980716 0.10839191
-0.22714028 0.4964563 -0.20213908 0.21654034 0.31446913 0.09587653 -0.36374038 0.08438155
00000000: efe0 8d3e 0c24 febd 7cd3 aebc 94c3 a8bd
00000010: 324f c93c e004 803d 60fb 1cbd 204c 703d
00000020: 4e7a 563e 8708 933e a39b 833e 4055 cf3b
00000030: 2063 8cbd eedd 06be 3a82 dfbd 1046 263e
00000040: 5e61 29be 7a09 43be 20b0 8a3c e0cc 8c3d
00000050: 18a8 093e 7020 2a3d 44d4 7bbe 18f0 0f3e
00000060: be13 41be 86ff 7a3e 586d 53bd 70c7 fe3d
00000070: 18ea 74be 8c69 21be 1035 19bd 84dc b63d
00000080: 7003 ca3e 2027 5dbd f117 2e3d b414 863d
00000090: 39b4 2e3e ea8f 0b3d 0cab 86bd d088 10bd
000000a0: 5833 723e afc9 e63e 0418 dcbd ca6c 2d3e
000000b0: d904 a1be a9cb 2e3e 6f77 cdbc f472 a83d
000000c0: 40c9 9e3d 44ee ac3d 883c 25bd 26a2 3fbe
000000d0: 02e9 11be 409f 10bc a029 82bd 8832 e83d
000000e0: c0ed db3b d071 d33d 481c 1cbe 9028 ef3d
000000f0: 38f2 bdbd fa14 73be 849a 41be ea23 21be
00000100: 6049 203f 749b 4e3e f2de b23e d22c 683e
00000110: aa8f fd3e f7cb adbd 3b48 0b3f 30c2 f23d
00000120: d035 bdbd 2ced fc3e d9c6 23be 824e 703e
00000130: e7c0 c33d aa8c 2b3e f2cc c5bd c068 103e
00000140: 0ad4 363e 34a0 c5bd f4af 7fbe ac0d 113e
00000150: 48c2 47be 489a 71bd 7e47 3cbe 0097 f43d
00000160: c649 683e 6055 18bc 0cdb cf3d 3826 203d
00000170: d0b3 8abd 4026 493c e03f 1ebc 90ac 4abe
00000180: 62e3 72be d2c6 613e 401d 833b 3c48 64be
00000190: 125b 36be 2427 e3bd 8026 283e 70ae 54be
000001a0: 081c 903d d2f9 383e f242 193e 6601 033e
000001b0: a803 11be 0c86 93bd 1613 10be b6e8 6cbe
000001c0: 040a aebd 562e 703e 3ebf 32be 9ebf 093e
000001d0: c41e 61be 0092 83bd 6c29 24be 7654 71be
000001e0: 7643 003e e012 6bbe 3412 3fbe 72e4 663e
000001f0: d836 b53d b828 16bd 902d aabd 1a98 05be
00000200: 09fa 8c3e a473 b2bd 0504 513e 82fe 6fbe
00000210: 802f 7c3e 7047 0c3e f9d6 c63d 0672 063e
00000220: 2a98 573e b198 b33d 9498 f13d d49e 30be
00000230: 6383 89bd fc9c 593d ea06 67bd 008d f53c
00000240: 2edc 9c3e 8449 79be 809b 1b3e 9c2b f93d
00000250: ec0f f63d c0f5 273e 77d7 c23e f061 c1bc
00000260: 0430 ad3d 8f32 a43e 213d 8bbe 9640 793e
00000270: ba43 243d c359 9f3c 3e62 00be 9828 6ebe
00000280: 2118 0c3f 0c7c f9bd b07e 60bf 00dd 9bbb
00000290: 70d5 58bd 0071 80be f9e1 35bd d85d e63d
000002a0: 0cd5 84bd b7bd 813e c0d3 0e3f 46d5 4f3e
000002b0: d3eb f5be bd46 1c3e d32b e33e 2485 f83d
000002c0: 1465 11be 006d ddba 8847 84be 065b 673e
000002d0: 4090 873b 2a40 30be de07 12be 16ad 143e
000002e0: 62b0 54be ac81 b23d b277 69bc 426e 0dbe
000002f0: 8b1b 1b3d ef72 8fbd b4de 81be a0fc b2bc
00000300: 4f9a 203e fa54 3b3e a57d cbbd 50c7 bcbc
00000310: c62c 033f c52a 5fbe c840 a73e 5872 6abe
00000320: d04d cbbc ffc7 173f 7913 33bf 9421 c3bd
00000330: 89b9 413d 92e8 adbe cd4c 27be 7426 c73d
00000340: 80fc d4bd 08d3 8b3d 26e5 37be 849b 3f3e
00000350: 7841 f0bd 4e5c 25be c4af 47be 8ced a5bd
00000360: 78cb 06be 88b1 16bd 102c bc3c f011 64bd
00000370: 5805 a0bd a8c1 593d 30ca 22be 9879 3dbe
00000380: 23a5 063f 70be 52bd 6493 903e 4002 e73d
00000390: b8d4 0b3e 8e10 92bd 8f19 86bd 44d9 36be
000003a0: deea 25be 9fe8 263e 886b fe3c d011 af3c
000003b0: ebd9 04be 3077 a73d 2e34 453e 9a16 753e
000003c0: 1253 9b3e 80a2 23bc 32a6 df3d 102a ebbc
000003d0: c103 d53e c2dd 2c3e 01c8 fa3e 94fc dd3d
000003e0: 7697 68be 852f fe3e 8cfd 4ebe c0bc 5d3e
000003f0: 1902 a13e ea5a c43d 2e3c babe 3cd0 ac3d

l6.bias f4 [32]
-0.013797727 -0.21563473 0.17094351 0.19642672 -0.15982863 -0.09340727 -0.2063725 0.08822441
0.28985965 0.034741808 0.13936658 0.15921715 -0.16821758 -0.09490976 0.18527846 -0.3080992
-0.05125794 -0.01312021 0.1126827 -0.14074025 -0.20283888 -0.0065718293 -0.05409098 -0.0042461334
-0.20111999 0.30681342 -0.08645412 -0.118215494 -0.08613552 -0.16401532 -0.27081305 -0.21803087
00000000: dd0f 62bc 5acf 5cbe d10b 2f3e 1624 493e
00000010: 1eaa 23be 504c bfbd 5053 53be 00af b43d
00000020: 7c68 943e 6d4d 0e3d 1db6 0e3e d209 233e
00000030: 3b41 2cbe 0c60 c2bd a3b9 3d3e 2ebf 9dbe
00000040: d8f3 51bd 26f6 56bc 30c6 e63d 361e 10be
00000050: ffb4 4fbe 8058 d7bb 818e 5dbd 2623 8bbb
00000060: 66f2 4dbe a616 9d3e dc0e b1bd f71a f2bd
00000070: d267 b0bd a2f3 27be 02a8 8abe 7c43 5fbe

l7.weight f4 [16, 32]
0.28132522 0.057525516 0.3697073 -0.07214177 -0.20492347 0.1589018 0.058766976 0.043942302
0.38131958 -0.207059 -0.66209036 -0.11500735 -0.5851799 -0.10880742 0.42425263 -0.29857823
-0.024035543 -0.116034225 0.0030563176 -0.052485388 0.17536013 -0.065749966 -0.36993194 0.15916532
-0.14244613 0.5406972 0.09298502 0.20496601 -0.12390208 -0.06895053 -0.06494088 -0.097162075
-0.020661186 0.024690628 -0.058272384 -0.0646261 0.06360467 0.15832551 -0.005229369 -0.10677293
-0.16185935 -0.022853533 -0.1623987 -0.17442106 -0.087734625 -0.053713985 0.088890076 -0.10616884
-0.08466815 -0.117323846 0.03450133 -0.049672082 0.11585612 0.056645602 0.13207328 0.028546497
-0.076537065 -0.15947028 0.15144674 -0.03822923 -0.044974517 -0.0022903085 -0.10402974 -0.028434053
0.35623848 0.09983899 0.2788933 -0.04620123 -0.032881606 -0.09295721 0.16860293 0.1185769
0.21810615 0.088014685 -0.45778343 0.08338987 -0.64597493 -0.118316144 0.08499911 -0.32511264
0.06407444 -0.1517398 -0.1683076 0.061898313 -0.034743372 0.059982657 -0.09886927 -0.08182326
-0.18840069 0.43187594 -0.15540572 0.10681195 -0.040801544 0.091783844 -0.061872467 0.0005236268
0.17500736 -0.0011116415 0.31046057 0.049349084 0.26346794 -0.0467328 -0.061062604 0.06960623
0.22840047 0.2621225 0.6645279 -0.032868266 0.27770856 0.061112374 0.0058323937 0.40188983
-0.034227356 0.43801036 0.03078498 0.27384615 0.30149463 0.006335765 1.0175976 -0.02566717
0.33851594 -0.29160812 0.12287815 0.11386849 0.24789618 0.14096275 -0.05046611 -0.020704329
0.12641285 -0.021936506 0.043126702 -0.1038253 -0.0023993403 -0.15867926 -0.13948151 0.04767275
-0.16169268 0.0587541 0.15640979 0.030113116 -0.12704962 0.05866997 0.008721679 -0.065649174
0.14254548 -0.13931218 -0.12333202 0.026094884 -0.0130972415 0.0153864175 0.08091365 -0.06093195
0.09785153 0.00038152933 0.071088925 0.09358163 -0.06081961 -0.05599059 0.0911233 0.14302365
-0.014517839 -0.13872682 -0.15105872 0.14875333 -0.09318386 -0.093781754 -0.027542546 0.16826226
0.03397136 0.114977576 -0.21253684 0.12950806 -0.011195019 -0.0903031 -0.1534839 0.018062321
-0.07710991 -0.12385619 0.00089485943 -0.05361589 -0.08996123 -0.15092883 0.1036471 -0.017103078
0.052072648 0.10379469 0.04741849 -0.06700259 -0.120710105 0.14051054 0.11811091 0.062261075
-0.14328463 0.020007044 0.08585179 0.1232398 0.066753305 -0.07138293 0.124231026 -0.0936543
-0.20867881 0.07779948 0.08389022 -0.1271433 0.08701822 0.021989346 -0.046577264 -0.020935087
-0.123222426 0.10219323 0.07150042 0.0037192625 0.0045929863 0.107024774 0.1424186 0.024242118
-0.14671874 -0.12549025 0.006517634 -0.13524342 -0.10512013 0.11193593 -0.04901074 -0.066542305
0.281479 0.032648653 0.32516408 0.14497893 0.3845398 0.04018879 0.15575178 -0.11498132
0.08302041 0.2225684 0.6278815 -0.045527045 0.53239495 -0.12720236 0.09097528 0.2464205
-0.13996685 0.18784758 0.121273056 0.17442642 0.37713048 0.12526922 0.6532923 0.21451524
0.1914944 -0.09594099 0.021006599 0.09288776 0.34916705 -0.046851777 -0.08136982 0.059266225
00000000: dc09 903e e09f 6b3d 464a bd3e 10bf 93bd
00000010: 75d7 51be 27b7 223e a4b5 703d d8fc 333d
00000020: 523c c33e 4607 54be c17e 29bf f988 ebbd
00000030: 5ace 15bf 6dd6 debd a437 d93e 3fdf 98be
00000040: 30e6 c4bc 5aa3 edbd 804c 483b ebfa 56bd
00000050: 9b91 333e eba7 86bd b867 bdbe 3cfc 223e
00000060: 66dd 11be 226b 0a3f ee6e be3d 9ce2 513e
00000070: 60c0 fdbd ef35 8dbd b9ff 84bd e9fc c6bd
00000080: a641 a9bc 0044 ca3c 06af 6ebd b05a 84bd
00000090: 2a43 823d 1520 223e 205b abbb c4ab dabd
000000a0: 75be 25be 5537 bbbc d84b 26be 6f9b 32be
000000b0: 36ae b3bd 3203 5cbd 000c b63d 0c6f d9bd
000000c0: 7f66 adbd 7c47 f0bd 4451 0d3d f474 4bbd
000000d0: f945 ed3d 3805 683d 383e 073e 58da e93c
000000e0: 77bf 9cbd 2d4c 23be db14 1b3e 4196 1cbd
000000f0: 3337 38bd 0019 16bb 8b0d d5bd 88ee e8bc
00000100: e464 b63e 6278 cc3d 1acb 8e3e 803d 3dbd
00000110: ddae 06bd 5a60 bebd 3fa6 2c3e 72d8 f23d
00000120: 3857 5f3e 0b41 b43d 9762 eabe 4fc8 aa3d
00000130: 9d5e 25bf bc4f f2bd 0314 ae3d 2a75 a6be
00000140: 7639 833d ae61 1bbe d458 2cbe 1689 7d3d
00000150: 114f 0ebd 60b0 753d f97b cabd f492 a7bd
00000160: 1cec 40be d81e dd3e ad22 1fbe 39c0 da3d
00000170: 851f 27bd 2bf9 bb3d fc6d 7dbd 0044 093a
00000180: 2135 333e 80b4 91ba b0f4 9e3e 4422 4a3d
00000190: 45e5 863e e46a 3fbd c81c 7abd b68d 8e3d
000001a0: d0e1 693e ec34 863e 801e 2a3f e0a0 06bd
000001b0: d12f 8e3e f850 7a3d aa1d bf3b 81c4 cd3e
000001c0: fc31 0cbd e542 e03e c830 fc3c 9035 8c3e
000001d0: 815d 9a3e 409c cf3b a340 823f f543 d2bc
000001e0: f651 ad3e a94d 95be 8aa7 fb3d e233 e93d
000001f0: 7fd8 7d3e 8a58 103e 8db5 4ebd 209c a9bc
00000200: 5f72 013e 30b4 b3bc a0a5 303d 5ca2 d4bd
00000210: 403e 1dbb d17c 22be 3ed4 0ebe 8044 433d
00000220: c492 25be 24a8 703d e329 203e c8af f63c
00000230: 4c19 02be ec4f 703d 60e5 0e3c 1373 86bd
00000240: 71f7 113e daa7 0ebe 8095 fcbd f0c4 d53c
00000250: d095 56bc 5017 7c3c 0eb6 a53d c893 79bd
00000260: 6266 c83d 0008 c839 1297 913d baa7 bf3d
00000270: fc1d 79bd 6456 65bd da9e ba3d cb74 123e
00000280: 3bdc 6dbc 670e 0ebe 23af 1abe cb52 183e
00000290: 2ed7 bebd a610 c0bd e8a0 e1bc f14c 2c3e
000002a0: 8e25 0b3d 5d79 eb3d 42a3 59be c39d 043e
000002b0: 506b 37bc d5f0 b8bd e22a 1dbe 6ff7 933c
000002c0: cdeb 9dbd 50a8 fdbd 0095 6a3a 569c 5bbd
000002d0: 983d b8bd 168d 1abe ee44 d43d c11b 8cbc
000002e0: 214a 553d 4f92 d43d e439 423d a738 89bd
000002f0: dc36 f7bd ffe1 0f3e 22e4 f13d 7805 7f3d
00000300: 35b9 12be d0e5 a33c 10d3 af3d 2665 fc3d
00000310: f5b5 883d 3731 92bd d66c fe3d d3cd bfbd
00000320: e6af 55be 5555 9f3d a3ce ab3d da31 02be
00000330: 9c36 b23d 0023 b43c cdc7 3ebd 0f80 abbc
00000340: 0a5c fcbd af4a d13d d06e 923d dfbe 733b
00000350: c380 963b ce2f db3d 2ed6 113e 6897 c63c
00000360: 703d 16be 8480 00be e091 d53b 407d 0abe
00000370: 3949 d7bd aa3e e53d 7cbf 48bd 5547 88bd
00000380: 041e 903e 98ba 053d e87b a63e 5b75 143e
00000390: 67e2 c43e 009d 243d 657d 1f3e 547b ebbd
000003a0: 9b06 aa3d f8e8 633e d8bc 203f 917a 3abd
000003b0: 094b 083f 5641 02be 3f51 ba3d a855 7c3e
000003c0: 7853 0fbe 1e5b 403e 025e f83d d79c 323e
000003d0: 3f17 c13e 9346 003e 2a3e 273f e2a9 5b3e
000003e0: 1c17 443e b67c c4bd 0816 ac3c f03b be3d
000003f0: 06c6 b23e a6e7 3fbd 38a5 a6bd 24c1 723d

l7.bias f4 [16]
0.066174455 0.01718134 0.16290885 -0.010916582 -0.16877565 0.10861007 0.031438064 0.014175237
0.0749827 0.10941188 -0.10188915 0.10492266 0.07125297 -0.19173001 0.04109726 0.14634354
00000000: 7986 873d e2bf 8c3c 94d1 263e 77db 32bc
00000010: 86d3 2cbe f56e de3d 33c5 003d 413f 683c
00000020: 8890 993d 5613 e03d 42ab d0bd b1e1 d63d
00000030: 14ed 913d df54 44be 9a55 283d 15db 153e

l8.weight f4 [1, 16]
0.85200715 0.15630187 0.41346058 -0.22575226 0.23412818 0.22121513 -0.033280395 -0.3628233
0.16834652 -0.28324944 0.17346315 -0.27247542 -0.24311186 0.22014019 -0.41716674 0.08040167
00000000: 241d 5a3f 990d 203e 1bb1 d33e 9a2b 67be
00000010: 4cbf 6f3e 3886 623e 0651 08bd fac3 b9be
00000020: 0863 2c3e 1206 91be 53a0 313e e681 8bbe
00000030: 51f2 78be 6e6c 613e e196 d5be a1a9 a43d
