project/models/model_w1_0.575_lam_2.0_lam2_0.575_w2_0.1.pt_actor.pt (torch, 8184 bytes, 7 tensors)

l1.weight f4 [16, 1]
0.82445306 0.44995043 -0.13922068 0.40154994 -0.06967437 0.0773077 0.5855771 0.115356565
1.386483 -0.09555072 -0.9299679 -0.43955 -0.74438655 0.5710036 0.73894805 0.61700004
00000000: 5b0f 533f e75f e63e de8f 0ebe f497 cd3e
00000010: 70b1 8ebd 8053 9e3d 61e8 153f 1040 ec3d
00000020: 4678 b13f 19b0 c3bd 6012 6ebf b30c e1be
00000030: 1e90 3ebf 4b2d 123f b32b 3d3f b7f3 1d3f

l1.bias f4 [16]
0.829989 0.17600216 0.8414656 -0.6829916 -0.5710634 -0.99886274 0.22852294 -0.5145457
-0.09480886 0.75526583 0.8634052 0.37325585 0.21670216 0.888295 0.5177097 0.25650865
00000000: 297a 543f e939 343e 4a6a 573f 8ad8 2ebf
00000010: 3631 12bf 78b5 7fbf eb01 6a3e 44b9 03bf
00000020: 262b c2bd 1a59 413f 2008 5d3f 641b bf3e
00000030: 2ce7 5d3e 4d67 633f 9f88 043f 1a55 833e

l2.weight f4 [32, 16]
0.10962007 0.07205048 0.34358248 -0.16492909 0.15624681 -0.10628867 0.081543356 0.07651302
2.0922892 -0.011737716 0.2053322 0.15303387 0.1672253 0.16476017 0.4001272 -0.054400347
0.09033105 0.26414365 -0.12280891 0.11832571 -0.07403603 -0.13627797 0.05736908 -0.18838894
0.85803217 0.007552204 -0.14797734 0.04618371 -0.18435858 0.19399956 0.35033616 0.40962577
0.0070528076 -0.37738153 0.21546052 0.08638412 0.08989018 -0.21855366 -0.24640365 -0.23429099
-0.12647903 0.1311572 0.39551 0.30006358 0.4907857 -0.07417214 0.1545533 -0.18428181
0.3669803 0.48481455 0.27039358 -0.08095506 -0.044481575 0.21480834 0.23946247 0.041927665
1.9922497 0.36128533 0.278269 0.009288472 0.07325237 0.3506024 0.0791654 0.38144794
0.14575256 0.4273473 0.29393384 -0.0034656823 0.13547924 0.15522927 -0.058852304 0.1159012
0.91704744 0.1722326 -0.22451611 0.090768345 -0.5359661 0.31585643 -0.033973027 0.35760418
0.23474847 0.3088732 -0.19860806 -0.24579006 0.0039303303 0.102157116 0.32426387 -0.14206612
0.88136214 -0.16098098 0.091213785 -0.05866759 -0.41054586 0.284692 0.095826514 0.3555475
0.022816036 0.3671257 0.21349017 -0.0156748 -0.072036505 0.076063275 0.37597153 -0.13672963
1.6647544 0.18443047 0.22942722 0.20870112 0.039963886 0.034463394 0.23268272 0.13473706
-0.049636446 0.3364364 0.23506637 0.0052033663 0.111898035 -0.019409418 0.33555865 -0.23405126
0.99235415 0.2285754 -0.11134055 -0.25405 -0.21658719 -0.096363135 0.11971694 0.05599097
0.14528075 0.23434961 0.060477138 -0.10769707 -0.101719916 0.121144235 0.03248778 0.004497826
-0.22624719 -0.15843573 -0.1790669 0.24353585 -0.027341247 -0.2235927 -0.18326649 -0.010277778
-0.21210107 -0.22880575 0.019684345 0.12588945 0.10514754 -0.18386701 -0.024487525 0.08239856
0.16504219 -0.20061404 -0.18558797 0.11785215 -0.24941334 -0.10593608 -0.0825637 0.030489832
-0.16588148 -0.13366693 -0.00037249923 0.09405309 -0.21821782 -0.21331072 -0.23104432 -0.0863761
-0.17296529 -0.22048208 -0.010026932 0.2171188 -0.13834673 0.15296674 -0.06159222 0.12939808
-0.04099532 -0.1821114 0.121955894 -0.19084483 0.22785977 0.056442857 0.11425693 -0.04576859
-0.106497124 0.026168505 -0.028337004 0.06309952 0.03658673 -0.20768008 0.0449347 0.2375526
0.15672283 -0.44373274 0.20185219 -0.15560514 -0.1798712 0.077884436 -0.03823014 0.11604822
-0.2670193 0.10701246 0.10225866 0.20203319 0.26641724 -0.16656731 0.13210276 -0.28683797
0.18669614 0.47234088 -0.14915243 0.19783321 0.057285845 0.011482656 0.41772622 -0.19221365
1.0757246 -0.021635221 -0.16072708 -0.15055458 -0.20382772 0.19173709 0.37507075 0.37884858
-0.23871285 0.17092586 0.061896622 0.04595858 -0.104124725 0.15464732 -0.16270947 -0.10816929
0.15634432 0.24158758 -0.087225586 0.16210443 -0.1250847 -0.23838148 0.103206605 0.08371794
0.075100705 0.419346 0.10844752 0.18986154 -0.18114284 0.08659044 0.11665383 0.09067652
1.207829 0.03279157 0.08459905 -0.3200127 -0.30460155 0.14414832 0.13942882 0.23634236
00000000: 7d80 e03d 348f 933d 0bea af3e 2ce3 28be
00000010: 2aff 1f3e e0ad d9bd 3400 a73d dcb2 9c3d
00000020: 11e8 0540 8d4f 40bc 9b42 523e e9b4 1c3e
00000030: 1c3d 2b3e e4b6 283e 79dd cc3e e6d2 5ebd
00000040: 7cff b83d d63d 873e 3d83 fbbd c054 f23d
00000050: 34a0 97bd 748c 0bbe d7fb 6a3d 08e9 40be
00000060: ffa7 5b3f 7b78 f73b 5f87 17be 212b 3d3d
00000070: 7fc8 3cbe d2a7 463e 435f b33e 78ba d13e
00000080: 3d1b e73b 2738 c1be afa1 5c3e 28ea b03d
00000090: 5818 b83d 88cc 5fbe 3d51 7cbe fae9 6fbe
000000a0: b883 01be 134e 063e 4980 ca3e efa1 993e
000000b0: 4348 fb3e 90e7 97bd 3843 1e3e 5fb4 3cbe
000000c0: d8e4 bb3e 9d39 f83e 0771 8a3e c4cb a5bd
000000d0: 5032 36bd b8f6 5b3e a635 753e 58bc 2b3d
000000e0: 0a02 ff3f 64fa b83e 4679 8e3e ad2e 183c
000000f0: 5705 963d 2882 b33e 7821 a23d 254d c33e
00000100: 2940 153e 44cd da3e 7f7e 963e 8020 63bb
00000110: 12bb 0a3e 6cf4 1e3e 1d0f 71bd 9c5d ed3d
00000120: 9fc3 6a3f be5d 303e 8de7 65be c1e4 b93d
00000130: 1335 09bf efb7 a13e 4d27 0bbd e517 b73e
00000140: e761 703e a124 9e3e e95f 4bbe 64b0 7bbe
00000150: 00ca 803b c037 d13d ea05 a63e c879 11be
00000160: f3a0 613f 33d8 24be 4bce ba3d 6d4d 70bd
00000170: 1133 d2be 26c3 913e b140 c43d 520a b63e
00000180: b2e8 ba3c e6f7 bb3e 2b9d 5a3e 7068 80bc
00000190: e087 93bd 10c7 9b3d 577f c03e da02 0cbe
000001a0: ac16 d53f 57db 3c3e f8ee 6a3e bfb5 553e
000001b0: 2cb1 233d 7d29 0d3d 6144 6e3e 83f8 093e
000001c0: 964f 4bbd 6441 ac3e 3db5 703e 0081 aa3b
000001d0: cc2a e53d 8000 9fbc 58ce ab3e 22ab 6fbe
000001e0: ec0a 7e3f ab0f 6a3e 8406 e4bd d712 82be
000001f0: 08c9 5dbe 095a c5bd 282e f53d ca56 653d
00000200: 7ac4 143e 58f9 6f3e e0b6 773d 4890 dcbd
00000210: 8852 d0bd 781a f83d e811 053d 8062 933b
00000220: 58ad 67be fa3c 22be 505d 37be 7661 793e
00000230: c0fa dfbc 7cf5 64be 36aa 3bbe 2064 28bc
00000240: 0631 59be 0e4c 6abe 1041 a13c 2ae9 003e
00000250: 9857 d73d a247 3cbe 109a c8bc 94c0 a83d
00000260: d200 293e c46d 4dbe c60a 3ebe 785c f13d
00000270: 3666 7fbe 04f5 d8bd 2817 a9bd d0c5 f93c
00000280: d6dc 29be fcdf 08be 004c c3b9 e89e c03d
00000290: 7e74 5fbe 206e 5abe e296 6cbe f4e5 b0bd
000002a0: d01d 31be 0ec6 61be 0048 24bc 6454 5e3e
000002b0: c4aa 0dbe 50a3 1c3e 2048 7cbd ee80 043e
000002c0: b5ea 27bd 697b 3abe 03c4 f93d d46c 43be
000002d0: 1254 693e a030 673d 8aff e93d d877 3bbd
000002e0: 2a1b dabd 555f d63c 0123 e8bc 523a 813d
000002f0: f8db 153d 16aa 54be 730d 383d fd40 733e
00000300: f37b 203e f030 e3be 57b2 4e3e f456 1fbe
00000310: 2830 38be e081 9f3d 3597 1cbd b0aa ed3d
00000320: c1b6 88be 5929 db3d fd6c d13d cae1 4e3e
00000330: d767 883e 9f90 2abe f245 073e 6ddc 92be
00000340: 462d 3f3e aad6 f13e 6abb 18be ca94 4a3e
00000350: 90a4 6a3d c021 3c3c 36e0 d53e a8d3 44be
00000360: 58b1 893f 593c b1bc a495 24be fb2a 1abe
00000370: 37b8 50be ba56 443e 4609 c03e 71f8 c13e
00000380: 2471 74be 3007 2f3e 5087 7d3d 103f 3c3d
00000390: 583f d5bd de5b 1e3e 509d 26be dc87 ddbd
000003a0: ba18 203e bc62 773e 54a3 b2bd b4fe 253e
000003b0: 3416 00be 461a 74be fc5d d33d 5074 ab3d
000003c0: 66ce 993d 85b4 d63e bc19 de3d 106b 423e
000003d0: 827d 39be 5456 b13d 34e8 ee3d 9cb4 b93d
000003e0: 249a 9a3f 7450 063d 4442 ad3d b4d8 a3be
000003f0: bcf4 9bbe 9e9b 133e 6ec6 0e3e bb03 723e

l2.bias f4 [32]
0.19957314 0.1203338 -0.015095585 0.39474243 -0.16143788 0.12985237 0.21621928 0.05718766
0.19213492 -0.1994035 -0.048074245 -0.027421983 -0.032984357 0.230946 -0.16137478 0.3242334
-0.2170434 -0.22396848 0.26517576 0.21955538 0.11913172 0.26760018 0.295669 0.23446494
-0.06633663 0.1157425 0.1771115 -0.101405084 0.19017601 0.044686954 0.094350874 -0.19047484
00000000: e75c 4c3e 9171 f63d 7953 77bc ae1b ca3e
00000010: f94f 25be 05f8 043e 9668 5d3e 9c3d 6a3d
00000020: 04bf 443e 6e30 4cbe 80e9 44bd 11a4 e0bc
00000030: 9b1a 07bd 1c7d 6c3e 6e3f 25be ec01 a63e
00000040: a040 5ebe fe57 65be 1ec5 873e 20d3 603e
00000050: 55fb f33d e402 893e ed61 973e 9417 703e
00000060: 80db 87bd 670a ed3d b85c 353e 78ad cfbd
00000070: 80bd 423e ab09 373d 083b c13d d60b 43be

l3.weight f4 [16, 32]
0.17229247 -0.10187856 0.23131756 0.10737696 0.005548565 -0.1570743 -0.12736969 -0.27416423
-0.13791868 0.025982559 0.09893294 0.006134562 0.034568112 -0.0024989306 -0.021554276 -0.1340278
-0.013644204 0.055190727 0.015511641 0.110752955 0.13079412 -0.05943268 -0.022127822 0.12321662
0.0026067793 0.26934415 0.034702897 -0.16029614 0.083229914 0.00204836 0.044185445 -0.5697326
0.11426894 -0.08316256 0.044006154 -0.12770464 -0.018818066 -0.033685595 -0.04800737 0.09708081
-0.09986148 0.028503701 0.03707236 -0.077319555 -0.13612616 -0.054536417 0.011612296 -0.044970587
-0.0046886057 0.021887168 0.095843896 -0.116200656 -0.12667978 0.059830606 0.05257173 -0.041457072
0.045601398 0.017321914 0.010389656 0.025589392 0.10900544 -0.0693657 -0.15933329 -0.020427778
0.09421695 -0.08682567 -0.21352221 -0.21287344 -0.114729494 -0.02498758 -0.038518336 -0.08805585
0.022337288 -0.060041554 0.15044038 -0.09486526 0.099796504 -0.06321519 -0.087272845 0.061634243
-0.094238706 -0.16092417 -0.16720267 -0.042808436 0.13709953 -0.16941962 0.10516316 0.08261991
0.102435485 0.1123639 0.045655847 0.11166416 0.029578209 0.03441043 -0.08206889 -0.1263785
-0.06649687 -0.11324026 0.14276324 -0.1421441 0.05284244 -0.12763241 -0.07002345 0.034313723
0.118075475 0.03102693 -0.024540067 -0.00998126 -0.11193787 -0.021073237 0.11810531 -0.025268957
0.00052818656 0.17430444 -0.014740884 0.17141555 0.06707692 -0.14120838 -0.11162122 0.06379497
-0.09389905 -0.087614365 -0.08574365 -0.08323206 -0.007931888 0.10784201 -0.13178444 0.027568042
0.08632186 0.056452487 0.15494598 -0.15031199 -0.023222744 -0.17077453 0.07857673 -0.09458571
0.030971885 -0.038209215 0.14073409 -0.16544554 -0.122374736 0.08706395 -0.07060312 -0.1667313
-0.0024684519 -0.11284763 0.015940085 0.021810375 -0.120933026 0.09323706 -0.14562964 -0.0073473025
0.15276729 -0.016478295 -0.12779717 0.13392065 -0.14093624 -0.042984594 -0.084123865 -0.050871387
0.14838654 -0.10086909 0.11639215 0.04747467 -0.2103861 -0.23586005 0.03357775 -0.16304785
-0.103818476 -0.119788334 0.12935017 0.17095678 -0.028464468 -0.04223301 -0.01981619 0.0029357013
-0.14054596 0.092619315 -0.06925809 0.44496715 0.19346584 -0.19786945 0.20390025 0.07022941
0.05971913 0.30481485 0.016442925 -0.007606879 0.16607885 0.09780207 -0.10055696 -0.48353207
0.022887273 -0.09446808 0.30815616 0.06418369 -0.081114285 0.027458908 0.028938076 -0.22625884
-0.15618291 0.006752029 0.031660378 -0.12849982 0.10017889 -0.21071269 -0.07861881 0.15971234
0.06552757 -0.09046365 -0.061873693 0.23480856 0.22705506 -0.22236064 0.23498143 0.2028664
-0.004085228 0.10583234 0.07149929 0.1399446 -0.102781914 0.26631358 0.09044175 -0.5123987
-0.014830198 -0.13375549 -0.028521618 -0.0040419716 0.14306833 -0.0013682401 0.1149823 -0.14495601
-0.034922674 0.027767643 -0.0025235564 0.08149449 0.05842968 0.06714693 0.16509943 -0.20187724
-0.052608326 0.07979016 -0.00688557 -0.048185885 0.050285753 0.042672563 0.18080376 0.15145941
-0.014093205 -0.08367037 0.043356046 0.060018256 -0.03650868 -0.103311434 0.08621697 -0.04474707
00000000: 706d 303e b5a5 d0bd 83de 6c3e 74e8 db3d
00000010: bdd0 b53b 16d8 20be 336d 02be 415f 8cbe
00000020: 8e3a 0dbe 60d9 d43c 5a9d ca3d 7004 c93b
00000030: 4b97 0d3d 19c5 23bb 9892 b0bc 953e 09be
00000040: f08b 5fbc ac0f 623d 8a24 7e3c 72d2 e23d
00000050: e5ee 053e af6f 73bd 6845 b5bc ff58 fc3d
00000060: 80d6 2a3b 7ae7 893e a024 0e3d ac24 24be
00000070: 7274 aa3d c73d 063b ccfb 343d ffd9 11bf
00000080: d605 ea3d 2251 aabd cc3f 343d 01c5 02be
00000090: 5828 9abc e8f9 09bd 60a3 44bd 4ed2 c63d
000000a0: 2d84 ccbd 9880 e93c 30d9 173d b759 9ebd
000000b0: a864 0bbe 9461 5fbd 8041 3e3c 1433 38bd
000000c0: e0a2 99bb b84c b33c ce49 c43d 9cfa edbd
000000d0: 58b8 01be f010 753d 7455 573d e4ce 29bd
000000e0: 88c8 3a3d b0e6 8d3c 6039 2a3c d8a0 d13c
000000f0: 3e3e df3d 9b0f 8ebd 4428 23be 2858 a7bc
00000100: d1f4 c03d a8d1 b1bd 91a5 5abe 7ffb 59be
00000110: 4cf7 eabd c1b2 ccbc 67c5 1dbd a056 b4bd
00000120: b0fc b63c 22ee 75bd 0b0d 1a3e b848 c2bd
00000130: 1c62 cc3d f776 81bd 1bbc b2bd 3074 7c3d
00000140: 3900 c1bd 4ec9 24be 2d37 2bbe e657 2fbd
00000150: d263 0c3e 567c 2dbe c85f d73d a134 a93d
00000160: b2c9 d13d 0b1f e63d a001 3b3d 2eb0 e43d
00000170: 004e f23c f3f1 0c3d bc13 a8bd 5e69 01be
00000180: 832f 88bd 82ea e7bd 8730 123e 398e 11be
00000190: 5071 583d 12b2 02be 7468 8fbd 8c8c 0c3d
000001a0: 8ed1 f13d 302c fe3c 4008 c9bc 7088 23bc
000001b0: af3f e5bd c8a1 acbc 32e1 f13d d800 cfbc
000001c0: 0076 0a3a dd7c 323e c083 71bc 8f87 2f3e
000001d0: a05f 893d ee98 10be ab99 e4bd f0a6 823d
000001e0: 254e c0bd 296f b3bd 5e9a afbd 9275 aabd
000001f0: c0f4 01bc 46dc dc3d 80f2 06be 60d6 e13c
00000200: 84c9 b03d b93a 673d 29aa 1e3e 63eb 19be
00000210: a03d bebc 85df 2ebe d6ec a03d 27b6 c1bd
00000220: c0b8 fd3c 4481 1cbd 991c 103e 8e6a 29be
00000230: 9b9f fabd 964e b23d 5e98 90bd 9cbb 2abe
00000240: c0c5 21bb a91c e7bd c894 823c acab b23c
00000250: bcab f7bd 12f3 be3d f01f 15be a4c1 f0bb
00000260: 076f 1c3e 7dfd 86bc 43dd 02be 7f22 093e
00000270: 9751 10be 9d10 30bd 2249 acbd 845e 50bd
00000280: a4f2 173e 7494 cebd 025f ee3d cd74 423d
00000290: 746f 57be 4c85 71be d388 093d 04f6 26be
000002a0: c89e d4bd 9653 f5bd 5f74 043e 4b0f 2f3e
000002b0: 512e e9bc 85fc 2cbd 9055 a2bc e564 403b
000002c0: 48eb 0fbe 32af bd3d 2fd7 8dbd bcd2 e33e
000002d0: e91b 463e 4a9e 4abe 3acb 503e 70d4 8f3d
000002e0: 0c9c 743d b110 9c3e 50b3 863c 2043 f9bb
000002f0: 9310 2a3e 744c c83d cff0 cdbd 8491 f7be
00000300: 177e bb3c 7b78 c1bd a5c6 9d3e bd72 833d
00000310: 3f1f a6bd 81f1 e03c 8b0f ed3c 66b0 67be
00000320: 6aee 1fbe 2040 dd3b 50ae 013d 7595 03be
00000330: 972a cd3d 11c5 57be e602 a1bd a28b 233e
00000340: 5233 863d 0245 b9bd 456f 7dbd a871 703e
00000350: 1f81 683e 82b2 63be f99e 703e 36bc 4f3e
00000360: 60dd 85bb a0be d83d 386e 923d a34d 0f3e
00000370: 537f d2bd 415a 883e 8639 b93d 902c 03bf
00000380: 5cfa 72bc 33f7 08be 2ba6 e9bc 8472 84bb
00000390: 8180 123e 8556 b3ba d77b eb3d 596f 14be
000003a0: 140b 0fbd f878 e33c 4062 25bb 95e6 a63d
000003b0: f653 6f3d 5484 893d d30f 293e e8b8 4ebe
000003c0: d47b 57bd 0669 a33d 59a0 e1bb 905e 45bd
000003d0: 6ff8 4d3d 6dc9 2e3d 9f24 393e 2d18 1b3e
000003e0: 30e7 66bc 5f5b abbd 1c96 313d b4d5 753d
000003f0: 208a 15bd f294 d3bd 8692 b03d b448 37bd

l3.bias f4 [16]
0.08457554 -0.13487715 0.08168124 -0.145975 0.14089122 0.23713121 0.0044820164 -0.15290584
0.09159964 -0.08448083 0.20504284 0.13082847 0.19326462 0.21296637 0.17036779 0.14660235
00000000: f135 ad3d 3c1d 0abe 7e48 a73d 787a 15be
00000010: ca45 103e 86d2 723e e1dd 923b 5993 1cbe
00000020: 9898 bb3d 4904 adbd c0f6 513e e6f7 053e
00000030: 29e7 453e db13 5a3e e574 2e3e ed1e 163e

l4.weight f4 [1, 16]
0.2928499 -0.087353945 -0.028948586 -0.20133716 -0.037876654 0.39577776 0.3146811 0.20558088
-0.21665528 -0.051324964 0.15228082 -0.47099653 0.23928691 -0.13080929 0.078086525 -0.22261506
00000000: 6cf0 953e a0e6 b2bd 9625 edbc 542b 4ebe
00000010: 8d24 1bbd 62a3 ca3e e21d a13e cb83 523e
00000020: e2da 5dbe 203a 52bd 81ef 1b3e 7526 f1be
00000030: a107 753e dff2 05be d4eb 9f3d 34f5 63be
