project/models/model_w1_1.05_lam_0.575_lam2_0.1_w2_0.05500000000000001.pt_actor.pt (torch, 8428 bytes, 7 tensors)

l1.weight f4 [16, 1]
000000 49 af 55 3f 3a 24 e6 3e 8a eb 12 be f4 97 cd 3e
       0.8347059 0.44949514 -0.14347664 0.40154994
000010 70 b1 8e bd 80 53 9e 3d ef b2 15 3f 10 40 ec 3d
       -0.06967437 0.0773077 0.58476156 0.115356565
000020 e3 34 b3 3f 8e 45 c4 bd 60 7a 6e bf 84 22 e3 be
       1.4000515 -0.09583579 -0.9315548 -0.4436227
000030 2c fa 3a bf 1b f8 15 3f c3 18 42 3f 7f 3e 20 3f
       -0.7303798 0.58581704 0.75819033 0.6259536

l1.bias f4 [16]
000000 37 5d 54 3f 17 64 34 3e 0c 4b 57 3f 8a d8 2e bf
       0.82954735 0.17616306 0.8409889 -0.6829916
000010 36 31 12 bf 78 b5 7f bf e0 0a 6a 3e 44 b9 03 bf
       -0.5710634 -0.99886274 0.22855711 -0.5145457
000020 1f 81 a6 bd 81 40 41 3f df fa 5c 3f b8 07 bf 3e
       -0.08130097 0.7548905 0.863203 0.37310576
000030 cf ae 5e 3e 8a 54 63 3f 43 65 04 3f 85 43 83 3e
       0.21746372 0.8880087 0.51717013 0.2563745

l2.weight f4 [32, 16]
000000 90 1e e2 3d 5f d1 96 3d c4 03 b0 3e 2c e3 28 be
       0.110409856 0.07364153 0.34377873 -0.16492909
000010 2a ff 1f 3e e0 ad d9 bd 1c 30 aa 3d dc b2 9c 3d
       0.15624681 -0.10628867 0.083099574 0.07651302
000020 92 e4 17 40 08 da 3c bc ad 08 52 3e 00 62 1c 3e
       2.3733258 -0.011526592 0.20511122 0.15271759
000030 d6 0c 2a 3e ff 5c 29 3e 82 61 cd 3e 6b bf 58 bd
       0.16606459 0.16539381 0.40113455 -0.052916925
000040 b2 10 b9 3d 1f 4b 87 3e 01 9d fb bd c0 54 f2 3d
       0.090363875 0.264245 -0.122858055 0.11832571
000050 34 a0 97 bd 74 8c 0b be 73 8c 6b 3d 08 e9 40 be
       -0.07403603 -0.13627797 0.05750699 -0.18838894
000060 4a a9 4d 3f 05 2b f6 3b 15 b4 17 be e2 98 3c 3d
       0.8033644 0.0075124525 -0.1481479 0.046044238
000070 8a 01 3d be 35 a5 46 3e 2e 68 b3 3e 51 cc d1 3e
       -0.18457618 0.19398959 0.3504042 0.40976194
000080 ae 4e e5 3b 1c 35 c1 be d2 8a 5c 3e 28 ea b0 3d
       0.0069979047 -0.37735832 0.21537331 0.08638412
000090 58 18 b8 3d 88 cc 5f be a3 54 7c be fa e9 6f be
       0.08989018 -0.21855366 -0.24641661 -0.23429099
0000a0 5c 20 bd bc 28 36 06 3e f7 78 ca 3e f1 94 99 3e
       -0.02308672 0.13106596 0.39545414 0.29996446
0000b0 03 32 fb 3e a5 ff 97 bd c6 36 1e 3e 7a ba 3c be
       0.49061593 -0.07421807 0.15450582 -0.1843051
0000c0 db 06 bd 3e e1 af fa 3e c7 87 8a 3e c4 cb a5 bd
       0.36919293 0.4896231 0.27056715 -0.08095506
0000d0 50 32 36 bd b8 f6 5b 3e 80 2d 7a 3e 58 bc 2b 3d
       -0.044481575 0.21480834 0.2443142 0.041927665
0000e0 3a 34 18 40 62 1b b9 3e 82 b3 8d 3e 9f e8 f9 3b
       2.3781877 0.36153704 0.27676016 0.0076266075
0000f0 b6 0e 8d 3d e9 52 b4 3e 0a 3d a8 3d 0f ac c5 3e
       0.068875715 0.35219505 0.08214767 0.38607833
000100 f4 53 15 3e d1 df da 3e 01 7e 96 3e 80 20 63 bb
       0.14582807 0.42748883 0.29393008 -0.0034656823
000110 12 bb 0a 3e 6c f4 1e 3e 19 54 70 bd 9c 5d ed 3d
       0.13547924 0.15522927 -0.05867395 0.1159012
000120 85 8e 5c 3f de 5e 30 3e 15 08 66 be cf b3 b9 3d
       0.8615497 0.17223689 -0.2246402 0.09067499
000130 7f 40 09 bf 40 bc a1 3e 90 b3 0a bd ee 2e b7 3e
       -0.5361404 0.31588936 -0.03386265 0.35777992
000140 8b 55 70 3e f0 20 9e 3e 79 77 4b be 64 b0 7b be
       0.23470132 0.30884504 -0.19869794 -0.24579006
000150 00 ca 80 3b c0 37 d1 3d f7 06 a6 3e c8 79 11 be
       0.0039303303 0.102157116 0.3242719 -0.14206612
000160 94 3f 4f 3f a0 ed 24 be da 6f ba 3d e8 e5 70 bd
       0.8095639 -0.16106272 0.09103365 -0.058813006
000170 2a 4a d2 be 11 b9 91 3e 20 33 c4 3d c5 0b b6 3e
       -0.41072208 0.28461507 0.09580064 0.35555854
000180 0d 0e a8 3c cd f0 ba 3e 56 0d 58 3e 70 68 80 bc
       0.020514512 0.3651184 0.21098837 -0.0156748
000190 e0 87 93 bd 10 c7 9b 3d 86 73 bf 3e da 02 0c be
       -0.072036505 0.076063275 0.37392825 -0.13672963
0001a0 84 6a ea 3f a9 4b 3a 3e e6 43 68 3e b1 fb 52 3e
       1.8313756 0.18192925 0.22682151 0.20603825
0001b0 14 3b 18 3d a0 91 03 3d 6a fb 6b 3e 70 d9 07 3e
       0.037165716 0.0321213 0.23045126 0.1326654
0001c0 94 45 4c bd 71 1a ac 3e 0d 7d 70 3e 00 81 aa 3b
       -0.049871042 0.33613923 0.23485203 0.0052033663
0001d0 cc 2a e5 3d 80 00 9f bc 41 ac ab 3e 22 ab 6f be
       0.111898035 -0.019409418 0.33529857 -0.23405126
0001e0 5d 84 65 3f eb d8 69 3e 61 8c e4 bd 13 2f 82 be
       0.89655095 0.22836654 -0.11159588 -0.2542654
0001f0 3d ee 5d be a8 db c5 bd d4 b1 f4 3d d4 4e 64 3d
       -0.21672912 -0.09661037 0.119479805 0.05573924
000200 7a c4 14 3e 58 f9 6f 3e e0 b6 77 3d 48 90 dc bd
       0.14528075 0.23434961 0.060477138 -0.10769707
000210 88 52 d0 bd 78 1a f8 3d e8 11 05 3d 80 62 93 3b
       -0.101719916 0.121144235 0.03248778 0.004497826
000220 58 ad 67 be fa 3c 22 be 50 5d 37 be 76 61 79 3e
       -0.22624719 -0.15843573 -0.1790669 0.24353585
000230 c0 fa df bc 7c f5 64 be 36 aa 3b be 20 64 28 bc
       -0.027341247 -0.2235927 -0.18326649 -0.010277778
000240 06 31 59 be 0e 4c 6a be 10 41 a1 3c 2a e9 00 3e
       -0.21210107 -0.22880575 0.019684345 0.12588945
000250 98 57 d7 3d a2 47 3c be 10 9a c8 bc 94 c0 a8 3d
       0.10514754 -0.18386701 -0.024487525 0.08239856
000260 d2 00 29 3e c4 6d 4d be c6 0a 3e be 78 5c f1 3d
       0.16504219 -0.20061404 -0.18558797 0.11785215
000270 36 66 7f be 04 f5 d8 bd 28 17 a9 bd d0 c5 f9 3c
       -0.24941334 -0.10593608 -0.0825637 0.030489832
000280 d6 dc 29 be fc df 08 be 00 4c c3 b9 e8 9e c0 3d
       -0.16588148 -0.13366693 -0.00037249923 0.09405309
000290 7e 74 5f be 20 6e 5a be e2 96 6c be f4 e5 b0 bd
       -0.21821782 -0.21331072 -0.23104432 -0.0863761
0002a0 d0 1d 31 be 0e c6 61 be 00 48 24 bc 64 54 5e 3e
       -0.17296529 -0.22048208 -0.010026932 0.2171188
0002b0 c4 aa 0d be 50 a3 1c 3e 20 48 7c bd ee 80 04 3e
       -0.13834673 0.15296674 -0.06159222 0.12939808
0002c0 b5 ea 27 bd 69 7b 3a be 03 c4 f9 3d d4 6c 43 be
       -0.04099532 -0.1821114 0.121955894 -0.19084483
0002d0 12 54 69 3e a0 30 67 3d 8a ff e9 3d d8 77 3b bd
       0.22785977 0.056442857 0.11425693 -0.04576859
0002e0 2a 1b da bd 55 5f d6 3c 01 23 e8 bc 52 3a 81 3d
       -0.106497124 0.026168505 -0.028337004 0.06309952
0002f0 f8 db 15 3d 16 aa 54 be 73 0d 38 3d fd 40 73 3e
       0.03658673 -0.20768008 0.0449347 0.2375526
000300 54 13 20 3e 24 61 e3 be fe 4a 4e 3e f4 56 1f be
       0.15632373 -0.4441005 0.20145795 -0.15560514
000310 28 30 38 be e0 81 9f 3d 04 40 1e bd b0 aa ed 3d
       -0.1798712 0.077884436 -0.03863527 0.11604822
000320 6f 98 36 be 42 57 da 3d c6 bd d0 3d 47 80 4e 3e
       -0.17831586 0.10661174 0.101924464 0.20166121
000330 c2 38 88 3e f8 f3 2a be 66 db 06 3e 62 12 93 be
       0.26605803 -0.16694629 0.13169631 -0.28724962
000340 1d 32 3f 3e b5 de f1 3e bf c6 18 be ca 94 4a 3e
       0.1867146 0.47240224 -0.14919566 0.19783321
000350 90 a4 6a 3d c0 21 3c 3c 13 ed d5 3e a8 d3 44 be
       0.057285845 0.011482656 0.41782436 -0.19221365
000360 af 92 81 3f 13 85 b1 bc a2 bc 24 be 5f 49 1a be
       1.0122889 -0.0216699 -0.16087583 -0.15067051
000370 b3 e6 50 be ff 51 44 3e 79 0f c0 3e 40 05 c2 3e
       -0.20400505 0.19171904 0.37511805 0.3789463
000380 24 71 74 be 30 07 2f 3e 50 87 7d 3d 10 3f 3c 3d
       -0.23871285 0.17092586 0.061896622 0.04595858
000390 58 3f d5 bd de 5b 1e 3e 50 9d 26 be dc 87 dd bd
       -0.104124725 0.15464732 -0.16270947 -0.10816929
0003a0 ba 18 20 3e bc 62 77 3e 54 a3 b2 bd b4 fe 25 3e
       0.15634432 0.24158758 -0.087225586 0.16210443
0003b0 34 16 00 be 46 1a 74 be fc 5d d3 3d 50 74 ab 3d
       -0.1250847 -0.23838148 0.103206605 0.08371794
0003c0 3b 1d 9a 3d f5 dd d6 3e 79 16 de 3d 10 6b 42 3e
       0.075251065 0.41966215 0.1084413 0.18986154
0003d0 82 7d 39 be 54 56 b1 3d 18 a1 ef 3d 9c b4 b9 3d
       -0.18114284 0.08659044 0.11700648 0.09067652
0003e0 be d8 97 3f 35 56 06 3d d7 df ac 3d 46 ee a3 be
       1.186302 0.032797057 0.084411316 -0.32017726
0003f0 c9 21 9c be 12 b2 13 3e 89 fe 0e 3e 67 5d 72 3e
       -0.30494526 0.14423397 0.13964285 0.23668443

l2.bias f4 [32]
000000 b2 ad 4c 3e 41 51 f6 3d 9d 45 78 bc 72 56 ca 3e
       0.19988135 0.12027217 -0.015153316 0.39519078
000010 b3 54 25 be 9e db 04 3e d2 e6 5a 3e 72 3f 69 3d
       -0.16145591 0.12974402 0.21377113 0.05694527
000020 04 bf 44 3e 6e 30 4c be 80 e9 44 bd 11 a4 e0 bc
       0.19213492 -0.1994035 -0.048074245 -0.027421983
000030 03 9f 08 bd b3 6d 6c 3e 6e 3f 25 be a9 00 a6 3e
       -0.03335477 0.23088722 -0.16137478 0.3242238
000040 a0 40 5e be fe 57 65 be 3f c2 87 3e 46 c6 60 3e
       -0.2170434 -0.22396848 0.26515386 0.21950635
000050 77 74 f4 3d 7a f7 88 3e 4e 50 97 3e df 04 70 3e
       0.119362764 0.2675131 0.29553455 0.23439358
000060 80 db 87 bd 25 49 ed 3d b8 5c 35 3e 78 ad cf bd
       -0.06633663 0.11586217 0.1771115 -0.101405084
000070 80 bd 42 3e 9a 45 36 3d 08 3b c1 3d af 0d 4c be
       0.19017601 0.04449997 0.094350874 -0.19927095

l3.weight f4 [16, 32]
000000 3b 96 31 3e e9 71 cc bd db b0 6c 3e ee 30 de 3d
       0.17342465 -0.09982664 0.2311434 0.10849176
000010 2e 04 f9 3b 29 d9 1e be 3f 66 01 be fc d4 8a be
       0.007599375 -0.15512528 -0.1263666 -0.2711562
000020 8e 3a 0d be 60 d9 d4 3c 5a 9d ca 3d 70 04 c9 3b
       -0.13791868 0.025982559 0.09893294 0.006134562
000030 09 41 0a 3d f5 5e 20 ba 98 92 b0 bc ff 8f 07 be
       0.03375343 -0.00061176653 -0.021554276 -0.13238524
000040 f0 8b 5f bc ac 0f 62 3d 0c d3 8f 3c dd 7d e2 3d
       -0.013644204 0.055190727 0.01755669 0.11059163
000050 cf c2 06 3e c6 39 6c bd 16 a0 b4 bc 61 16 fd 3d
       0.13160251 -0.057672285 -0.022048991 0.12357784
000060 80 d6 2a 3b 1d dc 89 3e a0 24 0e 3d ac 24 24 be
       0.0026067793 0.26925746 0.034702897 -0.16029614
000070 72 74 aa 3d ae 15 c4 3a cc fb 34 3d 98 ad 4e bf
       0.083229914 0.0014960074 0.044185445 -0.80733633
000080 d6 05 ea 3d 22 51 aa bd cc 3f 34 3d 01 c5 02 be
       0.11426894 -0.08316256 0.044006154 -0.12770464
000090 58 28 9a bc e8 f9 09 bd 60 a3 44 bd 4e d2 c6 3d
       -0.018818066 -0.033685595 -0.04800737 0.09708081
0000a0 2d 84 cc bd 98 80 e9 3c 30 d9 17 3d b7 59 9e bd
       -0.09986148 0.028503701 0.03707236 -0.077319555
0000b0 a8 64 0b be 94 61 5f bd 80 41 3e 3c 14 33 38 bd
       -0.13612616 -0.054536417 0.011612296 -0.044970587
0000c0 e0 a2 99 bb b8 4c b3 3c ce 49 c4 3d 9c fa ed bd
       -0.0046886057 0.021887168 0.095843896 -0.116200656
0000d0 58 b8 01 be f0 10 75 3d 74 55 57 3d e4 ce 29 bd
       -0.12667978 0.059830606 0.05257173 -0.041457072
0000e0 88 c8 3a 3d b0 e6 8d 3c 60 39 2a 3c d8 a0 d1 3c
       0.045601398 0.017321914 0.010389656 0.025589392
0000f0 3e 3e df 3d 9b 0f 8e bd 44 28 23 be 28 58 a7 bc
       0.10900544 -0.0693657 -0.15933329 -0.020427778
000100 d1 f4 c0 3d a8 d1 b1 bd 91 a5 5a be 7f fb 59 be
       0.09421695 -0.08682567 -0.21352221 -0.21287344
000110 4c f7 ea bd c1 b2 cc bc 67 c5 1d bd a0 56 b4 bd
       -0.114729494 -0.02498758 -0.038518336 -0.08805585
000120 b0 fc b6 3c 22 ee 75 bd 0b 0d 1a 3e b8 48 c2 bd
       0.022337288 -0.060041554 0.15044038 -0.09486526
000130 1c 62 cc 3d f7 76 81 bd 1b bc b2 bd 30 74 7c 3d
       0.099796504 -0.06321519 -0.087272845 0.061634243
000140 39 00 c1 bd 4e c9 24 be 2d 37 2b be e6 57 2f bd
       -0.094238706 -0.16092417 -0.16720267 -0.042808436
000150 d2 63 0c 3e 56 7c 2d be c8 5f d7 3d a1 34 a9 3d
       0.13709953 -0.16941962 0.10516316 0.08261991
000160 b2 c9 d1 3d 0b 1f e6 3d a0 01 3b 3d 2e b0 e4 3d
       0.102435485 0.1123639 0.045655847 0.11166416
000170 00 4e f2 3c f3 f1 0c 3d bc 13 a8 bd 5e 69 01 be
       0.029578209 0.03441043 -0.08206889 -0.1263785
000180 83 2f 88 bd 82 ea e7 bd 87 30 12 3e 39 8e 11 be
       -0.06649687 -0.11324026 0.14276324 -0.1421441
000190 50 71 58 3d 12 b2 02 be 74 68 8f bd 8c 8c 0c 3d
       0.05284244 -0.12763241 -0.07002345 0.034313723
0001a0 8e d1 f1 3d 30 2c fe 3c 40 08 c9 bc 70 88 23 bc
       0.118075475 0.03102693 -0.024540067 -0.00998126
0001b0 af 3f e5 bd c8 a1 ac bc 32 e1 f1 3d d8 00 cf bc
       -0.11193787 -0.021073237 0.11810531 -0.025268957
0001c0 00 76 0a 3a dd 7c 32 3e c0 83 71 bc 8f 87 2f 3e
       0.00052818656 0.17430444 -0.014740884 0.17141555
0001d0 a0 5f 89 3d ee 98 10 be ab 99 e4 bd f0 a6 82 3d
       0.06707692 -0.14120838 -0.11162122 0.06379497
0001e0 25 4e c0 bd 29 6f b3 bd 5e 9a af bd 92 75 aa bd
       -0.09389905 -0.087614365 -0.08574365 -0.08323206
0001f0 c0 f4 01 bc 46 dc dc 3d 80 f2 06 be 60 d6 e1 3c
       -0.007931888 0.10784201 -0.13178444 0.027568042
000200 84 c9 b0 3d b9 3a 67 3d 29 aa 1e 3e 63 eb 19 be
       0.08632186 0.056452487 0.15494598 -0.15031199
000210 a0 3d be bc 85 df 2e be d6 ec a0 3d 27 b6 c1 bd
       -0.023222744 -0.17077453 0.07857673 -0.09458571
000220 c0 b8 fd 3c 44 81 1c bd 99 1c 10 3e 8e 6a 29 be
       0.030971885 -0.038209215 0.14073409 -0.16544554
000230 9b 9f fa bd 96 4e b2 3d 5e 98 90 bd 9c bb 2a be
       -0.122374736 0.08706395 -0.07060312 -0.1667313
000240 c0 c5 21 bb a9 1c e7 bd c8 94 82 3c ac ab b2 3c
       -0.0024684519 -0.11284763 0.015940085 0.021810375
000250 bc ab f7 bd 12 f3 be 3d f0 1f 15 be a4 c1 f0 bb
       -0.120933026 0.09323706 -0.14562964 -0.0073473025
000260 07 6f 1c 3e 7d fd 86 bc 43 dd 02 be 7f 22 09 3e
       0.15276729 -0.016478295 -0.12779717 0.13392065
000270 97 51 10 be 9d 10 30 bd 22 49 ac bd 84 5e 50 bd
       -0.14093624 -0.042984594 -0.084123865 -0.050871387
000280 7e d6 18 3e 88 25 cb bd ef ee ed 3d f7 13 46 3d
       0.14925572 -0.09919268 0.116178386 0.048358884
000290 12 b9 55 be 96 e5 6f be 0f 9f 0c 3d 61 5e 24 be
       -0.2087138 -0.23427424 0.034331378 -0.16051628
0002a0 c8 9e d4 bd 96 53 f5 bd 5f 74 04 3e 4b 0f 2f 3e
       -0.103818476 -0.119788334 0.12935017 0.17095678
0002b0 95 c7 ef bc 53 c6 26 bd 90 55 a2 bc f1 08 8c 3b
       -0.029269973 -0.04071648 -0.01981619 0.004273527
0002c0 48 eb 0f be 32 af bd 3d 0d 74 8a bd ed b9 e3 3e
       -0.14054596 0.092619315 -0.06760416 0.44477788
0002d0 8d b4 46 3e 59 2c 49 be 59 c1 50 3e 0e 3c 90 3d
       0.19404812 -0.19645824 0.20386256 0.070427045
0002e0 0c 9c 74 3d 72 fd 9b 3e 50 b3 86 3c 20 43 f9 bb
       0.05971913 0.304668 0.016442925 -0.007606879
0002f0 93 10 2a 3e 3e 18 c7 3d cf f0 cd bd dc 42 48 bf
       0.16607885 0.09721421 -0.10055696 -0.7822702
000300 94 40 c2 3c 1f 26 be bd 7e a7 9d 3e e4 2c 85 3d
       0.023712434 -0.09284615 0.3079185 0.06502703
000310 1c cf a2 bd 87 7f ed 3c e6 e2 f2 3c 96 29 65 be
       -0.07949659 0.028991474 0.02964921 -0.22379145
000320 6a ee 1f be 20 40 dd 3b 50 ae 01 3d 75 95 03 be
       -0.15618291 0.006752029 0.031660378 -0.12849982
000330 0b 7a cb 3d b8 45 56 be e6 02 a1 bd ae dd 24 3e
       0.09935387 -0.20925033 -0.07861881 0.16100189
000340 52 33 86 3d 02 45 b9 bd 89 e3 76 bd b9 39 70 3e
       0.06552757 -0.09046365 -0.06027559 0.2345952
000350 4c 0f 69 3e 56 4e 62 be 09 8d 70 3e 02 e7 4f 3e
       0.22759742 -0.22100195 0.234913 0.20302966
000360 60 dd 85 bb 1c 64 d8 3d 38 6e 92 3d a3 4d 0f 3e
       -0.004085228 0.10565969 0.07149929 0.1399446
000370 53 7f d2 bd 55 0a 88 3e 86 39 b9 3d c2 b3 4d bf
       -0.102781914 0.26570383 0.09044175 -0.80352414
000380 5c fa 72 bc 33 f7 08 be 2b a6 e9 bc 84 72 84 bb
       -0.014830198 -0.13375549 -0.028521618 -0.0040419716
000390 81 80 12 3e 85 56 b3 ba d7 7b eb 3d 59 6f 14 be
       0.14306833 -0.0013682401 0.1149823 -0.14495601
0003a0 14 0b 0f bd f8 78 e3 3c 40 62 25 bb 95 e6 a6 3d
       -0.034922674 0.027767643 -0.0025235564 0.08149449
0003b0 f6 53 6f 3d 54 84 89 3d d3 0f 29 3e e8 b8 4e be
       0.05842968 0.06714693 0.16509943 -0.20187724
0003c0 d4 7b 57 bd 06 69 a3 3d 59 a0 e1 bb 90 5e 45 bd
       -0.052608326 0.07979016 -0.00688557 -0.048185885
0003d0 6f f8 4d 3d 6d c9 2e 3d 9f 24 39 3e 2d 18 1b 3e
       0.050285753 0.042672563 0.18080376 0.15145941
0003e0 30 e7 66 bc 5f 5b ab bd 1c 96 31 3d b4 d5 75 3d
       -0.014093205 -0.08367037 0.043356046 0.060018256
0003f0 20 8a 15 bd f2 94 d3 bd 86 92 b0 3d b4 48 37 bd
       -0.03650868 -0.103311434 0.08621697 -0.04474707

l3.bias f4 [16]
000000 6c 3f ae 3d 3c 1d 0a be 7e 48 a7 3d 78 7a 15 be
       0.085081905 -0.13487715 0.08168124 -0.145975
000010 ca 45 10 3e 58 31 73 3e 46 99 9d 3b 59 93 1c be
       0.14089122 0.23749292 0.0048095314 -0.15290584
000020 98 98 bb 3d 49 04 ad bd f8 2b 52 3e 50 55 06 3e
       0.09159964 -0.08448083 0.20524585 0.13118482
000030 25 84 45 3e 5a 47 5a 3e e5 74 2e 3e ed 1e 16 3e
       0.1928869 0.21316281 0.17036779 0.14660235

l4.weight f4 [1, 16]
000000 5b 7e 95 3e a0 e6 b2 bd 96 25 ed bc 54 2b 4e be
       0.29197964 -0.087353945 -0.028948586 -0.20133716
000010 8d 24 1b bd ff 3d ca 3e c9 af a0 3e cb 83 52 3e
       -0.037876654 0.39500424 0.31384113 0.20558088
000020 e2 da 5d be 20 3a 52 bd 02 22 1b 3e c5 5d f1 be
       -0.21665528 -0.051324964 0.15149692 -0.47141853
000030 63 4d 74 3e 99 43 06 be d4 eb 9f 3d 34 f5 63 be
       0.23857646 -0.13111724 0.078086525 -0.22261506
