project/models/model_w1_2.0_lam_1.05_lam2_0.1_w2_0.1.pt_actor.pt (torch, 8148 bytes, 7 tensors)

l1.weight f4 [16, 1]
0.8421356 0.44577956 -0.16287866 0.40154994 -0.06967437 0.0773077 0.5749331 0.115356565
1.5518415 -0.106617756 -0.9323429 -0.45198336 -0.70916176 0.60910445 0.7894067 0.64035016
00000000: 3396 573f 383d e43e aac9 26be f497 cd3e
00000010: 70b1 8ebd 8053 9e3d d12e 133f 1040 ec3d
00000020: bea2 c63f 695a dabd 06ae 6ebf 5d6a e7be
00000030: a08b 35bf 45ee 1b3f 8f16 4a3f fded 233f

l1.bias f4 [16]
0.8238483 0.17522305 0.8347213 -0.6829916 -0.5710634 -0.99886274 0.22624324 -0.5145457
-0.047848348 0.7500768 0.8613644 0.37125075 0.21844009 0.8841658 0.5123785 0.25462824
00000000: b9e7 523f ac6d 333e 4cb0 553f 8ad8 2ebf
00000010: 3631 12bf 78b5 7fbf 4fac 673e 44b9 03bf
00000020: a1fc 43bd 0805 403f 6182 5c3f 9414 be3e
00000030: c2ae 5f3e b158 623f 3d2b 033f a25e 823e

l2.weight f4 [32, 16]
0.1060662 0.071956396 0.3375573 -0.16492909 0.15624681 -0.10628867 0.081116475 0.07651302
2.8927743 -0.01772367 0.19788204 0.14498131 0.15573348 0.1606639 0.39748615 -0.05509919
0.08868746 0.26191664 -0.12427165 0.11832571 -0.07403603 -0.13627797 0.055478837 -0.18838894
0.76836514 0.0061456216 -0.14980724 0.044726957 -0.18580991 0.19224499 0.34868482 0.40782854
0.0063770893 -0.3770111 0.21423277 0.08638412 0.08989018 -0.21855366 -0.24636568 -0.23429099
0.096763425 0.12989144 0.3943617 0.29850033 0.4886781 -0.0748425 0.15403035 -0.18436801
0.34914595 0.47500595 0.2458962 -0.08095506 -0.044481575 0.21480834 0.23001096 0.041927665
3.6205413 0.3371214 0.24803737 -0.021256067 0.032453742 0.33070314 0.06404099 0.37155655
0.14445609 0.4254603 0.29282293 -0.0034656823 0.13547924 0.15522927 -0.060402427 0.1159012
0.8206858 0.1711751 -0.22599 0.089667656 -0.5370692 0.3144491 -0.03527915 0.35614753
0.23296086 0.30632445 -0.20007859 -0.24579006 0.0039303303 0.102157116 0.32205266 -0.14206612
0.7388264 -0.1624015 0.08948287 -0.060011692 -0.4116934 0.28282884 0.09397472 0.3534446
0.0010169297 0.34802988 0.18980573 -0.0156748 -0.072036505 0.076063275 0.3565489 -0.13672963
2.282202 0.16076168 0.20477906 0.1835088 0.012402096 0.012292275 0.21157795 0.11510297
-0.051364757 0.3332847 0.23419797 0.0052033663 0.111898035 -0.019409418 0.33274478 -0.23405126
0.79848033 0.22773306 -0.112053305 -0.25432292 -0.2156963 -0.09801327 0.11770704 0.053308897
0.14528075 0.23434961 0.060477138 -0.10769707 -0.101719916 0.121144235 0.03248778 0.004497826
-0.22624719 -0.15843573 -0.1790669 0.24353585 -0.027341247 -0.2235927 -0.18326649 -0.010277778
-0.21210107 -0.22880575 0.019684345 0.12588945 0.10514754 -0.18386701 -0.024487525 0.08239856
0.16504219 -0.20061404 -0.18558797 0.11785215 -0.24941334 -0.10593608 -0.0825637 0.030489832
-0.16588148 -0.13366693 -0.00037249923 0.09405309 -0.21821782 -0.21331072 -0.23104432 -0.0863761
-0.17296529 -0.22048208 -0.010026932 0.2171188 -0.13834673 0.15296674 -0.06159222 0.12939808
-0.04099532 -0.1821114 0.121955894 -0.19084483 0.22785977 0.056442857 0.11425693 -0.04576859
-0.106497124 0.026168505 -0.028337004 0.06309952 0.03658673 -0.20768008 0.0449347 0.2375526
0.15356606 -0.44603902 0.19830377 -0.15560514 -0.1798712 0.077884436 -0.040876873 0.11604822
-0.09771669 0.10341758 0.09891192 0.19829567 0.26244983 -0.1696735 0.12903349 -0.28959322
0.18575649 0.46999788 -0.14924294 0.19783321 0.057285845 0.011482656 0.4157213 -0.19221365
0.9499596 -0.021699637 -0.16067235 -0.15005636 -0.20215023 0.19087075 0.37385052 0.3769652
-0.23871285 0.17092586 0.061896622 0.04595858 -0.104124725 0.15464732 -0.16270947 -0.10816929
0.15634432 0.24158758 -0.087225586 0.16210443 -0.1250847 -0.23838148 0.103206605 0.08371794
0.0731356 0.41715255 0.106384866 0.18986154 -0.18114284 0.08659044 0.11479469 0.09067652
1.2108827 0.0307958 0.08194906 -0.3223173 -0.3073292 0.14199235 0.13756903 0.234556
00000000: 3c39 d93d e05d 933d 4fd4 ac3e 2ce3 28be
00000010: 2aff 1f3e e0ad d9bd 6520 a63d dcb2 9c3d
00000020: 3723 3940 3b31 91bc 97a1 4a3e fb75 143e
00000030: 9978 1f3e 1485 243e 4e83 cb3e b0af 61bd
00000040: c5a1 b53d f019 863e 2382 febd c054 f23d
00000050: 34a0 97bd 748c 0bbe c73d 633d 08e9 40be
00000060: 94b3 443f 3661 c93b 1267 19be 9d33 373d
00000070: f444 3ebe dfdb 443e d186 b23e e7ce d03e
00000080: e7f6 d03b 9907 c1be d65f 5b3e 28ea b03d
00000090: 5818 b83d 88cc 5fbe 4947 7cbe fae9 6fbe
000000a0: e72b c63d 4302 053e c7e9 c93e 09d5 983e
000000b0: 0434 fa3e 0647 99bd 22ba 1d3e f8ca 3cbe
000000c0: 42c3 b23e fb33 f33e 37cc 7b3e c4cb a5bd
000000d0: 5032 36bd b8f6 5b3e fe87 6b3e 58bc 2b3d
000000e0: f3b6 6740 2d9b ac3e 82fd 7d3e 3421 aebc
000000f0: 37ee 043d ec51 a93e ec27 833d a93c be3e
00000100: 4cec 133e efd5 d93e e3ec 953e 8020 63bb
00000110: 12bb 0a3e 6cf4 1e3e 8968 77bd 9c5d ed3d
00000120: 7718 523f 8748 2f3e ec69 67be ada3 b73d
00000130: 5e7d 09bf 79ff a03e df80 10bd f858 b63e
00000140: 4b8d 6e3e 8fd6 9c3e 67e1 4cbe 64b0 7bbe
00000150: 00ca 803b c037 d13d 16e4 a43e c879 11be
00000160: ba23 3d3f 944c 26be cc42 b73d d2ce 75bd
00000170: 7ac9 d2be f1ce 903e d175 c03d b1f6 b43e
00000180: 804a 853a f930 b23e 6f5c 423e 7068 80bc
00000190: e087 93bd 10c7 9b3d 948d b63e da02 0cbe
000001a0: 990f 1240 b69e 243e 9ab1 513e bbe9 3b3e
000001b0: 2932 4b3c 8a65 493c e4a7 583e 1bbb eb3d
000001c0: da63 52bd 4ba4 aa3e 98d1 6f3e 0081 aa3b
000001d0: cc2a e53d 8000 9fbc 865d aa3e 22ab 6fbe
000001e0: 3569 4c3f db32 693e 347c e5bd 9d36 82be
000001f0: 7edf 5cbe 2ebb c8bd 6310 f13d 6e5a 5a3d
00000200: 7ac4 143e 58f9 6f3e e0b6 773d 4890 dcbd
00000210: 8852 d0bd 781a f83d e811 053d 8062 933b
00000220: 58ad 67be fa3c 22be 505d 37be 7661 793e
00000230: c0fa dfbc 7cf5 64be 36aa 3bbe 2064 28bc
00000240: 0631 59be 0e4c 6abe 1041 a13c 2ae9 003e
00000250: 9857 d73d a247 3cbe 109a c8bc 94c0 a83d
00000260: d200 293e c46d 4dbe c60a 3ebe 785c f13d
00000270: 3666 7fbe 04f5 d8bd 2817 a9bd d0c5 f93c
00000280: d6dc 29be fcdf 08be 004c c3b9 e89e c03d
00000290: 7e74 5fbe 206e 5abe e296 6cbe f4e5 b0bd
000002a0: d01d 31be 0ec6 61be 0048 24bc 6454 5e3e
000002b0: c4aa 0dbe 50a3 1c3e 2048 7cbd ee80 043e
000002c0: b5ea 27bd 697b 3abe 03c4 f93d d46c 43be
000002d0: 1254 693e a030 673d 8aff e93d d877 3bbd
000002e0: 2a1b dabd 555f d63c 0123 e8bc 523a 813d
000002f0: f8db 153d 16aa 54be 730d 383d fd40 733e
00000300: 6c40 1d3e 3a5f e4be 2510 4b3e f456 1fbe
00000310: 2830 38be e081 9f3d 826e 27bd b0aa ed3d
00000320: b01f c8bd 99cc d33d 5592 ca3d 050e 4b3e
00000330: d35f 863e e4be 2dbe 5b21 043e 9045 94be
00000340: f336 3e3e 90a3 f03e 24d3 18be ca94 4a3e
00000350: 90a4 6a3d c021 3c3c 6cd9 d43e a8d3 44be
00000360: 8d30 733f 70c3 b1bc 4b87 24be 60a8 19be
00000370: 7800 4fbe 9f73 433e 5669 bf3e 9501 c13e
00000380: 2471 74be 3007 2f3e 5087 7d3d 103f 3c3d
00000390: 583f d5bd de5b 1e3e 509d 26be dc87 ddbd
000003a0: ba18 203e bc62 773e 54a3 b2bd b4fe 253e
000003b0: 3416 00be 461a 74be fc5d d33d 5074 ab3d
000003c0: 1ec8 953d 0595 d53e 4fe0 d93d 106b 423e
000003d0: 827d 39be 5456 b13d 7a19 eb3d 9cb4 b93d
000003e0: 34fe 9a3f 7947 fc3c e9d4 a73d c606 a5be
000003f0: 415a 9dbe 7166 113e e5de 0c3e 732f 703e

l2.bias f4 [32]
0.1941439 0.11861842 -0.016014839 0.37101182 -0.16280471 0.12810786 0.19303943 0.055961467
0.19213492 -0.1994035 -0.048074245 -0.027421983 -0.03624936 0.2304998 -0.16137478 0.32195616
-0.2170434 -0.22396848 0.26300645 0.21905643 0.11696713 0.26662907 0.29343268 0.2312839
-0.06633663 0.11476681 0.1771115 -0.101405084 0.19017601 0.042293232 0.094350874 -0.22727628
00000000: a9cd 463e 37ee f23d 8d31 83bc 43f5 bd3e
00000010: 47b6 26be b52e 033e 21ac 453e da37 653d
00000020: 04bf 443e 6e30 4cbe 80e9 44bd 11a4 e0bc
00000030: 357a 14bd 2408 6c3e 6e3f 25be 70d7 a43e
00000040: a040 5ebe fe57 65be c8a8 863e 5450 603e
00000050: 768c ef3d 9b83 883e cf3c 963e b0d5 6c3e
00000060: 80db 87bd dc0a eb3d b85c 353e 78ad cfbd
00000070: 80bd 423e ab3b 2d3d 083b c13d 1dbb 68be

l3.weight f4 [16, 32]
0.17408958 -0.09334697 0.22817439 0.11100896 0.0138192065 -0.14901276 -0.12598902 -0.2615159
-0.13791868 0.025982559 0.09893294 0.006134562 0.027215358 0.0049000485 -0.021554276 -0.12785499
-0.013644204 0.055190727 0.023185888 0.108069874 0.13079886 -0.052327808 -0.024418999 0.12212419
0.0026067793 0.26704144 0.034702897 -0.16029614 0.083229914 -0.0040812283 0.044185445 -1.699592
0.11426894 -0.08316256 0.044006154 -0.12770464 -0.018818066 -0.033685595 -0.04800737 0.09708081
-0.09986148 0.028503701 0.03707236 -0.077319555 -0.13612616 -0.054536417 0.011612296 -0.044970587
-0.0046886057 0.021887168 0.095843896 -0.116200656 -0.12667978 0.059830606 0.05257173 -0.041457072
0.045601398 0.017321914 0.010389656 0.025589392 0.10900544 -0.0693657 -0.15933329 -0.020427778
0.09421695 -0.08682567 -0.21352221 -0.21287344 -0.114729494 -0.02498758 -0.038518336 -0.08805585
0.022337288 -0.060041554 0.15044038 -0.09486526 0.099796504 -0.06321519 -0.087272845 0.061634243
-0.094238706 -0.16092417 -0.16720267 -0.042808436 0.13709953 -0.16941962 0.10516316 0.08261991
0.102435485 0.1123639 0.045655847 0.11166416 0.029578209 0.03441043 -0.08206889 -0.1263785
-0.06649687 -0.11324026 0.14276324 -0.1421441 0.05284244 -0.12763241 -0.07002345 0.034313723
0.118075475 0.03102693 -0.024540067 -0.00998126 -0.11193787 -0.021073237 0.11810531 -0.025268957
0.00052818656 0.17430444 -0.014740884 0.17141555 0.06707692 -0.14120838 -0.11162122 0.06379497
-0.09389905 -0.087614365 -0.08574365 -0.08323206 -0.007931888 0.10784201 -0.13178444 0.027568042
0.08632186 0.056452487 0.15494598 -0.15031199 -0.023222744 -0.17077453 0.07857673 -0.09458571
0.030971885 -0.038209215 0.14073409 -0.16544554 -0.122374736 0.08706395 -0.07060312 -0.1667313
-0.0024684519 -0.11284763 0.015940085 0.021810375 -0.120933026 0.09323706 -0.14562964 -0.0073473025
0.15276729 -0.016478295 -0.12779717 0.13392065 -0.14093624 -0.042984594 -0.084123865 -0.050871387
0.14993477 -0.09275581 0.11337649 0.050916106 -0.2025392 -0.22819446 0.034734186 -0.1509792
-0.103818476 -0.119788334 0.12935017 0.17095678 -0.03561143 -0.03524436 -0.01981619 0.008804811
-0.14054596 0.092619315 -0.06203036 0.44243178 0.19328453 -0.1911392 0.20160927 0.069057845
0.05971913 0.30260628 0.016442925 -0.007606879 0.16607885 0.091801696 -0.10055696 -1.7336243
0.024263874 -0.08653106 0.30496383 0.067451596 -0.07344228 0.03494816 0.029922038 -0.21436666
-0.15618291 0.006752029 0.031660378 -0.12849982 0.09285743 -0.20390074 -0.07861881 0.16540502
0.06552757 -0.09046365 -0.054820832 0.23209639 0.22670181 -0.21580519 0.2325153 0.20152186
-0.004085228 0.103448406 0.07149929 0.1399446 -0.102781914 0.26014084 0.09044175 -1.7420555
-0.018052695 -0.13589247 -0.028521618 -0.0077196346 0.14096177 -0.0035310748 0.11208731 -0.1467528
-0.034922674 0.027767643 -0.0025235564 0.08149449 0.05842968 0.064546056 0.16509943 -0.20431791
-0.052608326 0.07979016 -0.00953963 -0.048185885 0.048288025 0.040240783 0.1801631 0.1502531
-0.014093205 -0.08368452 0.043356046 0.060018256 -0.03650868 -0.103323095 0.08621697 -0.04613933
00000000: 8a44 323e b22c bfbd 8ca6 693e aa58 e33d
00000010: f469 623c cd96 18be 4403 01be 69e5 85be
00000020: 8e3a 0dbe 60d9 d43c 5a9d ca3d 7004 c93b
00000030: bef2 de3c 9690 a03b 9892 b0bc 6bec 02be
00000040: f08b 5fbc ac0f 623d 55f0 bd3c bd53 dd3d
00000050: 23f0 053e af55 56bd 5a0a c8bc 3f1c fa3d
00000060: 80d6 2a3b a8b9 883e a024 0e3d ac24 24be
00000070: 7274 aa3d d3bb 85bb ccfb 343d 3b8c d9bf
00000080: d605 ea3d 2251 aabd cc3f 343d 01c5 02be
00000090: 5828 9abc e8f9 09bd 60a3 44bd 4ed2 c63d
000000a0: 2d84 ccbd 9880 e93c 30d9 173d b759 9ebd
000000b0: a864 0bbe 9461 5fbd 8041 3e3c 1433 38bd
000000c0: e0a2 99bb b84c b33c ce49 c43d 9cfa edbd
000000d0: 58b8 01be f010 753d 7455 573d e4ce 29bd
000000e0: 88c8 3a3d b0e6 8d3c 6039 2a3c d8a0 d13c
000000f0: 3e3e df3d 9b0f 8ebd 4428 23be 2858 a7bc
00000100: d1f4 c03d a8d1 b1bd 91a5 5abe 7ffb 59be
00000110: 4cf7 eabd c1b2 ccbc 67c5 1dbd a056 b4bd
00000120: b0fc b63c 22ee 75bd 0b0d 1a3e b848 c2bd
00000130: 1c62 cc3d f776 81bd 1bbc b2bd 3074 7c3d
00000140: 3900 c1bd 4ec9 24be 2d37 2bbe e657 2fbd
00000150: d263 0c3e 567c 2dbe c85f d73d a134 a93d
00000160: b2c9 d13d 0b1f e63d a001 3b3d 2eb0 e43d
00000170: 004e f23c f3f1 0c3d bc13 a8bd 5e69 01be
00000180: 832f 88bd 82ea e7bd 8730 123e 398e 11be
00000190: 5071 583d 12b2 02be 7468 8fbd 8c8c 0c3d
000001a0: 8ed1 f13d 302c fe3c 4008 c9bc 7088 23bc
000001b0: af3f e5bd c8a1 acbc 32e1 f13d d800 cfbc
000001c0: 0076 0a3a dd7c 323e c083 71bc 8f87 2f3e
000001d0: a05f 893d ee98 10be ab99 e4bd f0a6 823d
000001e0: 254e c0bd 296f b3bd 5e9a afbd 9275 aabd
000001f0: c0f4 01bc 46dc dc3d 80f2 06be 60d6 e13c
00000200: 84c9 b03d b93a 673d 29aa 1e3e 63eb 19be
00000210: a03d bebc 85df 2ebe d6ec a03d 27b6 c1bd
00000220: c0b8 fd3c 4481 1cbd 991c 103e 8e6a 29be
00000230: 9b9f fabd 964e b23d 5e98 90bd 9cbb 2abe
00000240: c0c5 21bb a91c e7bd c894 823c acab b23c
00000250: bcab f7bd 12f3 be3d f01f 15be a4c1 f0bb
00000260: 076f 1c3e 7dfd 86bc 43dd 02be 7f22 093e
00000270: 9751 10be 9d10 30bd 2249 acbd 845e 50bd
00000280: 8088 193e c2f6 bdbd ef31 e83d 688d 503d
00000290: 7066 4fbe cfab 69be 6f45 0e3d 4b9a 1abe
000002a0: c89e d4bd 9653 f5bd 5f74 043e 4b0f 2f3e
000002b0: 4add 11bd 645c 10bd 9055 a2bc 0e42 103c
000002c0: 48eb 0fbe 32af bd3d 8c13 7ebd 6b86 e23e
000002d0: 61ec 453e ffb9 43be a972 4e3e 336e 8d3d
000002e0: 0c9c 743d 36ef 9a3e 50b3 863c 2043 f9bb
000002f0: 9310 2a3e 8702 bc3d cff0 cdbd 67e7 ddbf
00000300: 08c5 c63c 3237 b1bd 3824 9c3e 1024 8a3d
00000310: e868 96bd cd25 0f3d 101f f53c ef82 5bbe
00000320: 6aee 1fbe 2040 dd3b 50ae 013d 7595 03be
00000330: 092c be3d 5bcb 50be e602 a1bd ef5f 293e
00000340: 5233 863d 0245 b9bd cf8b 60bd adaa 6d3e
00000350: 8524 683e 09fc 5cbe 7e18 6e3e bf5b 4e3e
00000360: 60dd 85bb c2dc d33d 386e 923d a34d 0f3e
00000370: 537f d2bd 2e31 853e 8639 b93d adfb debf
00000380: 3fe3 93bc 6527 0bbe 2ba6 e9bc fdf4 fcbb
00000390: 4858 103e 9b69 67bb 088e e53d 5e46 16be
000003a0: 140b 0fbd f878 e33c 4062 25bb 95e6 a63d
000003b0: f653 6f3d b930 843d d30f 293e b738 51be
000003c0: d47b 57bd 0669 a33d 1c4c 1cbc 905e 45bd
000003d0: aac9 453d 85d3 243d ad7c 383e f3db 193e
000003e0: 30e7 66bc ca62 abbd 1c96 313d b4d5 753d
000003f0: 208a 15bd 0f9b d3bd 8692 b03d 98fc 3cbd

l3.bias f4 [16]
0.085752726 -0.13487715 0.08168124 -0.145975 0.14089122 0.23827165 0.0054441425 -0.15372586
0.09159964 -0.08448083 0.20506506 0.13127188 0.19253398 0.21192677 0.17036779 0.14660235
00000000: 209f af3d 3c1d 0abe 7e48 a73d 787a 15be
00000010: ca45 103e 7cfd 733e c764 b23b 506a 1dbe
00000020: 9898 bb3d 4904 adbd 93fc 513e 236c 063e
00000030: a127 453e 5503 593e e574 2e3e ed1e 163e

l4.weight f4 [1, 16]
0.28419146 -0.087353945 -0.028948586 -0.20133716 -0.037876654 0.38823834 0.3062292 0.20558032
-0.21665528 -0.051324964 0.14376698 -0.46951717 0.23202908 -0.12823515 0.078086525 -0.22261506
00000000: 8b81 913e a0e6 b2bd 9625 edbc 542b 4ebe
00000010: 8d24 1bbd 2dc7 c63e 13ca 9c3e a683 523e
00000020: e2da 5dbe 203a 52bd a737 133e 8e64 f0be
00000030: 0899 6d3e 1350 03be d4eb 9f3d 34f5 63be
