project/models/model_w1_1.05_lam_1.525_lam2_1.05_w2_0.01.pt_actor.pt (torch, 8196 bytes, 7 tensors)

l1.weight f4 [16, 1]
000000 c0 7e 56 3f 76 c4 e5 3e c8 a9 15 be f4 97 cd 3e
       0.83787155 0.4487645 -0.14615548 0.40154994
000010 70 b1 8e bd 80 53 9e 3d f1 00 15 3f 10 40 ec 3d
       -0.06967437 0.0773077 0.5820456 0.115356565
000020 91 34 b7 3f d0 72 bf bd 91 8d 6d bf 59 09 e3 be
       1.4312917 -0.093480706 -0.9279414 -0.4434307
000030 fb fa 36 bf a6 67 18 3f bd 1e 46 3f 83 3c 21 3f
       -0.71476716 0.59533155 0.7739065 0.6298296

l1.bias f4 [16]
000000 e3 25 54 3f 2f 55 34 3e f0 03 57 3f 8a d8 2e bf
       0.8287031 0.1761062 0.83990383 -0.6829916
000010 36 31 12 bf 78 b5 7f bf 09 c6 69 3e 44 b9 03 bf
       -0.5710634 -0.99886274 0.2282945 -0.5145457
000020 43 f7 63 bd 33 05 41 3f 9d dc 5c 3f a2 d4 be 3e
       -0.05565573 0.7539856 0.8627413 0.372716
000030 ec 3f 5f 3e 1a 30 63 3f 11 28 04 3f 3e 29 83 3e
       0.21801728 0.8874527 0.51623636 0.25617403

l2.weight f4 [32, 16]
000000 98 63 e2 3d 6c 1d 99 3d a8 b4 af 3e 2c e3 28 be
       0.11054152 0.07476315 0.34317517 -0.16492909
000010 2a ff 1f 3e e0 ad d9 bd 84 5d ac 3d dc b2 9c 3d
       0.15624681 -0.10628867 0.08416274 0.07651302
000020 fb b5 29 40 e4 6f 46 bc 5d ea 50 3e 27 20 1b 3e
       2.6517322 -0.012111638 0.20401902 0.15148984
000030 d0 a9 27 3e c1 4f 29 3e 44 97 cd 3e da b1 54 bd
       0.16373372 0.1653433 0.4015447 -0.051927425
000040 16 cf b8 3d 60 29 87 3e c7 c1 fb bd c0 54 f2 3d
       0.090238735 0.26398754 -0.122928195 0.11832571
000050 34 a0 97 bd 74 8c 0b be be bd 6a 3d 08 e9 40 be
       -0.07403603 -0.13627797 0.05730986 -0.18838894
000060 99 b1 3d 3f 03 2c f4 3b 23 d3 17 be 61 65 3c 3d
       0.7409912 0.0074515357 -0.14826636 0.04599512
000070 df f6 3c be d8 80 46 3e 64 56 b3 3e af b4 d1 3e
       -0.18453549 0.19385087 0.35026848 0.40958163
000080 f4 d0 e0 3b c0 22 c1 be 2d 3a 5c 3e 28 ea b0 3d
       0.0068608467 -0.37721825 0.21506567 0.08638412
000090 58 18 b8 3d 88 cc 5f be a2 3f 7c be fa e9 6f be
       0.08989018 -0.21855366 -0.24633649 -0.23429099
0000a0 eb c0 a2 3d 93 e4 05 3e 3e 4b ca 3e a0 5c 99 3e
       0.079469524 0.13075475 0.3951053 0.2995348
0000b0 cc d7 fa 3e 8f 51 98 bd 5d 21 1e 3e c0 ac 3c be
       0.48992765 -0.07437431 0.15442415 -0.18425274
0000c0 ee d8 bc 3e f4 bb fb 3e 0d 5a 89 3e c4 cb a5 bd
       0.36884254 0.49166834 0.26826516 -0.08095506
0000d0 50 32 36 bd b8 f6 5b 3e 59 57 7c 3e 58 bc 2b 3d
       -0.044481575 0.21480834 0.24642695 0.041927665
0000e0 16 62 36 40 af f9 b7 3e 06 b0 8b 3e ce d2 69 3b
       2.8497367 0.3593268 0.27282733 0.0035678628
0000f0 50 af 7d 3d 7f d7 b3 3e 0f 1e a9 3d ae ad c6 3e
       0.06193477 0.35125348 0.08257686 0.38804382
000100 5b 42 15 3e b6 c4 da 3e 38 7d 96 3e 80 20 63 bb
       0.14576094 0.42728204 0.2939241 -0.0034656823
000110 12 bb 0a 3e 6c f4 1e 3e 52 ee 70 bd 9c 5d ed 3d
       0.13547924 0.15522927 -0.05882103 0.1159012
000120 18 13 4c 3f 81 5f 30 3e 17 15 66 be 78 be b9 3d
       0.79716635 0.17223932 -0.22468983 0.09069532
000130 b1 38 09 bf e4 b1 a1 3e 5a 07 0b bd 17 1e b7 3e
       -0.5360213 0.31581032 -0.033942558 0.35765144
000140 34 27 70 3e 17 f2 9d 3e b7 8d 4b be 64 b0 7b be
       0.23452455 0.30848762 -0.19878279 -0.24579006
000150 00 ca 80 3b c0 37 d1 3d 2f e0 a5 3e c8 79 11 be
       0.0039303303 0.102157116 0.323976 -0.14206612
000160 fb ea 3b 3f dd 01 25 be 8e 39 ba 3d 38 06 71 bd
       0.73405427 -0.16113992 0.09093009 -0.05884382
000170 0a 3c d2 be 6c a1 91 3e 46 c9 c3 3d c9 e7 b5 3e
       -0.4106143 0.28443468 0.09559874 0.355284
000180 ad bb 89 3c 57 5a b9 3e ba d2 53 3e 70 68 80 bc
       0.016813124 0.36201736 0.20685855 -0.0156748
000190 e0 87 93 bd 10 c7 9b 3d 63 d5 bd 3e da 02 0c be
       -0.072036505 0.076063275 0.37076864 -0.13672963
0001a0 50 01 01 40 f9 12 36 3e ec c8 63 3e 57 65 4e 3e
       2.015705 0.17780675 0.22244614 0.20155846
0001b0 a9 9e 03 3d 33 0c e8 3c 71 5a 68 3e a6 90 04 3e
       0.032133732 0.02832613 0.2269075 0.12945804
0001c0 d1 bd 4d bd 2b c8 ab 3e d7 49 70 3e 00 81 aa 3b
       -0.05022985 0.33551154 0.23465668 0.0052033663
0001d0 cc 2a e5 3d 80 00 9f bc 0d 62 ab 3e 22 ab 6f be
       0.111898035 -0.019409418 0.33473244 -0.23405126
0001e0 1e df 4c 3f de a6 69 3e 6d df e4 bd 9f 39 82 be
       0.8002795 0.22817561 -0.111754276 -0.25434586
0001f0 7b be 5d be a1 8e c6 bd ff d9 f3 3d 6d 17 62 3d
       -0.21654694 -0.09695173 0.11906814 0.05519812
000200 7a c4 14 3e 58 f9 6f 3e e0 b6 77 3d 48 90 dc bd
       0.14528075 0.23434961 0.060477138 -0.10769707
000210 88 52 d0 bd 78 1a f8 3d e8 11 05 3d 80 62 93 3b
       -0.101719916 0.121144235 0.03248778 0.004497826
000220 58 ad 67 be fa 3c 22 be 50 5d 37 be 76 61 79 3e
       -0.22624719 -0.15843573 -0.1790669 0.24353585
000230 c0 fa df bc 7c f5 64 be 36 aa 3b be 20 64 28 bc
       -0.027341247 -0.2235927 -0.18326649 -0.010277778
000240 06 31 59 be 0e 4c 6a be 10 41 a1 3c 2a e9 00 3e
       -0.21210107 -0.22880575 0.019684345 0.12588945
000250 98 57 d7 3d a2 47 3c be 10 9a c8 bc 94 c0 a8 3d
       0.10514754 -0.18386701 -0.024487525 0.08239856
000260 d2 00 29 3e c4 6d 4d be c6 0a 3e be 78 5c f1 3d
       0.16504219 -0.20061404 -0.18558797 0.11785215
000270 36 66 7f be 04 f5 d8 bd 28 17 a9 bd d0 c5 f9 3c
       -0.24941334 -0.10593608 -0.0825637 0.030489832
000280 d6 dc 29 be fc df 08 be 00 4c c3 b9 e8 9e c0 3d
       -0.16588148 -0.13366693 -0.00037249923 0.09405309
000290 7e 74 5f be 20 6e 5a be e2 96 6c be f4 e5 b0 bd
       -0.21821782 -0.21331072 -0.23104432 -0.0863761
0002a0 d0 1d 31 be 0e c6 61 be 00 48 24 bc 64 54 5e 3e
       -0.17296529 -0.22048208 -0.010026932 0.2171188
0002b0 c4 aa 0d be 50 a3 1c 3e 20 48 7c bd ee 80 04 3e
       -0.13834673 0.15296674 -0.06159222 0.12939808
0002c0 b5 ea 27 bd 69 7b 3a be 03 c4 f9 3d d4 6c 43 be
       -0.04099532 -0.1821114 0.121955894 -0.19084483
0002d0 12 54 69 3e a0 30 67 3d 8a ff e9 3d d8 77 3b bd
       0.22785977 0.056442857 0.11425693 -0.04576859
0002e0 2a 1b da bd 55 5f d6 3c 01 23 e8 bc 52 3a 81 3d
       -0.106497124 0.026168505 -0.028337004 0.06309952
0002f0 f8 db 15 3d 16 aa 54 be 73 0d 38 3d fd 40 73 3e
       0.03658673 -0.20768008 0.0449347 0.2375526
000300 ff 6a 1f 3e af 98 e3 be 41 82 4d 3e f4 56 1f be
       0.1556816 -0.44452426 0.20069219 -0.15560514
000310 28 30 38 be e0 81 9f 3d 85 3c 20 bd b0 aa ed 3d
       -0.1798712 0.077884436 -0.039120216 0.11604822
000320 f3 8d bc bd 10 c3 d8 3d 53 2a cf 3d be a2 4d 3e
       -0.09206762 0.1058408 0.101154946 0.20081612
000330 d1 b4 87 3e cc 9d 2b be 8b 3c 06 3e 1e 55 93 be
       0.2650514 -0.16759413 0.13109033 -0.28775877
000340 b1 13 3f 3e 2a b7 f1 3e 59 cb 18 be ca 94 4a 3e
       0.18659855 0.47210056 -0.14921321 0.19783321
000350 90 a4 6a 3d c0 21 3c 3c 7b cd d5 3e a8 d3 44 be
       0.057285845 0.011482656 0.41758332 -0.19221365
000360 34 ee 70 3f 03 9c b1 bc 46 c5 24 be b2 3e 1a be
       0.9411347 -0.021680837 -0.16090879 -0.15062979
000370 b2 b3 50 be 1c 33 44 3e bd fc bf 3e 27 e8 c1 3e
       -0.20381048 0.19160122 0.37497512 0.3787243
000380 24 71 74 be 30 07 2f 3e 50 87 7d 3d 10 3f 3c 3d
       -0.23871285 0.17092586 0.061896622 0.04595858
000390 58 3f d5 bd de 5b 1e 3e 50 9d 26 be dc 87 dd bd
       -0.104124725 0.15464732 -0.16270947 -0.10816929
0003a0 ba 18 20 3e bc 62 77 3e 54 a3 b2 bd b4 fe 25 3e
       0.15634432 0.24158758 -0.087225586 0.16210443
0003b0 34 16 00 be 46 1a 74 be fc 5d d3 3d 50 74 ab 3d
       -0.1250847 -0.23838148 0.103206605 0.08371794
0003c0 0f fa 99 3d e9 d0 d6 3e 94 e6 dd 3d 10 6b 42 3e
       0.07518398 0.4195626 0.10834995 0.18986154
0003d0 82 7d 39 be 54 56 b1 3d d0 8c ef 3d 9c b4 b9 3d
       -0.18114284 0.08659044 0.1169678 0.09067652
0003e0 3c 7d 93 3f 2b 03 06 3d 9c 75 ac 3d d6 00 a4 be
       1.1522593 0.032717865 0.0842087 -0.32031888
0003f0 57 38 9c be cf 96 13 3e 65 f2 0e 3e 3b 56 72 3e
       -0.30511734 0.14412998 0.13959654 0.23665707

l2.bias f4 [32]
000000 76 36 4c 3e fe 12 f6 3d e5 39 7c bc e3 48 c9 3e
       0.1994265 0.12015341 -0.0153946625 0.3931342
000010 69 63 25 be 35 b7 04 3e 52 c7 56 3e 82 2e 68 3d
       -0.16151203 0.12960513 0.20974472 0.05668498
000020 04 bf 44 3e 6e 30 4c be 80 e9 44 bd 11 a4 e0 bc
       0.19213492 -0.1994035 -0.048074245 -0.027421983
000030 87 83 0b bd 61 5a 6c 3e 6e 3f 25 be cb ef a5 3e
       -0.03406098 0.23081352 -0.16137478 0.3240951
000040 a0 40 5e be fe 57 65 be d3 b0 87 3e b9 8d 60 3e
       -0.2170434 -0.22396848 0.26502094 0.21929063
000050 a8 30 f4 3d bd e8 88 3e be 18 97 3e 12 89 6f 3e
       0.11923343 0.26740065 0.29511064 0.23392132
000060 80 db 87 bd df 11 ed 3d b8 5c 35 3e 78 ad cf bd
       -0.06633663 0.11575674 0.1771115 -0.101405084
000070 80 bd 42 3e a3 5f 34 3d 08 3b c1 3d b5 71 55 be
       0.19017601 0.04403652 0.094350874 -0.20844157

l3.weight f4 [16, 32]
000000 db ad 32 3e 5d 83 c7 bd e0 06 6c 3e 8a a3 e0 3d
       0.17449133 -0.097418524 0.23049498 0.109686926
000010 e9 8c 23 3c 3f 86 1c be 54 79 00 be b8 05 89 be
       0.009982326 -0.15285586 -0.12546283 -0.26762176
000020 8e 3a 0d be 60 d9 d4 3c 5a 9d ca 3d 70 04 c9 3b
       -0.13791868 0.025982559 0.09893294 0.006134562
000030 9f f9 03 3d 36 d2 cd 3a 98 92 b0 bc 38 b2 05 be
       0.03222048 0.0015702907 -0.021554276 -0.13056266
000040 f0 8b 5f bc ac 0f 62 3d 0d 1f a3 3c b0 36 e1 3d
       -0.013644204 0.055190727 0.019912267 0.10996759
000050 41 67 07 3e 52 e4 63 bd f8 cb b6 bc 8f 56 fd 3d
       0.13222982 -0.055637665 -0.022314057 0.12370025
000060 80 d6 2a 3b d4 9e 89 3e a0 24 0e 3d ac 24 24 be
       0.0026067793 0.2687899 0.034702897 -0.16029614
000070 72 74 aa 3d 4d 58 b5 39 cc fb 34 3d 3a bd 8d bf
       0.083229914 0.000345888 0.044185445 -1.1073372
000080 d6 05 ea 3d 22 51 aa bd cc 3f 34 3d 01 c5 02 be
       0.11426894 -0.08316256 0.044006154 -0.12770464
000090 58 28 9a bc e8 f9 09 bd 60 a3 44 bd 4e d2 c6 3d
       -0.018818066 -0.033685595 -0.04800737 0.09708081
0000a0 2d 84 cc bd 98 80 e9 3c 30 d9 17 3d b7 59 9e bd
       -0.09986148 0.028503701 0.03707236 -0.077319555
0000b0 a8 64 0b be 94 61 5f bd 80 41 3e 3c 14 33 38 bd
       -0.13612616 -0.054536417 0.011612296 -0.044970587
0000c0 e0 a2 99 bb b8 4c b3 3c ce 49 c4 3d 9c fa ed bd
       -0.0046886057 0.021887168 0.095843896 -0.116200656
0000d0 58 b8 01 be f0 10 75 3d 74 55 57 3d e4 ce 29 bd
       -0.12667978 0.059830606 0.05257173 -0.041457072
0000e0 88 c8 3a 3d b0 e6 8d 3c 60 39 2a 3c d8 a0 d1 3c
       0.045601398 0.017321914 0.010389656 0.025589392
0000f0 3e 3e df 3d 9b 0f 8e bd 44 28 23 be 28 58 a7 bc
       0.10900544 -0.0693657 -0.15933329 -0.020427778
000100 d1 f4 c0 3d a8 d1 b1 bd 91 a5 5a be 7f fb 59 be
       0.09421695 -0.08682567 -0.21352221 -0.21287344
000110 4c f7 ea bd c1 b2 cc bc 67 c5 1d bd a0 56 b4 bd
       -0.114729494 -0.02498758 -0.038518336 -0.08805585
000120 b0 fc b6 3c 22 ee 75 bd 0b 0d 1a 3e b8 48 c2 bd
       0.022337288 -0.060041554 0.15044038 -0.09486526
000130 1c 62 cc 3d f7 76 81 bd 1b bc b2 bd 30 74 7c 3d
       0.099796504 -0.06321519 -0.087272845 0.061634243
000140 39 00 c1 bd 4e c9 24 be 2d 37 2b be e6 57 2f bd
       -0.094238706 -0.16092417 -0.16720267 -0.042808436
000150 d2 63 0c 3e 56 7c 2d be c8 5f d7 3d a1 34 a9 3d
       0.13709953 -0.16941962 0.10516316 0.08261991
000160 b2 c9 d1 3d 0b 1f e6 3d a0 01 3b 3d 2e b0 e4 3d
       0.102435485 0.1123639 0.045655847 0.11166416
000170 00 4e f2 3c f3 f1 0c 3d bc 13 a8 bd 5e 69 01 be
       0.029578209 0.03441043 -0.08206889 -0.1263785
000180 83 2f 88 bd 82 ea e7 bd 87 30 12 3e 39 8e 11 be
       -0.06649687 -0.11324026 0.14276324 -0.1421441
000190 50 71 58 3d 12 b2 02 be 74 68 8f bd 8c 8c 0c 3d
       0.05284244 -0.12763241 -0.07002345 0.034313723
0001a0 8e d1 f1 3d 30 2c fe 3c 40 08 c9 bc 70 88 23 bc
       0.118075475 0.03102693 -0.024540067 -0.00998126
0001b0 af 3f e5 bd c8 a1 ac bc 32 e1 f1 3d d8 00 cf bc
       -0.11193787 -0.021073237 0.11810531 -0.025268957
0001c0 00 76 0a 3a dd 7c 32 3e c0 83 71 bc 8f 87 2f 3e
       0.00052818656 0.17430444 -0.014740884 0.17141555
0001d0 a0 5f 89 3d ee 98 10 be ab 99 e4 bd f0 a6 82 3d
       0.06707692 -0.14120838 -0.11162122 0.06379497
0001e0 25 4e c0 bd 29 6f b3 bd 5e 9a af bd 92 75 aa bd
       -0.09389905 -0.087614365 -0.08574365 -0.08323206
0001f0 c0 f4 01 bc 46 dc dc 3d 80 f2 06 be 60 d6 e1 3c
       -0.007931888 0.10784201 -0.13178444 0.027568042
000200 84 c9 b0 3d b9 3a 67 3d 29 aa 1e 3e 63 eb 19 be
       0.08632186 0.056452487 0.15494598 -0.15031199
000210 a0 3d be bc 85 df 2e be d6 ec a0 3d 27 b6 c1 bd
       -0.023222744 -0.17077453 0.07857673 -0.09458571
000220 c0 b8 fd 3c 44 81 1c bd 99 1c 10 3e 8e 6a 29 be
       0.030971885 -0.038209215 0.14073409 -0.16544554
000230 9b 9f fa bd 96 4e b2 3d 5e 98 90 bd 9c bb 2a be
       -0.122374736 0.08706395 -0.07060312 -0.1667313
000240 c0 c5 21 bb a9 1c e7 bd c8 94 82 3c ac ab b2 3c
       -0.0024684519 -0.11284763 0.015940085 0.021810375
000250 bc ab f7 bd 12 f3 be 3d f0 1f 15 be a4 c1 f0 bb
       -0.120933026 0.09323706 -0.14562964 -0.0073473025
000260 07 6f 1c 3e 7d fd 86 bc 43 dd 02 be 7f 22 09 3e
       0.15276729 -0.016478295 -0.12779717 0.13392065
000270 97 51 10 be 9d 10 30 bd 22 49 ac bd 84 5e 50 bd
       -0.14093624 -0.042984594 -0.084123865 -0.050871387
000280 cf c7 19 3e 74 a1 c6 bd 6f 99 ec 3d fe 77 4a 3d
       0.15017627 -0.096987635 0.11552703 0.04943084
000290 35 7e 53 be 99 c5 6d be 8e c4 0f 3d 6a 04 21 be
       -0.20653613 -0.23219909 0.03509956 -0.1572434
0002a0 c8 9e d4 bd 96 53 f5 bd 5f 74 04 3e 4b 0f 2f 3e
       -0.103818476 -0.119788334 0.12935017 0.17095678
0002b0 7c 22 fc bc 33 a8 1e bd 90 55 a2 bc 6e 79 c2 3b
       -0.030778162 -0.038734626 -0.01981619 0.0059348857
0002c0 48 eb 0f be 32 af bd 3d c3 11 86 bd c5 68 e3 3e
       -0.14054596 0.092619315 -0.065463565 0.4441587
0002d0 b7 38 47 3e d0 47 47 be 63 6e 50 3e 5a 51 90 3d
       0.19455229 -0.19460988 0.20354609 0.070467666
0002e0 0c 9c 74 3d 23 be 9b 3e 50 b3 86 3c 20 43 f9 bb
       0.05971913 0.304185 0.016442925 -0.007606879
0002f0 93 10 2a 3e a2 ba c4 3d cf f0 cd bd 9b b2 8f bf
       0.16607885 0.0960591 -0.10055696 -1.1226381
000300 ca c0 c9 3c ab a0 b9 bd f5 4e 9d 3e 8b 5a 87 3d
       0.024628062 -0.09063848 0.30724302 0.066090666
000310 b1 57 9e bd 02 83 fe 3c 5c 20 f9 3c 0e cd 61 be
       -0.077315696 0.031068329 0.030410938 -0.22050878
000320 6a ee 1f be 20 40 dd 3b 50 ae 01 3d 75 95 03 be
       -0.15618291 0.006752029 0.031660378 -0.12849982
000330 7c 54 c8 3d 96 3d 54 be e6 02 a1 bd 31 90 26 3e
       0.09781739 -0.20726618 -0.07861881 0.16265942
000340 52 33 86 3d 02 45 b9 bd 5e 1a 6e bd ce 90 6f 3e
       0.06552757 -0.09046365 -0.058130614 0.23395082
000350 4c 91 69 3e a7 69 60 be 3b 35 70 3e 00 ee 4f 3e
       0.22809333 -0.21915303 0.23457806 0.20305634
000360 60 dd 85 bb d3 5a d7 3d 38 6e 92 3d a3 4d 0f 3e
       -0.004085228 0.1051537 0.07149929 0.1399446
000370 53 7f d2 bd 94 6f 87 3e 86 39 b9 3d 39 a0 91 bf
       -0.102781914 0.26452315 0.09044175 -1.1377021
000380 6f ab 8f bc 68 e5 0a be 2b a6 e9 bc d0 52 e6 bb
       -0.0175378 -0.13564074 -0.028521618 -0.007028915
000390 77 98 10 3e 8a 7c 56 bb 69 71 e6 3d 1f 14 16 be
       0.1412066 -0.003272804 0.112521 -0.14656113
0003a0 14 0b 0f bd f8 78 e3 3c 40 62 25 bb 95 e6 a6 3d
       -0.034922674 0.027767643 -0.0025235564 0.08149449
0003b0 f6 53 6f 3d af e3 84 3d d3 0f 29 3e b5 e7 50 be
       0.05842968 0.0648874 0.16509943 -0.20400889
0003c0 d4 7b 57 bd 06 69 a3 3d 92 51 16 bc 90 5e 45 bd
       -0.052608326 0.07979016 -0.009174721 -0.048185885
0003d0 bf e1 46 3d 5d 10 26 3d c5 91 38 3e 6a 04 1a 3e
       0.048555132 0.04054295 0.18024357 0.15040746
0003e0 30 e7 66 bc b2 5d ab bd 1c 96 31 3d b4 d5 75 3d
       -0.014093205 -0.0836748 0.043356046 0.060018256
0003f0 20 8a 15 bd 11 97 d3 bd 86 92 b0 3d 0c 4e 3c bd
       -0.03650868 -0.10331548 0.08621697 -0.04597287

l3.bias f4 [16]
000000 a6 f3 ae 3d 3c 1d 0a be 7e 48 a7 3d 78 7a 15 be
       0.08542566 -0.13487715 0.08168124 -0.145975
000010 ca 45 10 3e 79 7b 73 3e 4f 4c a6 3b f7 4f 1d be
       0.14089122 0.2377757 0.0050750147 -0.15362535
000020 98 98 bb 3d 49 04 ad bd 32 4d 52 3e 6b bd 06 3e
       0.09159964 -0.08448083 0.2053726 0.13158195
000030 5a fd 44 3e 6e 6a 5a 3e e5 74 2e 3e ed 1e 16 3e
       0.19237271 0.21329662 0.17036779 0.14660235

l4.weight f4 [1, 16]
000000 46 aa 94 3e a0 e6 b2 bd 96 25 ed bc 54 2b 4e be
       0.29036158 -0.087353945 -0.028948586 -0.20133716
000010 8d 24 1b bd 3a 7a c9 3e 8d dd 9f 3e a6 83 52 3e
       -0.037876654 0.39351064 0.31223717 0.20558032
000020 e2 da 5d be 20 3a 52 bd 83 89 19 3e c7 5b f1 be
       -0.21665528 -0.051324964 0.14993863 -0.47140333
000030 4d ea 72 3e b2 1c 06 be d4 eb 9f 3d 34 f5 63 be
       0.23722191 -0.13096884 0.078086525 -0.22261506
