project/models/model_w1_1.05_lam_0.1_lam2_0.1_w2_0.05500000000000001.pt_actor.pt (torch, 8404 bytes, 7 tensors)

l1.weight f4 [16, 1]
00000000: 2a11 553f 18ff e63e b265 12be f497 cd3e
00000010: 70b1 8ebd 8053 9e3d 122f 163f 1040 ec3d
00000020: 7182 b23f 1638 c7bd 21c8 6ebf 961f e3be
00000030: 41f0 3cbf 4cc5 143f fc53 403f 15b5 1f3f
0.83229315 0.45116496 -0.14296606 0.40154994 -0.06967437 0.0773077 0.58665574 0.115356565
1.3946058 -0.097274944 -0.9327412 -0.44360036 -0.738041 0.5811355 0.7512815 0.62385684

l1.bias f4 [16]
00000000: 566d 543f 1c5e 343e 9e58 573f 8ad8 2ebf
00000010: 3631 12bf 78b5 7fbf eb14 6a3e 44b9 03bf
00000020: 081c b6bd 2e4b 413f d2ff 5c3f fe0d bf3e
00000030: d152 5e3e 1660 633f f378 043f e84f 833e
0.82979333 0.17614025 0.84119594 -0.6829916 -0.5710634 -0.99886274 0.22859542 -0.5145457
-0.08892065 0.7550534 0.8632785 0.37315363 0.2171128 0.8881849 0.51747054 0.256469

l2.weight f4 [32, 16]
00000000: 6363 e13d 6a49 953d 38fb af3e 2ce3 28be
00000010: 2aff 1f3e e0ad d9bd d7b0 a83d dcb2 9c3d
00000020: 47a2 0f40 fa0b 3ebc 422d 523e e292 1c3e
00000030: ceaf 2a3e 7113 293e 8824 cd3e 249b 5bbd
00000040: 8129 b93d 5153 873e b182 fbbd c054 f23d
00000050: 34a0 97bd 748c 0bbe 14bb 6b3d 08e9 40be
00000060: 33be 553f 2fb4 f73b 599f 17be 91d8 3c3d
00000070: 81f7 3cbe 13b4 463e e46d b33e aed1 d13e
00000080: 108f e43b 4942 c1be 2691 5c3e 28ea b03d
00000090: 5818 b83d 88cc 5fbe 836a 7cbe fae9 6fbe
000000a0: a2d0 99bd a33c 063e 687d ca3e 8c9c 993e
000000b0: 4245 fb3e 0209 98bd c42c 1e3e 29ce 3cbe
000000c0: 6fa1 bc3e 73bc f93e 0d93 8a3e c4cb a5bd
000000d0: 5032 36bd b8f6 5b3e 4341 783e 58bc 2b3d
000000e0: 7e1e 0d40 4e22 b93e e71b 8e3e 910c 0b3c
000000f0: 2e36 913d b30f b43e effa a53d e7c0 c43e
00000100: 925b 153e bde5 da3e f581 963e 8020 63bb
00000110: 12bb 0a3e 6cf4 1e3e 1437 70bd 9c5d ed3d
00000120: d3c7 643f 1466 303e ebf8 65be b7c8 b93d
00000130: 5d3f 09bf 39c1 a13e a198 0abd 2e32 b73e
00000140: f369 703e b42f 9e3e a166 4bbe 64b0 7bbe
00000150: 00ca 803b c037 d13d 7013 a63e c879 11be
00000160: 3711 593f 6bdd 24be 0e9a ba3d 2ba6 70bd
00000170: c447 d2be cac3 913e 0d5d c43d 8f17 b63e
00000180: e961 b03c cd5d bb3e 453a 593e 7068 80bc
00000190: e087 93bd 10c7 9b3d b1e2 bf3e da02 0cbe
000001a0: 70ee df3f 2a78 3b3e 3e85 693e 0645 543e
000001b0: 06fc 1d3d ceda 073d 93f9 6c3e 22bc 083e
000001c0: 769c 4bbd 0739 ac3e 139c 703e 0081 aa3b
000001d0: cc2a e53d 8000 9fbc 88c8 ab3e 22ab 6fbe
000001e0: ed08 723f 94f7 693e ff51 e4bd 5e23 82be
000001f0: f0ee 5dbe 1d89 c5bd 780d f53d 4d29 653d
00000200: 7ac4 143e 58f9 6f3e e0b6 773d 4890 dcbd
00000210: 8852 d0bd 781a f83d e811 053d 8062 933b
00000220: 58ad 67be fa3c 22be 505d 37be 7661 793e
00000230: c0fa dfbc 7cf5 64be 36aa 3bbe 2064 28bc
00000240: 0631 59be 0e4c 6abe 1041 a13c 2ae9 003e
00000250: 9857 d73d a247 3cbe 109a c8bc 94c0 a83d
00000260: d200 293e c46d 4dbe c60a 3ebe 785c f13d
00000270: 3666 7fbe 04f5 d8bd 2817 a9bd d0c5 f93c
00000280: d6dc 29be fcdf 08be 004c c3b9 e89e c03d
00000290: 7e74 5fbe 206e 5abe e296 6cbe f4e5 b0bd
000002a0: d01d 31be 0ec6 61be 0048 24bc 6454 5e3e
000002b0: c4aa 0dbe 50a3 1c3e 2048 7cbd ee80 043e
000002c0: b5ea 27bd 697b 3abe 03c4 f93d d46c 43be
000002d0: 1254 693e a030 673d 8aff e93d d877 3bbd
000002e0: 2a1b dabd 555f d63c 0123 e8bc 523a 813d
000002f0: f8db 153d 16aa 54be 730d 383d fd40 733e
00000300: 5136 203e 3b57 e3be 2076 4e3e f456 1fbe
00000310: 2830 38be e081 9f3d eadd 1dbd b0aa ed3d
00000320: f176 65be 82ae da3d e112 d13d 5fb0 4e3e
00000330: 0658 883e d7d0 2abe 1efc 063e 3e05 93be
00000340: 9b40 3f3e 73e9 f13e 05ba 18be ca94 4a3e
00000350: 90a4 6a3d c021 3c3c 97f5 d53e a8d3 44be
00000360: d71e 863f 9725 b1bc 82aa 24be 293c 1abe
00000370: d1e1 50be 2f62 443e b916 c03e 180d c23e
00000380: 2471 74be 3007 2f3e 5087 7d3d 103f 3c3d
00000390: 583f d5bd de5b 1e3e 509d 26be dc87 ddbd
000003a0: ba18 203e bc62 773e 54a3 b2bd b4fe 253e
000003b0: 3416 00be 461a 74be fc5d d33d 5074 ab3d
000003c0: 6020 9a3d 6ddb d63e 412b de3d 106b 423e
000003d0: 827d 39be 5456 b13d cf8d ef3d 9cb4 b93d
000003e0: ad2f 9a3f 807b 063d c810 ad3d efe3 a3be
000003f0: e214 9cbe 8cb8 133e 06fc 0e3e ab53 723e
0.11005285 0.07289393 0.34371352 -0.16492909 0.15624681 -0.10628867 0.082368545 0.07651302
2.2442796 -0.011599535 0.20525077 0.15290406 0.16668627 0.16511323 0.40066934 -0.05361475
0.09041119 0.26430753 -0.12280787 0.11832571 -0.07403603 -0.13627797 0.05755146 -0.18838894
0.83493346 0.0075593214 -0.1480688 0.04610497 -0.1845379 0.1940463 0.35044777 0.40980285
0.006975062 -0.37745884 0.21539745 0.08638412 0.08989018 -0.21855366 -0.24650006 -0.23429099
-0.07510497 0.13109069 0.39548802 0.30002248 0.49076277 -0.07423593 0.15446764 -0.18438019
0.36841914 0.48776588 0.27065316 -0.08095506 -0.044481575 0.21480834 0.24243645 0.041927665
2.204986 0.36158985 0.27755663 0.008486883 0.07090412 0.35168228 0.081045024 0.38428423
0.14585713 0.427534 0.29396024 -0.0034656823 0.13547924 0.15522927 -0.058646277 0.1159012
0.8936741 0.1722644 -0.22458236 0.090714864 -0.5361231 0.3159273 -0.033836965 0.35780472
0.23477916 0.3089577 -0.19863369 -0.24579006 0.0039303303 0.102157116 0.32436705 -0.14206612
0.8479189 -0.16100089 0.09111415 -0.05875222 -0.41070378 0.28469688 0.095880605 0.3556485
0.021531062 0.36595002 0.21213634 -0.0156748 -0.072036505 0.076063275 0.3747764 -0.13672963
1.749464 0.18307558 0.22804734 0.20729455 0.038570426 0.033167653 0.2314208 0.13353017
-0.04970976 0.33637258 0.23497038 0.0052033663 0.111898035 -0.019409418 0.3355143 -0.23405126
0.9454487 0.2284835 -0.11148452 -0.25417608 -0.21673179 -0.09645293 0.119654596 0.05594759
0.14528075 0.23434961 0.060477138 -0.10769707 -0.101719916 0.121144235 0.03248778 0.004497826
-0.22624719 -0.15843573 -0.1790669 0.24353585 -0.027341247 -0.2235927 -0.18326649 -0.010277778
-0.21210107 -0.22880575 0.019684345 0.12588945 0.10514754 -0.18386701 -0.024487525 0.08239856
0.16504219 -0.20061404 -0.18558797 0.11785215 -0.24941334 -0.10593608 -0.0825637 0.030489832
-0.16588148 -0.13366693 -0.00037249923 0.09405309 -0.21821782 -0.21331072 -0.23104432 -0.0863761
-0.17296529 -0.22048208 -0.010026932 0.2171188 -0.13834673 0.15296674 -0.06159222 0.12939808
-0.04099532 -0.1821114 0.121955894 -0.19084483 0.22785977 0.056442857 0.11425693 -0.04576859
-0.106497124 0.026168505 -0.028337004 0.06309952 0.03658673 -0.20768008 0.0449347 0.2375526
0.1564572 -0.4440249 0.20162249 -0.15560514 -0.1798712 0.077884436 -0.038541712 0.11604822
-0.22408654 0.10677816 0.10208679 0.20184468 0.26629657 -0.16681229 0.13182113 -0.28714937
0.18676989 0.4724842 -0.14914711 0.19783321 0.057285845 0.011482656 0.41788933 -0.19221365
1.0478162 -0.02162437 -0.16080669 -0.15062012 -0.20398642 0.19178079 0.37517336 0.37900615
-0.23871285 0.17092586 0.061896622 0.04595858 -0.104124725 0.15464732 -0.16270947 -0.10816929
0.15634432 0.24158758 -0.087225586 0.16210443 -0.1250847 -0.23838148 0.103206605 0.08371794
0.07525706 0.41964284 0.10848094 0.18986154 -0.18114284 0.08659044 0.1169697 0.09067652
1.20458 0.032832623 0.084504664 -0.32009837 -0.30484682 0.14425868 0.13963327 0.2366473

l2.bias f4 [32]
00000000: 398e 4c3e 6d71 f63d 0e2f 78bc b652 ca3e
00000010: c749 25be 11f0 043e a40b 5c3e b5ce 693d
00000020: 04bf 443e 6e30 4cbe 80e9 44bd 11a4 e0bc
00000030: 9303 08bd a97d 6c3e 6e3f 25be da06 a63e
00000040: a040 5ebe fe57 65be 48c8 873e f8c6 603e
00000050: 7b39 f43d a300 893e ef56 973e 710b 703e
00000060: 80db 87bd 7423 ed3d b85c 353e 78ad cfbd
00000070: 80bd 423e 258e 363d 083b c13d c7b8 47be
0.19976129 0.12033353 -0.015147937 0.39516228 -0.16141425 0.12982203 0.21488816 0.057081897
0.19213492 -0.1994035 -0.048074245 -0.027421983 -0.033206534 0.2309481 -0.16137478 0.32427102
-0.2170434 -0.22396848 0.2651999 0.219509 0.11925026 0.26758298 0.29558513 0.23441865
-0.06633663 0.11579028 0.1771115 -0.101405084 0.19017601 0.044569153 0.094350874 -0.1950408

l3.weight f4 [16, 32]
00000000: be00 313e cf92 cebd c8cd 6c3e 3a0a dd3d
00000010: fbf9 d63b 0ddc 1fbe 09eb 01be e898 8bbe
00000020: 8e3a 0dbe 60d9 d43c 5a9d ca3d 7004 c93b
00000030: 4bf9 0b3d b85a ceba 9892 b0bc a767 08be
00000040: f08b 5fbc ac0f 623d 584e 873c c9b6 e23d
00000050: bb57 063e 4ae8 6fbd 22f6 b4bc 1eb3 fc3d
00000060: 80d6 2a3b 73e3 893e a024 0e3d ac24 24be
00000070: 7274 aa3d e9d3 e83a ccfb 343d 9f11 32bf
00000080: d605 ea3d 2251 aabd cc3f 343d 01c5 02be
00000090: 5828 9abc e8f9 09bd 60a3 44bd 4ed2 c63d
000000a0: 2d84 ccbd 9880 e93c 30d9 173d b759 9ebd
000000b0: a864 0bbe 9461 5fbd 8041 3e3c 1433 38bd
000000c0: e0a2 99bb b84c b33c ce49 c43d 9cfa edbd
000000d0: 58b8 01be f010 753d 7455 573d e4ce 29bd
000000e0: 88c8 3a3d b0e6 8d3c 6039 2a3c d8a0 d13c
000000f0: 3e3e df3d 9b0f 8ebd 4428 23be 2858 a7bc
00000100: d1f4 c03d a8d1 b1bd 91a5 5abe 7ffb 59be
00000110: 4cf7 eabd c1b2 ccbc 67c5 1dbd a056 b4bd
00000120: b0fc b63c 22ee 75bd 0b0d 1a3e b848 c2bd
00000130: 1c62 cc3d f776 81bd 1bbc b2bd 3074 7c3d
00000140: 3900 c1bd 4ec9 24be 2d37 2bbe e657 2fbd
00000150: d263 0c3e 567c 2dbe c85f d73d a134 a93d
00000160: b2c9 d13d 0b1f e63d a001 3b3d 2eb0 e43d
00000170: 004e f23c f3f1 0c3d bc13 a8bd 5e69 01be
00000180: 832f 88bd 82ea e7bd 8730 123e 398e 11be
00000190: 5071 583d 12b2 02be 7468 8fbd 8c8c 0c3d
000001a0: 8ed1 f13d 302c fe3c 4008 c9bc 7088 23bc
000001b0: af3f e5bd c8a1 acbc 32e1 f13d d800 cfbc
000001c0: 0076 0a3a dd7c 323e c083 71bc 8f87 2f3e
000001d0: a05f 893d ee98 10be ab99 e4bd f0a6 823d
000001e0: 254e c0bd 296f b3bd 5e9a afbd 9275 aabd
000001f0: c0f4 01bc 46dc dc3d 80f2 06be 60d6 e13c
00000200: 84c9 b03d b93a 673d 29aa 1e3e 63eb 19be
00000210: a03d bebc 85df 2ebe d6ec a03d 27b6 c1bd
00000220: c0b8 fd3c 4481 1cbd 991c 103e 8e6a 29be
00000230: 9b9f fabd 964e b23d 5e98 90bd 9cbb 2abe
00000240: c0c5 21bb a91c e7bd c894 823c acab b23c
00000250: bcab f7bd 12f3 be3d f01f 15be a4c1 f0bb
00000260: 076f 1c3e 7dfd 86bc 43dd 02be 7f22 093e
00000270: 9751 10be 9d10 30bd 2249 acbd 845e 50bd
00000280: ec62 183e 2ae7 ccbd 8933 ee3d d33d 443d
00000290: 5d99 56be 79ba 70be 4e0c 0b3d 3aaa 25be
000002a0: c89e d4bd 9653 f5bd 5f74 043e 4b0f 2f3e
000002b0: f55c ecbc 79fb 29bd 9055 a2bc 23dc 6b3b
000002c0: 48eb 0fbe 32af bd3d b031 8cbd ffc9 e33e
000002d0: da66 463e adeb 49be d6c5 503e 6b03 903d
000002e0: 0c9c 743d c108 9c3e 50b3 863c 2043 f9bb
000002f0: 9310 2a3e 79b5 c73d cff0 cdbd 9bf9 23bf
00000300: 0bab be3c 6ae7 bfbd 9fb9 9d3e 9f43 843d
00000310: 738f a4bd bad9 e63c c7c3 ef3c b675 66be
00000320: 6aee 1fbe 2040 dd3b 50ae 013d 7595 03be
00000330: 1e59 cc3d cf12 57be e602 a1bd 752d 243e
00000340: 5233 863d 0245 b9bd 7f5e 7abd 175c 703e
00000350: 85c2 683e 570d 63be 0293 703e e0cb 4f3e
00000360: 60dd 85bb e994 d83d 386e 923d a34d 0f3e
00000370: 537f d2bd 8732 883e 8639 b93d 0953 2abf
00000380: 5cfa 72bc 33f7 08be 2ba6 e9bc 8472 84bb
00000390: 8180 123e 8556 b3ba d77b eb3d 596f 14be
000003a0: 140b 0fbd f878 e33c 4062 25bb 95e6 a63d
000003b0: f653 6f3d 5484 893d d30f 293e e8b8 4ebe
000003c0: d47b 57bd 0669 a33d 59a0 e1bb 905e 45bd
000003d0: 6ff8 4d3d 6dc9 2e3d 9f24 393e 2d18 1b3e
000003e0: 30e7 66bc 5f5b abbd 1c96 313d b4d5 753d
000003f0: 208a 15bd f294 d3bd 8692 b03d b448 37bd
0.1728544 -0.10086595 0.23125374 0.10792966 0.0065605617 -0.15611286 -0.12687315 -0.27265096
-0.13791868 0.025982559 0.09893294 0.006134562 0.03417329 -0.0015743589 -0.021554276 -0.1332079
-0.013644204 0.055190727 0.01651685 0.1107002 0.13119404 -0.058571137 -0.022090022 0.123388514
0.0026067793 0.26931342 0.034702897 -0.16029614 0.083229914 0.001776335 0.044185445 -0.6955814
0.11426894 -0.08316256 0.044006154 -0.12770464 -0.018818066 -0.033685595 -0.04800737 0.09708081
-0.09986148 0.028503701 0.03707236 -0.077319555 -0.13612616 -0.054536417 0.011612296 -0.044970587
-0.0046886057 0.021887168 0.095843896 -0.116200656 -0.12667978 0.059830606 0.05257173 -0.041457072
0.045601398 0.017321914 0.010389656 0.025589392 0.10900544 -0.0693657 -0.15933329 -0.020427778
0.09421695 -0.08682567 -0.21352221 -0.21287344 -0.114729494 -0.02498758 -0.038518336 -0.08805585
0.022337288 -0.060041554 0.15044038 -0.09486526 0.099796504 -0.06321519 -0.087272845 0.061634243
-0.094238706 -0.16092417 -0.16720267 -0.042808436 0.13709953 -0.16941962 0.10516316 0.08261991
0.102435485 0.1123639 0.045655847 0.11166416 0.029578209 0.03441043 -0.08206889 -0.1263785
-0.06649687 -0.11324026 0.14276324 -0.1421441 0.05284244 -0.12763241 -0.07002345 0.034313723
0.118075475 0.03102693 -0.024540067 -0.00998126 -0.11193787 -0.021073237 0.11810531 -0.025268957
0.00052818656 0.17430444 -0.014740884 0.17141555 0.06707692 -0.14120838 -0.11162122 0.06379497
-0.09389905 -0.087614365 -0.08574365 -0.08323206 -0.007931888 0.10784201 -0.13178444 0.027568042
0.08632186 0.056452487 0.15494598 -0.15031199 -0.023222744 -0.17077453 0.07857673 -0.09458571
0.030971885 -0.038209215 0.14073409 -0.16544554 -0.122374736 0.08706395 -0.07060312 -0.1667313
-0.0024684519 -0.11284763 0.015940085 0.021810375 -0.120933026 0.09323706 -0.14562964 -0.0073473025
0.15276729 -0.016478295 -0.12779717 0.13392065 -0.14093624 -0.042984594 -0.084123865 -0.050871387
0.14881486 -0.100050285 0.11630923 0.047910523 -0.20956941 -0.23508634 0.03394728 -0.16178218
-0.103818476 -0.119788334 0.12935017 0.17095678 -0.02885292 -0.04149959 -0.01981619 0.0035989366
-0.14054596 0.092619315 -0.06845415 0.44490048 0.19375172 -0.1971881 0.20387968 0.07031902
0.05971913 0.3047543 0.016442925 -0.007606879 0.16607885 0.0975141 -0.10055696 -0.6405274
0.023274919 -0.093703106 0.3080568 0.0645821 -0.08035173 0.028179992 0.029268159 -0.2250584
-0.15618291 0.006752029 0.031660378 -0.12849982 0.09977935 -0.21003269 -0.07861881 0.16032965
0.06552757 -0.09046365 -0.061125275 0.2347263 0.22730453 -0.22173057 0.23493579 0.20292616
-0.004085228 0.10575277 0.07149929 0.1399446 -0.102781914 0.2660105 0.09044175 -0.6653295
-0.014830198 -0.13375549 -0.028521618 -0.0040419716 0.14306833 -0.0013682401 0.1149823 -0.14495601
-0.034922674 0.027767643 -0.0025235564 0.08149449 0.05842968 0.06714693 0.16509943 -0.20187724
-0.052608326 0.07979016 -0.00688557 -0.048185885 0.050285753 0.042672563 0.18080376 0.15145941
-0.014093205 -0.08367037 0.043356046 0.060018256 -0.03650868 -0.103311434 0.08621697 -0.04474707

l3.bias f4 [16]
00000000: bbbd ad3d 3c1d 0abe 7e48 a73d 787a 15be
00000010: ca45 103e cf02 733e dcf7 973b 5993 1cbe
00000020: 9898 bb3d 4904 adbd d605 523e d733 063e
00000030: daab 453e db39 5a3e e574 2e3e ed1e 163e
0.08483454 -0.13487715 0.08168124 -0.145975 0.14089122 0.2373154 0.0046377014 -0.15290584
0.09159964 -0.08448083 0.20510039 0.13105713 0.19303837 0.21311133 0.17036779 0.14660235

l4.weight f4 [1, 16]
00000000: 02b7 953e a0e6 b2bd 9625 edbc 542b 4ebe
00000010: 8d24 1bbd 1e72 ca3e b6e7 a03e cb83 523e
00000020: e2da 5dbe 203a 52bd 668b 1b3e 3e57 f1be
00000030: a6ab 743e 6f41 06be d4eb 9f3d 34f5 63be
0.29241186 -0.087353945 -0.028948586 -0.20133716 -0.037876654 0.3954019 0.3142678 0.20558088
-0.21665528 -0.051324964 0.15189895 -0.47136873 0.23893604 -0.13110898 0.078086525 -0.22261506
