project/models/model_w1_2.0_lam_0.575_lam2_0.575_w2_0.01.pt_actor.pt (torch, 8196 bytes, 7 tensors)

l1.weight f4 [16, 1]
000000 dc 90 57 3f e5 09 e4 3e 86 b1 25 be f4 97 cd 3e
       0.8420541 0.445388 -0.16181001 0.40154994
000010 70 b1 8e bd 80 53 9e 3d c3 35 13 3f 10 40 ec 3d
       -0.06967437 0.0773077 0.5750391 0.115356565
000020 34 db c5 3f 20 f9 d7 bd 48 83 6e bf 5c 13 e7 be
       1.545752 -0.10545564 -0.9316907 -0.45131958
000030 64 80 35 bf e4 d6 1b 3f 53 21 4a 3f 3f cb 23 3f
       -0.70899034 0.6087477 0.789571 0.63982004

l1.bias f4 [16]
000000 a6 10 53 3f dc cb 33 3e 39 b9 55 3f 8a d8 2e bf
       0.8244728 0.17558235 0.8348575 -0.6829916
000010 36 31 12 bf 78 b5 7f bf c3 1f 68 3e 44 b9 03 bf
       -0.5710634 -0.99886274 0.22668366 -0.5145457
000020 cb 54 53 bd 48 07 40 3f 97 77 5c 3f e1 ff bd 3e
       -0.051594537 0.7501111 0.8611998 0.37109283
000030 e4 68 5f 3e e9 79 62 3f 09 4f 03 3f 85 90 82 3e
       0.21817356 0.8846727 0.51292473 0.25500885

l2.weight f4 [32, 16]
000000 0a aa d9 3d 45 af 93 3d f4 f4 ac 3e 2c e3 28 be
       0.106281355 0.072111644 0.33780634 -0.16492909
000010 2a ff 1f 3e e0 ad d9 bd d3 7a a6 3d dc b2 9c 3d
       0.15624681 -0.10628867 0.081288956 0.07651302
000020 07 08 39 40 e8 23 8f bc e7 e2 4a 3e e3 bc 14 3e
       2.891115 -0.017473176 0.19813119 0.1452518
000030 97 c6 1f 3e ec bd 24 3e 46 9e cb 3e 09 f4 60 bd
       0.156031 0.16088074 0.3976919 -0.05492023
000040 db 69 b6 3d 0c 51 86 3e f0 c2 fd bd c0 54 f2 3d
       0.08906909 0.2623371 -0.12390697 0.11832571
000050 34 a0 97 bd 74 8c 0b be 9d e5 64 3d 08 e9 40 be
       -0.07403603 -0.13627797 0.05588304 -0.18838894
000060 f1 c0 43 3f 3d 3f d5 3b 37 04 19 be 77 aa 38 3d
       0.7646628 0.0065077827 -0.14943014 0.045084443
000070 4c e7 3d be c1 40 45 3e 3d b9 b2 3e 1b 03 d1 3e
       -0.18545264 0.19262983 0.3490695 0.40822682
000080 aa ec c9 3b a5 28 c1 be 42 2b 5b 3e 28 ea b0 3d
       0.0061622458 -0.37726322 0.2140322 0.08638412
000090 58 18 b8 3d 88 cc 5f be ed 84 7c be fa e9 6f be
       0.08989018 -0.21855366 -0.24660082 -0.23429099
0000a0 89 1c cc 3d 76 ce 04 3e b1 cd c9 3e 89 bb 98 3e
       0.0996638 0.12969384 0.39414743 0.29830578
0000b0 fd 19 fa 3e bd b9 99 bd 42 81 1d 3e fb 06 3d be
       0.48847952 -0.0750613 0.15381339 -0.18459694
0000c0 bf dc b3 3e 83 47 f4 3e 1e 0d 7e 3e c4 cb a5 bd
       0.35129353 0.4771081 0.24809691 -0.08095506
0000d0 50 32 36 bd b8 f6 5b 3e 92 aa 6d 3e 58 bc 2b 3d
       -0.044481575 0.21480834 0.23209599 0.041927665
0000e0 f7 7f 66 40 cb ba ad 3e d3 27 80 3e db a8 9b bc
       3.6015604 0.33931574 0.25030383 -0.019001415
0000f0 e1 a4 0e 3d 3d 6e aa 3e ba 7f 87 3d 5e 4d bf 3e
       0.03482521 0.3328723 0.06616159 0.37363714
000100 99 4c 14 3e 72 0a da 3e 83 1b 96 3e 80 20 63 bb
       0.14482345 0.42586094 0.29317865 -0.0034656823
000110 12 bb 0a 3e 6c f4 1e 3e c0 d6 75 bd 9c 5d ed 3d
       0.13547924 0.15522927 -0.060019255 0.1159012
000120 32 2a 51 3f 12 a5 2f 3e 68 08 67 be c8 5c b8 3d
       0.8170501 0.17152813 -0.225618 0.090020716
000130 96 65 09 bf 28 30 a1 3e 41 ff 0e bd 5b 8a b6 3e
       -0.5367063 0.31482053 -0.034911398 0.35652432
000140 87 ef 6e 3e 53 0c 9d 3e 83 82 4c be 64 b0 7b be
       0.2333356 0.30673465 -0.19971661 -0.24579006
000150 00 ca 80 3b c0 37 d1 3d b2 17 a5 3e c8 79 11 be
       0.0039303303 0.102157116 0.3224464 -0.14206612
000160 d3 4e 3c 3f 5a ee 25 be ab 08 b8 3d 3a 57 74 bd
       0.73557776 -0.16204205 0.08986028 -0.0596535
000170 88 99 d2 be a0 00 91 3e 37 3b c1 3d 5d 29 b5 3e
       -0.4113276 0.2832079 0.094351225 0.3538312
000180 0d 75 0c 3b 41 bc b2 3e 54 8d 43 3e 70 68 80 bc
       0.0021432072 0.3490925 0.19096881 -0.0156748
000190 e0 87 93 bd 10 c7 9b 3d fe 1a b7 3e da 02 0c be
       -0.072036505 0.076063275 0.3576278 -0.13672963
0001a0 7c ee 11 40 1c d0 25 3e 6e e3 52 3e 31 21 3d 3e
       2.280181 0.16192669 0.2059457 0.18469693
0001b0 a6 32 5f 3c 57 e3 5b 3c 26 cc 59 3e 52 f4 ed 3d
       0.013622915 0.013420901 0.21269283 0.11618866
0001c0 7e fc 50 bd e6 d9 aa 3e 29 21 70 3e 00 81 aa 3b
       -0.051022045 0.33369368 0.2345015 0.0052033663
0001d0 cc 2a e5 3d 80 00 9f bc f8 90 aa 3e 22 ab 6f be
       0.111898035 -0.019409418 0.33313727 -0.23405126
0001e0 18 9d 4b 3f fd 81 69 3e 9d df e4 bd 6a 12 82 be
       0.7953658 0.22803493 -0.11175463 -0.25404674
0001f0 b2 a1 5c be 06 09 c8 bd 97 ca f1 3d 39 ef 5b 3d
       -0.21546057 -0.09767346 0.11806219 0.053694937
000200 7a c4 14 3e 58 f9 6f 3e e0 b6 77 3d 48 90 dc bd
       0.14528075 0.23434961 0.060477138 -0.10769707
000210 88 52 d0 bd 78 1a f8 3d e8 11 05 3d 80 62 93 3b
       -0.101719916 0.121144235 0.03248778 0.004497826
000220 58 ad 67 be fa 3c 22 be 50 5d 37 be 76 61 79 3e
       -0.22624719 -0.15843573 -0.1790669 0.24353585
000230 c0 fa df bc 7c f5 64 be 36 aa 3b be 20 64 28 bc
       -0.027341247 -0.2235927 -0.18326649 -0.010277778
000240 06 31 59 be 0e 4c 6a be 10 41 a1 3c 2a e9 00 3e
       -0.21210107 -0.22880575 0.019684345 0.12588945
000250 98 57 d7 3d a2 47 3c be 10 9a c8 bc 94 c0 a8 3d
       0.10514754 -0.18386701 -0.024487525 0.08239856
000260 d2 00 29 3e c4 6d 4d be c6 0a 3e be 78 5c f1 3d
       0.16504219 -0.20061404 -0.18558797 0.11785215
000270 36 66 7f be 04 f5 d8 bd 28 17 a9 bd d0 c5 f9 3c
       -0.24941334 -0.10593608 -0.0825637 0.030489832
000280 d6 dc 29 be fc df 08 be 00 4c c3 b9 e8 9e c0 3d
       -0.16588148 -0.13366693 -0.00037249923 0.09405309
000290 7e 74 5f be 20 6e 5a be e2 96 6c be f4 e5 b0 bd
       -0.21821782 -0.21331072 -0.23104432 -0.0863761
0002a0 d0 1d 31 be 0e c6 61 be 00 48 24 bc 64 54 5e 3e
       -0.17296529 -0.22048208 -0.010026932 0.2171188
0002b0 c4 aa 0d be 50 a3 1c 3e 20 48 7c bd ee 80 04 3e
       -0.13834673 0.15296674 -0.06159222 0.12939808
0002c0 b5 ea 27 bd 69 7b 3a be 03 c4 f9 3d d4 6c 43 be
       -0.04099532 -0.1821114 0.121955894 -0.19084483
0002d0 12 54 69 3e a0 30 67 3d 8a ff e9 3d d8 77 3b bd
       0.22785977 0.056442857 0.11425693 -0.04576859
0002e0 2a 1b da bd 55 5f d6 3c 01 23 e8 bc 52 3a 81 3d
       -0.106497124 0.026168505 -0.028337004 0.06309952
0002f0 f8 db 15 3d 16 aa 54 be 73 0d 38 3d fd 40 73 3e
       0.03658673 -0.20768008 0.0449347 0.2375526
000300 84 24 1d 3e af 71 e4 be 8a f7 4a 3e f4 56 1f be
       0.15345961 -0.44617984 0.19820991 -0.15560514
000310 28 30 38 be e0 81 9f 3d 99 f0 27 bd b0 aa ed 3d
       -0.1798712 0.077884436 -0.041000936 0.11604822
000320 40 eb c0 bd b1 9c d3 3d e9 58 ca 3d 54 f6 4a 3e
       -0.094198704 0.10332621 0.098802395 0.19820529
000330 ed 52 86 3e eb db 2d be 20 05 04 3e f8 54 94 be
       0.26235142 -0.16978423 0.1289258 -0.28971076
000340 7f 8c 3e 3e 2b d9 f0 3e 54 8b 18 be ca 94 4a 3e
       0.18608283 0.47040686 -0.148969 0.19783321
000350 90 a4 6a 3d c0 21 3c 3c d4 0c d5 3e a8 d3 44 be
       0.057285845 0.011482656 0.4161135 -0.19221365
000360 28 56 72 3f 13 86 af bc f8 42 24 be 59 6a 19 be
       0.94662714 -0.021426236 -0.16041172 -0.14981975
000370 ea d2 4e be 91 c7 43 3e 74 96 bf 3e f2 33 c1 3e
       -0.20197645 0.19119097 0.37419474 0.37734944
000380 24 71 74 be 30 07 2f 3e 50 87 7d 3d 10 3f 3c 3d
       -0.23871285 0.17092586 0.061896622 0.04595858
000390 58 3f d5 bd de 5b 1e 3e 50 9d 26 be dc 87 dd bd
       -0.104124725 0.15464732 -0.16270947 -0.10816929
0003a0 ba 18 20 3e bc 62 77 3e 54 a3 b2 bd b4 fe 25 3e
       0.15634432 0.24158758 -0.087225586 0.16210443
0003b0 34 16 00 be 46 1a 74 be fc 5d d3 3d 50 74 ab 3d
       -0.1250847 -0.23838148 0.103206605 0.08371794
0003c0 34 af 96 3d a2 d2 d5 3e d4 c2 da 3d 10 6b 42 3e
       0.07357636 0.41762263 0.10681692 0.18986154
0003d0 82 7d 39 be 54 56 b1 3d 4a 07 ec 3d 9c b4 b9 3d
       -0.18114284 0.08659044 0.11524828 0.09067652
0003e0 f5 70 9a 3f 65 cb ff 3c 21 c1 a8 3d 26 ce a4 be
       1.2065722 0.031224916 0.082399614 -0.3218853
0003f0 ca 1f 9d be 5f db 11 3e 34 52 0d 3e c6 a4 70 3e
       -0.30688316 0.1424384 0.13800889 0.23500356

l2.bias f4 [32]
000000 97 0a 47 3e bb b4 f3 3d c8 f1 84 bc 2d 16 bf 3e
       0.19437633 0.11899706 -0.016228572 0.37321606
000010 92 55 26 be 1e 91 03 3e ae d8 46 3e 47 88 66 3d
       -0.1624358 0.12848327 0.19418594 0.056282308
000020 04 bf 44 3e 6e 30 4c be 80 e9 44 bd 11 a4 e0 bc
       0.19213492 -0.1994035 -0.048074245 -0.027421983
000030 77 ea 14 bd 44 55 6c 3e 6e 3f 25 be b8 11 a5 3e
       -0.036356416 0.23079401 -0.16137478 0.3224008
000040 a0 40 5e be fe 57 65 be da e0 86 3e f2 0f 60 3e
       -0.2170434 -0.22396848 0.26343423 0.21881083
000050 39 6c ef 3d 02 ac 88 3e dc 2c 96 3e 0e ca 6c 3e
       0.11690564 0.26693732 0.293311 0.23123953
000060 80 db 87 bd 63 ac ea 3d b8 5c 35 3e 78 ad cf bd
       -0.06633663 0.114586614 0.1771115 -0.101405084
000070 80 bd 42 3e a3 ae 2c 3d 08 3b c1 3d 7e 59 65 be
       0.19017601 0.042158734 0.094350874 -0.2239742

l3.weight f4 [16, 32]
000000 a4 1b 32 3e 32 21 c0 bd 59 8c 69 3e bd be e2 3d
       0.17393357 -0.093813315 0.22807445 0.11071537
000010 35 11 5b 3c 4b 0e 19 be 50 2a 01 be 79 31 86 be
       0.013370802 -0.14946859 -0.12613797 -0.2620962
000020 8e 3a 0d be 60 d9 d4 3c 5a 9d ca 3d 70 04 c9 3b
       -0.13791868 0.025982559 0.09893294 0.006134562
000030 95 a2 df 3c 7d f3 92 3b 98 92 b0 bc 31 51 03 be
       0.027299205 0.0044845925 -0.021554276 -0.12823941
000040 f0 8b 5f bc ac 0f 62 3d aa a8 ba 3c 35 0c dd 3d
       -0.013644204 0.055190727 0.022785503 0.10793344
000050 3f d7 05 3e b3 10 58 bd 6a c8 c8 bc bf e1 f9 3d
       0.13070391 -0.0527503 -0.024509627 0.12201261
000060 80 d6 2a 3b b7 a7 88 3e a0 24 0e 3d ac 24 24 be
       0.0026067793 0.26690456 0.034702897 -0.16029614
000070 72 74 aa 3d 15 d6 83 bb cc fb 34 3d 93 96 d7 bf
       0.083229914 -0.0040233233 0.044185445 -1.6842827
000080 d6 05 ea 3d 22 51 aa bd cc 3f 34 3d 01 c5 02 be
       0.11426894 -0.08316256 0.044006154 -0.12770464
000090 58 28 9a bc e8 f9 09 bd 60 a3 44 bd 4e d2 c6 3d
       -0.018818066 -0.033685595 -0.04800737 0.09708081
0000a0 2d 84 cc bd 98 80 e9 3c 30 d9 17 3d b7 59 9e bd
       -0.09986148 0.028503701 0.03707236 -0.077319555
0000b0 a8 64 0b be 94 61 5f bd 80 41 3e 3c 14 33 38 bd
       -0.13612616 -0.054536417 0.011612296 -0.044970587
0000c0 e0 a2 99 bb b8 4c b3 3c ce 49 c4 3d 9c fa ed bd
       -0.0046886057 0.021887168 0.095843896 -0.116200656
0000d0 58 b8 01 be f0 10 75 3d 74 55 57 3d e4 ce 29 bd
       -0.12667978 0.059830606 0.05257173 -0.041457072
0000e0 88 c8 3a 3d b0 e6 8d 3c 60 39 2a 3c d8 a0 d1 3c
       0.045601398 0.017321914 0.010389656 0.025589392
0000f0 3e 3e df 3d 9b 0f 8e bd 44 28 23 be 28 58 a7 bc
       0.10900544 -0.0693657 -0.15933329 -0.020427778
000100 d1 f4 c0 3d a8 d1 b1 bd 91 a5 5a be 7f fb 59 be
       0.09421695 -0.08682567 -0.21352221 -0.21287344
000110 4c f7 ea bd c1 b2 cc bc 67 c5 1d bd a0 56 b4 bd
       -0.114729494 -0.02498758 -0.038518336 -0.08805585
000120 b0 fc b6 3c 22 ee 75 bd 0b 0d 1a 3e b8 48 c2 bd
       0.022337288 -0.060041554 0.15044038 -0.09486526
000130 1c 62 cc 3d f7 76 81 bd 1b bc b2 bd 30 74 7c 3d
       0.099796504 -0.06321519 -0.087272845 0.061634243
000140 39 00 c1 bd 4e c9 24 be 2d 37 2b be e6 57 2f bd
       -0.094238706 -0.16092417 -0.16720267 -0.042808436
000150 d2 63 0c 3e 56 7c 2d be c8 5f d7 3d a1 34 a9 3d
       0.13709953 -0.16941962 0.10516316 0.08261991
000160 b2 c9 d1 3d 0b 1f e6 3d a0 01 3b 3d 2e b0 e4 3d
       0.102435485 0.1123639 0.045655847 0.11166416
000170 00 4e f2 3c f3 f1 0c 3d bc 13 a8 bd 5e 69 01 be
       0.029578209 0.03441043 -0.08206889 -0.1263785
000180 83 2f 88 bd 82 ea e7 bd 87 30 12 3e 39 8e 11 be
       -0.06649687 -0.11324026 0.14276324 -0.1421441
000190 50 71 58 3d 12 b2 02 be 74 68 8f bd 8c 8c 0c 3d
       0.05284244 -0.12763241 -0.07002345 0.034313723
0001a0 8e d1 f1 3d 30 2c fe 3c 40 08 c9 bc 70 88 23 bc
       0.118075475 0.03102693 -0.024540067 -0.00998126
0001b0 af 3f e5 bd c8 a1 ac bc 32 e1 f1 3d d8 00 cf bc
       -0.11193787 -0.021073237 0.11810531 -0.025268957
0001c0 00 76 0a 3a dd 7c 32 3e c0 83 71 bc 8f 87 2f 3e
       0.00052818656 0.17430444 -0.014740884 0.17141555
0001d0 a0 5f 89 3d ee 98 10 be ab 99 e4 bd f0 a6 82 3d
       0.06707692 -0.14120838 -0.11162122 0.06379497
0001e0 25 4e c0 bd 29 6f b3 bd 5e 9a af bd 92 75 aa bd
       -0.09389905 -0.087614365 -0.08574365 -0.08323206
0001f0 c0 f4 01 bc 46 dc dc 3d 80 f2 06 be 60 d6 e1 3c
       -0.007931888 0.10784201 -0.13178444 0.027568042
000200 84 c9 b0 3d b9 3a 67 3d 29 aa 1e 3e 63 eb 19 be
       0.08632186 0.056452487 0.15494598 -0.15031199
000210 a0 3d be bc 85 df 2e be d6 ec a0 3d 27 b6 c1 bd
       -0.023222744 -0.17077453 0.07857673 -0.09458571
000220 c0 b8 fd 3c 44 81 1c bd 99 1c 10 3e 8e 6a 29 be
       0.030971885 -0.038209215 0.14073409 -0.16544554
000230 9b 9f fa bd 96 4e b2 3d 5e 98 90 bd 9c bb 2a be
       -0.122374736 0.08706395 -0.07060312 -0.1667313
000240 c0 c5 21 bb a9 1c e7 bd c8 94 82 3c ac ab b2 3c
       -0.0024684519 -0.11284763 0.015940085 0.021810375
000250 bc ab f7 bd 12 f3 be 3d f0 1f 15 be a4 c1 f0 bb
       -0.120933026 0.09323706 -0.14562964 -0.0073473025
000260 07 6f 1c 3e 7d fd 86 bc 43 dd 02 be 7f 22 09 3e
       0.15276729 -0.016478295 -0.12779717 0.13392065
000270 97 51 10 be 9d 10 30 bd 22 49 ac bd 84 5e 50 bd
       -0.14093624 -0.042984594 -0.084123865 -0.050871387
000280 67 5c 19 3e ba f1 be bd 05 f7 e7 3d fc 4c 4f 3d
       0.14976655 -0.093234494 0.11326412 0.050610527
000290 26 df 4f be 7e 26 6a be e6 9c 0d 3d 9e 35 1b be
       -0.20299968 -0.22866246 0.034573458 -0.15157172
0002a0 c8 9e d4 bd 96 53 f5 bd 5f 74 04 3e 4b 0f 2f 3e
       -0.103818476 -0.119788334 0.12935017 0.17095678
0002b0 88 92 11 bd bd 1c 12 bd 90 55 a2 bc 30 c3 09 3c
       -0.035540134 -0.03567194 -0.01981619 0.008408353
0002c0 48 eb 0f be 32 af bd 3d 01 c4 7f bd ea 72 e2 3e
       -0.14054596 0.092619315 -0.062442783 0.44228297
0002d0 49 d0 45 3e f1 2b 44 be aa 57 4e 3e 4a 2d 8d 3d
       0.19317736 -0.19157387 0.20150629 0.06893404
0002e0 0c 9c 74 3d 9d db 9a 3e 50 b3 86 3c 20 43 f9 bb
       0.05971913 0.30245677 0.016442925 -0.007606879
0002f0 93 10 2a 3e 61 1a bc 3d cf f0 cd bd f4 bc db bf
       0.16607885 0.09184719 -0.10055696 -1.7167039
000300 82 77 c5 3c 4d 2d b2 bd b1 16 9c 3e 8e 88 89 3d
       0.024104837 -0.08700047 0.30486062 0.06715499
000310 82 55 97 bd d6 44 0d 3d e0 e0 f3 3c fb 1b 5c be
       -0.07389356 0.034489475 0.029770315 -0.21495049
000320 6a ee 1f be 20 40 dd 3b 50 ae 01 3d 75 95 03 be
       -0.15618291 0.006752029 0.031660378 -0.12849982
000330 3d 56 be 3d f1 38 51 be e6 02 a1 bd 64 fa 28 3e
       0.092937924 -0.20431878 -0.07861881 0.16501766
000340 52 33 86 3d 02 45 b9 bd bf 32 62 bd 1a 86 6d 3e
       0.06552757 -0.09046365 -0.055224176 0.23195687
000350 da 0a 68 3e 9b 6b 5d be cf ff 6d 3e ae 3d 4e 3e
       0.2266039 -0.2162308 0.23242114 0.20140716
000360 60 dd 85 bb 4d 93 d3 3d 38 6e 92 3d a3 4d 0f 3e
       -0.004085228 0.1033083 0.07149929 0.1399446
000370 53 7f d2 bd 5a 38 85 3e 86 39 b9 3d da e5 dc bf
       -0.102781914 0.26019555 0.09044175 -1.7257645
000380 3f e3 93 bc 65 27 0b be 2b a6 e9 bc fd f4 fc bb
       -0.018052695 -0.13589247 -0.028521618 -0.0077196346
000390 48 58 10 3e 9b 69 67 bb 08 8e e5 3d 5e 46 16 be
       0.14096177 -0.0035310748 0.11208731 -0.1467528
0003a0 14 0b 0f bd f8 78 e3 3c 40 62 25 bb 95 e6 a6 3d
       -0.034922674 0.027767643 -0.0025235564 0.08149449
0003b0 f6 53 6f 3d b9 30 84 3d d3 0f 29 3e b7 38 51 be
       0.05842968 0.064546056 0.16509943 -0.20431791
0003c0 d4 7b 57 bd 06 69 a3 3d 1c 4c 1c bc 90 5e 45 bd
       -0.052608326 0.07979016 -0.00953963 -0.048185885
0003d0 aa c9 45 3d 85 d3 24 3d ad 7c 38 3e f3 db 19 3e
       0.048288025 0.040240783 0.1801631 0.1502531
0003e0 30 e7 66 bc ca 62 ab bd 1c 96 31 3d b4 d5 75 3d
       -0.014093205 -0.08368452 0.043356046 0.060018256
0003f0 20 8a 15 bd 0f 9b d3 bd 86 92 b0 3d 98 fc 3c bd
       -0.03650868 -0.103323095 0.08621697 -0.04613933

l3.bias f4 [16]
000000 8b 12 af 3d 3c 1d 0a be 7e 48 a7 3d 78 7a 15 be
       0.08548459 -0.13487715 0.08168124 -0.145975
000010 ca 45 10 3e f9 b3 73 3e ec 80 a9 3b 50 6a 1d be
       0.14089122 0.23799123 0.0051728394 -0.15372586
000020 98 98 bb 3d 49 04 ad bd 67 c2 51 3e d0 bf 06 3e
       0.09159964 -0.08448083 0.20484315 0.13159108
000030 3f e4 44 3e eb 6a 59 3e e5 74 2e 3e ed 1e 16 3e
       0.19227694 0.21232192 0.17036779 0.14660235

l4.weight f4 [1, 16]
000000 5d 99 91 3e a0 e6 b2 bd 96 25 ed bc 54 2b 4e be
       0.2843732 -0.087353945 -0.028948586 -0.20133716
000010 8d 24 1b bd 7f d5 c6 3e 41 e0 9c 3e a6 83 52 3e
       -0.037876654 0.3883476 0.30639842 0.20558032
000020 e2 da 5d be 20 3a 52 bd a2 6a 13 3e 1c a0 f0 be
       -0.21665528 -0.051324964 0.14396146 -0.46997154
000030 7d b8 6d 3e e2 d8 03 be d4 eb 9f 3d 34 f5 63 be
       0.23214908 -0.12875703 0.078086525 -0.22261506
