project/models/model_w1_1.05_lam_1.525_lam2_1.05_w2_0.1.pt_critic.pt (torch, 15298 bytes, 14 tensors)

l1.weight f4 [16, 2]
0	0x3f17325c	0.5906122
1	0x3f010c5d	0.5040949
2	0xbe44776e	-0.19186184
3	0xbf46c326	-0.7764152
4	0x3df1a9c0	0.11799955
5	0x3db37468	0.08762437
6	0xbef8793e	-0.4853
7	0xbca2e768	-0.019885734
8	0xbef5a89c	-0.479802
9	0xbe76dc9c	-0.24107593
10	0x3ea9c4b9	0.331579
11	0xbe0cda80	-0.13755226
12	0x3f17c120	0.5927906
13	0xbe7800a1	-0.2421899
14	0x3eefe4b6	0.4685418
15	0x3d12e700	0.03586483
16	0x3ebd270a	0.36943847
17	0xbd1e2ecc	-0.038618848
18	0x3e48526c	0.19562691
19	0xbf19a78d	-0.6002129
20	0xbdf884e4	-0.12134722
21	0x3ec65eb1	0.3874412
22	0x3efa44b9	0.48880556
23	0xbd812a09	-0.06306846
24	0x3e067354	0.13129932
25	0x3df7b4f8	0.12095064
26	0xbeba9be3	-0.36447057
27	0xbe9335b4	-0.2875191
28	0xbf2928bb	-0.66077775
29	0xbe3a8e55	-0.18218358
30	0x3f4dc963	0.80385417
31	0x3e8c736d	0.27431813

l1.bias f4 [16]
0	0xbd502263	-0.050814044
1	0xbe96b911	-0.2943807
2	0xbe84dc91	-0.2594953
3	0x3ef780a1	0.48340324
4	0xbece13c7	-0.40249464
5	0x3ec216ce	0.37908024
6	0xbd1c703b	-0.03819297
7	0xbd7308a5	-0.059334416
8	0xbed13c8d	-0.4086651
9	0x3f4030c0	0.75074387
10	0x3f22a64f	0.63535017
11	0x3ed71c7d	0.42013922
12	0xbecb8721	-0.39751533
13	0x3ec145e4	0.37748635
14	0x3f2948ac	0.66126513
15	0x3ec684ec	0.38773286

l2.weight f4 [32, 16]
0	0x3e300000	0.171875
1	0x3d1bf540	0.038075686
2	0x3d8ff1ac	0.07028517
3	0xbdda1a9c	-0.106496066
4	0xbd590668	-0.052984625
5	0xbe29e9c0	-0.16593075
6	0x3d45d5b0	0.04829949
7	0xbe231a00	-0.15927887
8	0x3e2901c2	0.16504577
9	0xbe6c79d8	-0.23093355
10	0x3e3672cc	0.17817229
11	0xbde43c08	-0.111442626
12	0x3e3fd25a	0.18732587
13	0xbe576d7c	-0.21037859
14	0x3e7b65c8	0.24550545
15	0xbded71dc	-0.115939826
16	0x3dba76a4	0.0910466
17	0xbe128670	-0.14309096
18	0xbe06d03e	-0.13165376
19	0xbdc48698	-0.09595984
20	0x3c0af6a0	0.008481652
21	0xbde61070	-0.11233604
22	0xbd9209f4	-0.07130805
23	0xbdaa6b90	-0.08321297
24	0x3e03e2c2	0.1287947
25	0xbe2f5304	-0.17121512
26	0xbe78a16e	-0.2428033
27	0x3cc6c540	0.024263978
28	0x3c1088a0	0.008821636
29	0x3d725090	0.05915886
30	0xbe10a708	-0.14126217
31	0xbdc919e4	-0.09819391
32	0xbbf0e280	-0.0073512197
33	0xbcf48300	-0.029847622
34	0x3da79758	0.081831634
35	0x3ce10390	0.027467519
36	0xbe060f92	-0.13091877
37	0xbe717f76	-0.23583779
38	0xbd1a3ca8	-0.037655503
39	0x3d1d0af0	0.03834051
40	0x3e28efbc	0.16497701
41	0xbd2e4e08	-0.042554885
42	0xbe0049c6	-0.12528142
43	0xbe3ab46c	-0.18232888
44	0xbd4b7818	-0.049675077
45	0xbdfee9f4	-0.12446967
46	0xbe28c018	-0.16479528
47	0x3da6232c	0.08112177
48	0x3e8320ac	0.25610864
49	0xbeb942a8	-0.36183667
50	0x3e492b9a	0.19645539
51	0xbef31dfe	-0.4748382
52	0xbda3a8b0	-0.07991159
53	0x3eaf76ef	0.34270427
54	0xbc039ffb	-0.008033748
55	0x3ea6495b	0.3247784
56	0xbe5a86a9	-0.21340431
57	0x3e6660af	0.2249782
58	0x3d34f03a	0.04417441
59	0x3e24d877	0.160982
60	0xbe405534	-0.18782502
61	0xbe5708e3	-0.20999484
62	0xbe0395d9	-0.12850131
63	0x3e81e30e	0.2536854
64	0x3ecb1435	0.39663854
65	0x3d6de574	0.05808015
66	0x3e624abe	0.22098824
67	0xbee63674	-0.4496342
68	0x3d436310	0.047701895
69	0x3e699ca5	0.22813661
70	0x3d8a6441	0.06757403
71	0x3ed02090	0.40649843
72	0xbe5e559b	-0.21712343
73	0x3e81c7bf	0.25347707
74	0x3e133409	0.14375319
75	0x3e4ae31f	0.19813202
76	0xbd790bc8	-0.06080225
77	0xbea24e57	-0.31700394
78	0xbe89e6ef	-0.26934
79	0x3e99018b	0.2988399
80	0x3ecdb950	0.40180445
81	0xbe234728	-0.15945113
82	0xbe0ad038	-0.13555992
83	0xbeb42b8f	-0.35189483
84	0x3db9411c	0.09045622
85	0xbb228686	-0.002479942
86	0x3dbd7660	0.09251094
87	0x3e2991bb	0.16559498
88	0xbe55a2db	-0.20862906
89	0x3dd7fff3	0.10546865
90	0x3dee0aeb	0.11623176
91	0x3e75ea6b	0.24015205
92	0xbd0c4948	-0.034249574
93	0xbf12d9ea	-0.5736376
94	0xbd59eff6	-0.05320736
95	0x3ea348ba	0.31891423
96	0x3ebdad10	0.370461
97	0xbd932315	-0.07184426
98	0xbe397094	-0.18109351
99	0xbf101b79	-0.5629192
100	0xbe6d9dbe	-0.23204705
101	0x3ec26a2c	0.37971628
102	0x3e917103	0.28406534
103	0x3dae17ce	0.08500634
104	0x3d666025	0.056244034
105	0x3e54ca0b	0.20780198
106	0x3de019ec	0.10942444
107	0x3c800bce	0.015630629
108	0x3d99c834	0.07508889
109	0xbf160beb	-0.58611935
110	0xbebeb4ba	-0.37247258
111	0x3e711606	0.23543558
112	0x3ed04b4a	0.4068244
113	0xbe5779d0	-0.21042562
114	0xbe7bb034	-0.24578935
115	0xbe3ca109	-0.18420805
116	0xbd199a58	-0.03750071
117	0x3df5bb63	0.11998632
118	0x3ef2ebf2	0.47445637
119	0x3df40c68	0.11916429
120	0xbe51f172	-0.2050226
121	0x3e1fab34	0.15592653
122	0x3e30f038	0.17279136
123	0x3ea45dec	0.32102907
124	0x3e0616bc	0.1309461
125	0xbe3d37f1	-0.18478371
126	0xbe617f0f	-0.22021125
127	0x3e4c578f	0.19955276
128	0x3e5d96ae	0.21639511
129	0xbcca496a	-0.02469321
130	0x3e554b38	0.20829475
131	0xbec7d6b2	-0.39030987
132	0x3cf812b0	0.030282348
133	0x3e159cc1	0.14610578
134	0x3e85cade	0.26131338
135	0x3ec56d03	0.38559732
136	0x3de7a816	0.11311357
137	0x3d4052b5	0.046953876
138	0xbe4e7274	-0.20160848
139	0x3e5d67aa	0.21621576
140	0xbc57c140	-0.013168633
141	0xbe70018b	-0.23438089
142	0xbf21569f	-0.630228
143	0x3eb49556	0.35270184
144	0xbc359400	-0.011082649
145	0xbe1b65dd	-0.15175577
146	0xbe6cc10e	-0.2312052
147	0xbe1b9595	-0.1519378
148	0xbd200b00	-0.03907299
149	0xbd5fab05	-0.054606456
150	0x3c05fd4c	0.008178066
151	0x3e5ff79e	0.21871802
152	0x3dcbf3d5	0.09958617
153	0x3dcefaed	0.10106454
154	0xbd86af64	-0.06576422
155	0xbcf64418	-0.030061767
156	0x3deeb490	0.11655533
157	0xbcc91aab	-0.02454885
158	0x3cda7b7d	0.026670212
159	0xbe263845	-0.16232403
160	0xbdef3938	-0.116808355
161	0xbd2ef180	-0.04271078
162	0xbe1ab904	-0.1510964
163	0xbe28a1d6	-0.16467986
164	0xbe5cf23e	-0.21576783
165	0xbe5a93c4	-0.2134543
166	0xbe486162	-0.19568399
167	0xbdf31cf0	-0.11870754
168	0x3ae02600	0.0017101169
169	0x3e2361ee	0.15955326
170	0x3e4eb26e	0.20185253
171	0xbe3d934a	-0.18513218
172	0xbcdfa640	-0.027300954
173	0x3e0936c4	0.13399798
174	0xbd68e980	-0.056863308
175	0x3dcf163c	0.10111663
176	0x3e6fac20	0.23405504
177	0x3d92c47b	0.07166382
178	0x3ddab9a0	0.106799364
179	0xbf263e7e	-0.64939106
180	0x3e4ed03c	0.20196623
181	0x3e94b569	0.29044655
182	0x3f04f3a4	0.51934266
183	0x3ef68912	0.4815145
184	0xbeace60d	-0.33769265
185	0xbdbf1a7f	-0.093312256
186	0xbe11f67c	-0.14254183
187	0x3ccd972d	0.0250965
188	0x3b85ce40	0.004083425
189	0xbd45bb11	-0.048274104
190	0xbf4e7610	-0.806489
191	0x3e2bfc04	0.16795355
192	0x3daaef7c	0.08346459
193	0x3d2bd418	0.041950315
194	0xbd7c5c60	-0.061611533
195	0xbe414a98	-0.18876112
196	0x3df060e0	0.117372274
197	0x3cda90c0	0.02668035
198	0x3cd6ade0	0.026205957
199	0x3d360c50	0.044445336
200	0x3dd7c7f8	0.10536188
201	0xbda4b158	-0.08041638
202	0xbe5b838c	-0.214369
203	0xbcb6e300	-0.022325039
204	0x3d76f3d8	0.06029114
205	0x3e152f4a	0.1456882
206	0x3e555788	0.20834172
207	0xbd01e378	-0.03171107
208	0x3dfb7cd0	0.122796655
209	0x39baf000	0.00035655499
210	0xbe76da66	-0.2410675
211	0x3e3aa928	0.1822859
212	0xbd351db0	-0.044217765
213	0xbe5f5c96	-0.21812662
214	0xbe5f84e8	-0.21828043
215	0x3e13899e	0.14407966
216	0xbe4fdea4	-0.20299774
217	0xbd628aa8	-0.055308014
218	0xbd9265bc	-0.071483105
219	0xbd91c394	-0.07117382
220	0x3e2e1048	0.16998398
221	0xbe23d680	-0.15999794
222	0xbe54c56c	-0.20778435
223	0xbe58f3c8	-0.21186745
224	0x3e05ae49	0.13054766
225	0xbe080139	-0.13281716
226	0xbd3fcff0	-0.046829164
227	0xbef656ad	-0.48113003
228	0x3e27855a	0.16359463
229	0x3e79a4eb	0.24379317
230	0x3eeaab1a	0.45833665
231	0x3e93a298	0.28834987
232	0x3e2c0e99	0.16802444
233	0x3ec5181a	0.3849495
234	0x3d1624df	0.036656257
235	0x3e7b8fa1	0.24566509
236	0xbce75c20	-0.02824217
237	0xbec6b8de	-0.38812917
238	0xbe6e18d3	-0.23251657
239	0x3e9fea50	0.31233454
240	0x3ec9085f	0.392642
241	0xbd7d8b10	-0.0619002
242	0xbd44c140	-0.04803586
243	0xbf61decf	-0.88230604
244	0x3e4dd700	0.20101547
245	0x3cf66cf3	0.030081248
246	0x3d8866c2	0.066602245
247	0x3e784345	0.24244411
248	0x3dabd8fb	0.08390995
249	0xbe17d391	-0.148268
250	0xbdd4e956	-0.10396068
251	0xbe5aa44d	-0.21351738
252	0x3e6dd642	0.23226264
253	0xbec57422	-0.38565165
254	0xbf4042b8	-0.75101805
255	0x3e3cb6ac	0.18429059

l2.bias f4 [32]
0	0xbe69d0e6	-0.22833595
1	0xbe466b08	-0.19376767
2	0x3dbeb638	0.09312099
3	0x3e650493	0.22365026
4	0x3eb2bcef	0.3490977
5	0x3e85c93c	0.26130092
6	0x3e830517	0.2558982
7	0x3ddbffd1	0.107421525
8	0x3cd2ad53	0.025717413
9	0xb92068c3	-0.00015297816
10	0xbe22d0ac	-0.15899915
11	0xbe9cf02a	-0.3065198
12	0xbd49faf0	-0.04931158
13	0xbe140d7c	-0.14458269
14	0x3ea12152	0.31470734
15	0x3a6064ba	0.00085599313
16	0xbdd234a7	-0.10263949
17	0xbcaeed5e	-0.02135342
18	0x3cb101ca	0.021607298
19	0x3e7d17da	0.2471613
20	0xbe132f08	-0.1437341
21	0xbe4851c9	-0.19562449
22	0x3dd6b0a9	0.10482914
23	0xbe7659e4	-0.24057728
24	0xbe789222	-0.24274495
25	0x3e0865b1	0.13320042
26	0x3eb1151a	0.34586412
27	0x3e7652a9	0.2405497
28	0x3cf6412c	0.030060373
29	0x3eac8119	0.33692244
30	0x3de70baf	0.11281525
31	0x3e82773a	0.25481588

l3.weight f4 [16, 32]
0	0x3db51e52	0.08843674
1	0x3caf9be0	0.021436632
2	0xbdf3817e	-0.11889933
3	0x3d44eeed	0.04807942
4	0x3a8d575a	0.0010783479
5	0x3df87486	0.121316
6	0xbdc312a0	-0.09525037
7	0xbb4e65b1	-0.0031493718
8	0x3cb1a3bd	0.021684522
9	0xbddb080f	-0.106948964
10	0xbbaa1e80	-0.005191624
11	0xbed49771	-0.4152179
12	0x3d76ab18	0.06022176
13	0x3dae6b12	0.08516516
14	0xbdfb118c	-0.12259206
15	0xbf320ce4	-0.6955092
16	0x3e00d49b	0.12581103
17	0xbe95a605	-0.29228225
18	0xbc8d8348	-0.017274514
19	0xbd0dea1c	-0.034647092
20	0xbe1e0a27	-0.1543356
21	0xbefc4b41	-0.49276164
22	0x3d606f49	0.05479363
23	0xbe250490	-0.16115022
24	0x3e2fb867	0.17160188
25	0x3db171f6	0.086643144
26	0x3d7a7037	0.061142173
27	0xba780194	-0.00094606844
28	0xbcb975d3	-0.02263919
29	0xbe0b881b	-0.13626139
30	0xbdd6a020	-0.1047976
31	0x3dff64a2	0.12470366
32	0xbd6f5da2	-0.058438905
33	0xba00e300	-0.0004916638
34	0x3e143a87	0.14475451
35	0x3dbf8f1f	0.0935347
36	0x3e79f723	0.24410681
37	0x3e251251	0.16120268
38	0x3e94c09d	0.29053202
39	0x3eb73b51	0.35787442
40	0x3cdb1645	0.026744017
41	0x3d9352e9	0.07193548
42	0x3cc4f410	0.02404216
43	0x3ec0c372	0.37649113
44	0xbd557ca8	-0.052120835
45	0x3dff0e8a	0.12453945
46	0x3e2bf7b7	0.16793714
47	0xbe0ad776	-0.13558754
48	0x3d324334	0.04352112
49	0xbec71041	-0.38879588
50	0x3eb03461	0.34414962
51	0x3e784e7c	0.2424869
52	0x3e06077d	0.13088794
53	0xbe04178a	-0.12899604
54	0xbe452e67	-0.19255982
55	0xbcd0da68	-0.02549477
56	0xbdae309b	-0.085053645
57	0x3ebed968	0.37275243
58	0x3ea52ccf	0.3226075
59	0x3e91d48f	0.28482482
60	0x3cec3b2c	0.02883681
61	0xbebcf5ef	-0.36906382
62	0xbe8c90c0	-0.27454185
63	0x3e58b1c6	0.21161565
64	0xbcff6e00	-0.031180382
65	0x3cb4a1b0	0.022049755
66	0xbe1e6e32	-0.15471724
67	0x3dd89b50	0.105764985
68	0xbe28c56c	-0.1648156
69	0xbe2398e9	-0.159763
70	0xbc894091	-0.01675442
71	0xbd3002d7	-0.04297146
72	0x3e121753	0.1426671
73	0x3c43b178	0.011944167
74	0xbc3bcf30	-0.011462972
75	0xbe0a1fb9	-0.13488664
76	0xbda4329d	-0.08017466
77	0xbd04fd28	-0.03246799
78	0x3da4aa37	0.080402784
79	0x3e2166c1	0.15761854
80	0xbdb6a1d2	-0.089175835
81	0x3db90c36	0.09035532
82	0x3d985aec	0.07439217
83	0x3e0785fc	0.13234705
84	0xbd8cddca	-0.068782404
85	0xbe2e150e	-0.17000219
86	0xbe294fa2	-0.16534284
87	0xbe1183ac	-0.14210385
88	0x3cb18e98	0.02167444
89	0x3d43fff6	0.047851525
90	0x3de2c43e	0.110725865
91	0xbe1e6c16	-0.15470919
92	0x3cf92f7c	0.03041815
93	0x3dff8419	0.124763675
94	0xbe2c1d6c	-0.16808099
95	0x3abcaa44	0.0014394005
96	0xbd0450d8	-0.03230366
97	0xbc0287c0	-0.007966936
98	0xbe1d1c17	-0.15342747
99	0x3ea7f391	0.32803014
100	0x3d672e73	0.05644078
101	0x3e0ccb96	0.13749537
102	0x3ea399f1	0.31953385
103	0x3e7f58cb	0.24936216
104	0x3e657372	0.2240732
105	0x3cd2aa6f	0.025716035
106	0x3d8ea1d2	0.069644585
107	0x3ed9ad0d	0.4251484
108	0xbe00c184	-0.1257382
109	0x3db3543e	0.08756302
110	0x3dd148d0	0.10218966
111	0x3c8b181c	0.01697927
112	0x3df4f923	0.119615816
113	0xbdc6e5f5	-0.097118296
114	0x3f0b7e75	0.54489833
115	0x3eb0aacf	0.34505317
116	0x3f0d5957	0.55214447
117	0x3e15ec21	0.14640857
118	0xbea7b9a9	-0.32758835
119	0x3e10d799	0.14144744
120	0x3da4ddfa	0.08050151
121	0x3ed1a76a	0.4094804
122	0x3e49c2a9	0.19703163
123	0x3e9517a7	0.29119608
124	0x3e32656b	0.174215
125	0xbd8c191e	-0.06840728
126	0xbed9e848	-0.4256003
127	0x3ea676d2	0.32512528
128	0xbdc34194	-0.095339924
129	0xbd2d4ad8	-0.042307705
130	0xbe06f0f2	-0.13177851
131	0x3e9b2dea	0.30308467
132	0x3e65764e	0.22408411
133	0x3e1f3825	0.15548761
134	0x3df6b3bd	0.12046001
135	0x3ec83802	0.3910523
136	0xbe69200c	-0.22766131
137	0xbdf87378	-0.12131399
138	0x3db5d2de	0.0887811
139	0xbef0e43b	-0.47049126
140	0xbdf3ae22	-0.118984476
141	0xbe3188fa	-0.17337409
142	0x3de2ab4b	0.11067828
143	0xbf87d7b0	-1.0612698
144	0x3cb4a817	0.022052808
145	0xbe0ec5ae	-0.13942596
146	0xbde7eea3	-0.11324813
147	0xbd8745bd	-0.066050984
148	0xbe119ac3	-0.14219193
149	0xbef907cd	-0.48638764
150	0xbc1cf43e	-0.009579716
151	0x3e2ee3dd	0.1707911
152	0x3e2c5987	0.16831027
153	0x3e33c99c	0.17557377
154	0x3ebdef83	0.37096795
155	0xbe1f448d	-0.15553494
156	0xbe9a56c2	-0.30144316
157	0x3d2d5cb2	0.04232473
158	0x3ded197e	0.11577128
159	0x3e00809a	0.12549058
160	0xbde9da69	-0.114186116
161	0x3db10af2	0.08644666
162	0x3de1825a	0.11011191
163	0x3d86cb8f	0.065817945
164	0xbce67960	-0.028134048
165	0xbd89ff1a	-0.0673811
166	0xbde56cc4	-0.11202386
167	0x3dde7f83	0.10864165
168	0x3d1345e9	0.035955343
169	0x3e02ea4e	0.12784693
170	0x3e163b15	0.14670976
171	0x3d3bcf1c	0.04585181
172	0x3d965c5a	0.073418334
173	0x3d6746d8	0.056464046
174	0xbe1e9f91	-0.15490557
175	0xbe42cc5d	-0.19023271
176	0x3e239203	0.15973668
177	0xbc559f35	-0.013038446
178	0x3d879a7b	0.06621262
179	0x3c8f00dc	0.017456464
180	0x3bff2a56	0.0077870293
181	0xbe4f1809	-0.20224012
182	0xbe3101c9	-0.17285837
183	0x3de08d9a	0.10964508
184	0x3b129400	0.0022366047
185	0xbd9af28f	-0.07565796
186	0xbe4f5f41	-0.2025118
187	0xbe146105	-0.14490135
188	0x3db12954	0.08650461
189	0x3d7c976b	0.06166784
190	0xbcae5713	-0.021281755
191	0xbd216dd8	-0.039411396
192	0xbe341c6c	-0.17588967
193	0xbe2bfb15	-0.16794999
194	0xbd28f4b0	-0.041248977
195	0x3dcdada3	0.10042884
196	0x3ea5e270	0.3239932
197	0x3e84de58	0.25950885
198	0x3e551982	0.20810512
199	0x3eaf9947	0.3429663
200	0x3e80e4e4	0.2517463
201	0xbd7fded0	-0.06246835
202	0x3d802552	0.06257118
203	0x3eeda5a3	0.46415433
204	0x3df04ad2	0.11733021
205	0x3dc5456e	0.09632383
206	0x3e622f9f	0.22088479
207	0x3d039398	0.03212318
208	0x3d62c664	0.05536498
209	0xbd55e605	-0.052221317
210	0x3e2c19b9	0.16806687
211	0x3e88f47b	0.26749024
212	0x3e867683	0.26262292
213	0xbd0e53a6	-0.034747742
214	0xbe9be5f0	-0.30448866
215	0x3d4215a8	0.047383934
216	0x3e2f212b	0.17102496
217	0x3ea8b4b7	0.32950374
218	0x3dcf656a	0.10126765
219	0x3dc6d09e	0.09707759
220	0xbdb6e77c	-0.08930871
221	0xbecc755e	-0.39933294
222	0xbea3715d	-0.31922427
223	0x3e9ef10a	0.31043273
224	0xbdc96c45	-0.09835104
225	0x3d823766	0.06358223
226	0x3e316db7	0.17327009
227	0x3e6d8c18	0.23197973
228	0x3db9865b	0.090588294
229	0x3dd1e717	0.10249155
230	0x3e65722b	0.22406833
231	0x3d9ac75b	0.07557555
232	0x3e9b2c79	0.30307367
233	0xbd82ac6a	-0.063805416
234	0xbcd7db08	-0.02634956
235	0x3f0caf6c	0.5495517
236	0x3daf475e	0.08558534
237	0x3d8b6298	0.06805915
238	0x3d022a10	0.031778395
239	0x3f305d47	0.6889233
240	0xbd386612	-0.045019217
241	0x3f870cc3	1.055077
242	0x3e1a938e	0.1509535
243	0x3ea45864	0.32098687
244	0x3ea829b0	0.32844305
245	0x3ef6335d	0.48086062
246	0xbe836e32	-0.2567001
247	0xbc541f80	-0.012946963
248	0xbc741b60	-0.014899105
249	0x3ded59eb	0.11589416
250	0x3e95f7f9	0.2929075
251	0x3dcf7dda	0.10131426
252	0x3eb82aa7	0.3597004
253	0xbe60fa5e	-0.21970508
254	0xbe58b31a	-0.21162072
255	0x3df4bde7	0.119502835

l3.bias f4 [16]
0	0xbddbc690	-0.10731232
1	0x3e7376f8	0.23775852
2	0xbd941703	-0.07230952
3	0x3e4f9f15	0.20275529
4	0xbd2bd46e	-0.041950636
5	0x3dfcde7c	0.12347123
6	0x3e8499f2	0.258987
7	0xbe81b906	-0.25336474
8	0xbdfb3c8e	-0.12267409
9	0xbdb814ff	-0.0898838
10	0xbe0aba51	-0.13547637
11	0xbe6a1989	-0.22861303
12	0x3dcef329	0.10104973
13	0x3e63d759	0.22250117
14	0x3c9bcefb	0.019019594
15	0x3e2e61fd	0.17029567

l4.weight f4 [1, 16]
0	0xbbcfd568	-0.0063425787
1	0xbed3ab86	-0.413418
2	0x3e727849	0.23678698
3	0xbe865bf2	-0.26242024
4	0x3f18b845	0.59656173
5	0x3d9a49b3	0.07533588
6	0xbecabb1f	-0.39595887
7	0xbe989614	-0.29802
8	0x3d9aea94	0.075642735
9	0x3e3a2ef0	0.18181968
10	0xbd4d7ff8	-0.05017087
11	0xbed44e92	-0.41466194
12	0x3db708d7	0.08937233
13	0xbeef9fb3	-0.46801528
14	0x3e44e4aa	0.19227853
15	0xbea0b924	-0.3139125

l5.weight f4 [16, 2]
0	0x3f0e4a58	0.5558219
1	0x3f000a77	0.5001597
2	0x3e4f1378	0.2022227
3	0xbe2fbac8	-0.17161095
4	0x3f67f005	0.90600616
5	0x3e8d6ee3	0.27623662
6	0xbeeee936	-0.466623
7	0x3e2aaf88	0.16668522
8	0x3f72ab74	0.94792867
9	0xbdbeebae	-0.09322296
10	0x3f1c88c2	0.61146176
11	0xbdd87f5b	-0.10571166
12	0x3f8b1f68	1.086896
13	0x3ee12cfd	0.43979636
14	0x3e7ca108	0.24670804
15	0xbe1e30b8	-0.15448272
16	0xbee1be96	-0.44090718
17	0xbdd87260	-0.1056869
18	0x3f3222f8	0.6958461
19	0xbe4920bb	-0.19641392
20	0xbf0be48a	-0.546456
21	0x3cc72780	0.024310827
22	0xbefd656c	-0.4949144
23	0xbe9663a2	-0.2937289
24	0xbd47dace	-0.048792653
25	0xbf44618f	-0.7671136
26	0x3e22fe05	0.15917213
27	0xbed84988	-0.422436
28	0xbe516560	-0.20448828
29	0xbe943758	-0.28948474
30	0xbd92fc28	-0.07177001
31	0x3b978e00	0.004625082

l5.bias f4 [16]
0	0x3c9c1827	0.019054485
1	0xbf1d8a4a	-0.6153914
2	0x3edc01d2	0.4297014
3	0xbec7039e	-0.38869947
4	0xbd933fd0	-0.07189906
5	0x3ee76931	0.45197442
6	0x3e38d9e1	0.18051864
7	0xbf01ba23	-0.5067465
8	0xbeb8bdee	-0.36082405
9	0xbb269f0c	-0.002542439
10	0x3f32a193	0.6977779
11	0xbed16635	-0.4089829
12	0xbde8ee16	-0.11373536
13	0x3f0a55f2	0.5403739
14	0x3f30568f	0.6888208
15	0xbe981ff3	-0.29711875

l6.weight f4 [32, 16]
0	0x3e5a2b65	0.21305616
1	0xbdfe240c	-0.12409219
2	0x3d86fd7a	0.065913156
3	0xbda8c394	-0.082404286
4	0x3d92b5e4	0.07163599
5	0x3e095869	0.13412632
6	0x38e76000	0.0001103282
7	0x3d704c20	0.05866635
8	0x3e567a4e	0.20945093
9	0x3eb909e2	0.36140352
10	0x3e5cd822	0.21566823
11	0x3bcf5540	0.0063273013
12	0x3dcce4bf	0.10004567
13	0xbdbca46e	-0.0921105
14	0xbdd80132	-0.10547103
15	0x3e264610	0.16237664
16	0xbe29615e	-0.16541049
17	0xbe43097a	-0.19046584
18	0x3c8ab020	0.016929686
19	0x3d8ccce0	0.06875014
20	0x3e09a818	0.13443029
21	0x3d2a2070	0.04153484
22	0xbe7bd444	-0.24592692
23	0x3e0ff018	0.14056432
24	0xbe4113be	-0.18855187
25	0x3e7aff86	0.24511537
26	0xbd536d58	-0.05161795
27	0x3dfec770	0.124403834
28	0xbe74ea18	-0.23917425
29	0xbe21698c	-0.15762919
30	0xbd193510	-0.03740412
31	0x3db6dc84	0.08928779
32	0x3ea96cc7	0.33090803
33	0xbd5d2720	-0.05399239
34	0x3d7aea21	0.06125844
35	0x3d8614b4	0.065469176
36	0x3e3829d1	0.17984702
37	0x3d5089f6	0.05091282
38	0xbd65f9ff	-0.056146618
39	0xbd1088d0	-0.035286725
40	0x3e723358	0.23652399
41	0x3eef4be9	0.46737602
42	0xbdecf113	-0.11569419
43	0x3e2d6cca	0.16936031
44	0xbe92a1b6	-0.28639
45	0x3e3a06f9	0.18166722
46	0xbcb1bf7c	-0.021697752
47	0x3da872f4	0.082250506
48	0x3d9ec940	0.07753229
49	0x3dacee44	0.08443883
50	0xbd253c88	-0.04034093
51	0xbe3fa226	-0.18714198
52	0xbe11e902	-0.14249042
53	0xbc109f40	-0.008827031
54	0xbd8229a0	-0.063555956
55	0x3de83288	0.11337763
56	0x3bdbedc0	0.0067116916
57	0x3dd371d0	0.103244424
58	0xbe1c1c48	-0.15245163
59	0x3def2890	0.116776586
60	0xbdbdf238	-0.09274715
61	0xbe7314fa	-0.2373847
62	0xbe419a84	-0.189066
63	0xbe2123ea	-0.15736356
64	0x3f1909e8	0.5978074
65	0x3e4e9b74	0.20176488
66	0x3eb1f7da	0.34759408
67	0x3e682cd2	0.22673348
68	0x3eff3a4c	0.49849164
69	0xbdaf12ad	-0.08548484
70	0x3f089574	0.5335305
71	0x3df2c230	0.118534446
72	0xbdbd35d0	-0.092387795
73	0x3efcd1ac	0.49378717
74	0xbe20a0fb	-0.15686409
75	0x3e704e82	0.23467448
76	0x3dbb0d73	0.091334246
77	0x3e2d2309	0.16907896
78	0xbdbfed11	-0.09371389
79	0x3e1068c0	0.14102459
80	0x3e36d40a	0.17854324
81	0xbdc5a034	-0.09649697
82	0xbe7faff4	-0.24969465
83	0x3e110dac	0.14165372
84	0xbe47c248	-0.19507706
85	0xbd719a48	-0.058985025
86	0xbe3c477e	-0.18386647
87	0x3df49700	0.119428635
88	0x3e6849c6	0.22684392
89	0xbc185560	-0.009297699
90	0x3dcfdb0c	0.10149202
91	0x3d202638	0.03909895
92	0xbd8ab3d0	-0.06772578
93	0x3c492640	0.012277186
94	0xbc1e3fe0	-0.009658784
95	0xbe4aac90	-0.1979239
96	0xbe72e362	-0.23719552
97	0x3e61c6d2	0.220485
98	0x3b831d40	0.0040012896
99	0xbe64483c	-0.2229318
100	0xbe365b12	-0.17808178
101	0xbde32724	-0.1109145
102	0x3e282680	0.16420937
103	0xbe54ae70	-0.20769668
104	0x3d901c08	0.070365965
105	0x3e38f9d2	0.18064049
106	0x3e1942f2	0.14966944
107	0x3e030166	0.12793502
108	0xbe1103a8	-0.14161551
109	0xbd93860c	-0.07203302
110	0xbe101316	-0.1406978
111	0xbe6ce8b6	-0.23135647
112	0xbdae0a04	-0.08498004
113	0x3e702e56	0.23455176
114	0xbe32bf3e	-0.17455766
115	0x3e09bf9e	0.13452002
116	0xbe611ec4	-0.21984392
117	0xbd839200	-0.06424332
118	0xbe24296c	-0.16031426
119	0xbe715476	-0.23567376
120	0x3e004376	0.12525734
121	0xbe6b12e0	-0.22956419
122	0xbe3f1234	-0.18659288
123	0x3e66e472	0.22548082
124	0x3db536d8	0.08848351
125	0xbd1628b8	-0.036659926
126	0xbdaa2d90	-0.083094716
127	0xbe05981a	-0.13046303
128	0x3e5fe8b5	0.21866114
129	0xbdb273a4	-0.08713463
130	0x3e5733f4	0.21015912
131	0xbe6ffe82	-0.23436931
132	0x3e7e1f9d	0.24816747
133	0x3e13cd23	0.14433722
134	0x3dd0dad0	0.10197985
135	0x3e067206	0.13129434
136	0x3e57982a	0.2105414
137	0x3dc28e6c	0.09499821
138	0x3def171e	0.11674331
139	0xbe309ed4	-0.17248088
140	0xbd5c20ec	-0.053742334
141	0x3d70e9f0	0.05881685
142	0xbd5bd6c0	-0.0536716
143	0x3cf58d00	0.02997446
144	0x3e8e26c2	0.27763945
145	0xbe794984	-0.2434445
146	0x3e197303	0.1498528
147	0x3df92b9c	0.12166521
148	0x3dfd2a63	0.123616
149	0x3e273d25	0.16331919
150	0x3ebd15da	0.36930734
151	0xbcc161f0	-0.02360627
152	0x3dad3004	0.08456424
153	0x3ea46fc2	0.32116514
154	0xbe8a976d	-0.27068654
155	0x3e794096	0.24341044
156	0x3d14e55d	0.03635155
157	0x3caaf591	0.020869048
158	0xbdfbf61a	-0.123027995
159	0xbe6e2898	-0.23257673
160	0x3f134f4b	0.57542866
161	0xbdf97c0c	-0.12181863
162	0xbf60c073	-0.87793654
163	0xbb9bdd00	-0.00475657
164	0xbd0a3d5b	-0.03374992
165	0xbe80f85c	-0.25189483
166	0xbd7bbc6e	-0.061458997
167	0x3de65dd8	0.11248368
168	0xbd84d50c	-0.06485948
169	0x3e82db9a	0.25558168
170	0x3f0ebccd	0.5575684
171	0x3e4fd546	0.20296201
172	0xbefbd82e	-0.4918837
173	0x3e1d6fe9	0.15374722
174	0x3ee37f52	0.44433075
175	0x3df88524	0.121347696
176	0xbe116514	-0.14198714
177	0xbadd6d00	-0.0016893446
178	0xbe844788	-0.25835824
179	0x3e675b06	0.22593316
180	0x3b879040	0.004137069
181	0xbe30402a	-0.17211977
182	0xbe1207de	-0.14260814
183	0x3e14ad16	0.14519152
184	0xbe54b062	-0.2077041
185	0x3db281ac	0.08716139
186	0xbc6977b2	-0.014249729
187	0xbe0d6e42	-0.13811591
188	0x3d1b1b8b	0.037868064
189	0xbd8f72ef	-0.07004344
190	0xbe81deb4	-0.25365222
191	0xbcb2fca0	-0.021848977
192	0x3e149518	0.1451
193	0x3e3b54fa	0.18294135
194	0xbdcafd4c	-0.09911594
195	0xbcbcc750	-0.023044258
196	0x3f036ad5	0.5133489
197	0xbe5d63b3	-0.21620063
198	0x3ea64e90	0.32481813
199	0xbe6a7258	-0.22895181
200	0xbccb4dd0	-0.024817377
201	0x3f1858f3	0.59510726
202	0xbf2f3dbe	-0.68453586
203	0xbdc32194	-0.09527889
204	0x3d7ee56b	0.06223051
205	0xbeac2bed	-0.33627263
206	0xbe210392	-0.15724018
207	0x3dc72674	0.09724131
208	0xbdd4fc80	-0.10399723
209	0x3d8bd308	0.068273604
210	0xbe37e526	-0.17958507
211	0x3e3f9b84	0.18711668
212	0xbdf04178	-0.11731237
213	0xbe255c4e	-0.16148493
214	0xbe47afc4	-0.19500643
215	0xbda5ed8c	-0.08101949
216	0xbe06cb78	-0.13163555
217	0xbd16b188	-0.0367904
218	0x3cbc2c10	0.02297023
219	0xbd6411f0	-0.05568117
220	0xbda00558	-0.07813519
221	0x3d59c1a8	0.0531632
222	0xbe22ca30	-0.15897441
223	0xbe3d7998	-0.18503416
224	0x3ef0698c	0.46955526
225	0xbd52be70	-0.051451147
226	0x3e931af2	0.28731495
227	0x3de70240	0.11279726
228	0x3e0c807a	0.13720885
229	0xbd84d415	-0.06485764
230	0xbd7c8641	-0.061651472
231	0xbe36d944	-0.17856318
232	0xbe25eade	-0.16202876
233	0x3e2d196f	0.16904233
234	0x3cf66f91	0.030082496
235	0x3caf11d0	0.021370798
236	0xbdf04107	-0.11731153
237	0x3db1f6d5	0.086896576
238	0x3e47c26b	0.19507758
239	0x3e75169a	0.23934403
240	0x3e947337	0.28994152
241	0xbc23a280	-0.0099874735
242	0x3ddb0ede	0.10696195
243	0xbceb2a10	-0.02870658
244	0x3ed3fe9d	0.41405192
245	0x3e2b83ee	0.16749546
246	0x3ef96ede	0.48717397
247	0x3dddfc94	0.10839191
248	0xbe689776	-0.22714028
249	0x3efd925c	0.49525726
250	0xbe4ae445	-0.1981364
251	0x3e5dbcc0	0.21654034
252	0x3ea0c003	0.31396493
253	0x3dc4166f	0.09574591
254	0xbeb96f6c	-0.3621782
255	0x3dacd03c	0.08438155

l6.bias f4 [32]
0	0xbbcf242c	-0.0063214507
1	0xbe5ccf5a	-0.21563473
2	0x3e32d8dc	0.17465538
3	0x3e492416	0.19642672
4	0xbe21b7d5	-0.15792783
5	0xbdbf4c50	-0.09340727
6	0xbe535350	-0.2063725
7	0x3db4af00	0.08822441
8	0x3e9588b2	0.29205853
9	0x3d12e6b6	0.035864554
10	0x3e0e5098	0.13897932
11	0x3e2309d2	0.15921715
12	0xbe271e8a	-0.16320243
13	0xbdc2600c	-0.09490976
14	0x3e3faac3	0.18717484
15	0xbe9d2407	-0.3069155
16	0xbd51f3d8	-0.05125794
17	0xbc3747c0	-0.01118654
18	0x3de6c630	0.1126827
19	0xbe0b1de8	-0.13585627
20	0xbe591dce	-0.21202776
21	0xbbd75880	-0.0065718293
22	0xbd54d10d	-0.05195718
23	0x3d363a47	0.04448917
24	0xbe4c4f97	-0.19952236
25	0x3e9ce731	0.30645135
26	0xbdb10edc	-0.08645412
27	0xbddcb061	-0.10775829
28	0xbdabf2f1	-0.08395947
29	0xbe27f3a2	-0.16401532
30	0xbe8aa802	-0.27081305
31	0xbe5f437c	-0.21803087

l7.weight f4 [16, 32]
0	0x3e90d9ce	0.28291172
1	0x3d6b9fe0	0.057525516
2	0x3ebe2714	0.3713919
3	0xbd93bf10	-0.07214177
4	0xbe5053df	-0.20344494
5	0x3e22b727	0.1589018
6	0x3d70b5a4	0.058766976
7	0x3d33fcd8	0.043942302
8	0x3ec36701	0.38164523
9	0xbe542a52	-0.20719269
10	0xbf2d3a77	-0.67667335
11	0xbdeb88f9	-0.11500735
12	0xbf19282a	-0.5982691
13	0xbdded66d	-0.10880742
14	0x3ed8f82e	0.42376846
15	0xbe9903ff	-0.2988586
16	0xbcc4e630	-0.024035543
17	0xbdfb2602	-0.12263109
18	0x3b484c80	0.0030563176
19	0xbd6fbb28	-0.058528095
20	0x3e331d79	0.17491712
21	0xbd86a7eb	-0.065749966
22	0xbee82f4c	-0.45348585
23	0x3e1c8c1d	0.15287824
24	0xbe11eaaf	-0.14249681
25	0x3f0ac0a7	0.54200214
26	0x3dbe6eee	0.09298502
27	0x3e4aa94b	0.19791143
28	0xbe004540	-0.12526417
29	0xbd8d35ef	-0.06895053
30	0xbd84ffb9	-0.06494088
31	0xbdc6fce9	-0.097162075
32	0xbca941a6	-0.020661186
33	0x3cca4400	0.024690628
34	0xbd6eaf06	-0.058272384
35	0xbd845ab0	-0.0646261
36	0x3d82432a	0.06360467
37	0x3e222015	0.15832551
38	0xbbab5b20	-0.005229369
39	0xbddaabc4	-0.10677293
40	0xbe25be75	-0.16185935
41	0xbcbb3755	-0.022853533
42	0xbe264bd8	-0.1623987
43	0xbe329b6f	-0.17442106
44	0xbdb3ae36	-0.087734625
45	0xbd5c0332	-0.053713985
46	0x3db60c00	0.088890076
47	0xbdd96f0c	-0.10616884
48	0xbdad667f	-0.08466815
49	0xbdf0477c	-0.117323846
50	0x3d0d5144	0.03450133
51	0xbd4b74f4	-0.049672082
52	0x3ded45f9	0.11585612
53	0x3d680538	0.056645602
54	0x3e073e38	0.13207328
55	0x3ce9da58	0.028546497
56	0xbd9cbf77	-0.076537065
57	0xbe234c2d	-0.15947028
58	0x3e1b14db	0.15144674
59	0xbd1c9641	-0.03822923
60	0xbd383733	-0.044974517
61	0xbb161900	-0.0022903085
62	0xbdd50d8b	-0.10402974
63	0xbce8ee88	-0.028434053
64	0x3eb7de1d	0.35911646
65	0x3dcc7862	0.09983899
66	0x3e90a1c7	0.28248426
67	0xbd3d3d80	-0.04620123
68	0xbcec840c	-0.028871559
69	0xbdbe605a	-0.09295721
70	0x3e2ca63f	0.16860293
71	0x3df2d872	0.1185769
72	0x3e6169ac	0.22012967
73	0x3db94405	0.09046177
74	0xbef1004a	-0.47070533
75	0x3daac84f	0.08338987
76	0xbf274e0a	-0.65353453
77	0xbdf24fbc	-0.118316144
78	0x3db09c03	0.08623507
79	0xbea55838	-0.32293868
80	0x3d833976	0.06407444
81	0xbe1f754e	-0.15572092
82	0xbe2c58d4	-0.1683076
83	0x3d6e1240	0.058122873
84	0xbcda53e2	-0.026651327
85	0x3d75b060	0.059982657
86	0xbe2eea33	-0.17081527
87	0xbdb03977	-0.086047105
88	0xbe3e03a4	-0.18556076
89	0x3ede7613	0.43449458
90	0xbe1f22ad	-0.15540572
91	0x3dcfd03f	0.10147142
92	0xbd216a57	-0.039408054
93	0x3dbbf92b	0.091783844
94	0xbd7d6dfc	-0.061872467
95	0x3a094400	0.0005236268
96	0x3e30043b	0.17189114
97	0xba91b480	-0.0011116415
98	0x3e9d3bf6	0.3070981
99	0x3d4a2244	0.049349084
100	0x3e85021f	0.2597818
101	0xbd3f6ae4	-0.0467328
102	0xbd7a1cc8	-0.061062604
103	0x3d8e8db6	0.06960623
104	0x3e67b56c	0.226278
105	0x3e8519de	0.25996298
106	0x3f2bfc1b	0.6718156
107	0xbd06a0e0	-0.032868266
108	0x3e90cc94	0.2828108
109	0x3d7a50f8	0.061112374
110	0x3b8c066d	0.004273227
111	0x3eccd04f	0.40002677
112	0xbd0c31fc	-0.034227356
113	0x3ee27f1c	0.44237602
114	0x3cfc30c8	0.03078498
115	0x3e8e7cec	0.27829683
116	0x3e77c21d	0.24195142
117	0x3bcf9c40	0.006335765
118	0x3f83bb62	1.029156
119	0xbcb70837	-0.022342784
120	0x3eabe413	0.33572444
121	0xbe966b28	-0.2937863
122	0x3dfba78a	0.12287815
123	0x3df3e740	0.11909342
124	0x3e7c9256	0.24665198
125	0x3e10588a	0.14096275
126	0xbd4eb58d	-0.05046611
127	0xbca99c20	-0.020704329
128	0x3e01725f	0.12641285
129	0xbcb3b430	-0.021936506
130	0x3d30a5a0	0.043126702
131	0xbdd4a25c	-0.1038253
132	0xbb1d3e40	-0.0023993403
133	0xbe227cd1	-0.15867926
134	0xbe0ed43e	-0.13948151
135	0x3d434480	0.04767275
136	0xbe2592c4	-0.16169268
137	0x3d70a824	0.0587541
138	0x3e2029e3	0.15640979
139	0x3cf6afc8	0.030113116
140	0xbe02194c	-0.12704962
141	0x3d704fec	0.05866997
142	0x3c0ee560	0.008721679
143	0xbd867313	-0.065649174
144	0x3e11f771	0.14254548
145	0xbe0ea7da	-0.13931218
146	0xbdfc9580	-0.12333202
147	0x3cd5c4f0	0.026094884
148	0xbc5695d0	-0.0130972415
149	0x3c7c1750	0.0153864175
150	0x3da5b60e	0.08091365
151	0xbd7993c8	-0.06093195
152	0x3dc86662	0.09785153
153	0x39c80800	0.00038152933
154	0x3d919712	0.071088925
155	0x3dbfa7ba	0.09358163
156	0xbd791dfc	-0.06081961
157	0xbd655664	-0.05599059
158	0x3dba9eda	0.0911233
159	0x3e1274cb	0.14302365
160	0xbc6ddc3b	-0.014517839
161	0xbe0e0e67	-0.13872682
162	0xbe1aaf23	-0.15105872
163	0x3e1852cb	0.14875333
164	0xbdbed72e	-0.09318386
165	0xbdc010a6	-0.093781754
166	0xbce1a0e8	-0.027542546
167	0x3e2c4cf1	0.16826226
168	0x3d0b258e	0.03397136
169	0x3deb795d	0.114977576
170	0xbe59a342	-0.21253684
171	0x3e049dc3	0.12950806
172	0xbc376b50	-0.011195019
173	0xbdb8f0d5	-0.0903031
174	0xbe1d2ae2	-0.1534839
175	0x3c93f76f	0.018062321
176	0xbd9debcd	-0.07710991
177	0xbdfda850	-0.12385619
178	0x3a6a9500	0.00089485943
179	0xbd5b9c56	-0.05361589
180	0xbdb83d98	-0.08996123
181	0xbe1a8d16	-0.15092883
182	0x3dd444ee	0.1036471
183	0xbc8c1bc1	-0.017103078
184	0x3d554a21	0.052072648
185	0x3dd4924f	0.10379469
186	0x3d4239e4	0.04741849
187	0xbd8938a7	-0.06700259
188	0xbdf736dc	-0.120710105
189	0x3e0fe1ff	0.14051054
190	0x3df1e422	0.11811091
191	0x3d7f0578	0.062261075
192	0xbe0fb576	-0.14034066
193	0x3ca3e5d0	0.020007044
194	0x3db9262e	0.09040485
195	0x3dfc6526	0.1232398
196	0x3d88b5f5	0.066753305
197	0xbd923137	-0.07138293
198	0x3dfe6cd6	0.124231026
199	0xbdbfcdd3	-0.0936543
200	0xbe4ffbe0	-0.20310926
201	0x3d9f5555	0.07779948
202	0x3db903b1	0.09033907
203	0xbe0231da	-0.1271433
204	0x3db2369c	0.08701822
205	0x3cb42300	0.021989346
206	0xbd279b22	-0.04091943
207	0xbcab800f	-0.020935087
208	0xbdfc5c0a	-0.123222426
209	0x3dd14aaf	0.10219323
210	0x3d926ed0	0.07150042
211	0x3b73bedf	0.0037192625
212	0x3c52555d	0.012837735
213	0x3ddb2fce	0.107024774
214	0x3e19239e	0.14954993
215	0x3cc699ff	0.024243353
216	0xbe163d70	-0.14671874
217	0xbdf65b5d	-0.12029145
218	0x3bd591e0	0.006517634
219	0xbe0528e7	-0.13003884
220	0xbdd74939	-0.10512013
221	0x3de53eaa	0.11193593
222	0xbd48bf7c	-0.04901074
223	0xbd884755	-0.066542305
224	0x3e8e4e2d	0.27794018
225	0x3d05ba98	0.032648653
226	0x3ea47c8b	0.3212627
227	0x3e14755b	0.14497893
228	0x3ec2a652	0.38017517
229	0x3d249d00	0.04018879
230	0x3e1f7d65	0.15575178
231	0xbdeb7b54	-0.11498132
232	0x3da4b598	0.08042449
233	0x3e61009c	0.21972889
234	0x3f228e76	0.6349863
235	0xbd3a7a91	-0.045527045
236	0x3f097239	0.53689915
237	0xbe024156	-0.12720236
238	0x3db6315d	0.08896134
239	0x3e79b98a	0.24387184
240	0xbe0f5378	-0.13996685
241	0x3e44252a	0.19154802
242	0x3df85e02	0.121273056
243	0x3e36831e	0.17823455
244	0x3ea27d3a	0.31736165
245	0x3e004693	0.12526922
246	0x3f2a2984	0.664696
247	0x3e5ea247	0.21741591
248	0x3e4086b2	0.18801382
249	0xbdc9d49f	-0.098550074
250	0x3cac1608	0.021006599
251	0x3dc7dfc1	0.097594745
252	0x3eb1c99b	0.34724125
253	0xbd3fe7a6	-0.046851777
254	0xbda6a538	-0.08136982
255	0x3d72c124	0.059266225

l7.bias f4 [16]
0	0x3d823a2e	0.06358753
1	0x3c8cbfe2	0.01718134
2	0x3e2595f6	0.16170487
3	0xbc2ac57a	-0.010423059
4	0xbe2cd386	-0.16877565
5	0x3dde6ef5	0.10861007
6	0x3d197ff7	0.037475552
7	0x3c6a06c3	0.014283839
8	0x3dda57fb	0.10661312
9	0x3de0ca56	0.109760925
10	0xbdd0ab42	-0.10188915
11	0x3dd79c05	0.10527805
12	0x3d931ed4	0.071836144
13	0xbe4454df	-0.19173001
14	0x3d289fad	0.041167904
15	0x3e13b664	0.14425045

l8.weight f4 [1, 16]
0	0x3f5cad08	0.86201525
1	0x3e200d99	0.15630187
2	0x3ed94dc6	0.4244215
3	0xbe693830	-0.2277534
4	0x3e6fbf4c	0.23412818
5	0x3e628638	0.22121513
6	0xbd08544d	-0.03328352
7	0xbeba72b4	-0.36415637
8	0x3e403dd8	0.18773592
9	0xbe92b297	-0.28651878
10	0x3e31a053	0.17346315
11	0xbe8c74d5	-0.27432886
12	0xbe7a74fd	-0.2445869
13	0x3e616c6e	0.22014019
14	0xbed774d5	-0.42081323
15	0x3dc11f7f	0.094298355
