project/models/model_w1_0.1_lam_0.1_lam2_0.1_w2_0.1.pt_actor.pt (torch, 8136 bytes, 7 tensors)

l1.weight f4 [16, 1]
0.7741065 0.551806 -0.29465 0.40154994 -0.06967437 0.0773077 0.63757116 0.115356565
0.8792619 -0.22472852 -0.99687773 -0.50457704 -0.98781586 0.550077 0.71866 0.6317813
00000000: d82b 463f 2843 0d3f 5ddc 96be f497 cd3e
00000010: 70b1 8ebd 8053 9e3d dd37 233f 1040 ec3d
00000020: 4f17 613f 3c1f 66be 6133 7fbf f62b 01bf
00000030: 80e1 7cbf d9d1 0c3f 1afa 373f 6bbc 213f

l1.bias f4 [16]
0.82640237 0.17003599 0.8376643 -0.6829916 -0.5710634 -0.99886274 0.22497846 -0.5145457
-0.27601343 0.7508924 0.8621548 0.37206393 0.2046475 0.8855536 0.51482964 0.25587687
00000000: 1b8f 533f ea1d 2e3e 2b71 563f 8ad8 2ebf
00000010: 3631 12bf 78b5 7fbf c160 663e 44b9 03bf
00000020: a251 8dbe 7c3a 403f 2db6 5c3f 2a7f be3e
00000030: 1d8f 513e a4b3 623f e0cb 033f 4b02 833e

l2.weight f4 [32, 16]
0.08432951 0.029825542 0.32837218 -0.16492909 0.15624681 -0.10628867 0.04225594 0.07651302
0.5780715 -0.027296793 0.19733211 0.14635022 0.17347732 0.14203724 0.3712192 -0.09112325
0.08632084 0.2583467 -0.12546939 0.11832571 -0.07403603 -0.13627797 0.051637374 -0.18838894
0.10988139 0.004807685 -0.14953724 0.04465639 -0.19085468 0.19038804 0.34583798 0.4041959
0.004061589 -0.3817963 0.21302654 0.08638412 0.08989018 -0.21855366 -0.2503529 -0.23429099
0.0823147 0.12874025 0.3934291 0.2981468 0.49345228 -0.07704624 0.15139443 -0.18795653
0.28963503 0.3427022 0.22387803 -0.08095506 -0.044481575 0.21480834 0.12100417 0.041927665
0.18075489 0.3133447 0.25749773 -0.0070583983 0.08101036 0.27991274 -0.010983335 0.27224177
0.14213835 0.4224025 0.29132178 -0.0034656823 0.13547924 0.15522927 -0.06379599 0.1159012
0.21018663 0.1695489 -0.22626553 0.08900844 -0.54310787 0.31255224 -0.037959848 0.35292357
0.2326477 0.30745345 -0.20108877 -0.24579006 0.0039303303 0.102157116 0.32273304 -0.14206612
0.31613648 -0.16348465 0.08865324 -0.06143548 -0.4207402 0.28254274 0.09383774 0.35398653
0.004557886 0.33149594 0.20446442 -0.0156748 -0.072036505 0.076063275 0.34488088 -0.13672963
0.25603965 0.17509542 0.22740155 0.20804016 0.050901506 0.01834107 0.21095693 0.10616967
-0.049899723 0.33717808 0.23422934 0.0052033663 0.111898035 -0.019409418 0.3361292 -0.23405126
0.5129172 0.22772227 -0.11241275 -0.25534344 -0.22500902 -0.096728854 0.11962923 0.056478042
0.14528075 0.23434961 0.060477138 -0.10769707 -0.101719916 0.121144235 0.03248778 0.004497826
-0.22624719 -0.15843573 -0.1790669 0.24353585 -0.027341247 -0.2235927 -0.18326649 -0.010277778
-0.21210107 -0.22880575 0.019684345 0.12588945 0.10514754 -0.18386701 -0.024487525 0.08239856
0.16504219 -0.20061404 -0.18558797 0.11785215 -0.24941334 -0.10593608 -0.0825637 0.030489832
-0.16588148 -0.13366693 -0.00037249923 0.09405309 -0.21821782 -0.21331072 -0.23104432 -0.0863761
-0.17296529 -0.22048208 -0.010026932 0.2171188 -0.13834673 0.15296674 -0.06159222 0.12939808
-0.04099532 -0.1821114 0.121955894 -0.19084483 0.22785977 0.056442857 0.11425693 -0.04576859
-0.106497124 0.026168505 -0.028337004 0.06309952 0.03658673 -0.20768008 0.0449347 0.2375526
0.15239078 -0.45042855 0.19869533 -0.15560514 -0.1798712 0.077884436 -0.044374123 0.11604822
-0.34482986 0.10385216 0.0998522 0.1998678 0.26909682 -0.17061779 0.12738219 -0.29258314
0.18379897 0.46990505 -0.15228523 0.19783321 0.057285845 0.011482656 0.41514844 -0.19221365
0.4241867 -0.024794467 -0.16382521 -0.15384796 -0.21451655 0.18884255 0.37223414 0.37628543
-0.23871285 0.17092586 0.061896622 0.04595858 -0.104124725 0.15464732 -0.16270947 -0.10816929
0.15634432 0.24158758 -0.087225586 0.16210443 -0.1250847 -0.23838148 0.103206605 0.08371794
0.06751204 0.40619737 0.10488394 0.18986154 -0.18114284 0.08659044 0.104025386 0.09067652
0.22092234 0.02904336 0.08402105 -0.32018262 -0.3055129 0.1376271 0.13043106 0.22443923
00000000: f3b4 ac3d b254 f43c 6620 a83e 2ce3 28be
00000010: 2aff 1f3e e0ad d9bd 9114 2d3d dcb2 9c3d
00000020: 7efc 133f 869d dfbc 6e11 4a3e d5dc 153e
00000030: 0aa4 313e 3672 113e 7110 be3e d49e babd
00000040: fbc8 b03d 0546 843e 0c7b 00be c054 f23d
00000050: 34a0 97bd 748c 0bbe b681 533d 08e9 40be
00000060: 7f09 e13d c989 9d3b 4a20 19be 9ee9 363d
00000070: 696f 43be 15f5 423e ad11 b13e c4f2 ce3e
00000080: 1417 853b ce7a c3be a123 5a3e 28ea b03d
00000090: 5818 b83d 88cc 5fbe 412e 80be fae9 6fbe
000000a0: 9c94 a83d 7cd4 033e 8a6f c93e b3a6 983e
000000b0: c7a5 fc3e 6bca 9dbd 2407 1b3e ad77 40be
000000c0: 0b4b 943e aa76 af3e 4840 653e c4cb a5bd
000000d0: 5032 36bd b8f6 5b3e 09d1 f73d 58bc 2b3d
000000e0: cf17 393e b76e a03e bed6 833e 234a e7bb
000000f0: c2e8 a53d b950 8f3e 72f3 33bc 4663 8b3e
00000100: b78c 113e 2445 d83e 2128 953e 8020 63bb
00000110: 12bb 0a3e 6cf4 1e3e 79a7 82bd 9c5d ed3d
00000120: 2a3b 573e 3a9e 2d3e 27b2 67be 0f4a b63d
00000130: 1e09 0bbf d906 a03e c97b 1bbd 66b2 b43e
00000140: 333b 6e3e 8a6a 9d3e 37ea 4dbe 64b0 7bbe
00000150: 00ca 803b c037 d13d 443d a53e c879 11be
00000160: a4dc a13e 8568 27be d48f b53d c5a3 7bbd
00000170: 426b d7be 71a9 903e 002e c03d b93d b53e
00000180: 525a 953b d6b9 a93e 1f5f 513e 7068 80bc
00000190: e087 93bd 10c7 9b3d 3a94 b03e da02 0cbe
000001a0: a117 833e 374c 333e f4db 683e 7b08 553e
000001b0: 197e 503d 0340 963c 1805 583e 7c6f d93d
000001c0: a763 4cbd 9ba2 ac3e d1d9 6f3e 0081 aa3b
000001d0: cc2a e53d 8000 9fbc 2019 ac3e 22ab 6fbe
000001e0: 8b4e 033f 0730 693e a838 e6bd 60bc 82be
000001f0: c468 66be c719 c6bd 2b00 f53d 8555 673d
00000200: 7ac4 143e 58f9 6f3e e0b6 773d 4890 dcbd
00000210: 8852 d0bd 781a f83d e811 053d 8062 933b
00000220: 58ad 67be fa3c 22be 505d 37be 7661 793e
00000230: c0fa dfbc 7cf5 64be 36aa 3bbe 2064 28bc
00000240: 0631 59be 0e4c 6abe 1041 a13c 2ae9 003e
00000250: 9857 d73d a247 3cbe 109a c8bc 94c0 a83d
00000260: d200 293e c46d 4dbe c60a 3ebe 785c f13d
00000270: 3666 7fbe 04f5 d8bd 2817 a9bd d0c5 f93c
00000280: d6dc 29be fcdf 08be 004c c3b9 e89e c03d
00000290: 7e74 5fbe 206e 5abe e296 6cbe f4e5 b0bd
000002a0: d01d 31be 0ec6 61be 0048 24bc 6454 5e3e
000002b0: c4aa 0dbe 50a3 1c3e 2048 7cbd ee80 043e
000002c0: b5ea 27bd 697b 3abe 03c4 f93d d46c 43be
000002d0: 1254 693e a030 673d 8aff e93d d877 3bbd
000002e0: 2a1b dabd 555f d63c 0123 e8bc 523a 813d
000002f0: f8db 153d 16aa 54be 730d 383d fd40 733e
00000300: 540c 1c3e 929e e6be ca76 4b3e f456 1fbe
00000310: 2830 38be e081 9f3d a4c1 35bd b0aa ed3d
00000320: 8a8d b0be 71b0 d43d 4f7f cc3d 25aa 4c3e
00000330: 0fc7 893e 6eb6 2ebe 7a70 023e 75cd 95be
00000340: cc35 3c3e 6597 f03e a9f0 1bbe ca94 4a3e
00000350: 90a4 6a3d c021 3c3c 568e d43e a8d3 44be
00000360: 002f d93e c41d cbbc ccc1 27be 528a 1dbe
00000370: 3aaa 5bbe f15f 413e 7995 be3e 7ca8 c03e
00000380: 2471 74be 3007 2f3e 5087 7d3d 103f 3c3d
00000390: 583f d5bd de5b 1e3e 509d 26be dc87 ddbd
000003a0: ba18 203e bc62 773e 54a3 b2bd b4fe 253e
000003b0: 3416 00be 461a 74be fc5d d33d 5074 ab3d
000003c0: c143 8a3d 1af9 cf3e 64cd d63d 106b 423e
000003d0: 827d 39be 5456 b13d 430b d53d 9cb4 b93d
000003e0: 7739 623e 57ec ed3c 3a13 ac3d faee a3be
000003f0: 306c 9cbe 1eee 0c3e b88f 053e 66d3 653e

l2.bias f4 [32]
0.18208165 0.117419854 -0.017679553 0.34180036 -0.16422267 0.12754226 0.20504092 0.05655742
0.19213492 -0.1994035 -0.048074245 -0.027421983 -0.036434572 0.22796245 -0.16137478 0.3197531
-0.2170434 -0.22396848 0.26161668 0.21677718 0.11074134 0.2649454 0.2907523 0.22942749
-0.06633663 0.11180323 0.1771115 -0.101405084 0.19017601 0.041705035 0.094350874 -0.21773323
00000000: 9d73 3a3e d279 f03d b6d4 90bc 7500 af3e
00000010: fd29 28be 709a 023e 3ff6 513e c1a8 673d
00000020: 04bf 443e 6e30 4cbe 80e9 44bd 11a4 e0bc
00000030: 6b3c 15bd fd6e 693e 6e3f 25be aeb6 a33e
00000040: a040 5ebe fe57 65be 9ff2 853e d6fa 5d3e
00000050: 5bcc e23d eca6 873e 7cdd 943e 0aef 6a3e
00000060: 80db 87bd 18f9 e43d b85c 353e 78ad cfbd
00000070: 80bd 423e e6d2 2a3d 083b c13d 76f5 5ebe

l3.weight f4 [16, 32]
0.1690389 -0.10937552 0.23110367 0.10289454 -0.002097592 -0.16463903 -0.13086686 -0.28270972
-0.13791868 0.025982559 0.09893294 0.006134562 0.036390014 -0.009652185 -0.021554276 -0.14006728
-0.013644204 0.055190727 0.008394231 0.110206775 0.12860008 -0.06670844 -0.023672344 0.12107315
0.0026067793 0.26814884 0.034702897 -0.16029614 0.083229914 0.0030090197 0.044185445 -0.14427096
0.11426894 -0.08316256 0.044006154 -0.12770464 -0.018818066 -0.033685595 -0.04800737 0.09708081
-0.09986148 0.028503701 0.03707236 -0.077319555 -0.13612616 -0.054536417 0.011612296 -0.044970587
-0.0046886057 0.021887168 0.095843896 -0.116200656 -0.12667978 0.059830606 0.05257173 -0.041457072
0.045601398 0.017321914 0.010389656 0.025589392 0.10900544 -0.0693657 -0.15933329 -0.020427778
0.09421695 -0.08682567 -0.21352221 -0.21287344 -0.114729494 -0.02498758 -0.038518336 -0.08805585
0.022337288 -0.060041554 0.15044038 -0.09486526 0.099796504 -0.06321519 -0.087272845 0.061634243
-0.094238706 -0.16092417 -0.16720267 -0.042808436 0.13709953 -0.16941962 0.10516316 0.08261991
0.102435485 0.1123639 0.045655847 0.11166416 0.029578209 0.03441043 -0.08206889 -0.1263785
-0.06649687 -0.11324026 0.14276324 -0.1421441 0.05284244 -0.12763241 -0.07002345 0.034313723
0.118075475 0.03102693 -0.024540067 -0.00998126 -0.11193787 -0.021073237 0.11810531 -0.025268957
0.00052818656 0.17430444 -0.014740884 0.17141555 0.06707692 -0.14120838 -0.11162122 0.06379497
-0.09389905 -0.087614365 -0.08574365 -0.08323206 -0.007931888 0.10784201 -0.13178444 0.027568042
0.08632186 0.056452487 0.15494598 -0.15031199 -0.023222744 -0.17077453 0.07857673 -0.09458571
0.030971885 -0.038209215 0.14073409 -0.16544554 -0.122374736 0.08706395 -0.07060312 -0.1667313
-0.0024684519 -0.11284763 0.015940085 0.021810375 -0.120933026 0.09323706 -0.14562964 -0.0073473025
0.15276729 -0.016478295 -0.12779717 0.13392065 -0.14093624 -0.042984594 -0.084123865 -0.050871387
0.13986564 -0.11645016 0.11486956 0.03811992 -0.22623491 -0.25150675 0.024934074 -0.18191531
-0.103818476 -0.119788334 0.12935017 0.17095678 -0.027002523 -0.057568703 -0.01981619 -0.009671979
-0.14054596 0.092619315 -0.08471821 0.44332817 0.18674134 -0.21302834 0.19969611 0.06444647
0.05971913 0.3018952 0.016442925 -0.007606879 0.16607885 0.09781402 -0.10055696 -0.103119895
0.01651789 -0.10683238 0.30701512 0.056701753 -0.093701035 0.01497625 0.022361228 -0.24089973
-0.15618291 0.006752029 0.031660378 -0.12849982 0.10150238 -0.22285227 -0.07861881 0.1497199
0.06552757 -0.09046365 -0.073983856 0.23345414 0.22219434 -0.2344911 0.23174497 0.19843127
-0.004085228 0.10345725 0.07149929 0.1399446 -0.102781914 0.26654992 0.09044175 -0.059842773
-0.010725351 -0.12935698 -0.028466692 -0.0018418975 0.1494311 0.0018518417 0.11842219 -0.13907851
-0.034922674 0.027767643 -0.0025235564 0.08149449 0.05842968 0.07069387 0.16509943 -0.19084552
-0.052608326 0.07979016 -0.0043756147 -0.043066278 0.051938575 0.04834692 0.1814387 0.15234731
-0.014093205 -0.08341385 0.043356046 0.060018256 -0.03650868 -0.103311434 0.08621697 -0.04474707
00000000: 8918 2d3e 4600 e0bd 71a6 6c3e 5fba d23d
00000010: c177 09bb 2297 28be f601 06be 54bf 90be
00000020: 8e3a 0dbe 60d9 d43c 5a9d ca3d 7004 c93b
00000030: b20d 153d 3324 1ebc 9892 b0bc cc6d 0fbe
00000040: f08b 5fbc ac0f 623d f587 093c 17b4 e13d
00000050: bdaf 033e 6f9e 88bd 81ec c1bc 33f5 f73d
00000060: 80d6 2a3b ce4a 893e a024 0e3d ac24 24be
00000070: 7274 aa3d f932 453b ccfb 343d c4bb 13be
00000080: d605 ea3d 2251 aabd cc3f 343d 01c5 02be
00000090: 5828 9abc e8f9 09bd 60a3 44bd 4ed2 c63d
000000a0: 2d84 ccbd 9880 e93c 30d9 173d b759 9ebd
000000b0: a864 0bbe 9461 5fbd 8041 3e3c 1433 38bd
000000c0: e0a2 99bb b84c b33c ce49 c43d 9cfa edbd
000000d0: 58b8 01be f010 753d 7455 573d e4ce 29bd
000000e0: 88c8 3a3d b0e6 8d3c 6039 2a3c d8a0 d13c
000000f0: 3e3e df3d 9b0f 8ebd 4428 23be 2858 a7bc
00000100: d1f4 c03d a8d1 b1bd 91a5 5abe 7ffb 59be
00000110: 4cf7 eabd c1b2 ccbc 67c5 1dbd a056 b4bd
00000120: b0fc b63c 22ee 75bd 0b0d 1a3e b848 c2bd
00000130: 1c62 cc3d f776 81bd 1bbc b2bd 3074 7c3d
00000140: 3900 c1bd 4ec9 24be 2d37 2bbe e657 2fbd
00000150: d263 0c3e 567c 2dbe c85f d73d a134 a93d
00000160: b2c9 d13d 0b1f e63d a001 3b3d 2eb0 e43d
00000170: 004e f23c f3f1 0c3d bc13 a8bd 5e69 01be
00000180: 832f 88bd 82ea e7bd 8730 123e 398e 11be
00000190: 5071 583d 12b2 02be 7468 8fbd 8c8c 0c3d
000001a0: 8ed1 f13d 302c fe3c 4008 c9bc 7088 23bc
000001b0: af3f e5bd c8a1 acbc 32e1 f13d d800 cfbc
000001c0: 0076 0a3a dd7c 323e c083 71bc 8f87 2f3e
000001d0: a05f 893d ee98 10be ab99 e4bd f0a6 823d
000001e0: 254e c0bd 296f b3bd 5e9a afbd 9275 aabd
000001f0: c0f4 01bc 46dc dc3d 80f2 06be 60d6 e13c
00000200: 84c9 b03d b93a 673d 29aa 1e3e 63eb 19be
00000210: a03d bebc 85df 2ebe d6ec a03d 27b6 c1bd
00000220: c0b8 fd3c 4481 1cbd 991c 103e 8e6a 29be
00000230: 9b9f fabd 964e b23d 5e98 90bd 9cbb 2abe
00000240: c0c5 21bb a91c e7bd c894 823c acab b23c
00000250: bcab f7bd 12f3 be3d f01f 15be a4c1 f0bb
00000260: 076f 1c3e 7dfd 86bc 43dd 02be 7f22 093e
00000270: 9751 10be 9d10 30bd 2249 acbd 845e 50bd
00000280: f038 0f3e 6c7d eebd bb40 eb3d a223 1c3d
00000290: 20aa 67be 7ec5 80be 8b42 cc3c 0248 3abe
000002a0: c89e d4bd 9653 f5bd 5f74 043e 4b0f 2f3e
000002b0: 6534 ddbc 29cd 6bbd 9055 a2bc 3877 1ebc
000002c0: 48eb 0fbe 32af bd3d be80 adbd e9fb e23e
000002d0: 1f39 3f3e 1a24 5abe 237d 4c3e 83fc 833d
000002e0: 0c9c 743d 0292 9a3e 50b3 863c 2043 f9bb
000002f0: 9310 2a3e b852 c83d cff0 cdbd 8630 d3bd
00000300: 8750 873c efca dabd 1631 9d3e 1940 683d
00000310: 54e6 bfbd f25e 753c e52e b73c 6bae 76be
00000320: 6aee 1fbe 2040 dd3b 50ae 013d 7595 03be
00000330: 7be0 cf3d 6333 64be e602 a1bd 2c50 193e
00000340: 5233 863d 0245 b9bd d984 97bd 9a0e 6f3e
00000350: ea86 633e 6f1e 70be 8e4e 6d3e 9131 4b3e
00000360: 60dd 85bb 65e1 d33d 386e 923d a34d 0f3e
00000370: 537f d2bd 3b79 883e 8639 b93d b21d 75bd
00000380: 62b9 2fbc 2876 04be fb32 e9bc d36b f1ba
00000390: 7704 193e 7fb9 f23a 5587 f23d 996a 0ebe
000003a0: 140b 0fbd f878 e33c 4062 25bb 95e6 a63d
000003b0: f653 6f3d f3c7 903d d30f 293e 026d 43be
000003c0: d47b 57bd 0669 a33d 5161 8fbb 4466 30bd
000003d0: 8bbd 543d 6c07 463d 11cb 393e ef00 1c3e
000003e0: 30e7 66bc e1d4 aabd 1c96 313d b4d5 753d
000003f0: 208a 15bd f294 d3bd 8692 b03d b448 37bd

l3.bias f4 [16]
0.081085235 -0.13487715 0.08168124 -0.145975 0.14089122 0.22977541 -0.0015478478 -0.15217507
0.09159964 -0.08448083 0.20115 0.124332726 0.19150218 0.20647196 0.17036779 0.14660235
00000000: 0410 a63d 3c1d 0abe 7e48 a73d 787a 15be
00000010: ca45 103e 3f4a 6b3e 27e1 caba c8d3 1bbe
00000020: 9898 bb3d 4904 adbd 44fa 4d3e 28a2 fe3d
00000030: 2619 443e 636d 533e e574 2e3e ed1e 163e

l4.weight f4 [1, 16]
0.29588208 -0.087353945 -0.028948586 -0.20133716 -0.037876654 0.39880928 0.31755418 0.20558111
-0.21665528 -0.051324964 0.15489137 -0.45363137 0.24135272 -0.11453092 0.078086525 -0.22261506
00000000: db7d 973e a0e6 b2bd 9625 edbc 542b 4ebe
00000010: 8d24 1bbd bb30 cc3e 7696 a23e db83 523e
00000020: e2da 5dbe 203a 52bd d89b 1e3e 5f42 e8be
00000030: 2b25 773e 308f eabd d4eb 9f3d 34f5 63be
