project/models/model_w1_0.575_lam_0.1_lam2_1.05_w2_0.01.pt_critic.pt (torch, 15298 bytes, 14 tensors)

l1.weight f4 [16, 2]
00000000: 248a 123f bf76 043f c3f4 1fbe 56a7 4bbf
00000010: c0a9 f13d 6874 b33d b836 f6be 8a31 96bc
00000020: 9ca8 f5be 9cdc 76be acb1 a53e 6724 24be
00000030: 6be8 143f 57be 7ebe 5106 ec3e 99c5 143d
00000040: 0a27 bd3e cc2e 1ebd bbc5 4d3e d946 21bf
00000050: 2e63 b5bd fb59 b83e 174e f53e ef7e 9ebd
00000060: 5473 063e f8b4 f73d 5110 b9be b422 9bbe
00000070: b13f 27bf 849c 3bbe ac8f 4a3f ab70 8b3e
0.57242036 0.5174369 -0.15620713 -0.7955221 0.11799955 0.08762437 -0.48088622 -0.018334169
-0.479802 -0.24107593 0.32362115 -0.16029511 0.5816714 -0.24877296 0.4609857 0.036321256
0.36943847 -0.038618848 0.2009496 -0.6299873 -0.08856808 0.3600615 0.4791114 -0.077390544
0.13129932 0.12095064 -0.3614526 -0.30299914 -0.6533156 -0.18321425 0.79125476 0.27234396

l1.bias f4 [16]
00000000: 2774 87bd d8c6 8dbe 91dc 84be e677 f63e
00000010: c713 cebe 6c44 ca3e 2b08 68bd bbfd 6abd
00000020: 8d3c d1be 5d7d 453f 7dda 363f bd94 e03e
00000030: 2187 cbbe 7513 be3e 9ee2 283f eacb c33e
-0.06613951 -0.27690768 -0.2594953 0.4813835 -0.40249464 0.39505327 -0.056648415 -0.057370882
-0.4086651 0.77144414 0.71427137 0.43863478 -0.39751533 0.3712422 0.6597079 0.38241512

l2.weight f4 [32, 16]
00000000: 0000 303e 40f5 1b3d acf1 8f3d 9c1a dabd
00000010: 6806 59bd c0e9 29be b0d5 453d 001a 23be
00000020: c201 293e d879 6cbe cc72 363e 083c e4bd
00000030: 5ad2 3f3e 7c6d 57be c865 7b3e dc71 edbd
00000040: a476 ba3d 7086 12be 3ed0 06be 9886 c4bd
00000050: a0f6 0a3c 7010 e6bd f409 92bd 906b aabd
00000060: c2e2 033e 0453 2fbe 6ea1 78be 40c5 c63c
00000070: a088 103c 9050 723d 08a7 10be e419 c9bd
00000080: 80e2 f0bb 0083 f4bc 5897 a73d 9003 e13c
00000090: 920f 06be 767f 71be a83c 1abd f00a 1d3d
000000a0: bcef 283e 084e 2ebd c649 00be 6cb4 3abe
000000b0: 1878 4bbd f4e9 febd 18c0 28be 2c23 a63d
000000c0: 8548 863e 62da acbe 9a2b 493e 22a2 efbe
000000d0: b0a8 a3bd fd9b b13e 3c40 d939 e934 af3e
000000e0: a986 5abe 661f 6c3e e0c8 5e3d 693b 263e
000000f0: 3455 40be b3e8 52be f3ba f5bd d4ac 773e
00000100: 4da7 cc3e 31f3 873d be4a 623e aa5d e9be
00000110: 1063 433d 9d11 653e 1c7f 813d 90e7 d63e
00000120: 9b55 5ebe aeb4 7d3e 1d3d 143e 243a 453e
00000130: c80b 79bd 56fa a7be 7a68 8cbe 8010 943e
00000140: f990 cd3e 0ec5 26be 38d0 0abe 595a b9be
00000150: 1c41 b93d 1ee9 133b acdf d13d 2359 2c3e
00000160: dba2 55be b402 e03d c204 e33d cbb9 793e
00000170: 4849 0cbd 05e7 14bf fa42 68bd c969 a43e
00000180: 61dc ba3e ebc8 89bd 9470 39be b070 11bf
00000190: be9d 6dbe 6c6d c53e 6809 983e 9f01 a83d
000001a0: 2560 663d f7b6 613e cfe8 9a3d f221 893c
000001b0: 34c8 993d e4f3 12bf 2ade b9be e256 613e
000001c0: 7033 d23e 12e8 3dbe 34b0 7bbe fc72 42be
000001d0: 589a 19bd c51d ee3d 26fe ee3e eedd 083e
000001e0: 72f1 51be 4025 1c3e 4d56 2f3e 7873 a13e
000001f0: bc16 063e 821c 45be 2b27 65be d83e 3d3e
00000200: f806 e53d 76fc 28bd 384b 553e 3d37 bfbe
00000210: b012 f83c 7732 163e a2ce 843e 606c c13e
00000220: 16a8 e73d 560a 513d cafd 62be 36b5 5a3e
00000230: 40c1 57bc 99a1 6bbe 88b6 1cbf f150 ae3e
00000240: 0094 35bc dd65 1bbe 0ec1 6cbe 9595 1bbe
00000250: 000b 20bd 05ab 5fbd 4cfd 053c 9ef7 5f3e
00000260: d5f3 cb3d edfa ce3d 64af 86bd 1844 f6bc
00000270: 90b4 ee3d ab1a c9bc 7d7b da3c 4538 26be
00000280: 3839 efbd 80f1 2ebd 04b9 1abe d6a1 28be
00000290: 3ef2 5cbe c493 5abe 6261 48be f01c f3bd
000002a0: 0026 e03a ee61 233e 6eb2 4e3e 4a93 3dbe
000002b0: 40a6 dfbc c436 093e 80e9 68bd 3c16 cf3d
000002c0: 86d1 633e fcef b73d a0b9 da3d 94f4 0abf
000002d0: 3cd0 4e3e dfc4 963e 6ef9 043f 6a0f f43e
000002e0: 0de6 acbe aad6 b1bd a4d9 20be 0701 d03c
000002f0: 40ce 853b 7982 26bd 19d3 43bf 7995 243e
00000300: 7cef aa3d 18d4 2b3d 605c 7cbd 984a 41be
00000310: e060 f03d c090 da3c e0ad d63c 500c 363d
00000320: f8c7 d73d 58b1 a4bd 8c83 5bbe 00e3 b6bc
00000330: d8f3 763d 4a2f 153e 8857 553e 78e3 01bd
00000340: d07c fb3d 00f0 ba39 66da 76be 28a9 3a3e
00000350: b01d 35bd 965c 5fbe e884 5fbe 9e89 133e
00000360: a4de 4fbe a88a 62bd bc65 92bd 94c3 91bd
00000370: 4810 2e3e 80d6 23be 6cc5 54be c8f3 58be
00000380: f659 013e 0dc8 01be f0cf 3fbd ce9a fabe
00000390: 5a85 273e 2411 783e 0b99 f23e 48f2 953e
000003a0: 990e 2c3e 55e6 c43e ec74 dc3c e6a2 773e
000003b0: 205c e7bc 3b80 cabe c48d 72be efd2 993e
000003c0: 0734 b33e 108b 7dbd 40c1 44bd 89f7 44bf
000003d0: 00d7 4d3e 8768 0a3d 14ac 7a3d d45f 5e3e
000003e0: fbd8 ab3d db2e f7bd 767e e9bd c7a8 5ebe
000003f0: 42d6 6d3e f6a6 17be feda f7be 3e36 2b3e
0.171875 0.038075686 0.07028517 -0.106496066 -0.052984625 -0.16593075 0.04829949 -0.15927887
0.16504577 -0.23093355 0.17817229 -0.111442626 0.18732587 -0.21037859 0.24550545 -0.115939826
0.0910466 -0.14309096 -0.13165376 -0.09595984 0.008481652 -0.11233604 -0.07130805 -0.08321297
0.1287947 -0.17121512 -0.2428033 0.024263978 0.008821636 0.05915886 -0.14126217 -0.09819391
-0.0073512197 -0.029847622 0.081831634 0.027467519 -0.13091877 -0.23583779 -0.037655503 0.03834051
0.16497701 -0.042554885 -0.12528142 -0.18232888 -0.049675077 -0.12446967 -0.16479528 0.08112177
0.26227203 -0.33760363 0.19645539 -0.46803385 -0.07991159 0.34689322 0.00041437324 0.34220055
-0.21340431 0.23058853 0.054390788 0.162336 -0.18782502 -0.2059658 -0.11998548 0.24187022
0.3997139 0.06638182 0.22098824 -0.45579273 0.047701895 0.2237 0.06323072 0.41973543
-0.21712343 0.24775955 0.14476438 0.1926046 -0.06080225 -0.3280818 -0.2742346 0.28918839
0.40149668 -0.16286108 -0.13555992 -0.36201742 0.09045622 0.0022569369 0.1024774 0.16830878
-0.20862906 0.109380156 0.11084892 0.2438728 -0.034249574 -0.5816501 -0.0567045 0.32111958
0.3649626 -0.06727775 -0.18109351 -0.5681257 -0.23204705 0.38560045 0.29694676 0.08203434
0.056244034 0.22042452 0.07563936 0.01673982 0.07508889 -0.574034 -0.3630231 0.220058
0.4105487 -0.18545559 -0.24578935 -0.18989176 -0.03750071 0.11626772 0.46678275 0.1336591
-0.2050226 0.15248585 0.17122765 0.31533408 0.1309461 -0.19249156 -0.22378223 0.18481004
0.1118297 -0.04125639 0.20829475 -0.3734683 0.030282348 0.14667688 0.25938898 0.37777996
0.11311357 0.051035248 -0.22167125 0.21358189 -0.013168633 -0.23010863 -0.6121602 0.34046128
-0.011082649 -0.15175577 -0.2312052 -0.1519378 -0.03907299 -0.054606456 0.008178066 0.21871802
0.09958617 0.10106454 -0.06576422 -0.030061767 0.11655533 -0.02454885 0.026670212 -0.16232403
-0.116808355 -0.04271078 -0.1510964 -0.16467986 -0.21576783 -0.2134543 -0.19568399 -0.11870754
0.0017101169 0.15955326 0.20185253 -0.18513218 -0.027300954 0.13399798 -0.056863308 0.10111663
0.22247896 0.0898132 0.106799364 -0.54279447 0.20196623 0.29447076 0.519431 0.4766801
-0.33769265 -0.08683522 -0.15708023 0.025391115 0.004083425 -0.040651772 -0.76493984 0.16072644
0.08346459 0.041950315 -0.061611533 -0.18876112 0.117372274 0.02668035 0.026205957 0.044445336
0.10536188 -0.08041638 -0.214369 -0.022325039 0.06029114 0.1456882 0.20834172 -0.03171107
0.122796655 0.00035655499 -0.2410675 0.1822859 -0.044217765 -0.21812662 -0.21828043 0.14407966
-0.20299774 -0.055308014 -0.071483105 -0.07117382 0.16998398 -0.15999794 -0.20778435 -0.21186745
0.12631974 -0.1267397 -0.046829164 -0.48946232 0.16359463 0.24225289 0.47382388 0.29286408
0.16802444 0.3845698 0.026911221 0.24183235 -0.02824217 -0.39550957 -0.23686892 0.30043742
0.3500063 -0.0619002 -0.04803586 -0.7694021 0.20101547 0.03379109 0.061199263 0.21716243
0.08390995 -0.12069484 -0.11401074 -0.21744071 0.23226264 -0.14809784 -0.48409265 0.1671991

l2.bias f4 [32]
00000000: e6d0 69be 086b 46be 38b6 be3d 123a 683e
00000010: bde1 ae3e 970e 863e 7ade 813e 750d cc3d
00000020: a746 ca3c c368 20b9 acd0 22be 59a6 9abe
00000030: f0fa 49bd 7c0d 14be 0820 9d3e 7c4e f03b
00000040: b565 92bd c651 50bc beb7 903c 9641 7a3e
00000050: 772d 10be c951 48be b125 de3d e459 76be
00000060: 2292 78be cf28 003e 199e ae3e e7ab 733e
00000070: f938 ee3c 7593 af3e 8002 e93d dd93 823e
-0.22833595 -0.19376767 0.09312099 0.22678402 0.341566 0.26183006 0.2536505 0.09963504
0.024691893 -0.00015297816 -0.15899915 -0.30205038 -0.04931158 -0.14458269 0.306885 0.007333575
-0.07148305 -0.012714809 0.01766574 0.24439082 -0.14079843 -0.19562449 0.10847033 -0.24057728
-0.24274495 0.12515567 0.34104994 0.23796044 0.029079901 0.34292188 0.1137743 0.25503436

l3.weight f4 [16, 32]
00000000: 521e b53d e09b af3c 7e81 f3bd 691b 853d
00000010: bd92 ae3c b1aa 0b3e acb4 9dbd 2477 823c
00000020: 13a1 153d 0f08 dbbd 801e aabb b4ac dbbe
00000030: 18ab 763d 126b ae3d c776 d2bd 88c3 51bf
00000040: 9bd4 003e c0e9 9ebe 9bcd e0bb 9f87 8ebc
00000050: 2241 19be 414b fcbe 4798 a93d 9004 25be
00000060: 67b8 2f3e f978 d23d 9b50 a03d 0d67 a03c
00000070: 4a0c 6cbd 695d ebbd f916 a0bd 74b5 103e
00000080: a25d 6fbd 00e3 00ba 873a 143e d5c0 c23d
00000090: c7eb 7c3e 906f 243e 518f 983e 0b33 ba3e
000000a0: a8a8 cc3c e952 933d 10f4 c43c 1677 c83e
000000b0: a87c 55bd 8a0e ff3d 59b9 353e f435 adbd
000000c0: 8034 f93c d8ac b7be 6893 ad3e 63b9 773e
000000d0: 6217 f83d 8a17 04be 33b5 3fbe 68da d0bc
000000e0: 9b30 aebd 4a3b c13e 0946 a13e a152 903e
000000f0: 7510 b73d a54b b2be e0c9 92be bae7 653e
00000100: 006e ffbc b0a1 b43c 326e 1ebe 509b d83d
00000110: 6cc5 28be e998 23be 9140 89bc d702 30bd
00000120: 5317 123e 78b1 433c 30cf 3bbc b91f 0abe
00000130: 9d32 a4bd 28fd 04bd 37aa a43d c166 213e
00000140: d2a1 b6bd 360c b93d ec5a 983d fc85 073e
00000150: cadd 8cbd 0e15 2ebe a24f 29be ac83 11be
00000160: 988e b13c f6ff 433d 3ec4 e23d 166c 1ebe
00000170: 7c2f f93c 1984 ff3d 6c1d 2cbe 44aa bc3a
00000180: d850 04bd c087 02bc 171c 1dbe 85de ab3e
00000190: 3253 773d bc9c 123e 6cc7 a63e e77f 833e
000001a0: 5ac7 653e 6faa d23c d2a1 8e3d 5380 e23e
000001b0: 84c1 00be 3e54 b33d 7043 e03d 009c 8c3d
000001c0: a4e8 e03d d04d 4fbd c7bc 0a3f 8fa6 b13e
000001d0: 286a 0b3f 21ec 153e 9f5a a6be 99d7 103e
000001e0: fadd a43d d329 d63e 040b 4b3e e8e9 943e
000001f0: ac22 713e 50e1 50bd ddb0 debe 9cc6 ac3e
00000200: 9441 c3bd d84a 2dbd f2f0 06be d28a 9a3e
00000210: cc75 673e 9a14 113e ff69 d43d 80c4 c73e
00000220: d3db 61be 7873 f8bd ded2 b53d f214 f6be
00000230: 22ae f3bd fa88 31be 0dc7 cd3d b337 8ebf
00000240: 38d5 1b3d 2272 20be 00a0 d2bd 81a2 85bd
00000250: db51 02be cd07 f9be 59a5 91bb dde3 2e3e
00000260: 8759 2c3e fede 263e ca51 c33e 9516 1abe
00000270: 4471 b8be 114d 133d 9cf6 013e 6d3b d93d
00000280: 69da e9bd f20a b13d 5a82 e13d 8fcb 863d
00000290: 6079 e6bc 1aff 89bd c46c e5bd 837f de3d
000002a0: e945 133d 4eea 023e 153b 163e 1ccf 3b3d
000002b0: 5a5c 963d d846 673d 919f 1ebe 5dcc 42be
000002c0: 0392 233e 359f 55bc 7b9a 873d dc00 8f3c
000002d0: 562a ff3b 0918 4fbe c901 31be 9a8d e03d
000002e0: 0094 123b 8ff2 9abd 415f 4fbe 0561 14be
000002f0: 5429 b13d 6b97 7c3d 1357 aebc d86d 21bd
00000300: 6c1c 34be 15fb 2bbe b0f4 28bd 8403 d73d
00000310: 207e a53e bf73 8d3e c730 533e 7fc7 b03e
00000320: c616 803e d0de 7fbd 5225 803d 5979 f53e
00000330: d24a f03d 6e45 c53d 3aed 5e3e aa4e aa3d
00000340: 7274 2e3d fa47 cf3c 4a10 273e e9bf 883e
00000350: 2796 813e a653 0ebd 6856 9ebe a815 423d
00000360: 2b21 2f3e d5dd ae3e 2bcf de3d 4302 c13d
00000370: 60af ebbc 385f cbbe 6ecc a1be caf2 a23e
00000380: 456c c9bd 6637 823d b76d 313e 87f7 713e
00000390: 1ba3 ba3d cfc9 e53d 24b2 673e 94b0 9c3d
000003a0: f623 9b3e 6aac 82bd 08db d7bc e520 113f
000003b0: 5e47 af3d 9862 8b3d d8e6 fd3c d1a3 3d3f
000003c0: 1b2c 64bd 2754 1c3f 835f 173e 758f a53e
000003d0: 223e a43e 5d33 f63e b96e 87be 801f 54bc
000003e0: 601b 74bc cda2 f83d b03f 983e 188a d13d
000003f0: 1b89 d73e 7aba 76be 6a03 5ebe 6717 013e
0.08843674 0.021436632 -0.11889933 0.06499369 0.021310205 0.13639332 -0.07700476 0.015925951
0.036530565 -0.106948964 -0.005191624 -0.429052 0.06022176 0.08516516 -0.10276561 -0.8193898
0.12581103 -0.31037712 -0.0068604476 -0.017398654 -0.14966252 -0.49276164 0.08280998 -0.16115022
0.17160188 0.1027698 0.07827874 0.019580388 -0.057628907 -0.11492426 -0.07816882 0.14131719
-0.058438905 -0.0004916638 0.14475451 0.09509436 0.24699317 0.16058183 0.29796842 0.36367068
0.024982765 0.07193548 0.02404216 0.39153355 -0.052120835 0.12453945 0.17746486 -0.08457556
0.030420542 -0.35874057 0.33901525 0.24191813 0.12113835 -0.12899604 -0.18721466 -0.02549477
-0.085053645 0.37740546 0.31498745 0.2818804 0.08938686 -0.34823337 -0.28669643 0.22451678
-0.031180382 0.022049755 -0.15471724 0.105764985 -0.1648156 -0.159763 -0.01675442 -0.04297146
0.1426671 0.011944167 -0.011462972 -0.13488664 -0.08017466 -0.03246799 0.080402784 0.15761854
-0.089175835 0.09035532 0.07439217 0.13234705 -0.068782404 -0.17000219 -0.16534284 -0.14210385
0.02167444 0.047851525 0.110725865 -0.15470919 0.03041815 0.124763675 -0.16808099 0.0014394005
-0.03230366 -0.007966936 -0.15342747 0.33568206 0.060382076 0.14317602 0.32574022 0.2568352
0.22439328 0.025716035 0.069644585 0.4423853 -0.1257382 0.08756302 0.10950363 0.06865692
0.10981873 -0.050611317 0.541943 0.34697387 0.54458857 0.14640857 -0.32491013 0.14144744
0.08050151 0.41828784 0.19828421 0.29084706 0.23548383 -0.050996125 -0.4349431 0.33745277
-0.095339924 -0.042307705 -0.13177851 0.30184036 0.2260353 0.14168015 0.1037178 0.39017105
-0.22056513 -0.12131399 0.0887811 -0.48062855 -0.118984476 -0.17337409 0.100477315 -1.1110748
0.038045138 -0.15668538 -0.10284424 -0.06525136 -0.12726538 -0.48638764 -0.00444476 0.1707911
0.16831027 0.16296002 0.38148338 -0.15047677 -0.36023915 0.035962168 0.1269173 0.10607038
-0.114186116 0.08644666 0.11011191 0.065817945 -0.028134048 -0.0673811 -0.11202386 0.10864165
0.035955343 0.12784693 0.14670976 0.04585181 0.073418334 0.056464046 -0.15490557 -0.19023271
0.15973668 -0.013038446 0.06621262 0.017456464 0.0077870293 -0.20224012 -0.17285837 0.10964508
0.0022366047 -0.07565796 -0.2025118 -0.14490135 0.08650461 0.06166784 -0.021281755 -0.039411396
-0.17588967 -0.16794999 -0.041248977 0.104987174 0.32322788 0.2762737 0.20624076 0.34527203
0.25017375 -0.06246835 0.06257118 0.47944143 0.11733021 0.09632383 0.21770182 0.08315785
0.04259152 0.025302876 0.16314808 0.26708916 0.2530987 -0.034747742 -0.30925298 0.047383934
0.17102496 0.3415362 0.10879358 0.094242595 -0.028770149 -0.39721084 -0.3160128 0.31825858
-0.09835104 0.06358223 0.17327009 0.2362958 0.09113141 0.112201326 0.22626549 0.07650867
0.30300874 -0.063805416 -0.02634956 0.5669082 0.08558534 0.06805915 0.030993864 0.7407809
-0.055706125 0.61065906 0.14782529 0.32336012 0.32078654 0.48086062 -0.26451662 -0.012946963
-0.014899105 0.12140427 0.2973609 0.102314174 0.4209679 -0.24094573 -0.2168099 0.12606584

l3.bias f4 [16]
00000000: 412b b3bd 47b0 743e 0317 94bd 390d 543e
00000010: b17c 37bd 7cde fc3d faa2 883e 867a 7fbe
00000020: 8e3c fbbd ff14 b8bd 51ba 0abe 8637 5abe
00000030: 29f3 ce3d c99b 6c3e fbce 9b3c 9746 2b3e
-0.087484844 0.2389537 -0.07230952 0.20708169 -0.04479665 0.12347123 0.2668684 -0.24949083
-0.12267409 -0.0898838 -0.13547637 -0.21310243 0.10104973 0.23106302 0.019019594 0.16726147

l4.weight f4 [1, 16]
00000000: ed2a ce3d 26d7 d7be 4978 723e a085 8bbe
00000010: d7c4 1c3f b349 9a3d aa12 d0be c27f a0be
00000020: 94ea 9a3d f02e 3a3e f87f 4dbd 1e65 e4be
00000030: d708 b73d 5be3 f6be aae4 443e 6b00 a5be
0.10066781 -0.42156333 0.23678698 -0.27250385 0.61237854 0.07533588 -0.4063924 -0.3134747
0.075642735 0.18181968 -0.05017087 -0.44608396 0.08937233 -0.48220333 0.19227853 -0.3222688

l5.weight f4 [16, 2]
00000000: 6464 0c3f a96f 033f 7813 4f3e c8ba 2fbe
00000010: 7ab2 6a3f 746b 7e3e 36e9 eebe 88af 2a3e
00000020: 0c13 743f c602 fabd ec75 1a3f f6d7 3cbe
00000030: eefb 893f e00b e03e 08a1 7c3e b830 1ebe
00000040: 96be e1be 6072 d8bd ba2d 313f a5ec 56be
00000050: 6345 05bf ca3b 9a3c 6c65 fdbe a263 96be
00000060: 754c 9dbd 5971 4dbf 7628 713e 3f25 ffbe
00000070: cab1 b4bd 8fa9 92be 28fc 92bd 008e 973b
0.54840684 0.51342255 0.2022227 -0.17161095 0.91678584 0.24845678 -0.466623 0.16668522
0.95341563 -0.1220756 0.60336185 -0.18441758 1.0780008 0.4375906 0.24670804 -0.15448272
-0.44090718 -0.1056869 0.692104 -0.2098871 -0.52059 0.018827338 -0.4949144 -0.2937289
-0.07680599 -0.8025108 0.23550591 -0.49833104 -0.08822973 -0.28644988 -0.07177001 0.004625082

l5.bias f4 [16]
00000000: a236 543c 4a8a 1dbf d608 dc3e 9e03 c7be
00000010: ec27 8ebd f144 f33e 8fff 343e 23ba 01bf
00000020: eebd b8be f6ca 2fbb e4ea 343f 3566 d1be
00000030: c309 fabd 1b34 163f 3393 333f f31f 98be
0.012952479 -0.6153914 0.4297549 -0.38869947 -0.06941208 0.47513536 0.17675613 -0.5067465
-0.36082405 -0.0026823855 0.70670915 -0.4089829 -0.12208893 0.58673257 0.70146483 -0.29711875

l6.weight f4 [32, 16]
00000000: 8040 4d3e 0c24 febd ad73 523e 94c3 a8bd
00000010: ff7a 5c3e 4587 783e 71e8 273e 204c 703d
00000020: 4e7a 563e e508 053f 180c 2e3e 4055 cf3b
00000030: b2d0 5c3e a450 e2bc a388 aebd 1046 263e
00000040: 5e61 29be 7a09 43be 20b0 8a3c e0cc 8c3d
00000050: 18a8 093e 7020 2a3d 44d4 7bbe 18f0 0f3e
00000060: be13 41be 86ff 7a3e 586d 53bd 70c7 fe3d
00000070: 18ea 74be 8c69 21be 1035 19bd 84dc b63d
00000080: 1d1a a23e 2027 5dbd ddcf 143e b414 863d
00000090: 097e 823e ca4d ed3d b9f7 473d d088 10bd
000000a0: 5833 723e 3cbd 0d3f 322b 17be ca6c 2d3e
000000b0: 58cd 60be b3b4 603e b659 35bc f472 a83d
000000c0: 40c9 9e3d 44ee ac3d 883c 25bd 26a2 3fbe
000000d0: 02e9 11be 409f 10bc a029 82bd 8832 e83d
000000e0: c0ed db3b d071 d33d 481c 1cbe 9028 ef3d
000000f0: 38f2 bdbd fa14 73be 849a 41be ea23 21be
00000100: ffac 0e3f 749b 4e3e 9549 ad3e d22c 683e
00000110: 3af8 023f c49d b6bd de7f fe3e 30c2 f23d
00000120: d035 bdbd 7bdd fc3e 69a4 1abe 824e 703e
00000130: e9c5 a83d cc2f 313e 12df afbd c068 103e
00000140: 0ad4 363e 34a0 c5bd f4af 7fbe ac0d 113e
00000150: 48c2 47be 489a 71bd 7e47 3cbe 0097 f43d
00000160: c649 683e 6055 18bc 0cdb cf3d 3826 203d
00000170: d0b3 8abd 4026 493c e03f 1ebc 90ac 4abe
00000180: 62e3 72be d2c6 613e 401d 833b 3c48 64be
00000190: 125b 36be 2427 e3bd 8026 283e 70ae 54be
000001a0: 081c 903d d2f9 383e f242 193e 6601 033e
000001b0: a803 11be 0c86 93bd 1613 10be b6e8 6cbe
000001c0: 040a aebd 562e 703e 3ebf 32be 9ebf 093e
000001d0: c41e 61be 0092 83bd 6c29 24be 7654 71be
000001e0: 7643 003e e012 6bbe 3412 3fbe 72e4 663e
000001f0: d836 b53d b828 16bd 902d aabd 1a98 05be
00000200: 40d9 043e a473 b2bd 49cb 7b3e 82fe 6fbe
00000210: 396a 903e b290 363e 1c63 243e 0672 063e
00000220: 2a98 573e 4e5b 123e c898 dd3d d49e 30be
00000230: 4cdf 51bc 00c6 a73d bf4b 35bd 008d f53c
00000240: fba5 633e 8449 79be 2d20 113e 9c2b f93d
00000250: 27c4 0c3e eed4 283e 390d a83e f061 c1bc
00000260: 0430 ad3d dc50 a83e e76c 87be 9640 793e
00000270: 8b91 f43c a258 033d 685f e0bd 9828 6ebe
00000280: 1524 1f3f 0c7c f9bd f85f 60bf 00dd 9bbb
00000290: d20b 3d3b 7622 81be c575 1abe d85d e63d
000002a0: 0cd5 84bd c0c6 773e 0f7f 0e3f 46d5 4f3e
000002b0: a008 05bf b621 233e 644f e53e 2485 f83d
000002c0: 1465 11be 006d ddba 8847 84be 065b 673e
000002d0: 4090 873b 2a40 30be de07 12be 16ad 143e
000002e0: 62b0 54be ac81 b23d b277 69bc 426e 0dbe
000002f0: 8b1b 1b3d ef72 8fbd b4de 81be a0fc b2bc
00000300: aa66 d83d fa54 3b3e 6ae2 c7bd 50c7 bcbc
00000310: 578f 033f fb94 55be 6ab8 a23e 5872 6abe
00000320: d04d cbbc 56c8 193f 1f08 1bbf 9421 c3bd
00000330: 98ae 053e 6bf3 a4be a010 06be 7426 c73d
00000340: 80fc d4bd 08d3 8b3d 26e5 37be 849b 3f3e
00000350: 7841 f0bd 4e5c 25be c4af 47be 8ced a5bd
00000360: 78cb 06be 88b1 16bd 102c bc3c f011 64bd
00000370: 5805 a0bd a8c1 593d 30ca 22be 9879 3dbe
00000380: 12ec c23e 70be 52bd 9daa a43e 4002 e73d
00000390: 061a 2d3e fd2c 03bd 0325 96bb 44d9 36be
000003a0: deea 25be 7019 5c3e 83ba b63c d011 af3c
000003b0: 9a62 9fbd 93ea df3d 3546 513e 9a16 753e
000003c0: da90 873e 80a2 23bc 81b2 d63d 102a ebbc
000003d0: ee4f d33e 7d72 293e 7a3a fa3e 94fc dd3d
000003e0: 7697 68be 0488 fd3e 4f03 42be c0bc 5d3e
000003f0: 4967 9a3e fdd5 c33d 92d1 b6be 3cd0 ac3d
0.20044136 -0.12409219 0.2055194 -0.082404286 0.21531294 0.24270351 0.16397263 0.05866635
0.20945093 0.51966697 0.16996801 0.0063273013 0.21563986 -0.027626343 -0.08522155 0.16237664
-0.16541049 -0.19046584 0.016929686 0.06875014 0.13443029 0.04153484 -0.24592692 0.14056432
-0.18855187 0.24511537 -0.05161795 0.124403834 -0.23917425 -0.15762919 -0.03740412 0.08928779
0.31660548 -0.05399239 0.14532419 0.065469176 0.25486782 0.11587103 0.04882023 -0.035286725
0.23652399 0.55366874 -0.14762571 0.16936031 -0.21953332 0.21943931 -0.011068752 0.082250506
0.07753229 0.08443883 -0.04034093 -0.18714198 -0.14249042 -0.008827031 -0.063555956 0.11337763
0.0067116916 0.103244424 -0.15245163 0.116776586 -0.09274715 -0.2373847 -0.189066 -0.15736356
0.5573272 0.20176488 0.338452 0.22673348 0.51160014 -0.0891681 0.4970693 0.118534446
-0.092387795 0.49387726 -0.1510178 0.23467448 0.08240873 0.1730339 -0.08587469 0.14102459
0.17854324 -0.09649697 -0.24969465 0.14165372 -0.19507706 -0.058985025 -0.18386647 0.119428635
0.22684392 -0.009297699 0.10149202 0.03909895 -0.06772578 0.012277186 -0.009658784 -0.1979239
-0.23719552 0.220485 0.0040012896 -0.2229318 -0.17808178 -0.1109145 0.16420937 -0.20769668
0.070365965 0.18064049 0.14966944 0.12793502 -0.14161551 -0.07203302 -0.1406978 -0.23135647
-0.08498004 0.23455176 -0.17455766 0.13452002 -0.21984392 -0.06424332 -0.16031426 -0.23567376
0.12525734 -0.22956419 -0.18659288 0.22548082 0.08848351 -0.036659926 -0.083094716 -0.13046303
0.129735 -0.08713463 0.24589266 -0.23436931 0.2820604 0.17828634 0.16053432 0.13129434
0.2105414 0.14292642 0.10820156 -0.17248088 -0.012809586 0.081920624 -0.04426169 0.02997446
0.22231285 -0.2434445 0.1417243 0.12166521 0.13746701 0.16487476 0.32822588 -0.02360627
0.08456424 0.3287419 -0.26450273 0.24341044 0.029854557 0.03206695 -0.10955697 -0.23257673
0.6216443 -0.12181863 -0.87646437 -0.00475657 0.0028846157 -0.25221604 -0.15083988 0.11248368
-0.06485948 0.24196911 0.55662626 0.20296201 -0.51966286 0.15930828 0.44787133 0.121347696
-0.14198714 -0.0016893446 -0.25835824 0.22593316 0.004137069 -0.17211977 -0.14260814 0.14519152
-0.2077041 0.08716139 -0.014249729 -0.13811591 0.037868064 -0.07004344 -0.25365222 -0.021848977
0.105664566 0.18294135 -0.09759982 -0.023044258 0.51390594 -0.20857613 0.31781322 -0.22895181
-0.024817377 0.60071313 -0.60559267 -0.09527889 0.13054883 -0.32216963 -0.1309228 0.09724131
-0.10399723 0.068273604 -0.17958507 0.18711668 -0.11731237 -0.16148493 -0.19500643 -0.08101949
-0.13163555 -0.0367904 0.02297023 -0.05568117 -0.07813519 0.0531632 -0.15897441 -0.18503416
0.38070732 -0.051451147 0.32161418 0.11279726 0.16904458 -0.032025326 -0.004582049 -0.17856318
-0.16202876 0.21494079 0.022305733 0.021370798 -0.07782479 0.10933413 0.20436938 0.23934403
0.264777 -0.0099874735 0.10483266 -0.02870658 0.4127192 0.1654758 0.4887274 0.10839191
-0.22714028 0.49517834 -0.18946575 0.21654034 0.30156925 0.095622994 -0.35706764 0.08438155

l6.bias f4 [32]
00000000: eb04 a73c 5acf 5cbe ec4d 423e 1624 493e
00000010: 0f0a 1ebe 504c bfbd 5053 53be 00af b43d
00000020: 5858 9a3e ba05 2d3d 3c6d 0e3e d209 233e
00000030: 2fa9 0ebe 0c60 c2bd 7e25 493e 214a 9abe
00000040: d8f3 51bd 8f3a b5bb 30c6 e63d ac87 03be
00000050: dd7d 88be 8058 d7bb ed04 44bd 8151 f73d
00000060: 108f 46be a743 9d3e dc0e b1bd 974f a2bd
00000070: 9d19 a7bd a2f3 27be 02a8 8abe 7c43 5fbe
0.020388087 -0.21563473 0.18975037 0.19642672 -0.15433525 -0.09340727 -0.2063725 0.08822441
0.30145526 0.04224179 0.13908857 0.15921715 -0.13931726 -0.09490976 0.19643208 -0.3013468
-0.05125794 -0.0055306624 0.1126827 -0.12844723 -0.26658526 -0.0065718293 -0.04785626 0.120760925
-0.19390512 0.30715677 -0.08645412 -0.07925337 -0.08159182 -0.16401532 -0.27081305 -0.21803087

l7.weight f4 [16, 32]
00000000: 392c 993e e09f 6b3d a0b8 c33e 10bf 93bd
00000010: ef47 46be 27b7 223e a4b5 703d d8fc 333d
00000020: acc8 c63e 46fa 4ebe a1e6 3abf f988 ebbd
00000030: 90dc 19bf 6dd6 debd bde7 da3e c1d3 98be
00000040: 30e6 c4bc 015b 08be 804c 483b 44c4 8bbd
00000050: 31d3 483e eba7 86bd c591 47bf 525f 083e
00000060: b5d3 0abe e958 0c3f ee6e be3d f288 3a3e
00000070: ab3e 00be ef35 8dbd b9ff 84bd e9fc c6bd
00000080: a641 a9bc 0044 ca3c 06af 6ebd b05a 84bd
00000090: 2a43 823d 1520 223e 205b abbb c4ab dabd
000000a0: 75be 25be 5537 bbbc d84b 26be 6f9b 32be
000000b0: 36ae b3bd 3203 5cbd 000c b63d 0c6f d9bd
000000c0: 7f66 adbd 7c47 f0bd 4451 0d3d f474 4bbd
000000d0: f945 ed3d 3805 683d 383e 073e 58da e93c
000000e0: 77bf 9cbd 2d4c 23be db14 1b3e 4196 1cbd
000000f0: 3337 38bd 0019 16bb 8b0d d5bd 88ee e8bc
00000100: 032b c13e 6278 cc3d e539 973e 803d 3dbd
00000110: 32ae 93bc 5a60 bebd 3fa6 2c3e 72d8 f23d
00000120: a6ef 6a3e 08c4 c53d 39f5 03bf 4fc8 aa3d
00000130: 4cd6 27bf bc4f f2bd 1f30 be3d 75a6 a4be
00000140: 7639 833d 7918 29be d458 2cbe 5d22 4b3d
00000150: fa66 a43c 60b0 753d 27ee e1be 28ce d3bd
00000160: bae9 35be 96f4 e23e ad22 1fbe 67ed b43d
00000170: 041b 1dbd 2bf9 bb3d fc6d 7dbd 0044 093a
00000180: 5724 223e 80b4 91ba 7af6 983e 4422 4a3d
00000190: cf63 833e e46a 3fbd c81c 7abd b68d 8e3d
000001a0: 1ff5 5f3e 15e9 853e 8980 303f e0a0 06bd
000001b0: bc24 953e f850 7a3d afb8 acba 4a02 d03e
000001c0: fc31 0cbd 5850 eb3e c830 fc3c 5fe6 963e
000001d0: 0202 853d 409c cf3b 179e 883f 7951 03bb
000001e0: dfbe ab3e 82ab 99be 8aa7 fb3d a19e 093e
000001f0: 78ab 813e 8a58 103e 8db5 4ebd 209c a9bc
00000200: 5f72 013e 30b4 b3bc a0a5 303d 5ca2 d4bd
00000210: 403e 1dbb d17c 22be 3ed4 0ebe 8044 433d
00000220: c492 25be 24a8 703d e329 203e c8af f63c
00000230: 4c19 02be ec4f 703d 60e5 0e3c 1373 86bd
00000240: 71f7 113e daa7 0ebe 8095 fcbd f0c4 d53c
00000250: d095 56bc 5017 7c3c 0eb6 a53d c893 79bd
00000260: 6266 c83d 0008 c839 1297 913d baa7 bf3d
00000270: fc1d 79bd 6456 65bd da9e ba3d cb74 123e
00000280: 3bdc 6dbc 670e 0ebe 23af 1abe cb52 183e
00000290: 2ed7 bebd a610 c0bd e8a0 e1bc f14c 2c3e
000002a0: 8e25 0b3d 5d79 eb3d 42a3 59be c39d 043e
000002b0: 506b 37bc d5f0 b8bd e22a 1dbe 6ff7 933c
000002c0: cdeb 9dbd 50a8 fdbd 0095 6a3a 569c 5bbd
000002d0: 983d b8bd 168d 1abe ee44 d43d c11b 8cbc
000002e0: 214a 553d 4f92 d43d e439 423d a738 89bd
000002f0: dc36 f7bd ffe1 0f3e 22e4 f13d 7805 7f3d
00000300: 1988 fbbd d0e5 a33c 0d11 d33d 2665 fc3d
00000310: 3440 ca3d 3731 92bd d66c fe3d d3cd bfbd
00000320: 4c9a 40be 40da e03d 039c 963d da31 02be
00000330: 7a3c f33d 0023 b43c df1e d6bc a12a 353c
00000340: 0a5c fcbd 896d 093e d06e 923d 185f 123d
00000350: 0525 923b ce2f db3d 2c61 213e b94d 0e3d
00000360: 52f5 eabd f9c9 e4bd e091 d53b 5145 e4bd
00000370: c5c2 95bd aa3e e53d 7cbf 48bd 5547 88bd
00000380: 0866 863e 98ba 053d cc3d 9f3e 5b75 143e
00000390: 5fdd bf3e 009d 243d 657d 1f3e 547b ebbd
000003a0: d4a8 913d 734a 603e badc 263f 917a 3abd
000003b0: 5515 0b3f 5641 02be 9c47 a73d c2c3 7d3e
000003c0: 7853 0fbe 497f 533e 025e f83d b51d 453e
000003d0: f8c0 0e3e 9346 003e 7bc7 333f e8ab 713e
000003e0: eade 3d3e 9f17 dabd 0816 ac3c 1c76 e33d
000003f0: 0401 b43e a6e7 3fbd 38a5 a6bd 24c1 723d
0.29916552 0.057525516 0.38226795 -0.07214177 -0.19363378 0.1589018 0.058766976 0.043942302
0.38824975 -0.20212659 -0.7300816 -0.11500735 -0.60102177 -0.10880742 0.42754927 -0.29849055
-0.024035543 -0.13315965 0.0030563176 -0.06824544 0.19611813 -0.065749966 -0.779568 0.13317612
-0.13557322 0.54823166 0.09298502 0.18216303 -0.12523906 -0.06895053 -0.06494088 -0.097162075
-0.020661186 0.024690628 -0.058272384 -0.0646261 0.06360467 0.15832551 -0.005229369 -0.10677293
-0.16185935 -0.022853533 -0.1623987 -0.17442106 -0.087734625 -0.053713985 0.088890076 -0.10616884
-0.08466815 -0.117323846 0.03450133 -0.049672082 0.11585612 0.056645602 0.13207328 0.028546497
-0.076537065 -0.15947028 0.15144674 -0.03822923 -0.044974517 -0.0022903085 -0.10402974 -0.028434053
0.37728128 0.09983899 0.29536358 -0.04620123 -0.018027399 -0.09295721 0.16860293 0.1185769
0.22942981 0.096565306 -0.51546055 0.08338987 -0.65561366 -0.118316144 0.09286522 -0.32158247
0.06407444 -0.16513242 -0.1683076 0.04959332 0.020068634 0.059982657 -0.44127008 -0.103420556
-0.17764941 0.4432723 -0.15540572 0.088343434 -0.038355842 0.091783844 -0.061872467 0.0005236268
0.15834175 -0.0011116415 0.29875547 0.049349084 0.25662085 -0.0467328 -0.061062604 0.06960623
0.2187085 0.2615439 0.6894613 -0.032868266 0.2912959 0.061112374 -0.0013177599 0.40626746
-0.034227356 0.45959735 0.03078498 0.29472634 0.064945236 0.006335765 1.0673245 -0.0020037575
0.3354406 -0.30013663 0.12287815 0.13439418 0.25326133 0.14096275 -0.05046611 -0.020704329
0.12641285 -0.021936506 0.043126702 -0.1038253 -0.0023993403 -0.15867926 -0.13948151 0.04767275
-0.16169268 0.0587541 0.15640979 0.030113116 -0.12704962 0.05866997 0.008721679 -0.065649174
0.14254548 -0.13931218 -0.12333202 0.026094884 -0.0130972415 0.0153864175 0.08091365 -0.06093195
0.09785153 0.00038152933 0.071088925 0.09358163 -0.06081961 -0.05599059 0.0911233 0.14302365
-0.014517839 -0.13872682 -0.15105872 0.14875333 -0.09318386 -0.093781754 -0.027542546 0.16826226
0.03397136 0.114977576 -0.21253684 0.12950806 -0.011195019 -0.0903031 -0.1534839 0.018062321
-0.07710991 -0.12385619 0.00089485943 -0.05361589 -0.08996123 -0.15092883 0.1036471 -0.017103078
0.052072648 0.10379469 0.04741849 -0.06700259 -0.120710105 0.14051054 0.11811091 0.062261075
-0.12281818 0.020007044 0.103059866 0.1232398 0.09875527 -0.07138293 0.124231026 -0.0936543
-0.1880886 0.10979128 0.073539756 -0.1271433 0.11876769 0.021989346 -0.026137767 0.011057527
-0.123222426 0.1342069 0.07150042 0.03573522 0.0044599795 0.107024774 0.15759724 0.03474209
-0.114725724 -0.11171336 0.006517634 -0.111460336 -0.0731254 0.11193593 -0.04901074 -0.066542305
0.2624972 0.032648653 0.31101835 0.14497893 0.3747358 0.04018879 0.15575178 -0.11498132
0.071122795 0.219034 0.6518055 -0.045527045 0.54329425 -0.12720236 0.08167955 0.24781707
-0.13996685 0.20654024 0.121273056 0.19249614 0.13940799 0.12526922 0.7022626 0.23600733
0.18542066 -0.106490366 0.021006599 0.11106512 0.35157025 -0.046851777 -0.08136982 0.059266225

l7.bias f4 [16]
00000000: 9a64 693d e2bf 8c3c aba3 223e 07c1 2cbc
00000010: 86d3 2cbe f56e de3d 9110 4f3d f041 503c
00000020: fb57 da3d c92a df3d 42ab d0bd 4136 d63d
00000030: 0036 933d df54 44be 410f 213d c6c0 053e
0.056980707 0.01718134 0.15882747 -0.010544068 -0.16877565 0.10861007 0.05055291 0.012711033
0.10661312 0.108968325 -0.10188915 0.10459567 0.07188034 -0.19173001 0.039321188 0.13061818

l8.weight f4 [1, 16]
00000000: e8af 643f 990d 203e 2bd8 ec3e 129d 73be
00000010: 4cbf 6f3e 3886 623e 2348 693e 665e bebe
00000020: d83d 403e 2592 98be 53a0 313e b7e3 90be
00000030: 0b55 81be 6e6c 613e 3dde ddbe de6a 1a3e
0.8933091 0.15630187 0.46258673 -0.23790386 0.23412818 0.22121513 0.22781424 -0.37181395
0.18773592 -0.29799 0.17346315 -0.28298733 -0.25260195 0.22014019 -0.43333617 0.15079829
