project/models/model_w1_0.1_lam_1.05_lam2_1.525_w2_0.01.pt_actor.pt (torch, 8184 bytes, 7 tensors)

l1.weight f4 [16, 1]
00000000: b12a 433f 1a69 df3e 4826 2bbe f497 cd3e
00000010: 70b1 8ebd 8053 9e3d f1f2 103f 1040 ec3d
00000020: 3709 a13f f036 fdbd d6a6 6cbf 464c dcbe
00000030: ebfd 5abf 3fa4 043f 9b33 2e3f be8f 153f
0.76237017 0.43634874 -0.16713822 0.40154994 -0.06967437 0.0773077 0.566207 0.115356565
1.2580937 -0.12363994 -0.9244207 -0.43026942 -0.855437 0.5181312 0.68047494 0.5842246

l1.bias f4 [16]
00000000: 90ad 543f 8ef9 333e db88 573f 8ad8 2ebf
00000010: 3631 12bf 78b5 7fbf f4ee 693e 44b9 03bf
00000020: cdfe 88bd 975f 413f bb0c 5d3f e029 bf3e
00000030: 269f 583e 6a8a 633f cfbd 043f 6785 833e
0.83077335 0.17575666 0.841932 -0.6829916 -0.5710634 -0.99886274 0.2284506 -0.5145457
-0.066892244 0.75536484 0.8634755 0.37336636 0.2115446 0.8888308 0.51852125 0.25687715

l2.weight f4 [32, 16]
00000000: 833a d73d 8783 833d 2cd1 ae3e 2ce3 28be
00000010: 2aff 1f3e e0ad d9bd ed1e 973d dcb2 9c3d
00000020: 95fc 973f c575 64bc bbea 513e 1ba3 1c3e
00000030: 16ac 2e3e 32c6 243e 641f ca3e 94d6 7cbd
00000040: dc98 b73d e789 863e 3abf fbbd c054 f23d
00000050: 34a0 97bd 748c 0bbe 1ff8 643d 08e9 40be
00000060: 1941 213f 95a3 f23b ce05 17be 78f6 3e3d
00000070: 75cf 3cbe a42e 463e cfe9 b23e 7f06 d13e
00000080: 9460 e43b e259 c1be 269d 5c3e 28ea b03d
00000090: 5818 b83d 88cc 5fbe b97c 7cbe fae9 6fbe
000000a0: 1a80 80be 564d 063e ac72 ca3e bda1 993e
000000b0: f3c7 fb3e 3821 98bd ca29 1e3e 96da 3cbe
000000c0: 1031 b43e 1f0a ea3e 8f8f 873e c4cb a5bd
000000d0: 5032 36bd b8f6 5b3e 7cb4 583e 58bc 2b3d
000000e0: 1529 513f 3eef b53e d59c 8f3e 50f1 453c
000000f0: 3ba6 ab3d ac4d ad3e 4407 793d f8e5 b53e
00000100: c4bf 143e 9b42 da3e e97c 963e 8020 63bb
00000110: 12bb 0a3e 6cf4 1e3e 2dc6 75bd 9c5d ed3d
00000120: 3596 3b3f cc52 303e 895e 65be e7d5 ba3d
00000130: 163e 09bf 2091 a13e c9e5 0dbd 2f8b b63e
00000140: 6669 703e 68fe 9d3e be0a 4bbe 64b0 7bbe
00000150: 00ca 803b c037 d13d 71d3 a53e c879 11be
00000160: b332 4b3f a989 24be e641 bc3d 6db6 6dbd
00000170: a143 d2be 8bd8 913e 3d13 c43d f0dd b53e
00000180: 2ff4 bc3c 2286 ba3e 5020 5d3e 7068 80bc
00000190: e087 93bd 10c7 9b3d 2918 bf3e da02 0cbe
000001a0: 0772 563f dd4f 3f3e 7a26 6f3e 242e 5a3e
000001b0: 1071 413d e5bf 103d cbbd 6d3e 8493 073e
000001c0: 6355 4abd 6a45 ac3e 072c 713e 0081 aa3b
000001d0: cc2a e53d 8000 9fbc 56c6 ab3e 22ab 6fbe
000001e0: c11c 733f 7f80 6a3e c272 e2bd bab8 81be
000001f0: 7ff2 5dbe b7a1 c4bd 537e f53d 2437 653d
00000200: 7ac4 143e 58f9 6f3e e0b6 773d 4890 dcbd
00000210: 8852 d0bd 781a f83d e811 053d 8062 933b
00000220: 58ad 67be fa3c 22be 505d 37be 7661 793e
00000230: c0fa dfbc 7cf5 64be 36aa 3bbe 2064 28bc
00000240: 0631 59be 0e4c 6abe 1041 a13c 2ae9 003e
00000250: 9857 d73d a247 3cbe 109a c8bc 94c0 a83d
00000260: d200 293e c46d 4dbe c60a 3ebe 785c f13d
00000270: 3666 7fbe 04f5 d8bd 2817 a9bd d0c5 f93c
00000280: d6dc 29be fcdf 08be 004c c3b9 e89e c03d
00000290: 7e74 5fbe 206e 5abe e296 6cbe f4e5 b0bd
000002a0: d01d 31be 0ec6 61be 0048 24bc 6454 5e3e
000002b0: c4aa 0dbe 50a3 1c3e 2048 7cbd ee80 043e
000002c0: b5ea 27bd 697b 3abe 03c4 f93d d46c 43be
000002d0: 1254 693e a030 673d 8aff e93d d877 3bbd
000002e0: 2a1b dabd 555f d63c 0123 e8bc 523a 813d
000002f0: f8db 153d 16aa 54be 730d 383d fd40 733e
00000300: 12b5 203e 1534 e3be 560a 4f3e f456 1fbe
00000310: 2830 38be e081 9f3d cd51 1cbd b0aa ed3d
00000320: 7cae d6be 62df db3d 8d04 d23d 3549 4f3e
00000330: be22 893e 9a5a 2abe 0577 073e 03d0 92be
00000340: 2db9 3e3e c75a f13e 21be 18be ca94 4a3e
00000350: 90a4 6a3d c021 3c3c d657 d53e a8d3 44be
00000360: 7138 6b3f 598e b1bc 4a16 24be bcbc 19be
00000370: 67d8 50be ac11 443e 0dba bf3e 5d79 c13e
00000380: 2471 74be 3007 2f3e 5087 7d3d 103f 3c3d
00000390: 583f d5bd de5b 1e3e 509d 26be dc87 ddbd
000003a0: ba18 203e bc62 773e 54a3 b2bd b4fe 253e
000003b0: 3416 00be 461a 74be fc5d d33d 5074 ab3d
000003c0: 96ae 953d b8f6 d43e d632 dc3d 106b 423e
000003d0: 827d 39be 5456 b13d ffbe e73d 9cb4 b93d
000003e0: 5509 473f 264e 023d 6977 ad3d 10ce a3be
000003f0: dccf 9bbe 05ef 113e ff4f 0c3e dd9f 6e3e
0.10509207 0.06421571 0.3414396 -0.16492909 0.15624681 -0.10628867 0.073789455 0.07651302
1.1873957 -0.013944094 0.20499699 0.15296595 0.17057833 0.1609123 0.39477074 -0.061728075
0.089647025 0.26277086 -0.12292333 0.11832571 -0.07403603 -0.13627797 0.05590069 -0.18838894
0.62989956 0.0074047544 -0.14748308 0.04662177 -0.18438514 0.1935373 0.34944007 0.4082527
0.006969521 -0.37763888 0.21544322 0.08638412 0.08989018 -0.21855366 -0.24656953 -0.23429099
-0.25097734 0.13115439 0.39540613 0.3000621 0.49175987 -0.07428211 0.15445629 -0.18442759
0.35193682 0.45710847 0.26476714 -0.08095506 -0.044481575 0.21480834 0.211626 0.041927665
0.8170331 0.3553409 0.2804934 0.012081459 0.08381315 0.3384832 0.060797945 0.35527015
0.14526278 0.4262894 0.29392174 -0.0034656823 0.13547924 0.15522927 -0.06000345 0.1159012
0.7327607 0.17219085 -0.22399344 0.0912283 -0.5361036 0.31556034 -0.03464297 0.35653064
0.23477706 0.3085816 -0.19828317 -0.24579006 0.0039303303 0.102157116 0.3238788 -0.14206612
0.79374236 -0.16068138 0.09192257 -0.058035303 -0.41067222 0.28485522 0.09573982 0.35520887
0.023065655 0.3643046 0.21594357 -0.0156748 -0.072036505 0.076063275 0.3732312 -0.13672963
0.8376774 0.18682809 0.23354521 0.21306664 0.047226965 0.035339255 0.23216932 0.13239866
-0.049397837 0.3364671 0.23551951 0.0052033663 0.111898035 -0.019409418 0.33549756 -0.23405126
0.9496575 0.2290058 -0.110570446 -0.25336248 -0.21674536 -0.09601157 0.11986985 0.05596079
0.14528075 0.23434961 0.060477138 -0.10769707 -0.101719916 0.121144235 0.03248778 0.004497826
-0.22624719 -0.15843573 -0.1790669 0.24353585 -0.027341247 -0.2235927 -0.18326649 -0.010277778
-0.21210107 -0.22880575 0.019684345 0.12588945 0.10514754 -0.18386701 -0.024487525 0.08239856
0.16504219 -0.20061404 -0.18558797 0.11785215 -0.24941334 -0.10593608 -0.0825637 0.030489832
-0.16588148 -0.13366693 -0.00037249923 0.09405309 -0.21821782 -0.21331072 -0.23104432 -0.0863761
-0.17296529 -0.22048208 -0.010026932 0.2171188 -0.13834673 0.15296674 -0.06159222 0.12939808
-0.04099532 -0.1821114 0.121955894 -0.19084483 0.22785977 0.056442857 0.11425693 -0.04576859
-0.106497124 0.026168505 -0.028337004 0.06309952 0.03658673 -0.20768008 0.0449347 0.2375526
0.15694073 -0.44375673 0.20218787 -0.15560514 -0.1798712 0.077884436 -0.03816395 0.11604822
-0.41929996 0.10735966 0.10254774 0.2024277 0.2678432 -0.16636124 0.13228996 -0.28674325
0.18625326 0.4713957 -0.14916278 0.19783321 0.057285845 0.011482656 0.41668576 -0.19221365
0.91883 -0.021674322 -0.16024128 -0.15013403 -0.20395051 0.19147366 0.37446633 0.37787905
-0.23871285 0.17092586 0.061896622 0.04595858 -0.104124725 0.15464732 -0.16270947 -0.10816929
0.15634432 0.24158758 -0.087225586 0.16210443 -0.1250847 -0.23838148 0.103206605 0.08371794
0.0730869 0.4159448 0.10751884 0.18986154 -0.18114284 0.08659044 0.113157265 0.09067652
0.77748615 0.03181281 0.08470041 -0.3199315 -0.30432022 0.14251335 0.13702391 0.2330317

l2.bias f4 [32]
00000000: 6aba 493e e628 f63d 6eca 78bc 3584 c63e
00000010: 9d55 25be 5e51 053e 0782 5f3e f337 6c3d
00000020: 04bf 443e 6e30 4cbe 80e9 44bd 11a4 e0bc
00000030: 6511 06bd 8f79 6c3e 6e3f 25be 3c7a a53e
00000040: a040 5ebe fe57 65be 61b1 873e 974e 603e
00000050: 49f9 f03d 1f28 893e 72fa 963e 3be5 6f3e
00000060: 80db 87bd a0d3 eb3d b85c 353e 78ad cfbd
00000070: 80bd 423e 6922 363d 083b c13d 76f5 5ebe
0.19700018 0.120195195 -0.015184982 0.3877274 -0.1614594 0.1301932 0.21826945 0.057670545
0.19213492 -0.1994035 -0.048074245 -0.027421983 -0.032731432 0.23093246 -0.16137478 0.3231982
-0.2170434 -0.22396848 0.26502517 0.2190498 0.11766297 0.26788422 0.2948795 0.23427288
-0.06633663 0.11514974 0.1771115 -0.101405084 0.19017601 0.04446641 0.094350874 -0.21773323

l3.weight f4 [16, 32]
00000000: 7abc 303e ebd1 d2bd 61bd 6d3e 1165 db3d
00000010: 666e 913b 6fe6 21be 8c16 02be 245d 8dbe
00000020: 8e3a 0dbe 60d9 d43c 5a9d ca3d 7004 c93b
00000030: b1de 143d 7fd3 53bb 9892 b0bc 7407 0abe
00000040: f08b 5fbc ac0f 623d 7f76 703c ad20 e43d
00000050: e9a6 063e 2999 76bd 291a adbc 651b fe3d
00000060: 80d6 2a3b 034c 8a3e a024 0e3d ac24 24be
00000070: 7274 aa3d 9f21 773b ccfb 343d c4bb 13be
00000080: d605 ea3d 2251 aabd cc3f 343d 01c5 02be
00000090: 5828 9abc e8f9 09bd 60a3 44bd 4ed2 c63d
000000a0: 2d84 ccbd 9880 e93c 30d9 173d b759 9ebd
000000b0: a864 0bbe 9461 5fbd 8041 3e3c 1433 38bd
000000c0: e0a2 99bb b84c b33c ce49 c43d 9cfa edbd
000000d0: 58b8 01be f010 753d 7455 573d e4ce 29bd
000000e0: 88c8 3a3d b0e6 8d3c 6039 2a3c d8a0 d13c
000000f0: 3e3e df3d 9b0f 8ebd 4428 23be 2858 a7bc
00000100: d1f4 c03d a8d1 b1bd 91a5 5abe 7ffb 59be
00000110: 4cf7 eabd c1b2 ccbc 67c5 1dbd a056 b4bd
00000120: b0fc b63c 22ee 75bd 0b0d 1a3e b848 c2bd
00000130: 1c62 cc3d f776 81bd 1bbc b2bd 3074 7c3d
00000140: 3900 c1bd 4ec9 24be 2d37 2bbe e657 2fbd
00000150: d263 0c3e 567c 2dbe c85f d73d a134 a93d
00000160: b2c9 d13d 0b1f e63d a001 3b3d 2eb0 e43d
00000170: 004e f23c f3f1 0c3d bc13 a8bd 5e69 01be
00000180: 832f 88bd 82ea e7bd 8730 123e 398e 11be
00000190: 5071 583d 12b2 02be 7468 8fbd 8c8c 0c3d
000001a0: 8ed1 f13d 302c fe3c 4008 c9bc 7088 23bc
000001b0: af3f e5bd c8a1 acbc 32e1 f13d d800 cfbc
000001c0: 0076 0a3a dd7c 323e c083 71bc 8f87 2f3e
000001d0: a05f 893d ee98 10be ab99 e4bd f0a6 823d
000001e0: 254e c0bd 296f b3bd 5e9a afbd 9275 aabd
000001f0: c0f4 01bc 46dc dc3d 80f2 06be 60d6 e13c
00000200: 84c9 b03d b93a 673d 29aa 1e3e 63eb 19be
00000210: a03d bebc 85df 2ebe d6ec a03d 27b6 c1bd
00000220: c0b8 fd3c 4481 1cbd 991c 103e 8e6a 29be
00000230: 9b9f fabd 964e b23d 5e98 90bd 9cbb 2abe
00000240: c0c5 21bb a91c e7bd c894 823c acab b23c
00000250: bcab f7bd 12f3 be3d f01f 15be a4c1 f0bb
00000260: 076f 1c3e 7dfd 86bc 43dd 02be 7f22 093e
00000270: 9751 10be 9d10 30bd 2249 acbd 845e 50bd
00000280: 1c04 143e adae ddbd a21e ee3d 3b27 323d
00000290: 0422 5fbe ce05 79be 80e9 f43c 455c 31be
000002a0: c89e d4bd 9653 f5bd 5f74 043e 4b0f 2f3e
000002b0: e35b dbbc 9f00 4abd 9055 a2bc 3c02 41bb
000002c0: 48eb 0fbe 32af bd3d affb 9cbd 6cbb e33e
000002d0: c82b 433e 11a1 51be 2fce 4f3e bafd 8b3d
000002e0: 0c9c 743d e6d0 9b3e 50b3 863c 2043 f9bb
000002f0: 9310 2a3e baa2 ca3d cff0 cdbd 8630 d3bd
00000300: ae50 b03c e7f8 c8bd 0a03 9e3e 42a7 7f3d
00000310: 29d2 adbd ebf5 c23c 128e e23c 6a2e 6dbe
00000320: 6aee 1fbe 2040 dd3b 50ae 013d 7595 03be
00000330: 00c4 d03d 803a 5bbe e602 a1bd 0b9f 203e
00000340: 5233 863d 0245 b9bd 5dfb 85bd c0c4 703e
00000350: c8c4 673e f216 67be dcdd 703e 547d 4f3e
00000360: 60dd 85bb d94c d93d 386e 923d a34d 0f3e
00000370: 537f d2bd f225 893e 8639 b93d b21d 75bd
00000380: 0ade 2fbc 8f79 04be 1333 e9bc fcfb f1ba
00000390: 84fe 183e 8f94 f13a 6a83 f23d 3e6f 0ebe
000003a0: 140b 0fbd f878 e33c 4062 25bb 95e6 a63d
000003b0: f653 6f3d 8fc2 903d d30f 293e 817d 43be
000003c0: d47b 57bd 0669 a33d 2493 8fbb 4466 30bd
000003d0: f1ba 543d 5af0 453d a4ca 393e 6600 1c3e
000003e0: 30e7 66bc 60d5 aabd 1c96 313d b4d5 753d
000003f0: 208a 15bd f294 d3bd 8692 b03d b448 37bd
0.17259398 -0.10293945 0.23216774 0.10712636 0.0044382093 -0.1581056 -0.12703913 -0.27610123
-0.13791868 0.025982559 0.09893294 0.006134562 0.036345188 -0.0032322106 -0.021554276 -0.13479406
-0.013644204 0.055190727 0.014676689 0.11139045 0.13149609 -0.06020466 -0.021130638 0.12407569
0.0026067793 0.27011117 0.034702897 -0.16029614 0.083229914 0.0037709249 0.044185445 -0.14427096
0.11426894 -0.08316256 0.044006154 -0.12770464 -0.018818066 -0.033685595 -0.04800737 0.09708081
-0.09986148 0.028503701 0.03707236 -0.077319555 -0.13612616 -0.054536417 0.011612296 -0.044970587
-0.0046886057 0.021887168 0.095843896 -0.116200656 -0.12667978 0.059830606 0.05257173 -0.041457072
0.045601398 0.017321914 0.010389656 0.025589392 0.10900544 -0.0693657 -0.15933329 -0.020427778
0.09421695 -0.08682567 -0.21352221 -0.21287344 -0.114729494 -0.02498758 -0.038518336 -0.08805585
0.022337288 -0.060041554 0.15044038 -0.09486526 0.099796504 -0.06321519 -0.087272845 0.061634243
-0.094238706 -0.16092417 -0.16720267 -0.042808436 0.13709953 -0.16941962 0.10516316 0.08261991
0.102435485 0.1123639 0.045655847 0.11166416 0.029578209 0.03441043 -0.08206889 -0.1263785
-0.06649687 -0.11324026 0.14276324 -0.1421441 0.05284244 -0.12763241 -0.07002345 0.034313723
0.118075475 0.03102693 -0.024540067 -0.00998126 -0.11193787 -0.021073237 0.11810531 -0.025268957
0.00052818656 0.17430444 -0.014740884 0.17141555 0.06707692 -0.14120838 -0.11162122 0.06379497
-0.09389905 -0.087614365 -0.08574365 -0.08323206 -0.007931888 0.10784201 -0.13178444 0.027568042
0.08632186 0.056452487 0.15494598 -0.15031199 -0.023222744 -0.17077453 0.07857673 -0.09458571
0.030971885 -0.038209215 0.14073409 -0.16544554 -0.122374736 0.08706395 -0.07060312 -0.1667313
-0.0024684519 -0.11284763 0.015940085 0.021810375 -0.120933026 0.09323706 -0.14562964 -0.0073473025
0.15276729 -0.016478295 -0.12779717 0.13392065 -0.14093624 -0.042984594 -0.084123865 -0.050871387
0.14454693 -0.108243324 0.116269365 0.043494444 -0.2179032 -0.2431862 0.029896498 -0.17320354
-0.103818476 -0.119788334 0.12935017 0.17095678 -0.026777213 -0.049317 -0.01981619 -0.0029450795
-0.14054596 0.092619315 -0.07665192 0.4447893 0.1905967 -0.20471598 0.20293497 0.06835504
0.05971913 0.30432814 0.016442925 -0.007606879 0.16607885 0.09894319 -0.10055696 -0.103119895
0.021522846 -0.09813099 0.30861694 0.06241537 -0.084873505 0.023798903 0.027655635 -0.23162237
-0.15618291 0.006752029 0.031660378 -0.12849982 0.10193634 -0.21409035 -0.07861881 0.1568567
0.06552757 -0.09046365 -0.06542084 0.23512554 0.2263366 -0.22567347 0.23522133 0.20262653
-0.004085228 0.10610361 0.07149929 0.1399446 -0.102781914 0.26786762 0.09044175 -0.059842773
-0.010734091 -0.12936996 -0.028466737 -0.0018461938 0.1494084 0.0018431115 0.118414715 -0.13909623
-0.034922674 0.027767643 -0.0025235564 0.08149449 0.05842968 0.07068359 0.16509943 -0.19090845
-0.052608326 0.07979016 -0.004381554 -0.043066278 0.051936094 0.04832492 0.18143708 0.15234527
-0.014093205 -0.08341479 0.043356046 0.060018256 -0.03650868 -0.103311434 0.08621697 -0.04474707

l3.bias f4 [16]
00000000: eb5b ad3d 3c1d 0abe 7e48 a73d 787a 15be
00000010: ca45 103e c4f7 6f3e 6b49 5b3b 54d4 1bbe
00000020: 9898 bb3d 4904 adbd bb37 523e 0253 043e
00000030: 9c6b 463e 36d6 583e e574 2e3e ed1e 163e
0.084647976 -0.13487715 0.08168124 -0.145975 0.14089122 0.23434359 0.0033460509 -0.15217716
0.09159964 -0.08448083 0.20529072 0.1292229 0.19376987 0.21175465 0.17036779 0.14660235

l4.weight f4 [1, 16]
00000000: 4141 973e a0e6 b2bd 9625 edbc 542b 4ebe
00000010: 8d24 1bbd 3ccc cb3e 565b a23e db83 523e
00000020: e2da 5dbe 203a 52bd 223e 1e3e 7603 efbe
00000030: e4f8 763e dc4d 02be d4eb 9f3d 34f5 63be
0.29541972 -0.087353945 -0.028948586 -0.20133716 -0.037876654 0.39804256 0.3171031 0.20558111
-0.21665528 -0.051324964 0.1545339 -0.46682328 0.24118382 -0.12725013 0.078086525 -0.22261506
