project/models/model_w1_1.525_lam_2.0_lam2_1.525_w2_0.05500000000000001.pt_actor.pt (torch, 8440 bytes, 7 tensors)

l1.weight f4 [16, 1]
000000 ac da 57 3f e1 a8 e4 3e fb e2 23 be f4 97 cd 3e
       0.8431804 0.44660094 -0.16004555 0.40154994
000010 70 b1 8e bd 80 53 9e 3d aa c0 13 3f 10 40 ec 3d
       -0.06967437 0.0773077 0.5771586 0.115356565
000020 1f eb c3 3f c0 6d d4 bd b8 74 6e bf ea e5 e6 be
       1.5306128 -0.10372496 -0.9314685 -0.45097286
000030 a2 c3 35 bf f9 e4 1b 3f 3c 77 4a 3f fd c1 23 3f
       -0.71001637 0.6089626 0.7908819 0.6396788

l1.bias f4 [16]
000000 d2 3f 53 3f 20 cc 33 3e 75 09 56 3f 8a d8 2e bf
       0.8251926 0.17558336 0.8360818 -0.6829916
000010 36 31 12 bf 78 b5 7f bf ba 58 68 3e 44 b9 03 bf
       -0.5710634 -0.99886274 0.22690096 -0.5145457
000020 0b a3 52 bd f3 45 40 3f fd 94 5c 3f 58 3e be 3e
       -0.05142502 0.75106734 0.8616484 0.3715694
000030 92 9b 5f 3e 60 94 62 3f d1 6d 03 3f 1e 9c 82 3e
       0.21836689 0.8850765 0.5133944 0.25509733

l2.weight f4 [32, 16]
000000 0b 5a dc 3d b4 f0 95 3d 8f b2 ad 3e 2c e3 28 be
       0.10759362 0.07321301 0.33925292 -0.16492909
000010 2a ff 1f 3e e0 ad d9 bd bb d2 a8 3d dc b2 9c 3d
       0.15624681 -0.10628867 0.08243319 0.07651302
000020 25 61 38 40 0e 45 83 bc 26 68 4c 3e ae 51 16 3e
       2.8809292 -0.016024139 0.19961604 0.14679596
000030 30 84 21 3e 5c 1a 26 3e 3b 44 cc 3e f8 31 5c bd
       0.15773082 0.16220993 0.39895806 -0.05375859
000040 2d ae b6 3d 33 74 86 3e 45 a5 fd bd c0 54 f2 3d
       0.0891994 0.26260528 -0.12385038 0.11832571
000050 34 a0 97 bd 74 8c 0b be 42 d2 65 3d 08 e9 40 be
       -0.07403603 -0.13627797 0.05610872 -0.18838894
000060 6c ab 41 3f 5e ee d6 3b 7b f3 18 be 14 b6 38 3d
       0.75652194 0.0065591773 -0.1493663 0.04509552
000070 9a f3 3d be ad 62 45 3e 15 cd b2 3e a4 1e d1 3e
       -0.18549958 0.19275923 0.3492209 0.4084369
000080 05 3d d3 3b 87 15 c1 be 27 89 5b 3e 28 ea b0 3d
       0.006446483 -0.37711737 0.21439038 0.08638412
000090 58 18 b8 3d 88 cc 5f be 9d 53 7c be fa e9 6f be
       0.08989018 -0.21855366 -0.24641271 -0.23429099
0000a0 50 e7 d6 3d b0 2d 05 3e d2 fb c9 3e 8d f0 98 3e
       0.10493338 0.1300571 0.39449936 0.29871026
0000b0 5e 56 fa 3e 7d 24 99 bd 59 c6 1d 3e 97 d1 3c be
       0.48894018 -0.07477663 0.15407695 -0.18439327
0000c0 e9 22 b6 3e 9e 7c f6 3e f4 5f 81 3e c4 cb a5 bd
       0.3557351 0.4814195 0.2526852 -0.08095506
0000d0 50 32 36 bd b8 f6 5b 3e 79 09 72 3e 58 bc 2b 3d
       -0.044481575 0.21480834 0.23636426 0.041927665
0000e0 75 94 62 40 4f 12 b0 3e 38 98 82 3e f5 b9 69 bc
       3.540311 0.34388968 0.2550676 -0.014265527
0000f0 31 4d 23 3d 29 bc ac 3e 82 72 90 3d 72 7b c1 3e
       0.039868537 0.33737305 0.07053091 0.37789494
000100 6c 64 14 3e cb 26 da 3e 35 1f 96 3e 80 20 63 bb
       0.14491433 0.42607722 0.29320684 -0.0034656823
000110 12 bb 0a 3e 6c f4 1e 3e fc 20 75 bd 9c 5d ed 3d
       0.13547924 0.15522927 -0.05984591 0.1159012
000120 17 25 4f 3f 9d aa 2f 3e 77 fd 66 be a6 57 b8 3d
       0.8091597 0.17154928 -0.22557627 0.090010926
000130 c3 68 09 bf 58 3c a1 3e ce 8e 0e bd 21 9f b6 3e
       -0.5367548 0.3149135 -0.034804158 0.3566828
000140 48 0d 6f 3e aa 2c 9d 3e 91 76 4c be 64 b0 7b be
       0.2334491 0.30698138 -0.19967104 -0.24579006
000150 00 ca 80 3b c0 37 d1 3d 51 32 a5 3e c8 79 11 be
       0.0039303303 0.102157116 0.3226495 -0.14206612
000160 7f 9d 3a 3f bf e3 25 be 96 26 b8 3d e7 51 74 bd
       0.7289657 -0.1620016 0.08991735 -0.05964842
000170 06 9f d2 be e2 0f 91 3e d0 80 c1 3d da 41 b5 3e
       -0.4113695 0.2833243 0.09448397 0.35401803
000180 55 94 b9 3b 33 6c b4 3e 8c 4e 47 3e 70 68 80 bc
       0.0056634345 0.352388 0.19463557 -0.0156748
000190 e0 87 93 bd 10 c7 9b 3d 44 d0 b8 3e da 02 0c be
       -0.072036505 0.076063275 0.36096394 -0.13672963
0001a0 39 27 11 40 e6 91 29 3e 6f b1 56 3e e4 fe 40 3e
       2.268019 0.16559562 0.20966123 0.18847233
0001b0 a0 f8 8f 3c f8 f2 8a 3c 74 59 5d 3e 4f d3 f4 3d
       0.017574608 0.01696156 0.21616155 0.119543664
0001c0 41 e9 50 bd 24 fa aa 3e 28 ff 6f 3e 00 81 aa 3b
       -0.0510037 0.33393967 0.23437178 0.0052033663
0001d0 cc 2a e5 3d 80 00 9f bc 9f ab aa 3e 22 ab 6f be
       0.111898035 -0.019409418 0.33334062 -0.23405126
0001e0 34 08 4a 3f 4c 5f 69 3e 81 3d e5 bd be 31 82 be
       0.78918767 0.22790259 -0.111933716 -0.25428575
0001f0 de 12 5d be 24 0a c8 bd 8a ef f1 3d 2c b2 5c 3d
       -0.21589229 -0.09767559 0.118132666 0.053880855
000200 7a c4 14 3e 58 f9 6f 3e e0 b6 77 3d 48 90 dc bd
       0.14528075 0.23434961 0.060477138 -0.10769707
000210 88 52 d0 bd 78 1a f8 3d e8 11 05 3d 80 62 93 3b
       -0.101719916 0.121144235 0.03248778 0.004497826
000220 58 ad 67 be fa 3c 22 be 50 5d 37 be 76 61 79 3e
       -0.22624719 -0.15843573 -0.1790669 0.24353585
000230 c0 fa df bc 7c f5 64 be 36 aa 3b be 20 64 28 bc
       -0.027341247 -0.2235927 -0.18326649 -0.010277778
000240 06 31 59 be 0e 4c 6a be 10 41 a1 3c 2a e9 00 3e
       -0.21210107 -0.22880575 0.019684345 0.12588945
000250 98 57 d7 3d a2 47 3c be 10 9a c8 bc 94 c0 a8 3d
       0.10514754 -0.18386701 -0.024487525 0.08239856
000260 d2 00 29 3e c4 6d 4d be c6 0a 3e be 78 5c f1 3d
       0.16504219 -0.20061404 -0.18558797 0.11785215
000270 36 66 7f be 04 f5 d8 bd 28 17 a9 bd d0 c5 f9 3c
       -0.24941334 -0.10593608 -0.0825637 0.030489832
000280 d6 dc 29 be fc df 08 be 00 4c c3 b9 e8 9e c0 3d
       -0.16588148 -0.13366693 -0.00037249923 0.09405309
000290 7e 74 5f be 20 6e 5a be e2 96 6c be f4 e5 b0 bd
       -0.21821782 -0.21331072 -0.23104432 -0.0863761
0002a0 d0 1d 31 be 0e c6 61 be 00 48 24 bc 64 54 5e 3e
       -0.17296529 -0.22048208 -0.010026932 0.2171188
0002b0 c4 aa 0d be 50 a3 1c 3e 20 48 7c bd ee 80 04 3e
       -0.13834673 0.15296674 -0.06159222 0.12939808
0002c0 b5 ea 27 bd 69 7b 3a be 03 c4 f9 3d d4 6c 43 be
       -0.04099532 -0.1821114 0.121955894 -0.19084483
0002d0 12 54 69 3e a0 30 67 3d 8a ff e9 3d d8 77 3b bd
       0.22785977 0.056442857 0.11425693 -0.04576859
0002e0 2a 1b da bd 55 5f d6 3c 01 23 e8 bc 52 3a 81 3d
       -0.106497124 0.026168505 -0.028337004 0.06309952
0002f0 f8 db 15 3d 16 aa 54 be 73 0d 38 3d fd 40 73 3e
       0.03658673 -0.20768008 0.0449347 0.2375526
000300 67 b6 1d 3e ec 39 e4 be 5a 9b 4b 3e f4 56 1f be
       0.15401612 -0.4457544 0.1988348 -0.15560514
000310 28 30 38 be e0 81 9f 3d 17 05 26 bd b0 aa ed 3d
       -0.1798712 0.077884436 -0.040532198 0.11604822
000320 12 46 b2 bd cf e6 d4 3d 60 9a cb 3d a3 a4 4b 3e
       -0.08704771 0.10395586 0.09941554 0.19887023
000330 1a b0 86 3e 44 4a 2d be 2b 92 04 3e 98 15 94 be
       0.2630623 -0.16922861 0.12946384 -0.28922725
000340 46 89 3e 3e d5 f8 f0 3e f9 ba 18 be ca 94 4a 3e
       0.18607053 0.47064844 -0.14915074 0.19783321
000350 90 a4 6a 3d c0 21 3c 3c e2 26 d5 3e a8 d3 44 be
       0.057285845 0.011482656 0.41631228 -0.19221365
000360 43 92 70 3f ab 04 b1 bc 8a 83 24 be a1 bb 19 be
       0.9397318 -0.021608671 -0.16065803 -0.15012981
000370 3e 60 4f be 71 bd 43 3e c8 9c bf 3e 8e 4b c1 3e
       -0.20251557 0.19115235 0.37424302 0.37752956
000380 24 71 74 be 30 07 2f 3e 50 87 7d 3d 10 3f 3c 3d
       -0.23871285 0.17092586 0.061896622 0.04595858
000390 58 3f d5 bd de 5b 1e 3e 50 9d 26 be dc 87 dd bd
       -0.104124725 0.15464732 -0.16270947 -0.10816929
0003a0 ba 18 20 3e bc 62 77 3e 54 a3 b2 bd b4 fe 25 3e
       0.15634432 0.24158758 -0.087225586 0.16210443
0003b0 34 16 00 be 46 1a 74 be fc 5d d3 3d 50 74 ab 3d
       -0.1250847 -0.23838148 0.103206605 0.08371794
0003c0 8d 3c 97 3d f6 04 d6 3e 8a 33 db 3d 10 6b 42 3e
       0.07384596 0.4180066 0.1070319 0.18986154
0003d0 82 7d 39 be 54 56 b1 3d 58 ba ec 3d 9c b4 b9 3d
       -0.18114284 0.08659044 0.1155898 0.09067652
0003e0 33 22 99 3f fd c0 00 3d 73 3d a9 3d d1 b5 a4 be
       1.1963562 0.031434048 0.08263674 -0.32169965
0003f0 96 0a 9d be 6b 23 12 3e 50 9c 0d 3e 1e fa 70 3e
       -0.3067214 0.14271323 0.1382916 0.23532912

l2.bias f4 [32]
000000 f0 78 48 3e 73 e7 f3 3d 86 55 82 bc 71 70 c1 3e
       0.19577384 0.1190938 -0.015909921 0.37781098
000010 66 44 26 be 47 a7 03 3e ab 8c 4a 3e 49 36 66 3d
       -0.1623703 0.1285678 0.19780223 0.056204114
000020 04 bf 44 3e 6e 30 4c be 80 e9 44 bd 11 a4 e0 bc
       0.19213492 -0.1994035 -0.048074245 -0.027421983
000030 46 84 12 bd fd 33 6c 3e 6e 3f 25 be d1 32 a5 3e
       -0.035770677 0.23066707 -0.16137478 0.32265332
000040 a0 40 5e be fe 57 65 be c8 fc 86 3e fc 4e 60 3e
       -0.2170434 -0.22396848 0.26364732 0.2190513
000050 18 d6 f0 3d d1 9d 88 3e 3e 74 96 3e fb 8a 6d 3e
       0.11759585 0.26682904 0.2938556 0.23197548
000060 80 db 87 bd 97 7e eb 3d b8 5c 35 3e 78 ad cf bd
       -0.06633663 0.114987545 0.1771115 -0.101405084
000070 80 bd 42 3e 97 cc 2e 3d 08 3b c1 3d 33 4f 63 be
       0.19017601 0.04267558 0.094350874 -0.22198181

l3.weight f4 [16, 32]
000000 fa 87 32 3e b8 01 c1 bd 6c 39 6a 3e 8b e1 e2 3d
       0.17434683 -0.09424156 0.22873467 0.11078175
000010 a9 cc 54 3c 16 76 19 be 1f bb 00 be 2f 92 86 be
       0.012988248 -0.14986452 -0.12571381 -0.26283404
000020 8e 3a 0d be 60 d9 d4 3c 5a 9d ca 3d 70 04 c9 3b
       -0.13791868 0.025982559 0.09893294 0.006134562
000030 a2 f4 e8 3c 3a 2b 89 3b 98 92 b0 bc ef 80 03 be
       0.028436963 0.004186061 -0.021554276 -0.12842153
000040 f0 8b 5f bc ac 0f 62 3d 89 7a b8 3c c4 39 de 3d
       -0.013644204 0.055190727 0.022519367 0.10850862
000050 e6 70 06 3e ac 55 59 bd 98 91 c3 bc 5a 07 fb 3d
       0.13129005 -0.05306022 -0.023873135 0.122572616
000060 80 d6 2a 3b ee ef 88 3e a0 24 0e 3d ac 24 24 be
       0.0026067793 0.26745552 0.034702897 -0.16029614
000070 72 74 aa 3d 6b e0 42 bb cc fb 34 3d 22 0c d2 bf
       0.083229914 -0.0029735814 0.044185445 -1.6409953
000080 d6 05 ea 3d 22 51 aa bd cc 3f 34 3d 01 c5 02 be
       0.11426894 -0.08316256 0.044006154 -0.12770464
000090 58 28 9a bc e8 f9 09 bd 60 a3 44 bd 4e d2 c6 3d
       -0.018818066 -0.033685595 -0.04800737 0.09708081
0000a0 2d 84 cc bd 98 80 e9 3c 30 d9 17 3d b7 59 9e bd
       -0.09986148 0.028503701 0.03707236 -0.077319555
0000b0 a8 64 0b be 94 61 5f bd 80 41 3e 3c 14 33 38 bd
       -0.13612616 -0.054536417 0.011612296 -0.044970587
0000c0 e0 a2 99 bb b8 4c b3 3c ce 49 c4 3d 9c fa ed bd
       -0.0046886057 0.021887168 0.095843896 -0.116200656
0000d0 58 b8 01 be f0 10 75 3d 74 55 57 3d e4 ce 29 bd
       -0.12667978 0.059830606 0.05257173 -0.041457072
0000e0 88 c8 3a 3d b0 e6 8d 3c 60 39 2a 3c d8 a0 d1 3c
       0.045601398 0.017321914 0.010389656 0.025589392
0000f0 3e 3e df 3d 9b 0f 8e bd 44 28 23 be 28 58 a7 bc
       0.10900544 -0.0693657 -0.15933329 -0.020427778
000100 d1 f4 c0 3d a8 d1 b1 bd 91 a5 5a be 7f fb 59 be
       0.09421695 -0.08682567 -0.21352221 -0.21287344
000110 4c f7 ea bd c1 b2 cc bc 67 c5 1d bd a0 56 b4 bd
       -0.114729494 -0.02498758 -0.038518336 -0.08805585
000120 b0 fc b6 3c 22 ee 75 bd 0b 0d 1a 3e b8 48 c2 bd
       0.022337288 -0.060041554 0.15044038 -0.09486526
000130 1c 62 cc 3d f7 76 81 bd 1b bc b2 bd 30 74 7c 3d
       0.099796504 -0.06321519 -0.087272845 0.061634243
000140 39 00 c1 bd 4e c9 24 be 2d 37 2b be e6 57 2f bd
       -0.094238706 -0.16092417 -0.16720267 -0.042808436
000150 d2 63 0c 3e 56 7c 2d be c8 5f d7 3d a1 34 a9 3d
       0.13709953 -0.16941962 0.10516316 0.08261991
000160 b2 c9 d1 3d 0b 1f e6 3d a0 01 3b 3d 2e b0 e4 3d
       0.102435485 0.1123639 0.045655847 0.11166416
000170 00 4e f2 3c f3 f1 0c 3d bc 13 a8 bd 5e 69 01 be
       0.029578209 0.03441043 -0.08206889 -0.1263785
000180 83 2f 88 bd 82 ea e7 bd 87 30 12 3e 39 8e 11 be
       -0.06649687 -0.11324026 0.14276324 -0.1421441
000190 50 71 58 3d 12 b2 02 be 74 68 8f bd 8c 8c 0c 3d
       0.05284244 -0.12763241 -0.07002345 0.034313723
0001a0 8e d1 f1 3d 30 2c fe 3c 40 08 c9 bc 70 88 23 bc
       0.118075475 0.03102693 -0.024540067 -0.00998126
0001b0 af 3f e5 bd c8 a1 ac bc 32 e1 f1 3d d8 00 cf bc
       -0.11193787 -0.021073237 0.11810531 -0.025268957
0001c0 00 76 0a 3a dd 7c 32 3e c0 83 71 bc 8f 87 2f 3e
       0.00052818656 0.17430444 -0.014740884 0.17141555
0001d0 a0 5f 89 3d ee 98 10 be ab 99 e4 bd f0 a6 82 3d
       0.06707692 -0.14120838 -0.11162122 0.06379497
0001e0 25 4e c0 bd 29 6f b3 bd 5e 9a af bd 92 75 aa bd
       -0.09389905 -0.087614365 -0.08574365 -0.08323206
0001f0 c0 f4 01 bc 46 dc dc 3d 80 f2 06 be 60 d6 e1 3c
       -0.007931888 0.10784201 -0.13178444 0.027568042
000200 84 c9 b0 3d b9 3a 67 3d 29 aa 1e 3e 63 eb 19 be
       0.08632186 0.056452487 0.15494598 -0.15031199
000210 a0 3d be bc 85 df 2e be d6 ec a0 3d 27 b6 c1 bd
       -0.023222744 -0.17077453 0.07857673 -0.09458571
000220 c0 b8 fd 3c 44 81 1c bd 99 1c 10 3e 8e 6a 29 be
       0.030971885 -0.038209215 0.14073409 -0.16544554
000230 9b 9f fa bd 96 4e b2 3d 5e 98 90 bd 9c bb 2a be
       -0.122374736 0.08706395 -0.07060312 -0.1667313
000240 c0 c5 21 bb a9 1c e7 bd c8 94 82 3c ac ab b2 3c
       -0.0024684519 -0.11284763 0.015940085 0.021810375
000250 bc ab f7 bd 12 f3 be 3d f0 1f 15 be a4 c1 f0 bb
       -0.120933026 0.09323706 -0.14562964 -0.0073473025
000260 07 6f 1c 3e 7d fd 86 bc 43 dd 02 be 7f 22 09 3e
       0.15276729 -0.016478295 -0.12779717 0.13392065
000270 97 51 10 be 9d 10 30 bd 22 49 ac bd 84 5e 50 bd
       -0.14093624 -0.042984594 -0.084123865 -0.050871387
000280 e1 c0 19 3e 20 e2 bf bd df 40 e9 3d b8 72 4f 3d
       0.15014984 -0.09369302 0.11389326 0.050646514
000290 56 4b 50 be 1e 96 6a be 56 3a 0f 3d d5 fe 1b be
       -0.20341238 -0.22908828 0.034967743 -0.1523393
0002a0 c8 9e d4 bd 96 53 f5 bd 5f 74 04 3e 4b 0f 2f 3e
       -0.103818476 -0.119788334 0.12935017 0.17095678
0002b0 37 0a 0d bd 5f 75 13 bd 90 55 a2 bc 58 49 06 3c
       -0.03443357 -0.036000606 -0.01981619 0.008196197
0002c0 48 eb 0f be 32 af bd 3d 35 7d 80 bd 28 ba e2 3e
       -0.14054596 0.092619315 -0.06273881 0.4428265
0002d0 f6 61 46 3e 0d 85 44 be 95 f6 4e 3e e3 42 8e 3d
       0.19373307 -0.1919138 0.20211251 0.069463514
0002e0 0c 9c 74 3d b3 1f 9b 3e 50 b3 86 3c 20 43 f9 bb
       0.05971913 0.30297622 0.016442925 -0.007606879
0002f0 93 10 2a 3e b8 30 be 3d cf f0 cd bd 49 ad d5 bf
       0.16607885 0.09286636 -0.10055696 -1.6693507
000300 74 ca c8 3c 9d 11 b3 bd 4d 6c 9c 3e 6c a7 89 3d
       0.0245106 -0.08743594 0.30551377 0.06721386
000310 0e 22 98 bd 6a 9e 0b 3d 77 4b f7 3c 3c df 5c be
       -0.074283704 0.034086622 0.030187352 -0.21569532
000320 6a ee 1f be 20 40 dd 3b 50 ae 01 3d 75 95 03 be
       -0.15618291 0.006752029 0.031660378 -0.12849982
000330 58 a6 c0 3d fb 88 51 be e6 02 a1 bd c2 c8 28 3e
       0.094067276 -0.2046241 -0.07861881 0.16482833
000340 52 33 86 3d 02 45 b9 bd 88 51 63 bd b9 1a 6e 3e
       0.06552757 -0.09046365 -0.055497676 0.23252381
000350 89 a2 68 3e f1 be 5d be 92 a4 6e 3e 5a ce 4e 3e
       0.22718252 -0.2165487 0.23304966 0.20195904
000360 60 dd 85 bb fe af d4 3d 38 6e 92 3d a3 4d 0f 3e
       -0.004085228 0.1038513 0.07149929 0.1399446
000370 53 7f d2 bd e8 c0 85 3e 86 39 b9 3d f1 00 d7 bf
       -0.102781914 0.26123738 0.09044175 -1.6797162
000380 3f e3 93 bc 65 27 0b be 2b a6 e9 bc fd f4 fc bb
       -0.018052695 -0.13589247 -0.028521618 -0.0077196346
000390 48 58 10 3e 9b 69 67 bb 08 8e e5 3d 5e 46 16 be
       0.14096177 -0.0035310748 0.11208731 -0.1467528
0003a0 14 0b 0f bd f8 78 e3 3c 40 62 25 bb 95 e6 a6 3d
       -0.034922674 0.027767643 -0.0025235564 0.08149449
0003b0 f6 53 6f 3d b9 30 84 3d d3 0f 29 3e b7 38 51 be
       0.05842968 0.064546056 0.16509943 -0.20431791
0003c0 d4 7b 57 bd 06 69 a3 3d 1c 4c 1c bc 90 5e 45 bd
       -0.052608326 0.07979016 -0.00953963 -0.048185885
0003d0 aa c9 45 3d 85 d3 24 3d ad 7c 38 3e f3 db 19 3e
       0.048288025 0.040240783 0.1801631 0.1502531
0003e0 30 e7 66 bc ca 62 ab bd 1c 96 31 3d b4 d5 75 3d
       -0.014093205 -0.08368452 0.043356046 0.060018256
0003f0 20 8a 15 bd 0f 9b d3 bd 86 92 b0 3d 98 fc 3c bd
       -0.03650868 -0.103323095 0.08621697 -0.04613933

l3.bias f4 [16]
000000 da 6f af 3d 3c 1d 0a be 7e 48 a7 3d 78 7a 15 be
       0.08566256 -0.13487715 0.08168124 -0.145975
000010 ca 45 10 3e 67 da 73 3e 07 14 af 3b 50 6a 1d be
       0.14089122 0.23813783 0.0053429636 -0.15372586
000020 98 98 bb 3d 49 04 ad bd 39 0f 52 3e 4f ae 06 3e
       0.09159964 -0.08448083 0.2051362 0.13152431
000030 15 1a 45 3e bb 8b 59 3e e5 74 2e 3e ed 1e 16 3e
       0.19248231 0.21244709 0.17036779 0.14660235

l4.weight f4 [1, 16]
000000 8b 4c 92 3e a0 e6 b2 bd 96 25 ed bc 54 2b 4e be
       0.28574023 -0.087353945 -0.028948586 -0.20133716
000010 8d 24 1b bd 73 72 c7 3e 7a 90 9d 3e a6 83 52 3e
       -0.037876654 0.38954505 0.3077429 0.20558032
000020 e2 da 5d be 20 3a 52 bd d8 d9 14 3e 0f ce f0 be
       -0.21665528 -0.051324964 0.14536226 -0.4703221
000030 66 f7 6e 3e 07 5f 04 be d4 eb 9f 3d 34 f5 63 be
       0.23336563 -0.12926875 0.078086525 -0.22261506
