project/models/model_w1_0.575_lam_1.05_lam2_1.525_w2_0.1.pt_critic.pt (torch, 15318 bytes, 14 tensors)

l1.weight f4 [16, 2]
00000000: 265b 143f ee24 033f 6c00 2dbe 7782 49bf
00000010: c0a9 f13d 6874 b33d 0fdf f6be 59fa a0bc
00000020: 9ca8 f5be 9cdc 76be f0ee a63e dada 1dbe
00000030: a378 153f 248c 7abe ffbf ec3e 35f4 1c3d
00000040: 0a27 bd3e cc2e 1ebd 79fb 4e3e 3123 20bf
00000050: 86d0 b6bd 2bd9 b83e 3d08 f73e 6cdb 9abd
00000060: 5473 063e f8b4 f73d 14d5 b9be fa24 98be
00000070: dacf 27bf 9490 3cbe 0965 4b3f b274 8b3e
0.5795158 0.51228225 -0.16894692 -0.787147 0.11799955 0.08762437 -0.48217055 -0.019650625
-0.479802 -0.24107593 0.3260417 -0.15415516 0.583872 -0.24467522 0.4624023 0.03831883
0.36943847 -0.038618848 0.20213117 -0.625537 -0.089264914 0.36103186 0.48248473 -0.07561383
0.13129932 0.12095064 -0.36295378 -0.2971571 -0.6555153 -0.18414527 0.7945104 0.2723747

l1.bias f4 [16]
00000000: de68 66bd 608c 90be 91dc 84be 17a0 f63e
00000010: c713 cebe cc4f c83e 379d 56bd 36bb 65bd
00000020: 8d3c d1be c40a 443f 18d5 323f fd96 de3e
00000030: 2187 cbbe d4c9 be3e bacf 283f e694 c43e
-0.056252353 -0.28232098 -0.2594953 0.48169014 -0.40249464 0.3912338 -0.052396026 -0.05608674
-0.4086651 0.7657893 0.69856405 0.4347457 -0.39751533 0.37263358 0.65941966 0.3839485

l2.weight f4 [32, 16]
00000000: 0000 303e 40f5 1b3d acf1 8f3d 9c1a dabd
00000010: 6806 59bd c0e9 29be b0d5 453d 001a 23be
00000020: c201 293e d879 6cbe cc72 363e 083c e4bd
00000030: 5ad2 3f3e 7c6d 57be c865 7b3e dc71 edbd
00000040: a476 ba3d 7086 12be 3ed0 06be 9886 c4bd
00000050: a0f6 0a3c 7010 e6bd f409 92bd 906b aabd
00000060: c2e2 033e 0453 2fbe 6ea1 78be 40c5 c63c
00000070: a088 103c 9050 723d 08a7 10be e419 c9bd
00000080: 80e2 f0bb 0083 f4bc 5897 a73d 9003 e13c
00000090: 920f 06be 767f 71be a83c 1abd f00a 1d3d
000000a0: bcef 283e 084e 2ebd c649 00be 6cb4 3abe
000000b0: 1878 4bbd f4e9 febd 18c0 28be 2c23 a63d
000000c0: 7707 843e dc91 aebe 9a2b 493e 3677 f1be
000000d0: b0a8 a3bd cb99 b03e bc82 8abb 5835 ad3e
000000e0: a986 5abe 24eb 683e 99b7 523d e861 253e
000000f0: 3455 40be 177a 56be e727 febd 1536 7d3e
00000100: 31d7 ca3e edb2 913d be4a 623e 53e7 e8be
00000110: 1063 433d 094c 673e aca8 803d 674e d53e
00000120: 9b55 5ebe f1ae 7f3e 25c2 143e 29f7 473e
00000130: c80b 79bd 51e2 a6be 720e 8cbe e496 963e
00000140: 2d23 cc3e d583 20be 38d0 0abe cdd5 b9be
00000150: 1c41 b93d ae9d b43a de09 ce3d 1673 2b3e
00000160: dba2 55be 4a65 df3d fe37 dd3d 1acd 783e
00000170: 4849 0cbd 905b 14bf ce93 6bbd 7f9b a33e
00000180: dfeb b93e aba0 7fbd 9470 39be 2f7b 11bf
00000190: be9d 6dbe 5905 c53e e816 973e 22d2 a83d
000001a0: 2560 663d 4b0d 603e aa79 a03d 085e 883c
000001b0: 34c8 993d 4128 13bf 29c7 babe 7177 633e
000001c0: d360 d03e b18f 3dbe 34b0 7bbe 9c12 43be
000001d0: 589a 19bd a952 f03d e866 ee3e c085 053e
000001e0: 72f1 51be 8f21 1c3e 19da 2f3e 3984 a23e
000001f0: bc16 063e 8c93 45be 2060 66be fd60 443e
00000200: fa44 093e 12b7 03bd 384b 553e db24 c1be
00000210: b012 f83c c8ff 153e 5dfd 843e 793f c23e
00000220: 16a8 e73d ed41 4d3d 79db 5fbe e530 5b3e
00000230: 40c1 57bc 8a37 6cbe 96b8 1dbf b393 af3e
00000240: 0094 35bc dd65 1bbe 0ec1 6cbe 9595 1bbe
00000250: 000b 20bd 05ab 5fbd 4cfd 053c 9ef7 5f3e
00000260: d5f3 cb3d edfa ce3d 64af 86bd 1844 f6bc
00000270: 90b4 ee3d ab1a c9bc 7d7b da3c 4538 26be
00000280: 3839 efbd 80f1 2ebd 04b9 1abe d6a1 28be
00000290: 3ef2 5cbe c493 5abe 6261 48be f01c f3bd
000002a0: 0026 e03a ee61 233e 6eb2 4e3e 4a93 3dbe
000002b0: 40a6 dfbc c436 093e 80e9 68bd 3c16 cf3d
000002c0: c8cb 743e 348f a73d a0b9 da3d e994 0fbf
000002d0: 3cd0 4e3e a4e2 943e 8de0 033f 03e4 f33e
000002e0: 0de6 acbe 964c bdbd 20ca 18be 118b bd3c
000002f0: 40ce 853b 9ad3 47bd d34b 47bf 1b66 263e
00000300: 7cef aa3d 18d4 2b3d 605c 7cbd 984a 41be
00000310: e060 f03d c090 da3c e0ad d63c 500c 363d
00000320: f8c7 d73d 58b1 a4bd 8c83 5bbe 00e3 b6bc
00000330: d8f3 763d 4a2f 153e 8857 553e 78e3 01bd
00000340: d07c fb3d 00f0 ba39 66da 76be 28a9 3a3e
00000350: b01d 35bd 965c 5fbe e884 5fbe 9e89 133e
00000360: a4de 4fbe a88a 62bd bc65 92bd 94c3 91bd
00000370: 4810 2e3e 80d6 23be 6cc5 54be c8f3 58be
00000380: 3afd fe3d e3c0 f9bd f0cf 3fbd 4e84 fabe
00000390: 5a85 273e 3861 793e 3d4a f13e 006a 953e
000003a0: 990e 2c3e 0d7a c53e f475 db3c 5160 793e
000003b0: 205c e7bc 7198 c9be 1c91 72be 1f73 9b3e
000003c0: 6f39 ba3e 108b 7dbd 40c1 44bd 63a9 46bf
000003d0: 00d7 4d3e 3a4c 103d fdd0 753d c156 653e
000003e0: fbd8 ab3d 12f0 00be 16ac d7bd a4fd 5abe
000003f0: 42d6 6d3e d8a9 4ebe 155e 05bf 63cc 323e
0.171875 0.038075686 0.07028517 -0.106496066 -0.052984625 -0.16593075 0.04829949 -0.15927887
0.16504577 -0.23093355 0.17817229 -0.111442626 0.18732587 -0.21037859 0.24550545 -0.115939826
0.0910466 -0.14309096 -0.13165376 -0.09595984 0.008481652 -0.11233604 -0.07130805 -0.08321297
0.1287947 -0.17121512 -0.2428033 0.024263978 0.008821636 0.05915886 -0.14126217 -0.09819391
-0.0073512197 -0.029847622 0.081831634 0.027467519 -0.13091877 -0.23583779 -0.037655503 0.03834051
0.16497701 -0.042554885 -0.12528142 -0.18232888 -0.049675077 -0.12446967 -0.16479528 0.08112177
0.25786945 -0.34095657 0.19645539 -0.47161263 -0.07991159 0.34492335 -0.0042270105 0.3382976
-0.21340431 0.22745949 0.051444624 0.1615063 -0.18782502 -0.20945011 -0.124099545 0.24727662
0.39617303 0.071142055 0.22098824 -0.45488986 0.047701895 0.22587599 0.062821716 0.4166138
-0.21712343 0.24969079 0.14527185 0.19527878 -0.06080225 -0.3259454 -0.2735477 0.29411995
0.39870587 -0.1567529 -0.13555992 -0.3629593 0.09045622 0.0013779902 0.10060476 0.1674312
-0.20862906 0.10907991 0.10801695 0.2429699 -0.034249574 -0.57952213 -0.057514004 0.31954572
0.36312768 -0.062409084 -0.18109351 -0.5682859 -0.23204705 0.38480642 0.29509664 0.08243205
0.056244034 0.21880071 0.078357056 0.0166464 0.07508889 -0.574833 -0.36480072 0.22213532
0.4069887 -0.18511845 -0.24578935 -0.19050068 -0.03750071 0.11734516 0.46562886 0.13039303
-0.2050226 0.15247177 0.17173041 0.31741503 0.1309461 -0.19294566 -0.22497606 0.19177623
0.13405219 -0.03215701 0.20829475 -0.3772343 0.030282348 0.14648354 0.2597455 0.3793905
0.11311357 0.0501117 -0.21861066 0.2140537 -0.013168633 -0.23068061 -0.6160978 0.34292373
-0.011082649 -0.15175577 -0.2312052 -0.1519378 -0.03907299 -0.054606456 0.008178066 0.21871802
0.09958617 0.10106454 -0.06576422 -0.030061767 0.11655533 -0.02454885 0.026670212 -0.16232403
-0.116808355 -0.04271078 -0.1510964 -0.16467986 -0.21576783 -0.2134543 -0.19568399 -0.11870754
0.0017101169 0.15955326 0.20185253 -0.18513218 -0.027300954 0.13399798 -0.056863308 0.10111663
0.23905861 0.08181611 0.106799364 -0.56086594 0.20196623 0.29079163 0.5151451 0.47634897
-0.33769265 -0.09243123 -0.14920855 0.023137601 0.004083425 -0.048785783 -0.77850074 0.16249888
0.08346459 0.041950315 -0.061611533 -0.18876112 0.117372274 0.02668035 0.026205957 0.044445336
0.10536188 -0.08041638 -0.214369 -0.022325039 0.06029114 0.1456882 0.20834172 -0.03171107
0.122796655 0.00035655499 -0.2410675 0.1822859 -0.044217765 -0.21812662 -0.21828043 0.14407966
-0.20299774 -0.055308014 -0.071483105 -0.07117382 0.16998398 -0.15999794 -0.20778435 -0.21186745
0.12450643 -0.12194993 -0.046829164 -0.48929065 0.16359463 0.24353492 0.47126952 0.29182434
0.16802444 0.3856968 0.026789643 0.24353148 -0.02824217 -0.39374116 -0.23688167 0.30361268
0.36371943 -0.0619002 -0.04803586 -0.77602214 0.20101547 0.035228945 0.06001376 0.22396375
0.08390995 -0.1259158 -0.1053087 -0.21385819 0.23226264 -0.20181978 -0.5209668 0.1746078

l2.bias f4 [32]
00000000: e6d0 69be 086b 46be 38b6 be3d 6f26 663e
00000010: 6210 b03e 0f6b 853e 0ee2 813e 66ca ce3d
00000020: 5939 cb3c c368 20b9 acd0 22be 1ed2 9bbe
00000030: f0fa 49bd 7c0d 14be 07d1 9d3e 93fa 2f3c
00000040: b565 92bd 2260 98bc 891f 963c 2638 7a3e
00000050: 827a 10be c951 48be 240b da3d e459 76be
00000060: 2292 78be bf57 013e 9543 af3e b273 733e
00000070: 2f71 063d a965 ae3e de9e e93d 6a45 823e
-0.22833595 -0.19376767 0.09312099 0.22475599 0.343875 0.26058242 0.2536778 0.10097198
0.024807619 -0.00015297816 -0.15899915 -0.30433744 -0.04931158 -0.14458269 0.30823538 0.010740894
-0.07148305 -0.018600527 0.018325584 0.24435481 -0.14109233 -0.19562449 0.10646656 -0.24057728
-0.24274495 0.12631129 0.34231248 0.23774603 0.032822784 0.34061936 0.11407255 0.25443584

l3.weight f4 [16, 32]
00000000: 521e b53d e09b af3c 7e81 f3bd b6e2 863d
00000010: b338 aa3c da94 0e3e ad5c 9ebd eee9 803c
00000020: 9303 133d 0f08 dbbd 801e aabb ef92 d7be
00000030: 18ab 763d 126b ae3d 9ae8 d4bd 9b3c 4abf
00000040: 9bd4 003e b4be 94be bbb7 fdbb 17f2 8cbc
00000050: bd29 1bbe 414b fcbe 28c2 a33d 9004 25be
00000060: 67b8 2f3e 2f30 d53d 5783 a33d 36b4 9a3c
00000070: a3b6 45bd 4862 e8bd cb88 9ebd 2b74 113e
00000080: a25d 6fbd 00e3 00ba 873a 143e 01c1 c53d
00000090: 72d3 7e3e 2a09 243e a8a4 973e e796 ba3e
000000a0: 02d5 cc3c e952 933d 10f4 c43c 9e0b c63e
000000b0: a87c 55bd 8a0e ff3d 8970 363e 1a83 dabd
000000c0: 8034 f93c e80b b7be 4d81 ae3e d5b5 763e
000000d0: 7136 ff3d 8a17 04be 6e6e 39be 68da d0bc
000000e0: 9b30 aebd 181c c13e d968 a23e 9a56 903e
000000f0: 80ef ab3d 67c3 afbe 8cc0 8ebe 368b 643e
00000100: 006e ffbc b0a1 b43c 326e 1ebe 509b d83d
00000110: 6cc5 28be e998 23be 9140 89bc d702 30bd
00000120: 5317 123e 78b1 433c 30cf 3bbc b91f 0abe
00000130: 9d32 a4bd 28fd 04bd 37aa a43d c166 213e
00000140: d2a1 b6bd 360c b93d ec5a 983d fc85 073e
00000150: cadd 8cbd 0e15 2ebe a24f 29be ac83 11be
00000160: 988e b13c f6ff 433d 3ec4 e23d 166c 1ebe
00000170: 7c2f f93c 1984 ff3d 6c1d 2cbe 44aa bc3a
00000180: d850 04bd c087 02bc 171c 1dbe f90f aa3e
00000190: bc3d 6d3d f252 103e 0f5b a53e dfba 813e
000001a0: 615d 653e 6faa d23c d2a1 8e3d e3d8 df3e
000001b0: 84c1 00be 3e54 b33d a7c2 d83d 46de 3d3d
000001c0: a4e8 e03d bb1f 7bbd df15 0b3f 9edf b03e
000001d0: e42f 0c3f 21ec 153e 9b33 a8be 99d7 103e
000001e0: fadd a43d 4c5d d43e cf83 493e f2a8 943e
000001f0: 7c67 6b3e 4869 74bd 1cf1 debe 2189 aa3e
00000200: 9441 c3bd d84a 2dbd f2f0 06be 0ed1 9a3e
00000210: 3837 673e a233 163e 1360 db3d 26d3 c73e
00000220: c902 63be 7873 f8bd ded2 b53d 2d30 f4be
00000230: 22ae f3bd fa88 31be 6de1 d03d 986b 8bbf
00000240: 38d5 1b3d 0c42 1bbe 5d9a d8bd aa76 84bd
00000250: affd 06be cd07 f9be 855c aabb dde3 2e3e
00000260: 8759 2c3e 4794 2a3e 7dde c23e 518c 1abe
00000270: a9d9 b5be 21c8 183d 6e90 013e ff5a e23d
00000280: 69da e9bd f20a b13d 5a82 e13d 8fcb 863d
00000290: 6079 e6bc 1aff 89bd c46c e5bd 837f de3d
000002a0: e945 133d 4eea 023e 153b 163e 1ccf 3b3d
000002b0: 5a5c 963d d846 673d 919f 1ebe 5dcc 42be
000002c0: 0392 233e 359f 55bc 7b9a 873d dc00 8f3c
000002d0: 562a ff3b 0918 4fbe c901 31be 9a8d e03d
000002e0: 0094 123b 8ff2 9abd 415f 4fbe 0561 14be
000002f0: 5429 b13d 6b97 7c3d 1357 aebc d86d 21bd
00000300: 6c1c 34be 15fb 2bbe b0f4 28bd 18f7 d13d
00000310: 8b0d a53e 3de5 8a3e d0c6 523e b0d3 af3e
00000320: 5f14 803e d0de 7fbd 5225 803d d106 f33e
00000330: d24a f03d 6e45 c53d e673 5e3e 8afc 793d
00000340: 7274 2e3d 0bd0 0f3c 09e0 283e f73c 883e
00000350: 9457 833e a653 0ebd bcad 9ebe a815 423d
00000360: 2b21 2f3e b8ba ac3e 28aa d83d 1114 c13d
00000370: 771d 0cbd dc32 cdbe 2448 a3be bb7a a13e
00000380: 456c c9bd 6637 823d b76d 313e 5cce 6f3e
00000390: c311 b93d bdfe dd3d cb92 663e 856a 9a3d
000003a0: abf8 9a3e 6aac 82bd 08db d7bc b4ca 0f3f
000003b0: 5e47 af3d 9862 8b3d 3a45 fb3c 84ea 373f
000003c0: 1b2c 64bd f451 443f 84ca 183e 96c4 a43e
000003d0: 45cb a53e 5d33 f63e 6ba3 86be 801f 54bc
000003e0: 601b 74bc 7f53 f33d 5ef8 963e 6b72 d03d
000003f0: cba6 d43e 9d50 75be 1e3d 5fbe 2d99 fd3d
0.08843674 0.021436632 -0.11889933 0.065862104 0.02077899 0.1392397 -0.0773252 0.015736546
0.03589208 -0.106948964 -0.005191624 -0.4210429 0.06022176 0.08516516 -0.10395928 -0.78998727
0.12581103 -0.29051745 -0.0077428496 -0.017205281 -0.1515264 -0.49276164 0.07996017 -0.16115022
0.17160188 0.10409581 0.079840355 0.01888476 -0.04826988 -0.11346871 -0.07740935 0.14204471
-0.058438905 -0.0004916638 0.14475451 0.09655953 0.24885347 0.16019121 0.2961781 0.36443254
0.025003914 0.07193548 0.02404216 0.38680738 -0.052120835 0.12453945 0.17816366 -0.10669537
0.030420542 -0.3575127 0.34083024 0.24092801 0.12461556 -0.12899604 -0.18108532 -0.02549477
-0.085053645 0.37716746 0.31720617 0.28191072 0.083952904 -0.34328768 -0.27881277 0.2231873
-0.031180382 0.022049755 -0.15471724 0.105764985 -0.1648156 -0.159763 -0.01675442 -0.04297146
0.1426671 0.011944167 -0.011462972 -0.13488664 -0.08017466 -0.03246799 0.080402784 0.15761854
-0.089175835 0.09035532 0.07439217 0.13234705 -0.068782404 -0.17000219 -0.16534284 -0.14210385
0.02167444 0.047851525 0.110725865 -0.15470919 0.03041815 0.124763675 -0.16808099 0.0014394005
-0.03230366 -0.007966936 -0.15342747 0.3321531 0.057920203 0.14094141 0.32296035 0.25337884
0.22398902 0.025716035 0.069644585 0.4372016 -0.1257382 0.08756302 0.10584002 0.046354555
0.10981873 -0.061309557 0.5433025 0.34545606 0.54760575 0.14640857 -0.32851872 0.14144744
0.08050151 0.4147743 0.19679187 0.29035145 0.22988695 -0.059670717 -0.43543327 0.33307746
-0.095339924 -0.042307705 -0.13177851 0.3023762 0.22579658 0.14668134 0.10711684 0.3902828
-0.22169031 -0.12131399 0.0887811 -0.47693005 -0.118984476 -0.17337409 0.101992466 -1.089221
0.038045138 -0.15161914 -0.105763175 -0.06467946 -0.1318271 -0.48638764 -0.0051990175 0.1707911
0.16831027 0.16658126 0.3806037 -0.15092589 -0.35517624 0.037300233 0.12652752 0.110525124
-0.114186116 0.08644666 0.11011191 0.065817945 -0.028134048 -0.0673811 -0.11202386 0.10864165
0.035955343 0.12784693 0.14670976 0.04585181 0.073418334 0.056464046 -0.15490557 -0.19023271
0.15973668 -0.013038446 0.06621262 0.017456464 0.0077870293 -0.20224012 -0.17285837 0.10964508
0.0022366047 -0.07565796 -0.2025118 -0.14490135 0.08650461 0.06166784 -0.021281755 -0.039411396
-0.17588967 -0.16794999 -0.041248977 0.102522075 0.32236895 0.2712802 0.20583653 0.34341192
0.25015542 -0.06246835 0.06257118 0.47466138 0.11733021 0.09632383 0.21723899 0.061031856
0.04259152 0.008777629 0.16491713 0.26609012 0.25652754 -0.034747742 -0.30991924 0.047383934
0.17102496 0.33736205 0.1057933 0.094276555 -0.034207787 -0.40077865 -0.31890976 0.31538948
-0.09835104 0.06358223 0.17327009 0.23418564 0.09036591 0.10839603 0.22516935 0.07539848
0.30267844 -0.063805416 -0.02634956 0.56168675 0.08558534 0.06805915 0.030672658 0.7184222
-0.055706125 0.7668755 0.14921004 0.32181233 0.32381645 0.48086062 -0.26296553 -0.012946963
-0.014899105 0.1188116 0.29486364 0.101780735 0.41533503 -0.23956533 -0.21800658 0.123827316

l3.bias f4 [16]
00000000: c2dc b0bd 128e 783e 0317 94bd 6fe8 503e
00000010: 6277 2fbd 7cde fc3d b1df 863e f7e3 80be
00000020: 8e3c fbbd ff14 b8bd 51ba 0abe b05a 62be
00000030: 29f3 ce3d 186b 6f3e fbce 9b3c 6ade 2a3e
-0.08635856 0.24272946 -0.07230952 0.20401166 -0.04283846 0.12347123 0.26342538 -0.25173923
-0.12267409 -0.0898838 -0.13547637 -0.22104907 0.10104973 0.23380697 0.019019594 0.16686407

l4.weight f4 [1, 16]
00000000: 97b2 693d 7f79 d6be 4978 723e 73ef 89be
00000010: 19f7 1b3f b349 9a3d ad6f cebe 9169 9ebe
00000020: 94ea 9a3d f02e 3a3e f87f 4dbd 2fd6 dfbe
00000030: d708 b73d cd85 f6be aae4 443e 6ff5 a3be
0.057055082 -0.4188957 0.23678698 -0.26940498 0.60923916 0.07533588 -0.40319577 -0.30939916
0.075642735 0.18181968 -0.05017087 -0.43718097 0.08937233 -0.48148957 0.19227853 -0.32023188

l5.weight f4 [16, 2]
00000000: d0fe 0c3f 4121 013f 7813 4f3e c8ba 2fbe
00000010: b42f 6c3f 26d1 823e 36e9 eebe 88af 2a3e
00000020: 80ce 733f 9e23 eabd a319 1c3f fb3d 24be
00000030: 8545 8a3f 8854 df3e 08a1 7c3e b830 1ebe
00000040: 96be e1be 6072 d8bd 2d8b 313f 112c 52be
00000050: c6f0 06bf 8dce 9c3c 6c65 fdbe a263 96be
00000060: 764e 8cbd ff75 4bbf 85cf 5f3e 63d1 f7be
00000070: 8a19 f8bd 07ca 90be 28fc 92bd 008e 973b
0.55076313 0.50441366 0.2022227 -0.17161095 0.9226029 0.25550193 -0.466623 0.16668522
0.9523697 -0.11432575 0.6097662 -0.16039269 1.0802466 0.4361918 0.24670804 -0.15448272
-0.44090718 -0.1056869 0.6935299 -0.20524622 -0.5271114 0.01914146 -0.4949144 -0.2937289
-0.06850903 -0.7947692 0.21856506 -0.48401937 -0.12114246 -0.28279135 -0.07177001 0.004625082

l5.bias f4 [16]
00000000: 26b6 823c 4a8a 1dbf 535a dc3e 9e03 c7be
00000010: 506f 89bd fefb f03e bd6f 363e 23ba 01bf
00000020: eebd b8be 7245 1fbb a616 343f 3566 d1be
00000030: cade 01be 1b56 133f afc3 323f f31f 98be
0.015955996 -0.6153914 0.43037662 -0.38869947 -0.06710684 0.47067255 0.17816062 -0.5067465
-0.36082405 -0.0024302867 0.7034706 -0.4089829 -0.12682644 0.5755326 0.6982984 -0.29711875

l6.weight f4 [32, 16]
00000000: 37e5 5b3e 0c24 febd e1c6 413e 94c3 a8bd
00000010: 1108 4a3e 2dbd 6b3e 2c4e 113e 204c 703d
00000020: 4e7a 563e 321b ff3e fae2 363e 4055 cf3b
00000030: 7d59 4d3e 1944 0ebd 2e90 b0bd 1046 263e
00000040: 5e61 29be 7a09 43be 20b0 8a3c e0cc 8c3d
00000050: 18a8 093e 7020 2a3d 44d4 7bbe 18f0 0f3e
00000060: be13 41be 86ff 7a3e 586d 53bd 70c7 fe3d
00000070: 18ea 74be 8c69 21be 1035 19bd 84dc b63d
00000080: e72e a63e 2027 5dbd e9c8 063e b414 863d
00000090: 011e 783e 989f d93d 0689 ee3c d088 10bd
000000a0: 5833 723e 06e4 093f abb3 0ebe ca6c 2d3e
000000b0: 0812 6bbe e6f5 5b3e 9bda 30bc f472 a83d
000000c0: 40c9 9e3d 44ee ac3d 883c 25bd 26a2 3fbe
000000d0: 02e9 11be 409f 10bc a029 82bd 8832 e83d
000000e0: c0ed db3b d071 d33d 481c 1cbe 9028 ef3d
000000f0: 38f2 bdbd fa14 73be 849a 41be ea23 21be
00000100: dd5f 0d3f 749b 4e3e 7296 ae3e d22c 683e
00000110: 7241 023f 6c9e b4bd caf4 003f 30c2 f23d
00000120: d035 bdbd 8a17 fd3e 2e5f 1cbe 824e 703e
00000130: eeda ab3d f56f 303e 1b55 b3bd c068 103e
00000140: 0ad4 363e 34a0 c5bd f4af 7fbe ac0d 113e
00000150: 48c2 47be 489a 71bd 7e47 3cbe 0097 f43d
00000160: c649 683e 6055 18bc 0cdb cf3d 3826 203d
00000170: d0b3 8abd 4026 493c e03f 1ebc 90ac 4abe
00000180: 62e3 72be d2c6 613e 401d 833b 3c48 64be
00000190: 125b 36be 2427 e3bd 8026 283e 70ae 54be
000001a0: 081c 903d d2f9 383e f242 193e 6601 033e
000001b0: a803 11be 0c86 93bd 1613 10be b6e8 6cbe
000001c0: 040a aebd 562e 703e 3ebf 32be 9ebf 093e
000001d0: c41e 61be 0092 83bd 6c29 24be 7654 71be
000001e0: 7643 003e e012 6bbe 3412 3fbe 72e4 663e
000001f0: d836 b53d b828 16bd 902d aabd 1a98 05be
00000200: 88da 1a3e a473 b2bd 6797 753e 82fe 6fbe
00000210: e200 8d3e c299 303e 5151 183e 0672 063e
00000220: 2a98 573e d115 083e fb33 e33d d49e 30be
00000230: 4575 aabc 84ec 9f3d 8c66 39bd 008d f53c
00000240: c74e 613e 8449 79be b6b6 113e 9c2b f93d
00000250: 9ad9 093e 23bf 263e 4b5a ab3e f061 c1bc
00000260: 0430 ad3d 765e a73e 92c7 89be 9640 793e
00000270: 0740 003d 0bbd e23c af1d ebbd 9828 6ebe
00000280: d84d 1e3f 0c7c f9bd 58c9 60bf 00dd 9bbb
00000290: 351d 86ba aea5 81be 796e 05be d85d e63d
000002a0: 0cd5 84bd 4b73 7d3e 0473 0e3f 46d5 4f3e
000002b0: dd45 03bf ab1b 213e f798 e43e 2485 f83d
000002c0: 1465 11be 006d ddba 8847 84be 065b 673e
000002d0: 4090 873b 2a40 30be de07 12be 16ad 143e
000002e0: 62b0 54be ac81 b23d b277 69bc 426e 0dbe
000002f0: 8b1b 1b3d ef72 8fbd b4de 81be a0fc b2bc
00000300: 72ef e43d fa54 3b3e 467b c9bd 50c7 bcbc
00000310: 6661 033f 8fab 57be c326 a33e 5872 6abe
00000320: d04d cbbc b159 193f 598e 1ebf 9421 c3bd
00000330: 1c69 ee3d f486 a6be 3e88 0bbe 7426 c73d
00000340: 80fc d4bd 08d3 8b3d 26e5 37be 849b 3f3e
00000350: 7841 f0bd 4e5c 25be c4af 47be 8ced a5bd
00000360: 78cb 06be 88b1 16bd 102c bc3c f011 64bd
00000370: 5805 a0bd a8c1 593d 30ca 22be 9879 3dbe
00000380: 21ce cd3e 70be 52bd 7d99 a13e 4002 e73d
00000390: 008d 263e 35b1 1abd c677 85bc 44d9 36be
000003a0: deea 25be 3c19 523e 2459 cc3c d011 af3c
000003b0: f54b afbd a435 d83d 8841 503e 9a16 753e
000003c0: 9366 893e 80a2 23bc cef9 d83d 102a ebbc
000003d0: 2caf d33e bf19 2b3e 0eeb f93e 94fc dd3d
000003e0: 7697 68be cfec fd3e fc85 40be c0bc 5d3e
000003f0: 85b1 9d3e b02b c73d 8669 b6be 3cd0 ac3d
0.21474157 -0.12409219 0.18923523 -0.082404286 0.1972964 0.23021384 0.14189976 0.05866635
0.20945093 0.49825436 0.17860022 0.0063273013 0.20053668 -0.03473291 -0.0862125 0.16237664
-0.16541049 -0.19046584 0.016929686 0.06875014 0.13443029 0.04153484 -0.24592692 0.14056432
-0.18855187 0.24511537 -0.05161795 0.124403834 -0.23917425 -0.15762919 -0.03740412 0.08928779
0.3245766 -0.05399239 0.13162579 0.065469176 0.24230196 0.10626143 0.029118072 -0.035286725
0.23652399 0.5386356 -0.13935725 0.16936031 -0.22956097 0.21480522 -0.010794307 0.082250506
0.07753229 0.08443883 -0.04034093 -0.18714198 -0.14249042 -0.008827031 -0.063555956 0.11337763
0.0067116916 0.103244424 -0.15245163 0.116776586 -0.09274715 -0.2373847 -0.189066 -0.15736356
0.552244 0.20176488 0.34099156 0.22673348 0.5088111 -0.08819279 0.5037352 0.118534446
-0.092387795 0.4943202 -0.15270683 0.23467448 0.08391367 0.17230208 -0.08756467 0.14102459
0.17854324 -0.09649697 -0.24969465 0.14165372 -0.19507706 -0.058985025 -0.18386647 0.119428635
0.22684392 -0.009297699 0.10149202 0.03909895 -0.06772578 0.012277186 -0.009658784 -0.1979239
-0.23719552 0.220485 0.0040012896 -0.2229318 -0.17808178 -0.1109145 0.16420937 -0.20769668
0.070365965 0.18064049 0.14966944 0.12793502 -0.14161551 -0.07203302 -0.1406978 -0.23135647
-0.08498004 0.23455176 -0.17455766 0.13452002 -0.21984392 -0.06424332 -0.16031426 -0.23567376
0.12525734 -0.22956419 -0.18659288 0.22548082 0.08848351 -0.036659926 -0.083094716 -0.13046303
0.15122426 -0.08713463 0.23983537 -0.23436931 0.27539736 0.17246154 0.1487477 0.13129434
0.2105414 0.13289572 0.11093899 -0.17248088 -0.020807872 0.07808784 -0.045263812 0.02997446
0.22002707 -0.2434445 0.14229855 0.12166521 0.13461915 0.1628385 0.33467326 -0.02360627
0.08456424 0.32689255 -0.26910073 0.24341044 0.03131106 0.027678033 -0.11480271 -0.23257673
0.6183753 -0.12181863 -0.87807226 -0.00475657 -0.0010232093 -0.25321716 -0.13030423 0.11248368
-0.06485948 0.24751012 0.5564425 0.20296201 -0.5127848 0.1573321 0.44647953 0.121347696
-0.14198714 -0.0016893446 -0.25835824 0.22593316 0.004137069 -0.17211977 -0.14260814 0.14519152
-0.2077041 0.08716139 -0.014249729 -0.13811591 0.037868064 -0.07004344 -0.25365222 -0.021848977
0.11178483 0.18294135 -0.09837966 -0.023044258 0.51320493 -0.21061538 0.3186551 -0.22895181
-0.024817377 0.59902483 -0.61935955 -0.09527889 0.11641142 -0.32524836 -0.13626191 0.09724131
-0.10399723 0.068273604 -0.17958507 0.18711668 -0.11731237 -0.16148493 -0.19500643 -0.08101949
-0.13163555 -0.0367904 0.02297023 -0.05568117 -0.07813519 0.0531632 -0.15897441 -0.18503416
0.40196326 -0.051451147 0.31562415 0.11279726 0.16264725 -0.037766654 -0.016292464 -0.17856318
-0.16202876 0.20517439 0.02494485 0.021370798 -0.085594095 0.10557106 0.20337498 0.23934403
0.2683607 -0.0099874735 0.105945215 -0.02870658 0.41344583 0.1670904 0.48812145 0.10839191
-0.22714028 0.49594733 -0.18801111 0.21654034 0.307995 0.097251296 -0.35627383 0.08438155

l6.bias f4 [32]
00000000: 0850 a03c 5acf 5cbe 8f33 423e 1624 493e
00000010: b2ce 1ebe 504c bfbd 5053 53be 00af b43d
00000020: 10ff 993e 5ca4 1d3d edc5 0d3e d209 233e
00000030: 44ef 13be 0c60 c2bd 4e6d 483e 470a 9abe
00000040: d8f3 51bd 1d55 c7bb 30c6 e63d d802 05be
00000050: 1e16 87be 8058 d7bb fe4c 44bd b150 e43d
00000060: bde6 47be ed33 9d3e dc0e b1bd a94b aabd
00000070: feed a7bd a2f3 27be 02a8 8abe 7c43 5fbe
0.019569412 -0.21563473 0.1896498 0.19642672 -0.15508536 -0.09340727 -0.2063725 0.08822441
0.3007741 0.038486823 0.13845034 0.15921715 -0.14446741 -0.09490976 0.19572946 -0.30085966
-0.05125794 -0.0060831443 0.1126827 -0.12989366 -0.26384062 -0.0065718293 -0.047924988 0.11148203
-0.19521613 0.3070368 -0.08645412 -0.08315212 -0.0819969 -0.16401532 -0.27081305 -0.21803087

l7.weight f4 [16, 32]
00000000: 63b6 973e e09f 6b3d 31c9 c23e 10bf 93bd
00000010: e691 47be 27b7 223e a4b5 703d d8fc 333d
00000020: 5533 c63e e020 4fbe 87db 37bf f988 ebbd
00000030: 7228 18bf 6dd6 debd 11a9 da3e 6dc9 98be
00000040: 30e6 c4bc 4442 06be 804c 483b 0fd4 87bd
00000050: 24e0 473e eba7 86bd 3d09 37bf df43 0c3e
00000060: 39dc 0abe f722 0c3f ee6e be3d 0404 3e3e
00000070: 08cd febd ef35 8dbd b9ff 84bd e9fc c6bd
00000080: a641 a9bc 0044 ca3c 06af 6ebd b05a 84bd
00000090: 2a43 823d 1520 223e 205b abbb c4ab dabd
000000a0: 75be 25be 5537 bbbc d84b 26be 6f9b 32be
000000b0: 36ae b3bd 3203 5cbd 000c b63d 0c6f d9bd
000000c0: 7f66 adbd 7c47 f0bd 4451 0d3d f474 4bbd
000000d0: f945 ed3d 3805 683d 383e 073e 58da e93c
000000e0: 77bf 9cbd 2d4c 23be db14 1b3e 4196 1cbd
000000f0: 3337 38bd 0019 16bb 8b0d d5bd 88ee e8bc
00000100: 777b bf3e 6278 cc3d ab0f 963e 803d 3dbd
00000110: 55cc 9fbc 5a60 bebd 3fa6 2c3e 72d8 f23d
00000120: e022 693e 8102 c53d 9072 01bf 4fc8 aa3d
00000130: 5b2c 26bf bc4f f2bd e9e3 bb3d edb7 a4be
00000140: 7639 833d 5b3d 27be d458 2cbe 3bfe 513d
00000150: d91f 9a3c 60b0 753d e713 c7be ad35 cdbd
00000160: f829 36be cc3a e23e ad22 1fbe 08ac ba3d
00000170: 4fa1 1abd 2bf9 bb3d fc6d 7dbd 0044 093a
00000180: 9d9a 243e 80b4 91ba 63af 993e 4422 4a3d
00000190: 714e 833e e46a 3fbd c81c 7abd b68d 8e3d
000001a0: 079a 613e 5f42 853e 65b5 2f3f e0a0 06bd
000001b0: 461f 913e f850 7a3d 8211 6cb9 dd3e cf3e
000001c0: fc31 0cbd d888 e93e c830 fc3c 202f 953e
000001d0: 917e 893d 409c cf3b 2076 883f 7a96 b6bb
000001e0: 6d09 ab3e 0a13 99be 8aa7 fb3d 9e6f 063e
000001f0: 9085 803e 8a58 103e 8db5 4ebd 209c a9bc
00000200: 5f72 013e 30b4 b3bc a0a5 303d 5ca2 d4bd
00000210: 403e 1dbb d17c 22be 3ed4 0ebe 8044 433d
00000220: c492 25be 24a8 703d e329 203e c8af f63c
00000230: 4c19 02be ec4f 703d 60e5 0e3c 1373 86bd
00000240: 71f7 113e daa7 0ebe 8095 fcbd f0c4 d53c
00000250: d095 56bc 5017 7c3c 0eb6 a53d c893 79bd
00000260: 6266 c83d 0008 c839 1297 913d baa7 bf3d
00000270: fc1d 79bd 6456 65bd da9e ba3d cb74 123e
00000280: 3bdc 6dbc 670e 0ebe 23af 1abe cb52 183e
00000290: 2ed7 bebd a610 c0bd e8a0 e1bc f14c 2c3e
000002a0: 8e25 0b3d 5d79 eb3d 42a3 59be c39d 043e
000002b0: 506b 37bc d5f0 b8bd e22a 1dbe 6ff7 933c
000002c0: cdeb 9dbd 50a8 fdbd 0095 6a3a 569c 5bbd
000002d0: 983d b8bd 168d 1abe ee44 d43d c11b 8cbc
000002e0: 214a 553d 4f92 d43d e439 423d a738 89bd
000002f0: dc36 f7bd ffe1 0f3e 22e4 f13d 7805 7f3d
00000300: 1988 fbbd d0e5 a33c 0d11 d33d 2665 fc3d
00000310: 3440 ca3d 3731 92bd d66c fe3d d3cd bfbd
00000320: 4c9a 40be 40da e03d 039c 963d da31 02be
00000330: 7a3c f33d 0023 b43c df1e d6bc a12a 353c
00000340: 0a5c fcbd 896d 093e d06e 923d 185f 123d
00000350: 0525 923b ce2f db3d 2c61 213e b94d 0e3d
00000360: 52f5 eabd f9c9 e4bd e091 d53b 5145 e4bd
00000370: c5c2 95bd aa3e e53d 7cbf 48bd 5547 88bd
00000380: 35d6 873e 98ba 053d 2b2b a03e 5b75 143e
00000390: e306 c03e 009d 243d 657d 1f3e 547b ebbd
000003a0: b4b0 953d 1b7a 5f3e 281c 263f 917a 3abd
000003b0: 7e2e 093f 5641 02be b53e aa3d 3bbb 7c3e
000003c0: 7853 0fbe db6a 503e 025e f83d 3926 423e
000003d0: 2342 113e 9346 003e 4180 333f 2265 6e3e
000003e0: 55f3 3c3e 0e0a d7bd 0816 ac3c 3ae1 dd3d
000003f0: 071a b33e a6e7 3fbd 38a5 a6bd 24c1 723d
0.29631338 0.057525516 0.38044122 -0.07214177 -0.1948925 0.1589018 0.058766976 0.043942302
0.38711038 -0.20227385 -0.7181935 -0.11500735 -0.59436715 -0.10880742 0.42707112 -0.29841176
-0.024035543 -0.13111216 0.0030563176 -0.06632244 0.19519097 -0.065749966 -0.7149847 0.13697766
-0.13560571 0.5474085 0.09298502 0.1855622 -0.1244145 -0.06895053 -0.06494088 -0.097162075
-0.020661186 0.024690628 -0.058272384 -0.0646261 0.06360467 0.15832551 -0.005229369 -0.10677293
-0.16185935 -0.022853533 -0.1623987 -0.17442106 -0.087734625 -0.053713985 0.088890076 -0.10616884
-0.08466815 -0.117323846 0.03450133 -0.049672082 0.11585612 0.056645602 0.13207328 0.028546497
-0.076537065 -0.15947028 0.15144674 -0.03822923 -0.044974517 -0.0022903085 -0.10402974 -0.028434053
0.37398884 0.09983899 0.2930883 -0.04620123 -0.019506613 -0.09295721 0.16860293 0.1185769
0.2276721 0.09619618 -0.50565434 0.08338987 -0.6491143 -0.118316144 0.0917433 -0.32171574
0.06407444 -0.16331999 -0.1683076 0.051267844 0.018814014 0.059982657 -0.38882372 -0.100200035
-0.17789447 0.44185483 -0.15540572 0.091148436 -0.037751492 0.091783844 -0.061872467 0.0005236268
0.16074605 -0.0011116415 0.30016622 0.049349084 0.25645784 -0.0467328 -0.061062604 0.06960623
0.22031413 0.260272 0.6863616 -0.032868266 0.28344172 0.061112374 -0.00022513236 0.40477648
-0.034227356 0.45612216 0.03078498 0.29137516 0.06713594 0.006335765 1.0661049 -0.0055721374
0.3340563 -0.29897338 0.12287815 0.13128516 0.251019 0.14096275 -0.05046611 -0.020704329
0.12641285 -0.021936506 0.043126702 -0.1038253 -0.0023993403 -0.15867926 -0.13948151 0.04767275
-0.16169268 0.0587541 0.15640979 0.030113116 -0.12704962 0.05866997 0.008721679 -0.065649174
0.14254548 -0.13931218 -0.12333202 0.026094884 -0.0130972415 0.0153864175 0.08091365 -0.06093195
0.09785153 0.00038152933 0.071088925 0.09358163 -0.06081961 -0.05599059 0.0911233 0.14302365
-0.014517839 -0.13872682 -0.15105872 0.14875333 -0.09318386 -0.093781754 -0.027542546 0.16826226
0.03397136 0.114977576 -0.21253684 0.12950806 -0.011195019 -0.0903031 -0.1534839 0.018062321
-0.07710991 -0.12385619 0.00089485943 -0.05361589 -0.08996123 -0.15092883 0.1036471 -0.017103078
0.052072648 0.10379469 0.04741849 -0.06700259 -0.120710105 0.14051054 0.11811091 0.062261075
-0.12281818 0.020007044 0.103059866 0.1232398 0.09875527 -0.07138293 0.124231026 -0.0936543
-0.1880886 0.10979128 0.073539756 -0.1271433 0.11876769 0.021989346 -0.026137767 0.011057527
-0.123222426 0.1342069 0.07150042 0.03573522 0.0044599795 0.107024774 0.15759724 0.03474209
-0.114725724 -0.11171336 0.006517634 -0.111460336 -0.0731254 0.11193593 -0.04901074 -0.066542305
0.26530614 0.032648653 0.31282935 0.14497893 0.37505254 0.04018879 0.15575178 -0.11498132
0.07309094 0.21823923 0.64886713 -0.045527045 0.53586566 -0.12720236 0.08312742 0.24680798
-0.13996685 0.20353262 0.121273056 0.18959893 0.14185385 0.12526922 0.70117575 0.23280767
0.18452199 -0.10499965 0.021006599 0.10833974 0.34980795 -0.046851777 -0.08136982 0.059266225

l7.bias f4 [16]
00000000: 4e31 703d e2bf 8c3c 446f 233e c648 28bc
00000010: 86d3 2cbe f56e de3d 9110 4f3d 7f98 593c
00000020: fb57 da3d f103 e03d 42ab d0bd e4ff d63d
00000030: e5b3 933d df54 44be 15a6 233d 21b8 073e
0.05864077 0.01718134 0.15960413 -0.010271257 -0.16877565 0.10861007 0.05055291 0.013280987
0.10661312 0.10938252 -0.10188915 0.10498026 0.072120465 -0.19173001 0.03995331 0.13253833

l8.weight f4 [1, 16]
00000000: 611f 633f 990d 203e b9d1 e83e 7521 71be
00000010: 4cbf 6f3e 3886 623e 2348 693e 935f bdbe
00000020: d83d 403e be40 97be 53a0 313e 0bd7 8fbe
00000030: b258 80be 6e6c 613e 2976 dcbe ce5a 0c3e
0.88719755 0.15630187 0.45472506 -0.23547919 0.23412818 0.22121513 0.22781424 -0.3698698
0.18773592 -0.29541582 0.17346315 -0.28093752 -0.2506767 0.22014019 -0.430589 0.13706514
