project/checkpoints/checkpoints_linearfirstorder/113_actor.pt (torch, 7960 bytes, 7 tensors)

l1.weight f4 [16, 5]
0	0xbbcc6eb9	-0.006238785
1	0xbe6445ae	-0.22292206
2	0xbe93b2e5	-0.28847423
3	0x3ec1cd95	0.3785216
4	0xbe8fd5b5	-0.28092733
5	0x3fbc923f	1.4732131
6	0xbed3b48b	-0.4134868
7	0x3e5fe420	0.21864367
8	0xbe833d25	-0.25632587
9	0x3eca4e2b	0.39512762
10	0xbe60dd27	-0.21959363
11	0x3e193a0a	0.14963546
12	0x3cd38d1e	0.025824126
13	0xbdf1af31	-0.11800993
14	0xbe9b5105	-0.3033525
15	0xbdd4eeba	-0.10397096
16	0x3e72818c	0.2368223
17	0x3cec48fe	0.0288434
18	0x3ecaea0a	0.39631683
19	0xbeac7b40	-0.33687782
20	0x3f00ebbe	0.50359714
21	0xbe812153	-0.25220737
22	0x3e7c277e	0.2462444
23	0xbe8c6415	-0.27420107
24	0x3e59ef1a	0.21282616
25	0x3f27cebf	0.65549845
26	0xbedb0391	-0.42776158
27	0xbe258bf6	-0.16166672
28	0xbda04d70	-0.0782727
29	0xbe0010b6	-0.12506375
30	0xbfac1235	-1.3443056
31	0xbbceb9ea	-0.006308784
32	0xbcde2a2f	-0.027119724
33	0xbcef9905	-0.02924777
34	0x3d7b86f2	0.06140799
35	0x3ec1086c	0.37701738
36	0xbed36397	-0.4128692
37	0x3db98cd5	0.09060065
38	0xbcaa5fd9	-0.020797657
39	0xbd942f5c	-0.072355956
40	0xbd28a289	-0.04117063
41	0xbd7f0f7a	-0.06227062
42	0x3bb6f1ff	0.0055830474
43	0xbcbd8d78	-0.023138747
44	0xbea2aa6a	-0.3177064
45	0xbeba5c66	-0.3639862
46	0x3e5f8b9e	0.21830603
47	0x3eb677bf	0.35638234
48	0x3eb11108	0.34583306
49	0xbeb9c79d	-0.36285105
50	0x3eae2887	0.34015295
51	0x3e837763	0.25677022
52	0x3e3bed74	0.183523
53	0x3eb7db38	0.35909438
54	0x3c8afb99	0.016965674
55	0x3e691083	0.22760205
56	0xbdf6e618	-0.12055606
57	0xbe062c33	-0.13102798
58	0xbe83705c	-0.2567166
59	0xbeb987b8	-0.36236358
60	0xbfad66d0	-1.3547001
61	0x3e728fa6	0.2368761
62	0x3e36963c	0.17830747
63	0x3eb594cb	0.35465083
64	0x3e199391	0.14997698
65	0xbe990731	-0.298883
66	0x3cf14e49	0.029456275
67	0xbea52534	-0.32254946
68	0xbe3ef7ba	-0.18649188
69	0xbee29980	-0.44257736
70	0x3d954777	0.072890215
71	0x3ec5f18e	0.38660854
72	0xbe49ea7f	-0.1971836
73	0xbe8013bd	-0.2501506
74	0xbea43e4f	-0.32078788
75	0x3f866f2f	1.050268
76	0xbead96d5	-0.33904138
77	0xbed87a49	-0.42280796
78	0x3eaf92ba	0.3429163
79	0x3e27c615	0.16384156

l1.bias f4 [16]
0	0xbe9228de	-0.28546804
1	0x3e78fa4a	0.24314228
2	0xbe9d8356	-0.30764264
3	0x3d3e9e70	0.046537817
4	0xbec8828e	-0.39162105
5	0xbe9c11db	-0.30482373
6	0x3ec6d483	0.3883401
7	0x3ead052d	0.3379301
8	0xbed50373	-0.41604194
9	0x3df885b2	0.12134875
10	0xbed2d96a	-0.411815
11	0x3eb67d7a	0.35642606
12	0xbebe2e74	-0.37144816
13	0xbee30444	-0.44339192
14	0x3dd0c7a4	0.101943284
15	0xbe9778b6	-0.29584283

l2.weight f4 [32, 16]
0	0x3e631644	0.22176462
1	0xbd449505	-0.04799368
2	0xbda44174	-0.08020297
3	0xbd6448b0	-0.055733383
4	0x3d914706	0.07093625
5	0x3eaa621b	0.33277974
6	0xbe7b3f80	-0.24535942
7	0x3e170e99	0.14751662
8	0xbde39a64	-0.11113432
9	0xbf459ba8	-0.7719064
10	0xbde4bbd2	-0.111686364
11	0xbe7dc9d8	-0.24784029
12	0x3e658234	0.2241295
13	0xbe302a94	-0.17203742
14	0xbe5f607c	-0.2181415
15	0xbeaefebb	-0.3417872
16	0x3de146e8	0.109998524
17	0x3b10ec73	0.002211359
18	0x3da8d4fc	0.082437485
19	0x3e732b20	0.2374692
20	0x3e87fed1	0.26561597
21	0xbde0c330	-0.10974729
22	0x3e1dd43d	0.15412994
23	0x3e864cf3	0.26230583
24	0x3da2e67c	0.07954118
25	0x3f24e348	0.64409304
26	0xbeb176b3	-0.34660873
27	0x3e7998dc	0.24374717
28	0xbe825cbf	-0.25461385
29	0x3da2b8c4	0.079453975
30	0xbe6c8d02	-0.23100665
31	0x3dc2b18b	0.0950652
32	0xbe35e2a8	-0.17762244
33	0x3dc2211d	0.09478972
34	0x3e31febe	0.17382333
35	0xbe445526	-0.19173107
36	0x3d9d8300	0.07691002
37	0x3e4d282a	0.20034853
38	0xbd5570d6	-0.05210956
39	0xbda6a2e6	-0.08136539
40	0x3dd1dbcc	0.10247001
41	0x3f8df9cc	1.1091857
42	0x3e89ed7c	0.26939
43	0x3da36820	0.07978845
44	0xbe066f76	-0.13128456
45	0xbe42f598	-0.19038999
46	0xbdcb57a8	-0.099288285
47	0x3c7ae09e	0.015312342
48	0xbdfa166c	-0.12211308
49	0x3d072d28	0.03300205
50	0xbe37ea42	-0.17960456
51	0x3e589ca4	0.21153504
52	0x3c778540	0.015107453
53	0xbdceba10	-0.10094082
54	0xbe3f965c	-0.18709701
55	0xbd5245d8	-0.05133614
56	0xbdc95ea8	-0.09832507
57	0x3dbe581c	0.09294149
58	0x3e341b28	0.17588484
59	0x3d3406b0	0.04395169
60	0xbda42a48	-0.08015877
61	0xbe597a5c	-0.21238083
62	0xbcd3c080	-0.025848627
63	0xbe56f424	-0.2099157
64	0xbd2c8f70	-0.04212898
65	0x3df3afee	0.1189879
66	0x3e226b68	0.15861285
67	0x3e1b7a0a	0.15183273
68	0xbe891a09	-0.26777676
69	0x3f092f82	0.53588116
70	0xbfb1f6d5	-1.3903452
71	0x3e2df6d5	0.1698869
72	0xbda5ab00	-0.08089256
73	0x3da7330e	0.08164035
74	0x3ebe3c38	0.37155318
75	0xbe5a739a	-0.21333161
76	0xbdacb8b4	-0.08433667
77	0xbe12aa18	-0.14322698
78	0x3de356a0	0.11100507
79	0xbd831e32	-0.06402244
80	0xbd822c88	-0.0635615
81	0xbe86d87c	-0.2633704
82	0xbe64f7d4	-0.22360164
83	0xbdf439d8	-0.11925095
84	0x3d85c88d	0.06532393
85	0x3e4814ca	0.1953918
86	0x3c5f3ccf	0.013625338
87	0xbecca490	-0.399693
88	0x3e516000	0.20446777
89	0x3f60816e	0.87697494
90	0xbf2e24bd	-0.6802481
91	0x3e48542c	0.19563359
92	0x3eb837cf	0.3598008
93	0xbe19910e	-0.1499674
94	0xbe6b0140	-0.22949696
95	0xbd8b8532	-0.06812514
96	0xbe151c12	-0.14561489
97	0x3d718388	0.05896333
98	0x3d698640	0.057012796
99	0xbe4772ce	-0.19477388
100	0xbdeb17c4	-0.11479142
101	0x3d2beeb8	0.041975707
102	0xbe5cdd1e	-0.21568725
103	0xbe748a54	-0.23880893
104	0xbe6087ae	-0.21926758
105	0x3e02f466	0.12788543
106	0x3d748310	0.059695303
107	0xbdafff20	-0.08593583
108	0xbe0b4580	-0.13600731
109	0x3df740e0	0.12072921
110	0x3cf451c0	0.029824138
111	0xbe5b37e2	-0.21408036
112	0xbe569346	-0.20954618
113	0x3d0f4dfe	0.03498649
114	0xbdb8a9e4	-0.09016779
115	0xbda94598	-0.08265227
116	0x39e5a793	0.00043803136
117	0x3ea8338c	0.32851827
118	0xbdd20ce5	-0.10256366
119	0xbc4ca376	-0.012490144
120	0x3e0b1dae	0.1358554
121	0xbed0a390	-0.40749788
122	0xbe8ef5b4	-0.27921832
123	0xbcad48e0	-0.021152914
124	0x3e3d4e91	0.18487002
125	0xbe66df88	-0.22546208
126	0xbdfc8c6c	-0.12331471
127	0xbea40c7a	-0.3204077
128	0x3e048868	0.1294266
129	0xbdfcc2d4	-0.12341848
130	0x3d91519c	0.07095644
131	0x3e320a44	0.17386729
132	0x3b202780	0.0024437606
133	0x3e6e4334	0.23267823
134	0xbdd3ce6c	-0.10342106
135	0x3dd39be4	0.10332468
136	0xbde9f57c	-0.114237756
137	0xbe0c3c36	-0.13694844
138	0xbe3ad250	-0.1824429
139	0xbe31e03c	-0.17370695
140	0x3db3ccd4	0.08779302
141	0xbdb68318	-0.08911723
142	0x3dac19d4	0.08403364
143	0xbe57d562	-0.21077493
144	0x3d9720f4	0.07379332
145	0x3d6e15bf	0.058126207
146	0x3e303e5e	0.17211291
147	0x3e53dfa8	0.20690787
148	0x3e124784	0.14285094
149	0xbe1ae1bf	-0.15125178
150	0xbdd2d95e	-0.10295366
151	0xbda7839a	-0.08179398
152	0x3cae47f0	0.021274537
153	0x3eda1cc1	0.42600062
154	0xbea7e463	-0.32791433
155	0xbc2fc960	-0.010729164
156	0xbe68875f	-0.2270789
157	0xbdad66f4	-0.084669024
158	0x3e0f64e0	0.14003325
159	0x3e5ad5a2	0.21370557
160	0xbddc5064	-0.10757521
161	0xbc173755	-0.009229501
162	0xbe7d6d1e	-0.24748656
163	0x3e514254	0.20435458
164	0x3e0e4481	0.1389332
165	0x3d9053b0	0.07047212
166	0xbd8e3560	-0.06943774
167	0x3d914f23	0.07095172
168	0x3e60c5a8	0.219504
169	0x3e5185d5	0.20461209
170	0xbe315e3c	-0.17321104
171	0x3cc0e570	0.023546904
172	0xbe13f51b	-0.14448969
173	0x3e0921b6	0.13391766
174	0x3d9698c0	0.073533535
175	0xbe63de0e	-0.22252676
176	0x3e434dde	0.19072673
177	0x3db762ce	0.089543924
178	0xbe135c14	-0.14390594
179	0xbe4f1dfe	-0.20226285
180	0x3ccdc4be	0.025118228
181	0xbe91f2f8	-0.28505683
182	0xbe070a37	-0.1318749
183	0xbe8685fc	-0.26274097
184	0x3e14def0	0.14538169
185	0x3f35b59b	0.7098023
186	0xbe2719af	-0.16318391
187	0xbc3e44c0	-0.011613071
188	0xbca566b8	-0.020190582
189	0xbccf6d70	-0.025320739
190	0xbd830114	-0.0639669
191	0xbcced028	-0.025245741
192	0xbe40b28e	-0.18818113
193	0xbd560ec0	-0.05226016
194	0x3d64e7b8	0.055885047
195	0x3e7b7728	0.24557173
196	0xbe6d6fa4	-0.23187119
197	0xbd999c9c	-0.07500574
198	0xbe2c4ea2	-0.16826871
199	0x3e753e0a	0.23949447
200	0xbd31a530	-0.043370426
201	0xbd0f4680	-0.034979343
202	0xbd6c4230	-0.05768031
203	0x3df476a0	0.119366884
204	0x3dbca948	0.09211975
205	0x3d8f6258	0.070011795
206	0xbe0c64b2	-0.13710287
207	0xbe6e08d4	-0.23245555
208	0xbdd07458	-0.10178441
209	0x3e17f363	0.14838938
210	0x3df89c3c	0.12139174
211	0xbe402c54	-0.1876691
212	0xbd941558	-0.072306335
213	0xbe4050ee	-0.18780872
214	0xbda24125	-0.079225816
215	0x3db71c71	0.08940972
216	0x3db0d41c	0.08634207
217	0x3f541ad7	0.82853454
218	0xbecfe5ac	-0.40604913
219	0x3e6fcfe4	0.23419148
220	0xbdf17eeb	-0.11791786
221	0x3e0707c6	0.13186559
222	0x3e6a5ab8	0.22886169
223	0xbd9be0c6	-0.076112315
224	0x3e5faa4e	0.2184231
225	0xbdf74e8e	-0.1207553
226	0x3e69f494	0.22847205
227	0xbbb8f9c0	-0.005645007
228	0xbe87d190	-0.2652707
229	0x3bd4dfc9	0.006496404
230	0x3e1a37ad	0.15060301
231	0xbec56375	-0.38552442
232	0xbe3bfd38	-0.18358314
233	0x3f58e4fa	0.8472439
234	0xbf1794cd	-0.59211427
235	0xbe3f0af0	-0.18656516
236	0x3e8bf29f	0.27333543
237	0xbe4d4390	-0.20045304
238	0x3e076924	0.13223702
239	0x3ea64542	0.32474715
240	0xbe69a58a	-0.22817054
241	0x3e3c9d65	0.18419416
242	0x3d9337e0	0.07188392
243	0x3af80100	0.0018921196
244	0x3c6ce0f7	0.014457933
245	0xbe977f38	-0.29589248
246	0x3e2373d2	0.1596215
247	0xbda67073	-0.08126917
248	0x3d221788	0.039573222
249	0x3f2499b7	0.6429705
250	0xbf0a1eb3	-0.53953093
251	0xbdb1941c	-0.08670828
252	0xbd8006f4	-0.06251326
253	0x3c00d4e0	0.007863253
254	0xbe4c2ea8	-0.19939673
255	0x3e69a1fe	0.22815701

l2.bias f4 [32]
0	0x3dec8797	0.11549299
1	0xbdd1ce7b	-0.10244461
2	0xbe56f8b7	-0.20993315
3	0xbe600d62	-0.21880105
4	0x3df24b57	0.11830776
5	0x3e049c74	0.12950307
6	0xbe3c2eac	-0.18377179
7	0xbd546a5a	-0.051859237
8	0xbdac91dc	-0.08426258
9	0x3dbec6aa	0.09315236
10	0xbd8f3169	-0.06991846
11	0x3d6eead8	0.058329433
12	0x3e35c0b6	0.17749295
13	0x3d9b894e	0.07594548
14	0xbe905bc8	-0.28195024
15	0xbe5ef257	-0.21772133
16	0xbd656df0	-0.056013048
17	0xbca45ca3	-0.020063704
18	0xbc43b617	-0.011945269
19	0xbe2e22c1	-0.17005445
20	0xbe053e0f	-0.13011955
21	0x3de359a4	0.11101082
22	0x3e8086f4	0.2510296
23	0x3d2ea8a2	0.04264129
24	0x3e0daa2c	0.13834447
25	0xbe2f57fa	-0.17123404
26	0xbe3a8c42	-0.18217567
27	0x3d9e9815	0.07743851
28	0x3e5a4f07	0.21319209
29	0x3b8390b4	0.0040150527
30	0x3e2b1b3b	0.16709606
31	0x3e3e38a6	0.18576297

l3.weight f4 [16, 32]
0	0x3d9bb838	0.07603496
1	0x3e235597	0.15950619
2	0xbbd0722e	-0.0063612675
3	0x3dfe3843	0.12413075
4	0xbd000179	-0.031251404
5	0x3e23c658	0.15993631
6	0x3d1228e3	0.035683524
7	0x3cdb7a43	0.026791697
8	0xbe19dffb	-0.15026848
9	0xbda983fc	-0.08277127
10	0xbdb83cf9	-0.089960046
11	0xbe0538be	-0.13009927
12	0xbd8e128e	-0.06937133
13	0x3cd958b6	0.026531558
14	0xbe1a9f35	-0.15099795
15	0xbdac21a6	-0.084048554
16	0x3a56f34b	0.00081997056
17	0xbe13335a	-0.14375058
18	0x3dc95a1f	0.09831642
19	0xbdaa9ce7	-0.08330708
20	0xbd321770	-0.043479383
21	0xbcdcf0f3	-0.026970362
22	0x3c5a2a08	0.013315685
23	0x3df38883	0.11891272
24	0xbe0ad1a2	-0.13556531
25	0x3e27b097	0.16375957
26	0x3d4ce69d	0.050024617
27	0xbe0e667c	-0.13906282
28	0x3ddbf4d2	0.10740055
29	0xbd1612f4	-0.03663917
30	0x3e05dd0d	0.13072605
31	0xbdffc0c6	-0.124879405
32	0xbd5ca58b	-0.05386881
33	0xbe298297	-0.16553722
34	0xbd916b8c	-0.07100591
35	0x3dc5977b	0.09648033
36	0x3e24a9cb	0.16080396
37	0x3d21624e	0.03940039
38	0x3d14ff5f	0.036376353
39	0xbe0f8315	-0.14014848
40	0x3da0cd92	0.078517094
41	0x3c99c837	0.018772228
42	0x3dc365f8	0.09540933
43	0xbe204390	-0.15650773
44	0x3cfb19b5	0.030651907
45	0x3cc428de	0.023945268
46	0x3d4773a6	0.048694275
47	0x3cbd7145	0.0231253
48	0xbd251782	-0.040305622
49	0xbdaa8aa4	-0.08327225
50	0xbe04813e	-0.12939927
51	0x3d8d40e0	0.068971395
52	0x38cd537d	9.790713e-05
53	0xbda41d2e	-0.08013378
54	0x3deeac3f	0.11653947
55	0xbe2e86c5	-0.17043598
56	0xbe05191e	-0.12997863
57	0xbe21369d	-0.1574349
58	0xbda73847	-0.08165031
59	0x3dc74695	0.09730259
60	0xbe1b8a92	-0.15189579
61	0xbe068e48	-0.13140213
62	0x3ddf271f	0.10896134
63	0xbe1f3342	-0.15546897
64	0x3c74942c	0.014927905
65	0xbe716bde	-0.23576304
66	0xbea39bfe	-0.3195495
67	0x3de80722	0.113294855
68	0xbdc9afe0	-0.098479986
69	0x3cd81bec	0.026380502
70	0xbe2085a9	-0.15675987
71	0xbcfb593d	-0.0306822
72	0x3e19996f	0.14999937
73	0xbe8c6d50	-0.2742715
74	0x3d68f24b	0.056871694
75	0x3d4d9dfd	0.050199497
76	0x3c7c3783	0.015394094
77	0xbed209a1	-0.4102297
78	0xbf132900	-0.57484436
79	0x3d8a06aa	0.06739552
80	0xbdb75bd0	-0.08953059
81	0xbf06c1b3	-0.5263931
82	0xbd3b7fef	-0.045776304
83	0x3dab8f2a	0.08376916
84	0xbeef2746	-0.4670965
85	0x3ea2f5c2	0.31828123
86	0x3e713ed0	0.23559117
87	0xbb788116	-0.0037918738
88	0xbe600d55	-0.21880086
89	0x3db40623	0.08790233
90	0x3de58ceb	0.112085186
91	0x3f03e4da	0.51521075
92	0xbe1a1297	-0.15046154
93	0xbeb74169	-0.3579209
94	0xbe857c47	-0.2607138
95	0x3d976293	0.073918484
96	0xbde101f5	-0.109867014
97	0xbe2b1a56	-0.16709265
98	0x3bb5b5b9	0.0055453447
99	0x3e2e9213	0.1704791
100	0xbdbfddbe	-0.09368466
101	0xbd513486	-0.05107548
102	0xbe24dace	-0.16099092
103	0x3d9a5d93	0.07537379
104	0x3d6824db	0.056675773
105	0xbdecde2f	-0.11565816
106	0x3e1e523c	0.15461057
107	0xbe274fd5	-0.16339047
108	0xbcd8d67d	-0.026469463
109	0x3b9ac1e8	0.0047228225
110	0xbf5fcca3	-0.87421626
111	0x3cbbc225	0.022919724
112	0xbd1ec9fe	-0.038766854
113	0xbe58ddfb	-0.21178429
114	0xbe12aae0	-0.14322996
115	0xbd0acb5b	-0.03388534
116	0xbee16cf2	-0.4402843
117	0x3ed2c090	0.4116254
118	0x3e6b0786	0.22952089
119	0xbd350e26	-0.044202946
120	0xbe60d7a5	-0.21957262
121	0x3d4eeb4a	0.050517358
122	0x3d8aeecd	0.06783829
123	0x3d83bb7a	0.06432243
124	0xbd7dc4c3	-0.061955225
125	0xbd4d09ed	-0.050058294
126	0xbba600f4	-0.0050660316
127	0xbdc38f0b	-0.09548768
128	0x3e799441	0.2437296
129	0x3bc618a6	0.006045419
130	0x3dd2eac6	0.10298686
131	0x3de1b6a2	0.110211626
132	0x3f2efb23	0.68351954
133	0xbe40550c	-0.18782443
134	0xbddc3290	-0.107518315
135	0x3e0904ac	0.13380688
136	0x3dbc51fd	0.091953255
137	0xbdd5e85e	-0.10444711
138	0x3ca62a90	0.020283967
139	0x3e0b9232	0.13629988
140	0xbdd83432	-0.105568305
141	0xbde96e55	-0.11397997
142	0xbf0fa9d8	-0.56118536
143	0xbe22d734	-0.15902406
144	0x3d9c5216	0.07632844
145	0xbe52801d	-0.20556684
146	0xbd03e675	-0.032202203
147	0xbe20ae5a	-0.1569151
148	0xbeacb454	-0.3373133
149	0x3ec3be86	0.38231295
150	0x3c93f0da	0.018059183
151	0xbe233475	-0.1593798
152	0x3e3fd097	0.18731914
153	0x3d5db2ee	0.05412572
154	0x3e4907c9	0.19631876
155	0x3dc35161	0.09537006
156	0xbe245ff1	-0.16052224
157	0x3d644c0a	0.05573658
158	0xbdaa2d89	-0.083094664
159	0x3d309b7d	0.043117035
160	0x3de97bd8	0.114005744
161	0x3da23c14	0.07921615
162	0xbe2cdb7a	-0.16880599
163	0xbdea4bc2	-0.11440231
164	0xbf35f902	-0.7108308
165	0x3f229052	0.63501465
166	0x3d9e0663	0.07716062
167	0xbcf60ee2	-0.030036394
168	0x3e117f29	0.14208664
169	0x3e4d5467	0.20051728
170	0x3e169435	0.14704974
171	0x3dc4beb4	0.09606686
172	0x3e2fbb86	0.17161378
173	0xbcec656f	-0.028856961
174	0x3f2e5a28	0.6810632
175	0x3dc390f1	0.0954913
176	0xbe0f8732	-0.14016417
177	0xbe09b654	-0.13448459
178	0xbd90fbe9	-0.07079298
179	0xbd715c2f	-0.058925804
180	0x3f45ac20	0.77215767
181	0xbe458d58	-0.192922
182	0xbe912e91	-0.2835584
183	0x3ba10981	0.004914463
184	0xbe8bc290	-0.27296877
185	0x3e2604d0	0.16212773
186	0xbdb61d6d	-0.08892331
187	0x3d05c4f0	0.032658517
188	0xbceacefe	-0.028663155
189	0x3da62598	0.08112639
190	0xbd9e6c4f	-0.07735502
191	0x3e060952	0.13089493
192	0xbd76c1cb	-0.06024341
193	0x3df3853a	0.11890645
194	0xbe93ba1f	-0.28852937
195	0x3e040a68	0.12894595
196	0xbf2654a8	-0.64972925
197	0x3eee008f	0.464848
198	0xbc46f760	-0.01214394
199	0xbd136018	-0.035980314
200	0xbe34638f	-0.17616104
201	0x3db3d4ce	0.08780824
202	0x3e090eb3	0.13384514
203	0xbe3d980a	-0.1851503
204	0x3dba02d0	0.09082568
205	0x3dbc1a95	0.091847576
206	0x3ee9e4d0	0.45682383
207	0xbe204589	-0.15651526
208	0x3e1adc33	0.15123062
209	0x3d24f765	0.040274996
210	0x3e3d0c67	0.18461762
211	0xbdb81659	-0.089886375
212	0x3f087169	0.5329805
213	0xbeb3f591	-0.3514829
214	0xbc8060d7	-0.015671177
215	0xbd85fbc8	-0.06542164
216	0xbf0ec898	-0.5577483
217	0x3e33907b	0.17535584
218	0x3de6ac7b	0.11263367
219	0x3db3a168	0.0877102
220	0x3e75e532	0.24013212
221	0x3e3bc413	0.18336515
222	0x3e0ee055	0.13952763
223	0x3e187ca7	0.14891301
224	0x3d0f96ae	0.03505581
225	0x3dfce16a	0.12347682
226	0xbe97453c	-0.2954501
227	0x3db8e47d	0.09027956
228	0xbf386d74	-0.7204201
229	0x3edbf3a9	0.42959335
230	0x3e2e3a58	0.17014444
231	0x3d433fd6	0.0476683
232	0x3e160bea	0.14652982
233	0xbd1cd67d	-0.03829049
234	0xbd9f9d5b	-0.07793685
235	0x3e038861	0.12844993
236	0x3cd5bc3b	0.026090732
237	0x3df1c7f7	0.118057184
238	0x3f014b49	0.505055
239	0x3e340a26	0.17581996
240	0xbd8bbf73	-0.068236254
241	0x3d7ead9f	0.062177297
242	0x3e1f355e	0.15547702
243	0x3d477b02	0.048701294
244	0x3f42f9ca	0.761624
245	0xbe2a4d09	-0.16630949
246	0xbe871fb4	-0.26391375
247	0xbe0d6b39	-0.13810433
248	0xbf58b73c	-0.84654593
249	0x3dc024a8	0.093819916
250	0x3d6765a1	0.056493405
251	0xbe4e4b4e	-0.20145914
252	0x3c386a6c	0.011255842
253	0x3e0e7a67	0.1391388
254	0xbbac387c	-0.005255757
255	0x3de5c7c8	0.11219746

l3.bias f4 [16]
0	0xbd22b2a6	-0.039721154
1	0xbdaab74f	-0.083357446
2	0x3c2e2c7e	0.010630725
3	0x3e09f823	0.13473563
4	0x3e284d7f	0.16435812
5	0x3d1844d1	0.037175003
6	0x3e032099	0.12805404
7	0xbe1bb2e4	-0.1520496
8	0x3e1192cd	0.14216156
9	0x3c5e8cee	0.013583405
10	0xbe04b88f	-0.12961029
11	0x3e30e8dd	0.1727633
12	0xbdcdcc18	-0.100486934
13	0xbdafa414	-0.08576217
14	0xbdec5825	-0.1154025
15	0xbda4e213	-0.08050933

l4.weight f4 [1, 16]
0	0x3e341569	0.17586292
1	0xbb906440	-0.004406482
2	0x3f331f42	0.6996957
3	0x3e1a10f1	0.15045525
4	0x3d875f16	0.06609933
5	0xbe0e28a7	-0.13882695
6	0xbe489a2a	-0.19590059
7	0xbe096cf4	-0.13420469
8	0x3dc574a3	0.09641387
9	0x3f08a28e	0.5337304
10	0x3e22093f	0.1582384
11	0xbe66fc9b	-0.22557299
12	0xbe7f1bfc	-0.24913019
13	0x3e10822e	0.1411216
14	0xbe530b99	-0.20609893
15	0xbe026080	-0.12732124
