project/checkpoints/checkpoints_linearfirstorder/121_actor.pt (torch, 7960 bytes, 7 tensors)

l1.weight f4 [16, 5]
000000 b9 6e cc bb ae 45 64 be e5 b2 93 be 95 cd c1 3e
       -0.006238785 -0.22292206 -0.28847423 0.3785216
000010 b5 d5 8f be 6d 07 c5 3f 8b b4 d3 be 30 5c 5b 3e
       -0.28092733 1.5392891 -0.4134868 0.21421885
000020 25 3d 83 be 02 8c c9 3e 27 dd 60 be 0a 3a 19 3e
       -0.25632587 0.3936463 -0.21959363 0.14963546
000030 1e 8d d3 3c 31 af f1 bd 05 51 9b be ba ee d4 bd
       0.025824126 -0.11800993 -0.3033525 -0.10397096
000040 8c 81 72 3e fe 48 ec 3c 0a ea ca 3e 40 7b ac be
       0.2368223 0.0288434 0.39631683 -0.33687782
000050 55 2a 0a 3f 53 21 81 be 4c 2e 7e 3e 15 64 8c be
       0.53970844 -0.25220737 0.24822348 -0.27420107
000060 61 34 59 3e ed a5 29 3f 91 03 db be 15 dc 22 be
       0.21211387 0.6626881 -0.42776158 -0.15904267
000070 70 4d a0 bd b9 e1 f5 bd 36 47 ac bf ea b9 ce bb
       -0.0782727 -0.12005944 -1.3459232 -0.006308784
000080 69 f9 fc bc 05 99 ef bc 89 9e 7f 3d b7 61 c4 3e
       -0.030880647 -0.02924777 0.06240705 0.383558
000090 97 63 d3 be 51 73 c4 3d d9 5f aa bc 2a 2a 97 bd
       -0.4128692 0.09592307 -0.020797657 -0.07381089
0000a0 89 a2 28 bd 7a 0f 7f bd ff f1 b6 3b 78 8d bd bc
       -0.04117063 -0.06227062 0.0055830474 -0.023138747
0000b0 6a aa a2 be 66 5c ba be 9e 8b 5f 3e bf 77 b6 3e
       -0.3177064 -0.3639862 0.21830603 0.35638234
0000c0 08 11 b1 3e 9d c7 b9 be 87 28 ae 3e 63 77 83 3e
       0.34583306 -0.36285105 0.34015295 0.25677022
0000d0 74 ed 3b 3e 38 db b7 3e 99 fb 8a 3c 83 10 69 3e
       0.183523 0.35909438 0.016965674 0.22760205
0000e0 18 e6 f6 bd 33 2c 06 be 5c 70 83 be b8 87 b9 be
       -0.12055606 -0.13102798 -0.2567166 -0.36236358
0000f0 8a 13 b7 bf a6 8f 72 3e 93 4c 33 3e cb 94 b5 3e
       -1.4302838 0.2368761 0.1750968 0.35465083
000100 0b 7c 19 3e 31 07 99 be 49 4e f1 3c 34 25 a5 be
       0.14988725 -0.298883 0.029456275 -0.32254946
000110 ba f7 3e be 80 99 e2 be 77 47 95 3d 8e f1 c5 3e
       -0.18649188 -0.44257736 0.072890215 0.38660854
000120 7f ea 49 be bd 13 80 be 4f 3e a4 be e8 6f 8c 3f
       -0.1971836 -0.2501506 -0.32078788 1.0971651
000130 d5 96 ad be 38 e7 d7 be ba 92 af 3e bc 47 27 3e
       -0.33904138 -0.42168593 0.3429163 0.16335958

l1.bias f4 [16]
000000 de 28 92 be e8 75 77 3e 56 83 9d be 70 9e 3e 3d
       -0.28546804 0.24166071 -0.30764264 0.046537817
000010 de df c8 be 1e 82 99 be 9f 57 c7 3e 75 46 ac 3e
       -0.39233297 -0.29982084 0.38934037 0.33647504
000020 73 03 d5 be b2 85 f8 3d 6a d9 d2 be 7a 7d b6 3e
       -0.41604194 0.12134875 -0.411815 0.35642606
000030 2b 3a be be 44 04 e3 be a4 c7 d0 3d c0 b7 97 be
       -0.37153754 -0.44339192 0.101943284 -0.29632378

l2.weight f4 [32, 16]
000000 44 16 63 3e 8c e7 49 bd 74 41 a4 bd b0 48 64 bd
       0.22176462 -0.049293086 -0.08020297 -0.055733383
000010 ca d5 8f 3d 1b 62 aa 3e cc 6f 7b be c4 95 15 3e
       0.07023199 0.33277974 -0.24554366 0.14607912
000020 64 9a e3 bd a8 9b 45 bf d2 bb e4 bd d8 c9 7d be
       -0.11113432 -0.7719064 -0.111686364 -0.24784029
000030 ce 9d 66 3e 94 2a 30 be 7c 60 5f be 40 19 b8 be
       0.22521135 -0.17203742 -0.2181415 -0.35956764
000040 e8 46 e1 3d 53 74 85 3a fc d4 a8 3d 20 2b 73 3e
       0.109998524 0.0010181762 0.082437485 0.2374692
000050 1e 1e 87 3e 25 5a da bd 53 b7 1a 3e e7 bb 84 3e
       0.26390165 -0.10661725 0.15108995 0.25924608
000060 7c e6 a2 3d 48 e3 24 3f b3 76 b1 be dc 98 79 3e
       0.07954118 0.64409304 -0.34660873 0.24374717
000070 7c 43 85 be c4 b8 a2 3d 02 8d 6c be d1 e8 c2 3d
       -0.2602805 0.079453975 -0.23100665 0.095170625
000080 a8 e2 35 be 28 0a d9 3d be fe 31 3e 26 55 44 be
       -0.17762244 0.1059764 0.17382333 -0.19173107
000090 0f 51 c1 3d 61 44 48 3e 3f a6 6a bd 71 7a 5d bd
       0.09439289 0.19557334 -0.05728745 -0.054071847
0000a0 cc db d1 3d cc f9 8d 3f 7c ed 89 3e 20 68 a3 3d
       0.10247001 1.1091857 0.26939 0.07978845
0000b0 0c c9 75 be 98 f5 42 be a8 57 cb bd f6 ee cd 3c
       -0.24002475 -0.19038999 -0.099288285 0.02513836
0000c0 6c 16 fa bd 28 2d 07 3d 42 ea 37 be a4 9c 58 3e
       -0.12211308 0.03300205 -0.17960456 0.21153504
0000d0 40 85 77 3c 10 ba ce bd 5c 96 3f be d8 45 52 bd
       0.015107453 -0.10094082 -0.18709701 -0.05133614
0000e0 a8 5e c9 bd 1c 58 be 3d 28 1b 34 3e b0 06 34 3d
       -0.09832507 0.09294149 0.17588484 0.04395169
0000f0 48 2a a4 bd 5c 7a 59 be 80 c0 d3 bc 24 f4 56 be
       -0.08015877 -0.21238083 -0.025848627 -0.2099157
000100 70 8f 2c bd 05 62 f9 3d 68 6b 22 3e 0a 7a 1b 3e
       -0.04212898 0.12176899 0.15861285 0.15183273
000110 cb 59 88 be 7e 62 08 3f f9 cd b3 bf 17 ca 34 3e
       -0.26631007 0.5327529 -1.4047233 0.17655216
000120 00 ab a5 bd 0e 33 a7 3d 38 3c be 3e 9a 73 5a be
       -0.08089256 0.08164035 0.37155318 -0.21333161
000130 b4 b8 ac bd 18 aa 12 be a0 56 e3 3d 7d af 6c bd
       -0.08433667 -0.14322698 0.11100507 -0.057784546
000140 88 2c 82 bd 7c d8 86 be d4 f7 64 be d8 39 f4 bd
       -0.0635615 -0.2633704 -0.22360164 -0.11925095
000150 8d c8 85 3d ca 14 48 3e cf 3c 5f 3c 90 a4 cc be
       0.06532393 0.1953918 0.013625338 -0.399693
000160 00 60 51 3e 6e 81 60 3f bd 24 2e bf 2c 54 48 3e
       0.20446777 0.87697494 -0.6802481 0.19563359
000170 cf 37 b8 3e 0e 91 19 be 40 01 6b be 32 85 8b bd
       0.3598008 -0.1499674 -0.22949696 -0.06812514
000180 12 1c 15 be 88 83 71 3d 40 86 69 3d ce 72 47 be
       -0.14561489 0.05896333 0.057012796 -0.19477388
000190 c4 17 eb bd b8 ee 2b 3d 1e dd 5c be 54 8a 74 be
       -0.11479142 0.041975707 -0.21568725 -0.23880893
0001a0 ae 87 60 be 66 f4 02 3e 10 83 74 3d 20 ff af bd
       -0.21926758 0.12788543 0.059695303 -0.08593583
0001b0 80 45 0b be e0 40 f7 3d c0 51 f4 3c e2 37 5b be
       -0.13600731 0.12072921 0.029824138 -0.21408036
0001c0 46 93 56 be 66 2e 01 3d e4 a9 b8 bd 98 45 a9 bd
       -0.20954618 0.03153839 -0.09016779 -0.08265227
0001d0 a3 4a 52 bb 8c 33 a8 3e 35 a6 d7 bd a4 e6 8d bc
       -0.0032087944 0.32851827 -0.10529748 -0.017321892
0001e0 ae 1d 0b 3e 90 a3 d0 be b4 f5 8e be e0 48 ad bc
       0.1358554 -0.40749788 -0.27921832 -0.021152914
0001f0 ae 3e 3a 3e 88 df 66 be 6c 8c fc bd 87 4f 9d be
       0.18187973 -0.22546208 -0.12331471 -0.30724737
000200 68 88 04 3e d4 c2 fc bd 9c 51 91 3d 44 0a 32 3e
       0.1294266 -0.12341848 0.07095644 0.17386729
000210 80 27 20 3b 34 43 6e 3e 6c ce d3 bd e4 9b d3 3d
       0.0024437606 0.23267823 -0.10342106 0.10332468
000220 7c f5 e9 bd 36 3c 0c be 50 d2 3a be 3c e0 31 be
       -0.114237756 -0.13694844 -0.1824429 -0.17370695
000230 d4 cc b3 3d 18 83 b6 bd d4 19 ac 3d 62 d5 57 be
       0.08779302 -0.08911723 0.08403364 -0.21077493
000240 f4 20 97 3d 57 0d 6d 3d 5e 3e 30 3e a8 df 53 3e
       0.07379332 0.05787405 0.17211291 0.20690787
000250 c8 50 11 3e f5 8a 12 be ec ec d6 bd e2 63 ae bd
       0.14190972 -0.1431082 -0.10494408 -0.08515145
000260 f0 47 ae 3c c1 1c da 3e 63 e4 a7 be 60 c9 2f bc
       0.021274537 0.42600062 -0.32791433 -0.010729164
000270 14 d3 6d be f4 66 ad bd e0 64 0f 3e c5 1c 5c 3e
       -0.23225051 -0.084669024 0.14003325 0.2149535
000280 64 50 dc bd 55 37 17 bc 1e 6d 7d be 54 42 51 3e
       -0.10757521 -0.009229501 -0.24748656 0.20435458
000290 81 44 0e 3e b0 53 90 3d 60 35 8e bd 23 4f 91 3d
       0.1389332 0.07047212 -0.06943774 0.07095172
0002a0 a8 c5 60 3e d5 85 51 3e 3c 5e 31 be 70 e5 c0 3c
       0.219504 0.20461209 -0.17321104 0.023546904
0002b0 1b f5 13 be b6 21 09 3e c0 98 96 3d 0e de 63 be
       -0.14448969 0.13391766 0.073533535 -0.22252676
0002c0 de 4d 43 3e 81 34 b5 3d 14 5c 13 be fe 1d 4f be
       0.19072673 0.08847905 -0.14390594 -0.20226285
0002d0 6b 50 c0 3c 19 da a3 be 82 ba 09 be 1f 8f 88 be
       0.023475846 -0.32002333 -0.13450053 -0.26671693
0002e0 f0 de 14 3e 9b b5 35 3f af 19 27 be c0 44 3e bc
       0.14538169 0.7098023 -0.16318391 -0.011613071
0002f0 11 3d d3 bc 70 6d cf bc 14 01 83 bd 8b d8 cf bc
       -0.025785955 -0.025320739 -0.0639669 -0.02537181
000300 8e b2 40 be c0 0e 56 bd b8 e7 64 3d 28 77 7b 3e
       -0.18818113 -0.05226016 0.055885047 0.24557173
000310 a4 6f 6d be 9c 9c 99 bd a2 4e 2c be 0a 3e 75 3e
       -0.23187119 -0.07500574 -0.16826871 0.23949447
000320 30 a5 31 bd 80 46 0f bd 30 42 6c bd a0 76 f4 3d
       -0.043370426 -0.034979343 -0.05768031 0.119366884
000330 48 a9 bc 3d 58 62 8f 3d b2 64 0c be d4 08 6e be
       0.09211975 0.070011795 -0.13710287 -0.23245555
000340 58 74 d0 bd 63 b3 16 3e 3c 9c f8 3d 54 2c 40 be
       -0.10178441 0.14716868 0.12139174 -0.1876691
000350 3d f3 97 bd 66 dd 4a be 28 cd a7 bd 9b 93 ac 3d
       -0.07419441 -0.1981102 -0.08193427 0.08426591
000360 1c d4 b0 3d d7 1a 54 3f ac e5 cf be e4 cf 6f 3e
       0.08634207 0.82853454 -0.40604913 0.23419148
000370 64 70 fd bd c6 07 07 3e b8 5a 6a 3e 9e 34 9c bd
       -0.123749524 0.13186559 0.22886169 -0.076272234
000380 4e aa 5f 3e f6 83 de bd 94 f4 69 3e c0 f9 b8 bb
       0.2184231 -0.10865013 0.22847205 -0.005645007
000390 c7 a8 86 be 69 d1 da 3c ad 37 1a 3e 32 5e c1 be
       -0.26300642 0.026711183 0.15060301 -0.37767178
0003a0 38 fd 3b be fa e4 58 3f cd 94 17 bf f0 0a 3f be
       -0.18358314 0.8472439 -0.59211427 -0.18656516
0003b0 9f f2 8b 3e 90 43 4d be 24 69 07 3e bf 92 ad 3e
       0.27333543 -0.20045304 0.13223702 0.3390102
0003c0 8a a5 69 be 34 14 3b 3e e0 37 93 3d 00 01 f8 3a
       -0.22817054 0.18269426 0.07188392 0.0018921196
0003d0 4b f6 49 3c 96 df a2 be 0a 77 20 3e b3 4c b1 bd
       0.012326787 -0.31811208 0.1567041 -0.08657207
0003e0 88 17 22 3d b7 99 24 3f b3 1e 0a bf 1c 94 b1 bd
       0.039573222 0.6429705 -0.53953093 -0.08670828
0003f0 87 fa 8b bd e0 d4 00 3c a8 2e 4c be a7 27 69 3e
       -0.06834894 0.007863253 -0.19939673 0.22769032

l2.bias f4 [32]
000000 a8 46 ea 3d 55 47 d5 bd 7c 99 4f be 62 0d 60 be
       0.11439258 -0.10413996 -0.20273393 -0.21880105
000010 07 af f3 3d 74 9c 04 3e ac 2e 3c be 2d 5c 61 bd
       0.11898618 0.12950307 -0.18377179 -0.055019546
000020 dc 91 ac bd 6c 5b bd 3d 69 31 8f bd 5e e4 68 3d
       -0.08426258 0.09245953 -0.06991846 0.056858413
000030 b6 c0 35 3e b8 51 98 3d 8e 28 8a be d7 db 60 be
       0.17749295 0.074374616 -0.26984066 -0.21958862
000040 7d 82 5f bd 91 3c a8 bc fe 53 38 bc c1 22 2e be
       -0.054567803 -0.020536693 -0.011250494 -0.17005445
000050 0f 3e 05 be a4 59 e3 3d fe 70 80 3e a2 a8 2e 3d
       -0.13011955 0.11101082 0.25086206 0.04264129
000060 ae 2a 09 3e fa 57 2f be 08 73 41 be c7 7d ad 3d
       0.13395187 -0.17123404 -0.18891537 0.08471256
000070 40 dd 5a 3e d1 86 81 3b da 46 29 3e 7c ab 3d 3e
       0.21373463 0.003952839 0.16530934 0.18522447

l3.weight f4 [16, 32]
000000 38 b8 9b 3d 97 55 23 3e 2e 72 d0 bb 43 38 fe 3d
       0.07603496 0.15950619 -0.0063612675 0.12413075
000010 79 01 00 bd 58 c6 23 3e e3 28 12 3d 43 7a db 3c
       -0.031251404 0.15993631 0.035683524 0.026791697
000020 fb df 19 be fc 83 a9 bd f9 3c b8 bd be 38 05 be
       -0.15026848 -0.08277127 -0.089960046 -0.13009927
000030 8e 12 8e bd b6 58 d9 3c 35 9f 1a be a6 21 ac bd
       -0.06937133 0.026531558 -0.15099795 -0.084048554
000040 4b f3 56 3a 5a 33 13 be 1f 5a c9 3d e7 9c aa bd
       0.00081997056 -0.14375058 0.09831642 -0.08330708
000050 70 17 32 bd f3 f0 dc bc 08 2a 5a 3c 83 88 f3 3d
       -0.043479383 -0.026970362 0.013315685 0.11891272
000060 a2 d1 0a be 97 b0 27 3e 9d e6 4c 3d 7c 66 0e be
       -0.13556531 0.16375957 0.050024617 -0.13906282
000070 d2 f4 db 3d f4 12 16 bd 0d dd 05 3e c6 c0 ff bd
       0.10740055 -0.03663917 0.13072605 -0.124879405
000080 8b a5 5c bd 97 82 29 be 8c 6b 91 bd 7b 97 c5 3d
       -0.05386881 -0.16553722 -0.07100591 0.09648033
000090 cb a9 24 3e 4e 62 21 3d 5f ff 14 3d 15 83 0f be
       0.16080396 0.03940039 0.036376353 -0.14014848
0000a0 92 cd a0 3d 37 c8 99 3c f8 65 c3 3d 90 43 20 be
       0.078517094 0.018772228 0.09540933 -0.15650773
0000b0 b5 19 fb 3c de 28 c4 3c a6 73 47 3d 45 71 bd 3c
       0.030651907 0.023945268 0.048694275 0.0231253
0000c0 82 17 25 bd a4 8a aa bd 3e 81 04 be e0 40 8d 3d
       -0.040305622 -0.08327225 -0.12939927 0.068971395
0000d0 7d 53 cd 38 2e 1d a4 bd 3f ac ee 3d c5 86 2e be
       9.790713e-05 -0.08013378 0.11653947 -0.17043598
0000e0 1e 19 05 be 9d 36 21 be 47 38 a7 bd 95 46 c7 3d
       -0.12997863 -0.1574349 -0.08165031 0.09730259
0000f0 92 8a 1b be 48 8e 06 be 1f 27 df 3d 42 33 1f be
       -0.15189579 -0.13140213 0.10896134 -0.15546897
000100 2c 94 74 3c de 6b 71 be fe 9b a3 be 22 07 e8 3d
       0.014927905 -0.23576304 -0.3195495 0.113294855
000110 e0 af c9 bd ec 1b d8 3c a9 85 20 be 3d 59 fb bc
       -0.098479986 0.026380502 -0.15675987 -0.0306822
000120 6f 99 19 3e 50 6d 8c be 4b f2 68 3d fd 9d 4d 3d
       0.14999937 -0.2742715 0.056871694 0.050199497
000130 83 37 7c 3c a1 09 d2 be 00 29 13 bf aa 06 8a 3d
       0.015394094 -0.4102297 -0.57484436 0.06739552
000140 d0 5b b7 bd b3 c1 06 bf ef 7f 3b bd 2a 8f ab 3d
       -0.08953059 -0.5263931 -0.045776304 0.08376916
000150 46 27 ef be c2 f5 a2 3e d0 3e 71 3e 16 81 78 bb
       -0.4670965 0.31828123 0.23559117 -0.0037918738
000160 55 0d 60 be 23 06 b4 3d eb 8c e5 3d da e4 03 3f
       -0.21880086 0.08790233 0.112085186 0.51521075
000170 97 12 1a be 69 41 b7 be 47 7c 85 be 93 62 97 3d
       -0.15046154 -0.3579209 -0.2607138 0.073918484
000180 74 2d d5 bd 4c fe 2c be b9 b5 b5 3b 13 92 2e 3e
       -0.1040906 -0.16893882 0.0055453447 0.1704791
000190 be dd bf bd 86 34 51 bd ce da 24 be 35 72 9f 3d
       -0.09368466 -0.05107548 -0.16099092 0.07785455
0001a0 db 24 68 3d 79 4c f3 bd 3c 52 1e 3e 06 a1 27 be
       0.056675773 -0.118798204 0.15461057 -0.1637002
0001b0 7d d6 d8 bc ba 67 4c 3b a3 cc 5f bf d6 e6 b4 3c
       -0.026469463 0.0031189756 -0.87421626 0.022082727
0001c0 62 09 ba bd 53 2a 5a be 56 16 14 be 5b cb 0a bd
       -0.09083821 -0.21305208 -0.14461645 -0.03388534
0001d0 f2 6c e1 be 90 c0 d2 3e 5a d4 74 3e 26 0e 35 bd
       -0.4402843 0.4116254 0.2390913 -0.044202946
0001e0 a5 d7 60 be 4a eb 4e 3d 48 da 5b 3d 2c 81 7a 3d
       -0.21957262 0.050517358 0.053674966 0.061158344
0001f0 8a 5c 81 bd bc 74 58 bd 3a 9f d4 bb 7f f6 c4 bd
       -0.063164786 -0.0528457 -0.006488708 -0.09617328
000200 b3 b2 7c 3e b3 5c 8f 3b 76 17 c2 3d a2 b6 e1 3d
       0.24677543 0.0043750643 0.09477131 0.110211626
000210 f1 20 2d 3f 0c 55 40 be 90 32 dc bd df 2a 0a 3e
       0.6762839 -0.18782443 -0.107518315 0.13492917
000220 fd 51 bc 3d 75 84 df bd 90 2a a6 3c 44 33 09 3e
       0.091953255 -0.10913936 0.020283967 0.13398463
000230 32 34 d8 bd 46 c1 ef bd 25 c2 13 bf 22 61 26 be
       -0.105568305 -0.11706786 -0.57718116 -0.1624799
000240 72 6f aa 3d aa f0 55 be 3a 10 27 bd 5a ae 20 be
       0.08322038 -0.20892587 -0.04078696 -0.1569151
000250 54 b4 ac be 86 be c3 3e f7 ed 9e 3c 75 34 23 be
       -0.3373133 0.38231295 0.01940058 -0.1593798
000260 46 23 36 3e ee b2 5d 3d 4b 3d 45 3e 4a e6 b3 3d
       0.17786893 0.05412572 0.19261663 0.087841585
000270 0f 26 27 be 24 d2 51 3d 19 08 b2 bd 56 60 24 3d
       -0.16323112 0.051225796 -0.08692951 0.040130936
000280 f4 26 e1 3d b8 de 9d 3d 48 48 56 be c2 4b ea bd
       0.10993758 0.07708496 -0.2092601 -0.11440231
000290 7a 2e 39 bf 52 90 22 3f 63 06 9e 3d 50 67 04 bd
       -0.7233654 0.63501465 0.07716062 -0.03232509
0002a0 29 7f 11 3e 90 1e 4e 3e 35 94 16 3e 41 7a c2 3d
       0.14208664 0.20128846 0.14704974 0.09495974
0002b0 86 bb 2f 3e 44 bd ee bc a1 ca 2e 3f 61 6c c3 3d
       0.17161378 -0.029142983 0.6827794 0.09542156
0002c0 08 58 24 be 7d 05 0a be 01 95 a0 bd 2f 5c 71 bd
       -0.16049206 -0.13478656 -0.0784092 -0.058925804
0002d0 20 ac 45 3f 58 8d 45 be 33 04 93 be 81 09 a1 3b
       0.77215767 -0.192922 -0.2871414 0.004914463
0002e0 b2 f9 87 be d0 04 26 3e 28 20 b2 bd 3c 84 d5 3a
       -0.2655769 0.16212773 -0.086975396 0.0016290019
0002f0 29 d3 f1 bc b1 ff a7 3d b6 71 9e bd 0c c2 05 3e
       -0.029519634 0.08203066 -0.077365324 0.13062304
000300 12 ab 83 bd 8f de ef 3d 7e 0c 9c be 68 0a 04 3e
       -0.064291134 0.117123716 -0.3047828 0.12894595
000310 ea f9 24 bf 8f 00 ee 3e 60 f7 46 bc c9 99 1c bd
       -0.6444384 0.464848 -0.01214394 -0.0382326
000320 8f 63 34 be b8 77 b6 3d b3 0e 09 3e 79 7e 3e be
       -0.17616104 0.08909553 0.13384514 -0.18602933
000330 d0 02 ba 3d 02 09 bc 3d 06 2c f4 3e 3f e7 1f be
       0.09082568 0.091814056 0.47689837 -0.15615557
000340 1a 2a 06 3e da 6d 25 3d f6 55 39 3e 59 16 b8 bd
       0.13101998 0.040387966 0.18099198 -0.089886375
000350 69 71 08 3f 91 f5 b3 be ff 42 9c bc c8 fb 85 bd
       0.5329805 -0.3514829 -0.019074915 -0.06542164
000360 6e f8 09 bf 7b 90 33 3e b8 e0 ea 3d 8a ec c0 3d
       -0.538947 0.17535584 0.11468643 0.09420116
000370 bb 62 75 3e 3c 0f 3d 3e 45 6d 0f 3e ea 7c 18 3e
       0.23963444 0.18462843 0.14006527 0.14891401
000380 6a 5e d8 3c 18 4a f9 3d 15 34 ad be 7d e4 b8 3d
       0.026412208 0.121723354 -0.33828798 0.09027956
000390 fc e7 3b bf a9 f3 db 3e 58 3a 2e 3e a1 35 39 3d
       -0.73400855 0.42959335 0.17014444 0.04521716
0003a0 ea 0b 16 3e f6 45 18 bd 5b 9d 9f bd 49 ee 02 3e
       0.14652982 -0.037176095 -0.07793685 0.12786211
0003b0 3b bc d5 3c 02 3c f2 3d 80 d9 fc 3e 35 7a 34 3e
       0.026090732 0.11827852 0.4938469 0.17624743
0003c0 51 85 b5 bd bf 59 7f 3d 64 90 17 3e 02 7b 47 3d
       -0.08863319 0.062341448 0.14801174 0.048701294
0003d0 ca f9 42 3f 09 4d 2a be 1c 11 88 be 39 6b 0d be
       0.761624 -0.16630949 -0.26575553 -0.13810433
0003e0 e8 c2 57 bf a8 24 c0 3d 24 f6 78 3d 84 15 7c be
       -0.8428178 0.093819916 0.060781613 -0.24617583
0003f0 84 a0 32 3c d2 d5 0f 3e 6f 46 9f bb 4b 66 e6 3d
       0.010902528 0.1404641 -0.0048606913 0.112499796

l3.bias f4 [16]
000000 a6 b2 22 bd 4f b7 aa bd 7e 2c 2e 3c 12 57 09 3e
       -0.039721154 -0.083357446 0.010630725 0.13412121
000010 d1 7d 24 3e 39 99 1a 3d 10 ff 03 3e 44 84 1a be
       0.1606362 0.03774378 0.12890267 -0.15089518
000020 56 46 0f 3e 20 2a c2 39 81 57 00 be 30 bb 31 3e
       0.13991675 0.0003703395 -0.1253338 0.17356563
000030 0c da cb bd 14 a4 af bd 60 42 fc bd 12 8a a3 bd
       -0.099536985 -0.08576217 -0.123173475 -0.07985319

l4.weight f4 [1, 16]
000000 69 15 34 3e 40 64 90 bb 42 1f 33 3f 67 97 15 3e
       0.17586292 -0.004406482 0.6996957 0.14608537
000010 b3 ff 64 3d 33 a6 0d be c3 a3 48 be 72 b9 00 be
       0.055907916 -0.13832931 -0.1959372 -0.12570742
000020 94 01 be 3d 04 62 fd 3e 59 76 23 3e 0f 0f 66 be
       0.09277645 0.49488842 0.15963115 -0.22466682
000030 5b 4d 7d be 2e 82 10 3e 68 74 5f be bd ef fc bd
       -0.2473654 0.1411216 -0.21821749 -0.12350414
