project/checkpoints/checkpoints_linearfirstorder/140_actor.pt (torch, 7960 bytes, 7 tensors)

l1.weight f4 [16, 5]
-0.006238785 -0.22292206 -0.28847423 0.3785216 -0.28092733 1.6636156 -0.4134868 0.21200639
-0.25632587 0.39001808 -0.21959363 0.14963546 0.025824126 -0.11800993 -0.3033525 -0.10397096
0.2368223 0.0288434 0.39631683 -0.33687782 0.63557905 -0.25220737 0.24974047 -0.27420107
0.21061665 0.6729676 -0.42776158 -0.16514915 -0.0782727 -0.10755361 -1.3595049 -0.006308784
-0.032080736 -0.02924777 0.06372638 0.38800976 -0.4128692 0.09221716 -0.020797657 -0.07953387
-0.04117063 -0.06227062 0.0055830474 -0.023138747 -0.3177064 -0.3639862 0.21830603 0.35638234
0.34583306 -0.36285105 0.34015295 0.25677022 0.183523 0.35909438 0.016965674 0.22760205
-0.12055606 -0.13102798 -0.2567166 -0.36236358 -1.5710512 0.2368761 0.15567656 0.35465083
0.1510568 -0.298883 0.029456275 -0.32254946 -0.18649188 -0.44257736 0.072890215 0.38660854
-0.1971836 -0.2501506 -0.32078788 1.1715608 -0.33904138 -0.40172982 0.3429163 0.16081737
00000000: b96e ccbb ae45 64be e5b2 93be 95cd c13e
00000010: b5d5 8fbe 5bf1 d43f 8bb4 d3be 3418 593e
00000020: 253d 83be 73b0 c73e 27dd 60be 0a3a 193e
00000030: 1e8d d33c 31af f1bd 0551 9bbe baee d4bd
00000040: 8c81 723e fe48 ec3c 0aea ca3e 407b acbe
00000050: 4fb5 223f 5321 81be f7bb 7f3e 1564 8cbe
00000060: e4ab 573e 9b47 2c3f 9103 dbbe dc1c 29be
00000070: 704d a0bd 1145 dcbd 4204 aebf eab9 cebb
00000080: 1767 03bd 0599 efbc fa82 823d 37a9 c63e
00000090: 9763 d3be 5adc bc3d d95f aabc a7e2 a2bd
000000a0: 89a2 28bd 7a0f 7fbd fff1 b63b 788d bdbc
000000b0: 6aaa a2be 665c babe 9e8b 5f3e bf77 b63e
000000c0: 0811 b13e 9dc7 b9be 8728 ae3e 6377 833e
000000d0: 74ed 3b3e 38db b73e 99fb 8a3c 8310 693e
000000e0: 18e6 f6bd 332c 06be 5c70 83be b887 b9be
000000f0: 3518 c9bf a68f 723e ad69 1f3e cb94 b53e
00000100: a2ae 1a3e 3107 99be 494e f13c 3425 a5be
00000110: baf7 3ebe 8099 e2be 7747 953d 8ef1 c53e
00000120: 7fea 49be bd13 80be 4f3e a4be b4f5 953f
00000130: d596 adbe 88af cdbe ba92 af3e 4fad 243e

l1.bias f4 [16]
-0.28546804 0.23803242 -0.30764264 0.046537817 -0.39383227 -0.2873152 0.3906601 0.33075213
-0.41604194 0.12134875 -0.411815 0.35642606 -0.37036717 -0.44339192 0.101943284 -0.29886672
00000000: de28 92be c5be 733e 5683 9dbe 709e 3e3d
00000010: 62a4 c9be fa1a 93be 9a04 c83e 5858 a93e
00000020: 7303 d5be b285 f83d 6ad9 d2be 7a7d b63e
00000030: c4a0 bdbe 4404 e3be a4c7 d03d 0f05 99be

l2.weight f4 [32, 16]
0.22176462 -0.04859174 -0.08020297 -0.055733383 0.07099117 0.33277974 -0.24371812 0.14368069
-0.11113432 -0.7719064 -0.111686364 -0.24784029 0.2272108 -0.17203742 -0.2181415 -0.41873607
0.109998524 -0.0017178847 0.082437485 0.2374692 0.26025173 -0.09464161 0.14470282 0.2532776
0.07954118 0.64409304 -0.34660873 0.24374717 -0.27296123 0.079453975 -0.23100665 0.09464863
-0.17762244 0.12158316 0.17382333 -0.19173107 0.12067817 0.19552775 -0.14539388 0.011356815
0.10247001 1.1091857 0.26939 0.07978845 -0.48677814 -0.19038999 -0.099288285 0.04456709
-0.12211308 0.03300205 -0.17960456 0.21153504 0.015107453 -0.10094082 -0.18709701 -0.05133614
-0.09832507 0.09294149 0.17588484 0.04395169 -0.08015877 -0.21238083 -0.025848627 -0.2099157
-0.04212898 0.107152 0.15861285 0.15183273 -0.2913621 0.53168386 -1.4035386 0.15350305
-0.08089256 0.08164035 0.37155318 -0.21333161 -0.08433667 -0.14322698 0.11100507 -0.060968097
-0.0635615 -0.2633704 -0.22360164 -0.11925095 0.06532393 0.1953918 0.013625338 -0.399693
0.20446777 0.87697494 -0.6802481 0.19563359 0.3598008 -0.1499674 -0.22949696 -0.06812514
-0.14561489 0.05896333 0.057012796 -0.19477388 -0.11479142 0.041975707 -0.21568725 -0.23880893
-0.21926758 0.12788543 0.059695303 -0.08593583 -0.13600731 0.12072921 0.029824138 -0.21408036
-0.20954618 0.024441963 -0.09016779 -0.08265227 -0.010469035 0.32851827 -0.11248324 -0.024416987
0.1358554 -0.40749788 -0.27921832 -0.021152914 0.17437257 -0.22546208 -0.12331471 -0.31004745
0.1294266 -0.12341848 0.07095644 0.17386729 0.0024437606 0.23267823 -0.10342106 0.10332468
-0.114237756 -0.13694844 -0.1824429 -0.17370695 0.08779302 -0.08911723 0.08403364 -0.21077493
0.07379332 0.0562311 0.17211291 0.20690787 0.13942312 -0.12834698 -0.110193856 -0.09106365
0.021274537 0.42600062 -0.32791433 -0.010729164 -0.2443828 -0.084669024 0.14003325 0.21499756
-0.10757521 -0.009229501 -0.24748656 0.20435458 0.1389332 0.07047212 -0.06943774 0.07095172
0.219504 0.20461209 -0.17321104 0.023546904 -0.14448969 0.13391766 0.073533535 -0.22252676
0.19072673 0.08647444 -0.14390594 -0.20226285 0.020545857 -0.36414188 -0.139653 -0.27447993
0.14538169 0.7098023 -0.16318391 -0.011613071 -0.03717786 -0.025320739 -0.0639669 -0.02606248
-0.18818113 -0.05226016 0.055885047 0.24557173 -0.23187119 -0.07500574 -0.16826871 0.23949447
-0.043370426 -0.034979343 -0.05768031 0.119366884 0.09211975 0.070011795 -0.13710287 -0.23245555
-0.10178441 0.14581679 0.12139174 -0.1876691 -0.076564126 -0.20099007 -0.08651993 0.074423045
0.08634207 0.82853454 -0.40604913 0.23419148 -0.13598536 0.13186559 0.22886169 -0.07613475
0.2184231 -0.10955953 0.22847205 -0.005645007 -0.25690493 0.031594113 0.15060301 -0.36600986
-0.18358314 0.8472439 -0.59211427 -0.18656516 0.27333543 -0.20045304 0.13223702 0.33733878
-0.22817054 0.17254576 0.07188392 0.0018921196 0.001315939 -0.31404656 0.14435582 -0.10294558
0.039573222 0.6429705 -0.53953093 -0.08670828 -0.085767925 0.007863253 -0.19939673 0.21837975
00000000: 4416 633e 2208 47bd 7441 a4bd b048 64bd
00000010: d263 913d 1b62 aa3e 3e91 79be 0821 133e
00000020: 649a e3bd a89b 45bf d2bb e4bd d8c9 7dbe
00000030: f3a9 683e 942a 30be 7c60 5fbe 9364 d6be
00000040: e846 e13d a52a e1ba fcd4 a83d 202b 733e
00000050: b73f 853e 76d3 c1bd fa2c 143e 9aad 813e
00000060: 7ce6 a23d 48e3 243f b376 b1be dc98 793e
00000070: 93c1 8bbe c4b8 a23d 028d 6cbe 24d7 c13d
00000080: a8e2 35be 9700 f93d befe 313e 2655 44be
00000090: 1e26 f73d 6d38 483e 22e2 14be ef11 3a3c
000000a0: ccdb d13d ccf9 8d3f 7ced 893e 2068 a33d
000000b0: fc3a f9be 98f5 42be a857 cbbd fb8b 363d
000000c0: 6c16 fabd 282d 073d 42ea 37be a49c 583e
000000d0: 4085 773c 10ba cebd 5c96 3fbe d845 52bd
000000e0: a85e c9bd 1c58 be3d 281b 343e b006 343d
000000f0: 482a a4bd 5c7a 59be 80c0 d3bc 24f4 56be
00000100: 708f 2cbd 8272 db3d 686b 223e 0a7a 1b3e
00000110: 6a2d 95be 6f1c 083f 27a7 b3bf e72f 1d3e
00000120: 00ab a5bd 0e33 a73d 383c be3e 9a73 5abe
00000130: b4b8 acbd 18aa 12be a056 e33d afb9 79bd
00000140: 882c 82bd 7cd8 86be d4f7 64be d839 f4bd
00000150: 8dc8 853d ca14 483e cf3c 5f3c 90a4 ccbe
00000160: 0060 513e 6e81 603f bd24 2ebf 2c54 483e
00000170: cf37 b83e 0e91 19be 4001 6bbe 3285 8bbd
00000180: 121c 15be 8883 713d 4086 693d ce72 47be
00000190: c417 ebbd b8ee 2b3d 1edd 5cbe 548a 74be
000001a0: ae87 60be 66f4 023e 1083 743d 20ff afbd
000001b0: 8045 0bbe e040 f73d c051 f43c e237 5bbe
000001c0: 4693 56be 833a c83c e4a9 b8bd 9845 a9bd
000001d0: 5186 2bbc 8c33 a83e 9d5d e6bd 2206 c8bc
000001e0: ae1d 0b3e 90a3 d0be b4f5 8ebe e048 adbc
000001f0: b98e 323e 88df 66be 6c8c fcbd 8abe 9ebe
00000200: 6888 043e d4c2 fcbd 9c51 913d 440a 323e
00000210: 8027 203b 3443 6e3e 6cce d3bd e49b d33d
00000220: 7cf5 e9bd 363c 0cbe 50d2 3abe 3ce0 31be
00000230: d4cc b33d 1883 b6bd d419 ac3d 62d5 57be
00000240: f420 973d 9552 663d 5e3e 303e a8df 533e
00000250: efc4 0e3e 646d 03be 51ad e1bd 947f babd
00000260: f047 ae3c c11c da3e 63e4 a7be 60c9 2fbc
00000270: 7c3f 7abe f466 adbd e064 0f3e 5228 5c3e
00000280: 6450 dcbd 5537 17bc 1e6d 7dbe 5442 513e
00000290: 8144 0e3e b053 903d 6035 8ebd 234f 913d
000002a0: a8c5 603e d585 513e 3c5e 31be 70e5 c03c
000002b0: 1bf5 13be b621 093e c098 963d 0ede 63be
000002c0: de4d 433e 8319 b13d 145c 13be fe1d 4fbe
000002d0: c94f a83c ce70 babe 3201 0fbe a288 8cbe
000002e0: f0de 143e 9bb5 353f af19 27be c044 3ebc
000002f0: d047 18bd 706d cfbc 1401 83bd fb80 d5bc
00000300: 8eb2 40be c00e 56bd b8e7 643d 2877 7b3e
00000310: a46f 6dbe 9c9c 99bd a24e 2cbe 0a3e 753e
00000320: 30a5 31bd 8046 0fbd 3042 6cbd a076 f43d
00000330: 48a9 bc3d 5862 8f3d b264 0cbe d408 6ebe
00000340: 5874 d0bd ff50 153e 3c9c f83d 542c 40be
00000350: a7cd 9cbd 57d0 4dbe 5c31 b1bd 1c6b 983d
00000360: 1cd4 b03d d71a 543f ace5 cfbe e4cf 6f3e
00000370: bf3f 0bbe c607 073e b85a 6a3e 89ec 9bbd
00000380: 4eaa 5f3e bf60 e0bd 94f4 693e c0f9 b8bb
00000390: 0b89 83be d468 013d ad37 1a3e a565 bbbe
000003a0: 38fd 3bbe fae4 583f cd94 17bf f00a 3fbe
000003b0: 9ff2 8b3e 9043 4dbe 2469 073e abb7 ac3e
000003c0: 8aa5 69be d6af 303e e037 933d 0001 f83a
000003d0: 967b ac3a b6ca a0be 03d2 133e 22d5 d2bd
000003e0: 8817 223d b799 243f b31e 0abf 1c94 b1bd
000003f0: 18a7 afbd e0d4 003c a82e 4cbe f19e 5f3e

l2.bias f4 [32]
0.115491845 -0.107998386 -0.20040163 -0.21880105 0.10284061 0.12950307 -0.18377179 -0.06210784
-0.08426258 0.089695595 -0.06991846 0.05390507 0.17749295 0.072075866 -0.27313992 -0.23041531
-0.060253825 -0.022790309 -0.005827181 -0.17005445 -0.13011955 0.11101082 0.25152838 0.04264129
0.12634754 -0.17123404 -0.21176785 0.101876214 0.21451363 0.0034824135 0.16273892 0.18398377
00000000: fd86 ec3d 422e ddbd 1636 4dbe 620d 60be
00000010: 199e d23d 749c 043e ac2e 3cbe ca64 7ebd
00000020: dc91 acbd 53b2 b73d 6931 8fbd 90cb 5c3d
00000030: b6c0 353e 839c 933d ffd8 8bbe fef1 6bbe
00000040: b7cc 76bd beb2 babc f0f1 bebb c122 2ebe
00000050: 0f3e 05be a459 e33d 54c8 803e a2a8 2e3d
00000060: 4061 013e fa57 2fbe acd9 58be 7aa4 d03d
00000070: 76a9 5b3e 3439 643b 08a5 263e 3e66 3c3e

l3.weight f4 [16, 32]
0.07603496 0.15950619 -0.0063612675 0.12413075 -0.031251404 0.15993631 0.035683524 0.026791697
-0.15026848 -0.08277127 -0.089960046 -0.13009927 -0.06937133 0.026531558 -0.15099795 -0.084048554
0.00081997056 -0.14375058 0.09831642 -0.08330708 -0.043479383 -0.026970362 0.013315685 0.11891272
-0.13556531 0.16375957 0.050024617 -0.13906282 0.10740055 -0.03663917 0.13072605 -0.124879405
-0.05386881 -0.16553722 -0.07100591 0.09648033 0.16080396 0.03940039 0.036376353 -0.14014848
0.078517094 0.018772228 0.09540933 -0.15650773 0.030651907 0.023945268 0.048694275 0.0231253
-0.040305622 -0.08327225 -0.12939927 0.068971395 9.790713e-05 -0.08013378 0.11653947 -0.17043598
-0.12997863 -0.1574349 -0.08165031 0.09730259 -0.15189579 -0.13140213 0.10896134 -0.15546897
0.014927905 -0.23576304 -0.3195495 0.113294855 -0.098479986 0.026380502 -0.15675987 -0.0306822
0.14999937 -0.2742715 0.056871694 0.050199497 0.015394094 -0.4102297 -0.57484436 0.06739552
-0.08953059 -0.5263931 -0.045776304 0.08376916 -0.4670965 0.31828123 0.23559117 -0.0037918738
-0.21880086 0.08790233 0.112085186 0.51521075 -0.15046154 -0.3579209 -0.2607138 0.073918484
-0.1439572 -0.1727153 0.0055453447 0.1704791 -0.09368466 -0.05107548 -0.16099092 0.07348216
0.056675773 -0.1259584 0.15461057 -0.16430251 -0.026469463 -0.00087282795 -0.87421626 0.01745059
-0.09198026 -0.21602677 -0.20447804 -0.03388534 -0.4402843 0.4116254 0.2471209 -0.044202946
-0.21957262 0.050517358 0.04643484 0.047048405 -0.066265665 -0.059425123 -0.010589969 -0.099097595
0.20255686 -0.015804507 0.06619355 0.110211626 0.64980686 -0.18782443 -0.107518315 0.13030928
0.091953255 -0.13338469 0.020283967 0.11579531 -0.105568305 -0.13780496 -0.5801362 -0.18383129
0.07600431 -0.22955117 -0.08655374 -0.1569151 -0.3373133 0.38231295 0.013094443 -0.1593798
0.17357373 0.05412572 0.18710443 0.044451244 -0.18329749 0.027567668 -0.10841681 0.020218903
0.15358338 0.071561776 -0.27973953 -0.11440231 -0.7114797 0.63501465 0.07716062 -0.02752818
0.14208664 0.20234987 0.14704974 0.09150259 0.17161378 -0.029993938 0.69872993 0.0953043
-0.16394904 -0.13597868 -0.09899222 -0.058925804 0.77215767 -0.192922 -0.2949504 0.004914463
-0.23800515 0.16212773 -0.084989555 0.01055176 -0.03170769 0.08376315 -0.07852344 0.12981756
-0.020557567 0.11248293 -0.34958094 0.12894595 -0.6239794 0.464848 -0.01214394 -0.033422895
-0.17616104 0.091075964 0.13384514 -0.18887773 0.09082568 0.091590784 0.46011177 -0.1554781
0.12773606 0.040011328 0.16493486 -0.089886375 0.5329805 -0.3514829 -0.026479136 -0.06542164
-0.5590344 0.17535584 0.11673281 0.112574704 0.23819584 0.18711397 0.13982958 0.14873077
-0.0011533735 0.120634325 -0.41426975 0.09027956 -0.7181285 0.42959335 0.17014444 0.047699437
0.14652982 -0.031192519 -0.07793685 0.12965268 0.026090732 0.12230936 0.48409167 0.18123893
-0.087967865 0.066328734 0.12836613 0.048701294 0.761624 -0.16630949 -0.2650388 -0.13810433
-0.82809156 0.093819916 0.05816388 -0.23097019 0.013678244 0.14709154 -0.00071791594 0.11684068
00000000: 38b8 9b3d 9755 233e 2e72 d0bb 4338 fe3d
00000010: 7901 00bd 58c6 233e e328 123d 437a db3c
00000020: fbdf 19be fc83 a9bd f93c b8bd be38 05be
00000030: 8e12 8ebd b658 d93c 359f 1abe a621 acbd
00000040: 4bf3 563a 5a33 13be 1f5a c93d e79c aabd
00000050: 7017 32bd f3f0 dcbc 082a 5a3c 8388 f33d
00000060: a2d1 0abe 97b0 273e 9de6 4c3d 7c66 0ebe
00000070: d2f4 db3d f412 16bd 0ddd 053e c6c0 ffbd
00000080: 8ba5 5cbd 9782 29be 8c6b 91bd 7b97 c53d
00000090: cba9 243e 4e62 213d 5fff 143d 1583 0fbe
000000a0: 92cd a03d 37c8 993c f865 c33d 9043 20be
000000b0: b519 fb3c de28 c43c a673 473d 4571 bd3c
000000c0: 8217 25bd a48a aabd 3e81 04be e040 8d3d
000000d0: 7d53 cd38 2e1d a4bd 3fac ee3d c586 2ebe
000000e0: 1e19 05be 9d36 21be 4738 a7bd 9546 c73d
000000f0: 928a 1bbe 488e 06be 1f27 df3d 4233 1fbe
00000100: 2c94 743c de6b 71be fe9b a3be 2207 e83d
00000110: e0af c9bd ec1b d83c a985 20be 3d59 fbbc
00000120: 6f99 193e 506d 8cbe 4bf2 683d fd9d 4d3d
00000130: 8337 7c3c a109 d2be 0029 13bf aa06 8a3d
00000140: d05b b7bd b3c1 06bf ef7f 3bbd 2a8f ab3d
00000150: 4627 efbe c2f5 a23e d03e 713e 1681 78bb
00000160: 550d 60be 2306 b43d eb8c e53d dae4 033f
00000170: 9712 1abe 6941 b7be 477c 85be 9362 973d
00000180: 8469 13be 48dc 30be b9b5 b53b 1392 2e3e
00000190: bedd bfbd 8634 51bd ceda 24be d17d 963d
000001a0: db24 683d 3dfb 00be 3c52 1e3e eb3e 28be
000001b0: 7dd6 d8bc 7ece 64ba a3cc 5fbf 8af4 8e3c
000001c0: 2660 bcbd 1f36 5dbe b162 51be 5bcb 0abd
000001d0: f26c e1be 90c0 d23e 430d 7d3e 260e 35bd
000001e0: a5d7 60be 4aeb 4e3d 7532 3e3d d4b5 403d
000001f0: 4bb6 87bd c267 73bd 8d81 2dbc aef3 cabd
00000200: 116b 4f3e 7478 81bc 7c90 873d a2b6 e13d
00000210: be59 263f 0c55 40be 9032 dcbd cc6f 053e
00000220: fd51 bc3d ff95 08be 902a a63c 1726 ed3d
00000230: 3234 d8bd be1c 0dbe ce83 14bf 453e 3cbe
00000240: 26a8 9b3d 760f 6bbe 1643 b1bd 5aae 20be
00000250: 54b4 acbe 86be c33e 138a 563c 7534 23be
00000260: 50bd 313e eeb2 5d3d 4e98 3f3e 8212 363d
00000270: 56b2 3bbe 97d5 e13c a209 debd 1da2 a53c
00000280: f644 1d3e fb8e 923d 053a 8fbe c24b eabd
00000290: 8923 36bf 5290 223f 6306 9e3d c782 e1bc
000002a0: 297f 113e ce34 4f3e 3594 163e b665 bb3d
000002b0: 86bb 2f3e d9b5 f5bc f7df 323f e72e c33d
000002c0: 42e2 27be ff3d 0bbe 6fbc cabd 2f5c 71bd
000002d0: 20ac 453f 588d 45be bd03 97be 8109 a13b
000002e0: 9fb7 73be d004 263e 010f aebd 4ae1 2c3c
000002f0: ecdf 01bd 048c ab3d e6d0 a0bd e5ee 043e
00000300: 5868 a8bc 735d e63d 46fc b2be 680a 043e
00000310: 1dbd 1fbf 8f00 ee3e 60f7 46bc 72e6 08bd
00000320: 8f63 34be 0986 ba3d b30e 093e 2a69 41be
00000330: d002 ba3d f393 bb3d c593 eb3e a735 1fbe
00000340: 3ecd 023e ebe2 233d afe4 283e 5916 b8bd
00000350: 6971 083f 91f5 b3be c6ea d8bc c8fb 85bd
00000360: e11c 0fbf 7b90 333e 9d11 ef3d 918d e63d
00000370: 9ce9 733e ce9a 3f3e 7c2f 0f3e e14c 183e
00000380: cb2c 97ba 210f f73d 2a1b d4be 7de4 b83d
00000390: 45d7 37bf a9f3 db3e 583a 2e3e 7c60 433d
000003a0: ea0b 163e 7487 ffbc 5b9d 9fbd acc3 043e
000003b0: 3bbc d53c 547d fa3d ddda f73e b396 393e
000003c0: 7f28 b4bd 5cd7 873d 6972 033e 027b 473d
000003d0: caf9 423f 094d 2abe 2ab3 87be 396b 0dbe
000003e0: cffd 53bf a824 c03d 403d 6e3d 7383 6cbe
000003f0: b71a 603c 2a9f 163e 8632 3cba 2b4a ef3d

l3.bias f4 [16]
-0.039721154 -0.083357446 0.010630725 0.13060692 0.13993964 0.03873457 0.1304655 -0.14455827
0.13496058 -0.008697674 -0.117174834 0.17521393 -0.09774356 -0.08576217 -0.13644622 -0.08103694
00000000: a6b2 22bd 4fb7 aabd 7e2c 2e3c d2bd 053e
00000010: 564c 0f3e 24a8 1e3d bf98 053e 1507 14be
00000020: 1b33 0a3e b080 0ebc 5cf9 efbd 486b 333e
00000030: c72d c8bd 14a4 afbd 8fb8 0bbe b2f6 a5bd

l4.weight f4 [1, 16]
0.17586292 -0.004406482 0.6996957 0.11112478 0.025188463 -0.13678284 -0.19570921 -0.10073241
0.08432008 0.48781553 0.12373096 -0.22185451 -0.24231525 0.1411216 -0.23683393 -0.10985979
00000000: 6915 343e 4064 90bb 421f 333f 6395 e33d
00000010: 0958 ce3c cd10 0cbe ff67 48be cb4c cebd
00000020: 02b0 ac3d f5c2 f93e a866 fd3d d42d 63be
00000030: 7d21 78be 2e82 103e 9884 72be 2bfe e0bd
