project/checkpoints/checkpoints_linearfirstorder/15_critic.pt (torch, 15054 bytes, 14 tensors)

l1.weight f4 [16, 6]
-1.0032947 0.3768367 -0.07398217 0.07718828 0.33857143 0.75517166 0.24939525 -0.055188026
-0.21946515 0.19029792 -0.34375396 -0.76531106 1.0791781 0.16708414 0.011056944 0.39112172
0.37812737 0.4510518 -0.3663806 -0.29472378 0.0529876 -0.21188596 0.32628205 -1.170319
0.71976185 -0.042189658 -0.30221942 0.046648577 -0.20881848 -0.6238658 -0.13797295 -0.2687379
-0.25500587 -0.3322528 -0.25848934 -0.5319467 -0.64793724 0.24788308 0.6906794 0.1431742
-0.08333968 0.2891809 1.0883287 0.26340297 -0.09712719 0.017559439 0.3714568 0.67163295
-0.5245584 0.12857181 0.38867727 0.3281359 -0.21344054 -0.84933156 -0.5725146 -0.12615521
-0.12266299 0.19218692 0.39746383 -1.5067093 0.64726037 0.0845495 0.05266971 -0.40649426
0.19769566 -0.8635007 0.009661176 -0.09689744 -0.081652306 -0.06472291 -0.1719705 -0.057812687
0.9821084 0.10341979 -0.33749917 0.40185142 0.11348539 0.5388084 1.114501 0.09281759
0.21992701 0.38803482 0.30387625 1.1949669 0.2807595 0.06337187 0.1282983 -0.022115448
-0.23680194 0.25637153 -0.37570664 0.39009976 -0.17216182 0.24143372 -0.2950465 0.10509778
00000000: f66b 80bf bdf0 c03e f783 97bd e414 9e3d
00000010: 3c59 ad3e ee52 413f 7861 7f3e d70c 62bd
00000020: 79bb 60be 75dd 423e 8500 b0be 6deb 43bf
00000030: 8222 8a3f 1b18 2b3e 2f28 353c 1b41 c83e
00000040: e999 c13e 43f0 e63e 3d96 bbbe 09e6 96be
00000050: 8709 593d a2f8 58be 710e a73e 03cd 95bf
00000060: 5042 383f 10cf 2cbd 81bc 9abe 9412 3f3d
00000070: 83d4 55be abb5 1fbf c848 0dbe 0498 89be
00000080: 2190 82be 0a1d aabe b758 84be a92d 08bf
00000090: 37df 25bf 10d5 7d3e 5dd0 303f 429c 123e
000000a0: ffad aabd 850f 943e 5b4e 8b3f c1dc 863e
000000b0: 9fea c6bd d0d8 8f3c 962f be3e 23f0 2b3f
000000c0: 7649 06bf 54a8 033e b500 c73e 6e01 a83e
000000d0: 2890 5abe cb6d 59bf 5190 12bf d52e 01be
000000e0: bc36 fbbd a6cc 443e 6180 cb3e dadb c0bf
000000f0: dbb2 253f 4a28 ad3d 32bc 573d 0420 d0be
00000100: bb70 4a3e 620e 5dbf e949 1e3c 2a72 c6bd
00000110: 5339 a7bd 728d 84bd 0919 30be ffcc 6cbd
00000120: 756b 7b3f c1cd d33d b1cc acbe 78bf cd3e
00000130: 076b e83d 59ef 093f f8a7 8e3f 2617 be3d
00000140: 8c34 613e 80ac c63e ab95 9b3e adf4 983f
00000150: b6bf 8f3e 1cc9 813d a160 033e 752b b5bc
00000160: 357c 72be 2143 833e 9f5c c0be 28bb c73e
00000170: 304b 30be 673a 773e 5610 97be 813d d73d

l1.bias f4 [16]
0.14970562 0.107084334 0.3710116 0.37013337 0.24499117 0.08735026 0.029773738 0.2950283
0.045335025 -0.12427033 -0.16469042 0.17533432 -0.0020582862 0.16806878 0.05443836 -0.30704027
00000000: 6e4c 193e 084f db3d 3cf5 bd3e 1f82 bd3e
00000010: f7de 7a3e b1e4 b23d 0ee8 f33c f30d 973e
00000020: 38b1 393d 7181 febd 9ba4 28be d78a 333e
00000030: 50e4 06bb 391a 2c3e c2fa 5e3d 6234 9dbe

l2.weight f4 [32, 16]
0.092189856 -0.4367457 -0.09039819 0.31862956 -0.5091156 -0.54506767 -0.29768378 0.02422075
-0.5124848 0.23497635 0.0975482 0.09573504 -0.31681013 -0.18359528 -0.03184694 0.05138272
0.18915313 0.21883051 -0.1285773 -0.5958869 0.2590058 0.25848997 0.11098422 0.26827863
-0.037215624 -0.7166299 -0.44837722 0.18792406 -0.021140452 0.25472268 0.0047732294 -0.15249205
0.33383754 0.3194813 0.25147247 -0.1462137 -0.0072731674 0.06678936 0.45077118 0.30332252
-0.20014174 -0.055273727 -0.31962588 -0.011729449 0.2596869 0.26905608 0.13213852 -0.08523661
-0.24934077 0.09452518 -0.02243535 -0.107101135 -0.14777786 0.1872685 0.107923925 0.21477625
0.055054665 -0.111133486 0.24575001 -0.23131028 -0.093123056 -0.25694633 -0.082095414 -0.19180802
-0.183354 0.1430597 -0.26240784 -0.102569394 0.072820336 0.07312248 -0.17082101 -0.037269633
0.14904895 0.061733 -0.3007749 -0.19979584 -0.10445756 0.1502143 0.15809649 0.18415856
0.006772001 0.43639544 0.26207855 -0.4178555 0.22551373 0.2699786 -0.11362204 0.29574373
-0.19922616 -0.5520259 -0.29619792 0.14778313 0.25270808 0.47383496 -0.19736409 -0.11688027
-0.17954126 0.20915875 -0.2048049 0.22029492 -0.11047864 0.105147064 -0.08908215 -0.216052
-0.07044479 -0.08810502 0.10323611 0.15395129 0.06658071 -0.100456804 -0.22594023 -0.2441229
-1.8275533 0.4626485 0.32391268 -0.01137465 0.27846467 0.26143447 -0.51572126 0.43354416
-1.0510501 0.020595597 0.2184066 -0.08059442 0.47696286 0.3707682 0.1872375 -0.039818972
-0.093307905 -0.003791988 0.11521007 -0.15541336 -0.23756364 -0.08724573 -0.07612809 -0.20611808
0.19455722 0.03223525 -0.2627767 0.036476582 -0.192202 0.17368309 0.025319517 -0.22728768
-0.133815 0.055271268 -0.1432029 0.082559526 -0.26523626 -0.114649445 -0.10971689 0.19088824
0.12660795 -0.16072173 -0.25800622 0.14880767 0.11025171 -0.04889446 -0.071547925 -0.17072293
0.3419109 0.16118896 -0.010180798 0.20425521 0.230502 0.04627713 0.22557737 0.029358992
0.1316735 0.24739522 0.21044743 0.15822607 0.23107351 0.14411825 0.13455793 -0.033414066
0.004720678 0.5393696 0.12505868 0.18989828 0.1599391 0.21714835 0.4252881 0.038112808
-0.016484365 -0.21860482 0.16614632 0.14056328 0.12341013 0.24756552 0.19947022 0.12805492
0.10387721 0.5233736 0.22172223 0.17914587 0.14923362 0.10708792 0.36961943 0.35828918
0.004677412 0.17336442 -0.018622681 -0.02123031 -0.23078813 0.17660172 -0.18461591 -0.24496147
-0.19791062 -0.09958623 -0.21088421 -0.07960745 -0.0073462953 -0.25374013 0.076133765 -0.27305233
0.16935875 0.032125786 -0.31786215 0.035419255 -0.24364641 0.040557414 0.008984387 0.08081189
0.5720196 -0.089591734 0.40540695 -0.052491847 -0.17118959 -0.29808605 -0.65013534 0.10675854
-0.23030564 -0.040625494 0.0939815 0.23527768 0.26878592 0.153179 -0.20239627 -0.2179234
-0.3990191 0.048784833 -0.20577613 0.031046722 -0.052876703 0.18006065 0.17379522 -0.33285126
-0.052252054 0.14151101 0.06344389 0.08787769 -0.15073177 -0.19556612 -0.041149825 -0.184244
00000000: 09ce bc3d 229d dfbe b022 b9bd 6a23 a33e
00000010: 6655 02bf 8e89 0bbf 026a 98be 986a c63c
00000020: 3432 03bf a49d 703e 5ac7 c73d bc10 c43d
00000030: f034 a2be 6700 3cbe f071 02bd b076 523d
00000040: 5cb1 413e 1b15 603e c5a9 03be 0b8c 18bf
00000050: 699c 843e cc58 843e b24b e33d d15b 893e
00000060: 696f 18bd 0f75 37bf b391 e5be 2a6f 403e
00000070: be2e adbc 036b 823e c068 9c3b e026 1cbe
00000080: c1ec aa3e 0e93 a33e 00c1 803e 0bb9 15be
00000090: c053 eebb dcc8 883d 7bcb e63e 174d 9b3e
000000a0: f5f1 4cbe b466 62bd 01a6 a3be e02c 40bc
000000b0: aef5 843e b8c1 893e 524f 073e 8890 aebd
000000c0: 3053 7fbe 6b96 c13d 57ca b7bc d757 dbbd
000000d0: 1453 17be 50c3 3f3e 3807 dd3d 4eee 5b3e
000000e0: 0081 613d f499 e3bd e4a5 7b3e 9adc 6cbe
000000f0: 4db7 bebd 788e 83be a421 a8bd 5269 44be
00000100: 27c1 3bbe 3e7e 123e 525a 86be e70f d2bd
00000110: d422 953d 3dc1 953d b4eb 2ebe 0ba8 18bd
00000120: 4aa0 183e bedb 7c3d 2bff 99be 4897 4cbe
00000130: d8ed d5bd c7d1 193e 0ce4 213e 1094 3c3e
00000140: a9e7 dd3b 396f df3e 292f 863e 28f1 d5be
00000150: 12ed 663e a33a 8a3e acb2 e8bd b96b 973e
00000160: f101 4cbe 9251 0dbf 41a7 97be 7654 173e
00000170: f462 813e 7f9a f23e d019 4abe ec5e efbd
00000180: aad9 37be b62d 563e 60b8 51be fe94 613e
00000190: a042 e2bd 5857 d73d b470 b6bd bc3c 5dbe
000001a0: 5c45 90bd 6870 b4bd 746d d33d 68a5 1d3e
000001b0: 785b 883d 4cbc cdbd e05c 67be 5afb 79be
000001c0: 44ed e9bf 44e0 ec3e e2d7 a53e bd5c 3abc
000001d0: ec92 8e3e bdda 853e 4f06 04bf 80f9 dd3e
000001e0: cf88 86bf 19b8 a83c fba5 5f3e b00e a5bd
000001f0: 7a34 f43e 54d5 bd3e 30bb 3f3e 3819 23bd
00000200: 3718 bfbd 0083 78bb 42f3 eb3d ae24 1fbe
00000210: e243 73be e4ad b2bd 0be9 9bbd 9e10 53be
00000220: 023a 473e 1c09 043d ab8a 86be 7868 153d
00000230: 9ad0 44be fbd9 313e e06a cf3c 1abe 68be
00000240: cd06 09be 2064 623d c8a3 12be f814 a93d
00000250: 0ccd 87be 54cd eabd 40b3 e0bd 3578 433e
00000260: 84a5 013e 3d94 24be 6419 84be 0a61 183e
00000270: a6cb e13d 8f45 48bd b887 92bd fed1 2ebe
00000280: f20e af3e b80e 253e 5dcd 26bc 4728 513e
00000290: b708 6c3e 168d 3d3d c1fd 663e 4582 f03c
000002a0: 6bd5 063e 2c55 7d3e 887f 573e 0406 223e
000002b0: 899e 6c3e bc93 133e 8ec9 093e 30dd 08bd
000002c0: ebaf 9a3b 2014 0a3f 620f 003e b274 423e
000002d0: 13c7 233e 235c 5e3e 5dbf d93e 2d1c 1c3d
000002e0: 380a 87bc f1d9 5fbe 4322 2a3e d2ef 0f3e
000002f0: 73be fc3d d181 7d3e ec41 4c3e d420 033e
00000300: 93bd d43d d0fb 053f 270b 633e 0472 373e
00000310: b3d0 183e e950 db3d c23e bd3e ae71 b73e
00000320: fa44 993b 7186 313e 988e 98bc 30eb adbc
00000330: b953 6cbe 15d7 343e f40b 3dbe 2ed7 7abe
00000340: 15a9 4abe def3 cbbd 08f2 57be 3b09 a3bd
00000350: 31b9 f0bb 3aea 81be 05ec 9b3d 84cd 8bbe
00000360: 616c 2d3e 5496 033d d4be a2be c813 113d
00000370: 727e 79be 881f 263d 4033 133c b480 a53d
00000380: e06f 123f df7b b7bd 8091 cf3e b101 57bd
00000390: 534c 2fbe bc9e 98be 456f 26bf 39a4 da3d
000003a0: 3ed5 6bbe eb66 26bd 5f79 c03d a2ec 703e
000003b0: 4f9e 893e f5da 1c3e f840 4fbe 5027 5fbe
000003c0: 3b4c ccbe 9bd2 473d fab6 52be b255 fe3c
000003d0: 3e95 58bd d261 383e 60f7 313e 7b6b aabe
000003e0: 4006 56bd 43e8 103e dfee 813d 38f9 b33d
000003f0: 6e59 1abe 7c42 48be b88c 28bd 76aa 3cbe

l2.bias f4 [32]
0.038067807 -0.29327032 0.029190056 -0.111383036 -0.10729092 -0.10829118 -0.2442069 0.19581856
-0.2127605 -0.13208331 0.030517172 -0.0015114626 -0.043738116 -0.11232009 -0.032481294 -0.17847267
0.115853034 0.026276147 -0.05904336 0.07973999 -0.18949719 0.031737983 -0.23270741 -0.0574915
-0.026391454 0.07302903 0.006062622 -0.053950034 0.119724855 -0.012746299 0.25095513 -0.05451895
00000000: fdec 1b3d 8727 96be fc1f ef3c ca1c e4bd
00000010: 58bb dbbd c4c7 ddbd 6011 7abe a984 483e
00000020: e3dd 59be d940 07be 26ff f93c 451c c6ba
00000030: bd26 33bd 1308 e6bd 1b0b 05bd 8ac1 36be
00000040: 5b44 ed3d 1341 d73c 73d7 71bd b84e a33d
00000050: 8d0b 42be b0ff 013d da4a 6ebe 357c 6bbd
00000060: e432 d8bc 3e90 953d f6a8 c63b b6fa 5cbd
00000070: 4e32 f53d dad5 50bc 317d 803e 434f 5fbd

l3.weight f4 [16, 32]
0.017730063 -0.019710163 0.018059969 -0.10610883 -0.086677395 0.002635517 0.09645148 0.0074254572
0.0685027 0.14736766 0.10445508 -0.15054274 -0.110414624 0.027114023 0.072482206 0.07393642
0.023043072 0.111814424 -0.10988646 0.06434266 0.16764118 -0.060375024 0.08620788 0.14095467
-0.17429388 -0.1039233 -0.13669771 0.16421036 -0.16699012 -0.13524458 -0.023687568 -0.097992785
0.08295764 -0.07261584 -0.165835 -0.12585367 0.102971956 -0.063610196 -0.16606918 -0.063508496
-0.17300452 -0.10762602 -0.013073004 0.014472974 0.05907665 0.025055647 -0.07060933 -0.009025453
-0.07318269 0.061245967 -0.06666173 -0.0963121 -0.12928335 -0.043006264 0.15464659 -0.10952012
0.056801032 -0.064049385 -0.15073356 0.075799294 0.025613524 -0.07433992 0.048189294 -0.1151301
0.6825021 0.49225855 0.2865677 -0.021043932 0.030457517 0.5170279 0.09860965 0.8969542
0.11875029 -0.034796514 0.2197768 0.1166323 0.27424726 -0.0003625012 -0.018127015 0.062591106
0.15163736 0.02488871 0.3500146 -0.101250656 -0.047445778 -0.05767097 -0.04886874 0.13078274
0.08244119 0.34270018 -0.13785549 0.09754698 0.20803082 -0.33809498 -0.52371895 0.85435706
0.79171187 0.40425906 0.26443595 -0.1489482 -0.06340866 0.74112475 0.03202874 0.75544035
0.15532005 0.04405777 0.18553339 0.2154719 0.11906907 -0.09454432 -0.12136762 0.18677224
-0.05113428 -0.12684025 0.42778307 -0.019824065 -0.062007144 -0.06018276 0.11817475 0.22614287
-0.09579874 0.37952784 -0.13729589 0.30563456 0.04696518 -0.14431003 -0.5143805 1.2260567
0.32026702 -0.40085945 -0.007305405 -0.13347411 -0.18786375 -0.011148495 -0.15634628 0.96559495
0.16557102 -0.036049463 0.09602233 0.18349281 0.26319313 0.20358542 -0.8356498 0.15324272
0.0711473 0.3346087 0.5527613 0.080713086 -0.0064303023 0.14539094 -0.031053545 0.12114443
-0.034958072 0.25533703 0.18069129 0.07346312 0.14667186 -0.107119955 -0.84804213 0.5664651
0.68158996 0.51989794 0.3071754 -0.02176134 -0.029942105 0.57946384 -0.086869225 0.8473079
-0.017874982 0.03733178 -0.09690211 0.27554467 0.20670874 -0.080761105 -0.11489927 0.24103388
0.08127899 0.0975893 0.7203621 0.045969546 0.18500485 0.088740036 0.08899128 0.28430983
0.039294153 0.48372966 0.086008035 0.22845277 0.07779697 -0.3034209 -0.44521368 1.0780983
-0.12292113 -0.17522971 -0.06388564 0.1517373 0.062063165 -0.095150955 0.017204618 -0.00048621875
0.06315275 -0.123037584 -0.15686761 -0.14612404 0.036215797 -0.045549307 0.03150634 0.107452355
-0.1685377 -0.10166494 0.05844603 0.07499587 -0.1241858 -0.019032778 0.015988532 0.14408764
-0.025965013 -0.16764817 -0.17771082 -0.0389564 -0.023466585 0.07081844 -0.08666746 -0.033762682
-0.07873109 0.039745152 0.02027896 0.0011951581 -0.13553704 -0.14656469 0.0050637964 0.09949539
-0.17518066 0.1482012 -0.026831051 -0.08249071 0.048019696 -0.03682954 -0.10370628 0.0113101695
0.06196931 -0.18757577 0.119648755 0.09536799 -0.16165169 0.019430203 -3.8627586e-05 -0.12422664
0.089147136 0.041707475 -0.13229175 -0.20476913 0.07700928 -0.13555297 0.09728278 -0.20693359
00000000: a33e 913c 3577 a1bc 80f2 933c 964f d9bd
00000010: eb83 b1bd a3b8 2c3b 5b88 c53d 4051 f33b
00000020: 254b 8c3d 8ce7 163e 8cec d53d e027 1abe
00000030: 1021 e2bd 3a1e de3c 8d71 943d fa6b 973d
00000040: d3c4 bc3c f6fe e43d 270c e1bd 16c6 833d
00000050: 21aa 2b3e cd4b 77bd c28d b03d 6c56 103e
00000060: 187a 32be bdd5 d4bd 7cfa 0bbe c326 283e
00000070: 75ff 2abe 8e7d 0abe 6e0c c2bc 71b0 c8bd
00000080: b2e5 a93d 9db7 94bd a6d0 29be c9df 00be
00000090: f6e2 d23d 1046 82bd 0a0e 2abe be10 82bd
000000a0: 1928 31be 086b dcbd 2730 56bc 0e20 6d3c
000000b0: 5bfa 713d 8041 cd3c a09b 90bd 7edf 13bc
000000c0: cee0 95bd 0ddd 7a3d f285 88bd 473f c5bd
000000d0: db62 04be 5627 30bd ad5b 1e3e 164c e0bd
000000e0: 33a8 683d 532c 83bd e659 1abe a93c 9b3d
000000f0: 74d3 d13c 873f 98bd 2362 453d 54c9 ebbd
00000100: 75b8 2e3f 5009 fc3e 00b9 923e 5364 acbc
00000110: 0b82 f93c f15b 043f dbf3 c93d ca9e 653f
00000120: 5a33 f33d ca86 0ebd 2b0d 613e eadc ee3d
00000130: 236a 8c3e 160e beb9 1b7f 94bc c42f 803d
00000140: d346 1b3e 68e3 cb3c 1d35 b33e 815c cfbd
00000150: 8156 42bd 6538 6cbd 972a 48bd e9eb 053e
00000160: edd6 a83d 6676 af3e fd29 0dbe b6c6 c73d
00000170: 0806 553e c91a adbe 7212 06bf 25b7 5a3f
00000180: a1ad 4a3f 0bfb ce3e 2664 873e e085 18be
00000190: 66dc 81bd 5aba 3d3f 9130 033d 8a64 413f
000001a0: 380c 1f3e ec75 343d 77fc 3d3e aaa4 5c3e
000001b0: 7cda f33d 74a0 c1bd 968f f8bd 3941 3f3e
000001c0: 2e72 51bd 69e2 01be 6206 db3e 1466 a2bc
000001d0: 34fb 7dbd 3382 76bd 9a05 f23d ff91 673e
000001e0: 2132 c4bd 7951 c23e 4b97 0cbe 227c 9c3e
000001f0: 905e 403d 02c6 13be 71ae 03bf 6def 9c3f
00000200: 0afa a33e 733d cdbe 2e62 efbb 70ad 08be
00000210: 5b5f 40be 2da8 36bc 3d19 20be 3b31 773f
00000220: 738b 293e 9aa8 13bd 5ba7 c43d 8ae5 3b3e
00000230: 40c1 863e b278 503e 25ed 55bf a9eb 1c3e
00000240: adb5 913d d551 ab3e c481 0d3f e74c a53d
00000250: 49b5 d2bb 5de1 143e 0164 febc 921a f83d
00000260: 3230 0fbd 89bb 823e 2307 393e d573 963d
00000270: 2631 163e b561 dbbd 4a19 59bf db03 113f
00000280: ae7c 2e3f 0818 053f 1846 9d3e d644 b2bc
00000290: 2549 f5bc be57 143f 7ee8 b1bd 2ce9 583f
000002a0: 8e6e 92bc 35e9 183d 9d74 c6bd 3114 8d3e
000002b0: 75ab 533e 1466 a5bd 4f50 ebbd 96d1 763e
000002c0: 9975 a63d e6dc c73d a769 383f 904a 3c3d
000002d0: e971 3d3e 56bd b53d 0f41 b63d 0f91 913e
000002e0: e8f2 203d 6aab f73e fb24 b03d 86ef 693e
000002f0: 0554 9f3d fc59 9bbe 0cf3 e3be 20ff 893f
00000300: 13be fbbd 6b6f 33be 79d6 82bd 0661 1b3e
00000310: f235 7e3d 81de c2bd b3f0 8c3c 2deb feb9
00000320: 3b56 813d 21fb fbbd e7a1 20be 8aa1 15be
00000330: 0457 143d e991 3abd cb0c 013d fb0f dc3d
00000340: 2695 2cbe b535 d0bd 1b65 6f3d 6f97 993d
00000350: 2055 febd a1ea 9bbc 62fa 823c b68b 133e
00000360: 94b4 d4bc f6ab 2bbe d3f9 35be bf90 1fbd
00000370: ff3c c0bc 4209 913d b67e b1bd bd4a 0abd
00000380: c43d a1bd d0cb 223d 1020 a63c daa6 9c3a
00000390: 39ca 0abe 0e15 16be 34ee a53b 3dc4 cb3d
000003a0: 8f62 33be 0ec2 173e cbcc dbbc e4f0 a8bd
000003b0: 4db0 443d 92da 16bd f563 d4bd 4a4e 393c
000003c0: 88d3 7d3d dd13 40be 680a f53d 4b50 c33d
000003d0: 0588 25be 172c 9f3c 0e04 22b8 896a febd
000003e0: c692 b63d 75d5 2a3d 7d77 07be 00af 51be
000003f0: 0bb7 9d3d 66ce 0abe 323c c73d 66e6 53be

l3.bias f4 [16]
-0.1255056 0.0120989485 0.23868454 0.0869037 0.14598748 0.020136755 0.040598884 -0.14861235
0.012567436 0.058305923 0.04715269 -0.18977968 -0.00659457 0.15310878 0.05277364 0.01932296
00000000: 8a84 00be ab3a 463c b869 743e 91fa b13d
00000010: be7d 153e d6f5 a43c 044b 263d d62d 18be
00000020: a6e7 4d3c 31d2 6e3d 2e23 413d 9b55 42be
00000030: 4317 d8bb 8cc8 1c3e 2c29 583d 2f4b 9e3c

l4.weight f4 [1, 16]
0.1924458 -0.0394316 -0.58753526 -0.47325444 -0.7982888 -0.4435068 0.17071812 0.19212803
-0.7062422 0.15595016 -0.98719716 0.20189944 -0.24752253 -0.72767025 -0.6369359 0.62878615
00000000: 8310 453e 0883 21bd b668 16bf 684e f2be
00000010: a85c 4cbf 5313 e3be bbd0 2e3e 36bd 443e
00000020: 4acc 34bf 66b1 1f3e f4b8 7cbf babe 4e3e
00000030: 8c76 7dbe 9948 3abf 3b0e 23bf 21f8 203f

l5.weight f4 [16, 6]
-0.38133442 -0.3532748 0.09861534 -0.052723482 0.32578146 0.69469863 0.5851013 0.2193759
-0.3983897 0.3680096 0.39027512 1.1260382 1.8100276 -0.09195428 -0.0060539413 -0.38279122
-0.057536565 0.00066475465 -0.26024306 -0.00073798624 0.28096858 -0.13485715 0.0044756364 0.9142862
-0.14731246 0.33924848 0.105098754 0.26634908 0.3833506 0.73073363 1.0640879 -0.25777045
-0.36125082 0.19206087 0.06701626 -0.11132074 0.054068588 -0.30333075 -0.18640392 -0.2957178
-0.3992259 0.2589037 0.9261599 0.12831494 0.11710822 0.34188837 0.23522288 -0.2951874
-0.23347746 -0.102692164 0.08959452 -0.3177667 -0.1801617 -0.3827816 -0.110671744 0.073974654
-0.11001318 -0.13390134 0.37511337 -1.1799358 0.056735452 -0.35376406 0.28521812 0.24460195
-0.030688716 -0.23456924 -0.26031604 -0.30160335 -0.022043033 -0.22405888 -0.0933045 -0.018246228
-0.85373825 -0.014574109 -0.09589891 -0.18173452 0.40113583 0.9385982 0.25361857 -0.13809384
-0.04322151 -0.39195567 0.34192052 -1.1041262 -0.036128864 -0.3610562 -0.2951903 0.063366026
-0.28979856 0.17345427 0.006769773 -0.33652192 -0.36523646 0.39357215 -0.40673155 -0.38158572
00000000: 443e c3be 6fe0 b4be d7f6 c93d 94f4 57bd
00000010: d4cc a63e c5d7 313f 33c9 153f 13a4 603e
00000020: bcf9 cbbe c16b bc3e 24d2 c73e 0522 903f
00000030: fcae e73f 8752 bcbd 2460 c6bb 36fd c3be
00000040: 76ab 6bbd ee42 2e3a 943e 85be 6b75 41ba
00000050: 1ddb 8f3e fe17 0abe 5ca8 923b a90e 6a3f
00000060: 14d9 16be fab1 ad3e 043e d73d e85e 883e
00000070: 8846 c43e 5c11 3b3f 0834 883f 7dfa 83be
00000080: def5 b8be 9bab 443e d23f 893d 21fc e3bd
00000090: 0677 5d3d 2b4e 9bbe abe0 3ebe 5368 97be
000000a0: 5667 ccbe 078f 843e d118 6d3f fe64 033e
000000b0: 6fd6 ef3d fe0b af3e 44de 703e ce22 97be
000000c0: b714 6fbe 4550 d2bd 557d b73d 51b2 a2be
000000d0: 4f7c 38be f3fb c3be dea7 e2bd 0680 973d
000000e0: 974e e1bd 6f1d 09be dc0e c03e 2308 97bf
000000f0: 6f63 683d 9020 b5be 1c08 923e ef78 7a3e
00000100: e766 fbbc eb32 70be 2548 85be c16b 9abe
00000110: 9793 b4bc b16f 65be 6e16 bfbd 1d79 95bc
00000120: 978e 5abf 3ec8 6ebc a666 c4bd 9d18 3abe
00000130: ad61 cd3e f947 703f 4bda 813e 7968 0dbe
00000140: 0a09 31bd 6aae c8be 3510 af3e 0254 8dbf
00000150: dcfb 13bd 5cdc b8be 2f23 97be 0cc6 813d
00000160: 7a60 94be ff9d 313e f9d4 dd3b 9a4c acbe
00000170: 4600 bbbe 4a82 c93e 1e3f d0be 345f c3be

l5.bias f4 [16]
0.3979359 0.32446718 0.046465315 0.5414896 0.30799013 -0.08211408 -0.3096909 0.30534568
-0.38155216 0.1774339 -0.057908628 -0.26028383 -0.07891983 -0.0905562 -0.34531912 -0.2699892
00000000: 41be cb3e 9020 a63e 6a52 3e3d 109f 0a3f
00000010: e2b0 9d3e 6d2b a8bd ce8f 9ebe 4556 9c3e
00000020: ce5a c3be 3bb1 353e 9931 6dbd ec43 85be
00000030: b8a0 a1bd 8775 b9bd abcd b0be 063c 8abe

l6.weight f4 [32, 16]
-0.2644266 0.13078818 0.085000575 0.390668 -0.15196681 0.16900489 0.16386029 -0.06799308
0.094312906 -0.61123437 -0.048728764 0.0015265942 0.07509058 -0.2940396 0.13883832 0.069750756
0.07454878 0.2523475 1.1341257 -0.42541483 0.19956106 0.24108921 0.15503934 0.21674013
-0.23843151 -0.10752224 0.14042106 -0.14830545 0.2580646 0.14457075 0.13053924 -0.005240977
-0.079620644 0.24473558 -1.3648318 0.11708144 0.22515418 0.14755282 0.12836748 0.22560579
0.104334265 0.13772641 -0.056128077 -0.18351987 0.14853859 0.21661316 0.20126563 0.025868148
-0.1747112 -0.4665775 1.2558414 -0.44106916 0.27345383 0.11313491 0.1364015 -0.07482991
0.00973925 0.31258786 0.14741781 0.074674636 0.023852838 0.35534596 0.021776825 0.11351472
-0.014064431 -0.2401889 -0.060569257 -0.07835594 0.025982767 -0.037776947 0.15560165 0.23640746
-0.07916409 -0.09025186 -0.21653053 -0.015033454 -0.24079338 -0.10475686 0.18434593 0.21280855
-0.27221388 -0.83701307 0.590822 -0.5297295 -0.037861846 0.14558572 0.115535855 -0.04594041
0.14999354 0.1770716 0.10918424 -0.12665638 -0.9027666 0.15938945 0.08937311 -0.06644434
-0.06375677 -0.026199123 0.08971042 -0.12319605 -0.2149507 -0.16594443 -0.07716453 0.08427103
0.09449446 -0.10964887 0.13173088 0.08949739 -0.05419482 0.16910836 -0.17136252 -0.022827834
0.13832399 -0.09862353 1.600214 -0.26859832 0.22710021 0.1961234 -0.23494762 0.28878862
0.24604481 -0.0044099344 -0.1726771 0.01631245 0.02617277 -0.31730506 0.098148495 0.18883458
-0.44110462 -0.40451375 0.0689921 -0.6261559 -0.30248404 0.47880358 0.11461711 -0.12055783
-0.21011528 0.32297736 -0.055581097 -0.14779258 -0.16008987 0.424704 0.13316488 -0.006244123
-0.5353212 -0.4077825 0.87513816 -0.14467806 -0.22695696 0.28754595 0.14268935 0.12338374
0.1264872 0.22082193 0.21742614 0.021691173 -0.9979758 0.07033376 -0.112379104 0.041583717
0.13464144 0.28805587 -0.60099024 0.1472168 0.1677391 0.5947222 -0.21915483 0.38066858
-0.24806562 0.36818802 0.77299035 0.12599298 -0.27770662 0.26099002 0.039880455 -0.052695483
-0.25748047 -0.2702507 0.19850875 0.10038066 -0.11416741 -0.017651098 -0.1436261 0.042610273
0.22449541 -0.079612575 -0.2028327 -0.08042723 -0.041386496 0.19702284 0.023405224 -0.032847047
0.014672963 0.33199316 1.4200507 0.40232542 -0.18578584 0.37177685 -0.060180753 0.1688233
-0.17010087 -0.7422822 -0.42829323 0.2414613 -0.2768732 -0.5701925 -0.068004966 -0.19628683
-0.21588805 -0.49872574 0.23409228 -0.6409033 -0.23638561 0.29464906 0.14630097 0.35367632
-0.22786215 0.43236214 0.27105573 -0.22319078 -0.5046276 0.5077143 0.17100269 0.22910687
-0.22346063 -0.37210074 1.031719 -0.35963914 0.18886288 0.36569846 -0.14355722 0.34194642
-0.16535366 -0.018399006 0.30663234 0.040440887 -0.5429626 0.1135803 0.24636137 0.20118889
-0.0707736 -0.17994153 0.115593225 0.025878102 -0.223894 0.085996956 -0.06367633 0.04349506
0.16617605 0.13173127 -0.1132136 0.06335771 0.18990752 -0.110494226 -0.05274993 0.03585902
00000000: ec62 87be 56ed 053e c814 ae3d a305 c83e
00000010: 309d 1bbe 9e0f 2d3e feca 273e f53f 8bbd
00000020: 2027 c13d db79 1cbf d097 47bd 0018 c83a
00000030: 17c9 993d 5c8c 96be a22b 0e3e 7cd9 8e3d
00000040: 08ad 983d b133 813e 082b 913f f9cf d9be
00000050: bc59 4c3e 17e0 763e a2c2 1e3e 20f1 5d3e
00000060: 6427 74be 9f34 dcbd 8aca 0f3e 62dd 17be
00000070: 0b21 843e 5b0a 143e 14ac 053e 80bc abbb
00000080: 2610 a3bd f79b 7a3e cfb2 aebf 65c8 ef3d
00000090: d18e 663e 1618 173e c472 033e 3405 673e
000000a0: 34ad d53d 2708 0d3e 8ee6 65bd a2ec 3bbe
000000b0: 801a 183e d7cf 5d3e 9418 4e3e 70e9 d33c
000000c0: 7ee7 32be 3fe3 eebe 69bf a03f d1d3 e1be
000000d0: 2402 8c3e 47b3 e73d d6ac 0b3e 6d40 99bd
000000e0: 6091 1f3c 840b a03e b2f4 163e 04ef 983d
000000f0: 0767 c33c e8ef b53e 5065 b23c 687a e83d
00000100: 806e 66bc 14f4 75be 7817 78bd 1479 a0bd
00000110: d0d9 d43c 00bc 1abd 0a56 1f3e cc14 723e
00000120: c820 a2bd f8d5 b8bd 2eba 5dbe e04e 76bc
00000130: 8a92 76be c48a d6bd 2ec5 3c3e 7cea 593e
00000140: 9e5f 8bbe 7d46 56bf 1c40 173f 5a9c 07bf
00000150: 0615 1bbd 6c14 153e 109e ec3d 032c 3cbd
00000160: e897 193e 4252 353e fd9b df3d 36b2 01be
00000170: b61b 67bf fd36 233e 4009 b73d f813 88bd
00000180: e992 82bd 8b9f d6bc 19ba b73d 364e fcbd
00000190: 091c 5cbe 56ed 29be 7008 9ebd 4a96 ac3d
000001a0: 5086 c13d 968f e0bd 76e4 063e 684a b73d
000001b0: 63fb 5dbd be2a 2d3e a879 2fbe 7001 bbbc
000001c0: cea4 0d3e 22fb c9bd d0d3 cc3f b885 89be
000001d0: f58c 683e 93d4 483e 1c96 70be 1adc 933e
000001e0: 2cf3 7b3e 3681 90bb 44d2 30be b0a1 853c
000001f0: 4768 d63c cf75 a2be 1402 c93d da5d 413e
00000200: 77d8 e1be 6d1c cfbe bb4b 8d3d c14b 20bf
00000210: 30df 9abe be25 f53e 60bc ea3d 06e7 f6bd
00000220: 7628 57be 4a5d a53e 01a9 63bd f056 17be
00000230: 99ee 23be cd72 d93e 605c 083e 809b ccbb
00000240: cf0a 09bf dec8 d0be 0e09 603f 7c26 14be
00000250: 6867 68be 3939 933e 281d 123e 9db0 fc3d
00000260: dc85 013e 251f 623e f5a4 5e3e b0b1 b13c
00000270: 587b 7fbf 250b 903d 0427 e6bd b053 2a3d
00000280: 72df 093e 0f7c 933e 7fda 19bf 00c0 163e
00000290: ccc3 2b3e b73f 183f 206a 60be fee6 c23e
000002a0: ea04 7ebe 2483 bc3e b2e2 453f 4e04 013e
000002b0: 902f 8ebe 7ca0 853e b059 233d 38d7 57bd
000002c0: 7bd4 83be 4d5e 8abe e145 4b3e 6094 cd3d
000002d0: 9ad0 e9bd 0999 90bc b812 13be 1c88 2e3d
000002e0: 20e2 653e eb0b a3bd 60b3 4fbe 08b7 a4bd
000002f0: e384 29bd 5bc0 493e 50bc bf3c a08a 06bd
00000300: de66 703c 02fb a93e 39c4 b53f 99fd cd3e
00000310: a53e 3ebe 8959 be3e 1880 76bd 04e0 2c3e
00000320: ec2e 2ebe 3506 3ebf 4049 dbbe a241 773e
00000330: 53c2 8dbe 23f8 11bf 3046 8bbd 6aff 48be
00000340: c211 5dbe fb58 ffbe e3b5 6f3e 3d12 24bf
00000350: 120f 72be 3edc 963e eccf 153e 1015 b53e
00000360: b254 69be 925e dd3e d1c7 8a3e 208c 64be
00000370: 462f 01bf 90f9 013f 541b 2f3e fe9a 6a3e
00000380: ddd2 64be fd83 bebe 5e0f 843f 9f22 b8be
00000390: 4565 413e d43c bb3e aa00 13be 9a13 af3e
000003a0: 7852 29be 83b9 96bc eafe 9c3e 58a5 253d
000003b0: 99ff 0abf ca9c e83d 2846 7c3e 7604 4e3e
000003c0: c0f1 90bd 9842 38be 24bc ec3d 50fe d33c
000003d0: 7844 65be 2c1f b03d bc68 82bd e027 323d
000003e0: 0e2a 2a3e 90e4 063e 88dc e7bd b0c1 813d
000003f0: 1e77 423e cc4a e2bd 5010 58bd e8e0 123d

l6.bias f4 [32]
0.014649762 0.1312398 -0.16063283 0.21177173 -0.12722373 0.21012346 -0.2932022 0.048074786
0.17925598 0.090839416 0.30080098 -0.2620886 0.013841451 -0.026248602 0.04432586 -0.18368003
0.12227173 -0.33825618 -0.18152034 -0.018797902 0.117749214 -0.08960223 -0.18904167 -0.16647983
0.062674105 0.24069561 0.1804811 0.364023 0.07563945 -0.26175493 0.034951657 0.26741102
00000000: 8e05 703c ba63 063e ef7c 24be b0da 583e
00000010: f046 02be 9b2a 573e 991e 96be 11ea 443d
00000020: e18e 373e 040a ba3d 9602 9a3e 7a30 86be
00000030: 41c7 623c 4f07 d7bc 088f 353d 9e16 3cbe
00000040: 9a69 fa3d ea2f adbe 78e0 39be 0ffe 99bc
00000050: 8026 f13d 6081 b7bd 2494 41be b079 2abe
00000060: 485b 803d e978 763e 0ad0 383e 3961 ba3e
00000070: dbe8 9a3d be04 86be 7829 0f3d 19ea 883e

l7.weight f4 [16, 32]
-0.08427374 -0.09524134 0.018661456 -0.42242643 0.11640759 -0.009656116 0.030028217 0.08995403
-0.43787095 -0.11308041 0.18804237 -0.0840115 -0.43448886 0.124375924 -0.06433995 0.1692054
0.12762117 0.0067693302 -0.17289498 0.12535957 -0.05587631 -0.027497973 0.17452016 0.03111742
0.1324522 0.18187709 -0.47545195 0.23053877 0.06409432 0.009900266 -0.05224223 0.087321974
0.08990607 0.045171067 0.050838944 0.4249655 0.14582653 0.74517596 0.033308942 0.48753414
0.4801333 0.54720616 0.21193196 0.004352408 0.8157315 0.41978264 0.2943561 0.058445476
0.53093815 0.1322461 0.11322814 0.38720906 0.15414152 0.069590345 0.14230247 0.8459709
0.07234915 0.1321804 0.40820634 0.056141324 -0.012165072 -0.03360846 0.14524874 0.0059719617
-0.28331223 0.39173678 0.38866115 -0.21468541 0.066873856 -0.501495 0.030018842 -0.13895467
-0.3137085 -0.2801534 0.32471973 -0.053153187 -1.0423665 -0.37762022 0.019132312 -0.03583291
-0.5857057 -0.44696584 -0.13732846 -0.21596058 0.08492719 -0.1657716 -0.079473294 -0.36903837
0.09061459 0.14265014 -0.4949951 0.3495046 -0.2691434 0.07337799 -0.2886334 0.25792715
0.15040475 0.15827772 0.049110528 0.34584212 -0.023613952 0.7840108 0.096825466 0.3998393
0.61945844 0.56176466 -0.13291703 -0.11711771 0.75954163 0.7292188 0.60001034 -0.014235435
0.6966831 0.20988788 0.03872113 0.34928572 0.15391788 -0.11358196 -0.09525639 0.8567956
0.04573127 0.30657122 0.5605685 -0.12468331 0.23608948 0.050727893 0.31880262 0.22514538
0.045938756 -0.14387472 -0.07206255 -0.016194947 0.15455662 -0.016074345 0.14508818 -0.064828746
-0.09532024 -0.112883106 -0.02491317 0.099670425 -0.13199729 0.09614716 0.15094763 0.16261935
-0.13678409 -0.010948465 0.05348098 -0.1662687 -0.120639324 -0.12413113 0.1575831 0.09664485
-0.17479263 -0.11696787 -0.0935169 0.050201934 0.13858685 -0.07428595 -0.089300744 -0.11896641
-0.05961933 0.09609028 -0.13095488 0.14611636 0.16273083 -0.0020600958 0.035634294 -0.1033015
0.09896191 0.11971035 -0.12864377 0.15973042 -0.06262739 -0.13018405 -0.08000586 0.066767246
0.016930347 -0.07097137 -0.028864227 -0.13588774 -0.1423006 0.1390214 0.05897134 -0.122176185
0.09706282 0.16050191 0.03179261 -0.13259009 0.14040144 0.1189996 0.103971384 0.10041543
0.1184015 -0.1201856 -0.04355075 0.017871253 -0.09284476 0.11736989 0.1136056 -0.047812484
-0.13524403 -0.15984605 0.036015462 -0.17146108 -0.08845835 -0.11026252 -0.010697776 -0.051079873
0.09225203 0.09918809 0.015232145 0.111231536 -0.038889907 0.07281937 0.06387344 0.048776954
-0.040547144 -0.09050107 0.0778906 -0.16332248 -0.16661201 0.1027443 0.05644068 -0.16284002
-0.043654304 -0.19650449 -0.120784864 -0.052878004 -0.012257336 0.14571424 -0.12951413 -0.057861082
-0.014208503 0.14492899 0.0010721888 -0.12615429 0.044206727 -0.11337694 -0.08697354 -0.0081766145
-0.0009648779 0.048507743 0.08470975 -0.18792848 -0.14363484 -0.040048145 0.031032177 0.020949695
-0.13515484 0.116224416 -0.02895948 0.031511474 -0.00559445 -0.16585295 -0.05765724 0.03911259
00000000: b697 acbd e40d c3bd e9df 983c 4748 d8be
00000010: 1a67 ee3d b034 1ebc bcfd f53c d239 b83d
00000020: 9f30 e0be b496 e7bd 2e8e 403e 390e acbd
00000030: 5375 debe ceb8 fe3d aac4 83bd 2e44 2d3e
00000040: 20af 023e 42d1 dd3b 620b 31be 425e 003e
00000050: 8fde 64bd 6e43 e1bc 6ab5 323e f6e9 fe3c
00000060: 8da1 073e fd3d 3a3e 706e f3be 5b12 6c3e
00000070: e243 833d ba34 223c f3fb 55bd ddd5 b23d
00000080: ac20 b83d 4c05 393d 7f3c 503d 1495 d93e
00000090: 8d53 153e dac3 3e3f f56e 083d 139e f93e
000000a0: 08d4 f53e b415 0c3f b104 593e a59e 8e3b
000000b0: c8d3 503f c0ed d63e d8b5 963e 8664 6f3d
000000c0: 90eb 073f 866b 073e 28e4 e73d 4440 c63e
000000d0: 46d7 1d3e 6285 8e3d bdb7 113e 8d91 583f
000000e0: cb2b 943d 4c5a 073e 6c00 d13e 72f4 653d
000000f0: 0350 47bc 06a9 09bd 16bc 143e 72b0 c33b
00000100: 4d0e 91be b991 c83e 98fe c63e 7ed6 5bbe
00000110: 29f5 883d fa61 00bf 13ea f53c 224a 0ebe
00000120: 679e a0be 4470 8fbe aa41 a63e 28b7 59bd
00000130: 446c 85bf 7057 c1be 5ebb 9c3c 88c5 12bd
00000140: cff0 15bf b5d8 e4be d59f 0cbe c524 5dbe
00000150: 4eee ad3d 08c0 29be e5c2 a2bd 99f2 bcbe
00000160: 2494 b93d e112 123e ff6f fdbe 44f2 b23e
00000170: 2acd 89be 3347 963d c2c7 93be 070f 843e
00000180: b403 1a3e 8e13 223e 1f28 493d 3812 b13e
00000190: 0c72 c1bc efb4 483f 6e4c c63d bdb7 cc3e
000001a0: d494 1e3f cfcf 0f3f 671b 08be 69db efbd
000001b0: 5271 423f 15ae 3a3f 479a 193f be3b 69bc
000001c0: d359 323f d9ec 563e 0c9a 1e3d 94d5 b23e
000001d0: a69c 1d3e a99d e8bd c815 c3bd f556 5b3f
000001e0: b650 3b3d e7f6 9c3e 6b81 0f3f f759 ffbd
000001f0: 71c1 713e 0dc8 4f3d 193a a33e 838c 663e
00000200: 472a 3c3d e553 13be 8895 93bd 44ab 84bc
00000210: 1744 1e3e 58ae 83bc ff91 143e efc4 84bd
00000220: 4237 c3bd 422f e7bd b416 ccbc 0220 cc3d
00000230: 4c2a 07be cde8 c43d 0492 1a3e b085 263e
00000240: 2111 0cbe 3161 33bc df0e 5b3d 5842 2abe
00000250: c011 f7bd 7638 febd 775d 213e bced c53d
00000260: d7fc 32be da8c efbd ca85 bfbd 8ba0 4d3d
00000270: b6e9 0d3e 3b23 98bd 4fe3 b6bd a9a4 f3bd
00000280: 6633 74bd fbca c43d 0919 06be 879f 153e
00000290: e9a2 263e ac02 07bb 44f5 113d bd8f d3bd
000002a0: 8bac ca3d b32a f53d 31bb 03be 5f90 233e
000002b0: ca42 80bd f84e 05be 1dda a3bd 44bd 883d
000002c0: 83b1 8a3c 7059 91bd ac74 ecbc 2826 0bbe
000002d0: 40b7 11be a05b 0e3e ef8b 713d 8237 fabd
000002e0: dfc8 c63d 9d5a 243e f838 023d b2c5 07be
000002f0: 65c5 0f3e 10b6 f33d f3ee d43d 9ba6 cd3d
00000300: 7c7c f23d de23 f6bd 4562 32bd bc66 923c
00000310: 6525 bebd a05f f03d 0eaa e83d 06d7 43bd
00000320: 697d 0abe afae 23be f384 133d 7e93 2fbe
00000330: a729 b5bd 51d1 e1bd ba45 2fbc 2139 51bd
00000340: a2ee bc3d 2023 cb3d 3f90 793c 5ccd e33d
00000350: 064b 1fbd 5222 953d 14d0 823d 58ca 473d
00000360: c314 26bd a058 b9bd 1b85 9f3d 023e 27be
00000370: 579c 2abe 9b6b d23d 582e 673d 89bf 26be
00000380: dbce 32bd 7938 49be 0e5e f7bd 9b96 58bd
00000390: fed2 48bc 1d36 153e 5a9f 04be beff 6cbd
000003a0: c8ca 68bc 4468 143e b088 8c3a 972e 01be
000003b0: 1d12 353d 2b32 e8bd 2f1f b2bd 35f7 05bc
000003c0: dcef 7cba 0eb0 463d 4e7c ad3d 5370 40be
000003d0: 0315 13be 8609 24bd 3137 fe3c b29e ab3c
000003e0: 0866 0abe 1107 ee3d 6e3c edbc 2d12 013d
000003f0: a651 b7bb 5bd5 29be 002a 6cbd 8634 203d

l7.bias f4 [16]
-0.028327905 0.059116483 0.024633676 0.24361983 0.069522955 -0.1329502 -0.06627788 -0.15109746
-0.11940996 -0.316602 0.17893063 0.024611574 0.01801852 -0.032896627 0.19751011 0.103447236
00000000: ec0f e8bc 2024 723d 90cc c93c 7a77 793e
00000010: 0d62 8e3d 1924 08be b2bc 87bd 4bb9 1abe
00000020: 368d f4bd a819 a2be 9739 373e 369e c93c
00000030: 939b 933c 9dbe 06bd 1740 4a3e 25dc d33d

l8.weight f4 [1, 16]
0.3691099 -0.4903497 0.88092786 -0.65429384 0.12415382 0.038485825 0.09988902 0.16611914
0.06404081 0.3307166 -0.38584468 -0.9640388 0.109651126 0.24307683 -0.48465964 0.105579
00000000: f9fb bc3e 1e0f fbbe 7d84 613f cd7f 27bf
00000010: 5c44 fe3d 50a3 1d3d 9d92 cc3d 231b 2a3e
00000020: d427 833d b053 a93e 6f8d c5be 3fcb 76bf
00000030: c590 e03d 22e9 783e 4f25 f8be ce39 d83d
