project/checkpoints/checkpoints_linearfirstorder/43_critic.pt (torch, 15054 bytes, 14 tensors)

l1.weight f4 [16, 6]
0	0xbf8c15b4	-1.0944123
1	0x3ec0f0bd	0.3768367
2	0xbd9ffd34	-0.078119665
3	0x3d9e14e4	0.07718828
4	0x3eb59c1e	0.3547067
5	0x3f38a989	0.7213369
6	0x3e8406ab	0.25786337
7	0xbd620cd7	-0.055188026
8	0xbe60acbf	-0.21940897
9	0x3e42dd75	0.19029792
10	0xbeb36826	-0.35040396
11	0xbf517dea	-0.81832755
12	0x3fa7d8db	1.3113054
13	0x3e2b181b	0.16708414
14	0xbd039942	-0.03212858
15	0x3ec8411b	0.39112172
16	0x3ea035dc	0.3129109
17	0x3ef8729b	0.48524937
18	0xbe3b517d	-0.18292804
19	0xbe96e609	-0.29472378
20	0x3d73a28e	0.059481196
21	0xbe58f8a2	-0.21188596
22	0x3e7fd88d	0.24984951
23	0xbf9db1db	-1.2319902
24	0x3f5f50d2	0.87232697
25	0xbd2ccf10	-0.042189658
26	0xbe48c8fc	-0.1960792
27	0x3d3f1294	0.046648577
28	0xbe6318ff	-0.22177504
29	0xbf2713ef	-0.6526479
30	0xbe1b0522	-0.15138677
31	0xbe899804	-0.2687379
32	0xbe7ee2e5	-0.24891241
33	0xbeaa1d0a	-0.3322528
34	0xbe7c814d	-0.246587
35	0xbf1ebe78	-0.6200938
36	0xbf7d7158	-0.99001074
37	0x3e7dd510	0.24788308
38	0x3f1cffe8	0.6132798
39	0x3e129c42	0.1431742
40	0xbdb1ed3a	-0.086878255
41	0x3f00da44	0.50333047
42	0x3fb51b24	1.4148908
43	0x3e86dcc1	0.26340297
44	0xbd29ed41	-0.04148603
45	0x3c8fd8d0	0.017559439
46	0x3ebcdbb1	0.3688636
47	0x3f2da0f3	0.67823714
48	0xbf64e85d	-0.8941706
49	0x3e03a854	0.12857181
50	0x3eb69375	0.35659376
51	0x3ea8016e	0.3281359
52	0xbe9f1192	-0.31068093
53	0xbf7ca5f1	-0.98690706
54	0xbf015825	-0.5052512
55	0xbe012ed5	-0.12615521
56	0xbd64875d	-0.055793155
57	0x3e44cca6	0.19218692
58	0x3ebfa00c	0.37426794
59	0xbfc0df66	-1.5068176
60	0x3f7bc657	0.9834952
61	0x3dad284a	0.0845495
62	0x3ce691e8	0.028145745
63	0xbed02004	-0.40649426
64	0x3e3c8352	0.1840947
65	0xbf60a8bb	-0.8775746
66	0x3c1e49e9	0.009661176
67	0xbdc6722a	-0.09689744
68	0xbda73953	-0.081652306
69	0xbd848d72	-0.06472291
70	0xbe301909	-0.1719705
71	0xbd6cccff	-0.057812687
72	0x3f8ea6c4	1.1144643
73	0x3dd3cdc1	0.10341979
74	0xbe8f2a17	-0.279618
75	0x3ecdbf78	0.40185142
76	0x3e1a83de	0.15089366
77	0x3f0d2309	0.55131584
78	0x3fa84d06	1.3148506
79	0x3dbe1726	0.09281759
80	0x3e7e538a	0.24836555
81	0x3ec6ac80	0.38803482
82	0x3e733ad1	0.23752905
83	0x3fb51fad	1.4150292
84	0x3e8fbfb6	0.2807595
85	0x3d81c91c	0.06337187
86	0x3e0360a1	0.1282983
87	0xbcb52b75	-0.022115448
88	0xbe727c35	-0.23680194
89	0x3e834321	0.25637153
90	0xbec05c9f	-0.37570664
91	0x3ec7bb28	0.39009976
92	0xbe304b30	-0.17216182
93	0x3e773a67	0.24143372
94	0xbe971056	-0.2950465
95	0x3dd73d81	0.10509778

l1.bias f4 [16]
0	0x3e29d1a8	0.16583884
1	0x3dcdaff9	0.1004333
2	0x3e9c912d	0.3057951
3	0x3e96600a	0.29370147
4	0x3e6d9a74	0.2320345
5	0x3dcb449a	0.09925194
6	0x3cd6e9a5	0.026234457
7	0x3e95ba0f	0.29243514
8	0xbd549afb	-0.051905613
9	0xbe1701ef	-0.14746831
10	0xbe369209	-0.17829145
11	0x3e338ad7	0.17533432
12	0x3d10cb9c	0.035350427
13	0x3dd053c6	0.101722285
14	0x3d5efac2	0.05443836
15	0xbe9d3462	-0.30704027

l2.weight f4 [32, 16]
0	0x3e074914	0.13211471
1	0xbeceb071	-0.4036899
2	0xbd6b3c71	-0.05743069
3	0x3ea7ddd7	0.32786438
4	0xbee61a28	-0.4494183
5	0xbecdb8ea	-0.4018014
6	0xbeb01b5e	-0.3439588
7	0x3d7867f1	0.060646
8	0xbf23a050	-0.6391649
9	0x3e7a7ed1	0.24462439
10	0x3de72471	0.112862475
11	0x3dc410bc	0.09573504
12	0xbeafee2b	-0.34361395
13	0xbe3911e1	-0.18073227
14	0xbd0271f0	-0.03184694
15	0x3d5276b0	0.05138272
16	0x3e0fad52	0.1403096
17	0x3e60151b	0.21883051
18	0xbe24912d	-0.16071005
19	0xbf5eb11c	-0.86989
20	0x3ead502a	0.33850223
21	0x3e8458cc	0.25848997
22	0x3c6f042d	0.014588398
23	0x3e826b89	0.25472668
24	0xbd186f69	-0.037215624
25	0xbf8a6a33	-1.081366
26	0xbef8bb9d	-0.48580638
27	0x3e406f2a	0.18792406
28	0x3dc50260	0.096195936
29	0x3e4e1ed9	0.20128955
30	0x3b9c68c0	0.0047732294
31	0xbe1c26e0	-0.15249205
32	0x3ec045a5	0.37553135
33	0x3ea0f47f	0.31436536
34	0x3ea928c5	0.33038917
35	0xbe1e5362	-0.15461496
36	0xbd7a08eb	-0.06104366
37	0x3b93ae8e	0.0045068925
38	0x3ec6012a	0.38672763
39	0x3ec50827	0.38482782
40	0xbebd33c3	-0.36953554
41	0xbd9ec282	-0.07751943
42	0xbe923b09	-0.28560665
43	0xbc402ce0	-0.011729449
44	0x3e718e6c	0.23589486
45	0x3ebc2da8	0.36753583
46	0x3e074f52	0.13213852
47	0xbdae9088	-0.08523661
48	0xbea86aed	-0.32894078
49	0x3dfa1d03	0.12212565
50	0xbd2aab87	-0.041667487
51	0xbe0952ba	-0.13410464
52	0xbdd553b1	-0.104163535
53	0x3e5a24cf	0.21303104
54	0x3d9bfe53	0.07616868
55	0x3e487264	0.19574887
56	0x3cbf36c8	0.023341551
57	0xbe0cdfa0	-0.13757181
58	0x3e71a896	0.23599467
59	0xbe6cdc9a	-0.23131028
60	0xbdd3b04b	-0.103363596
61	0xbe866e76	-0.2625615
62	0xbda821a4	-0.082095414
63	0xbe446952	-0.19180802
64	0xbe3bc127	-0.183354
65	0x3e127e3e	0.1430597
66	0xbe865a52	-0.26240784
67	0xbdd20fe7	-0.102569394
68	0x3d9522d4	0.072820336
69	0x3d95c13d	0.07312248
70	0xbe2eebb4	-0.17082101
71	0xbd18a80b	-0.037269633
72	0x3e18a04a	0.14904895
73	0x3d7cdbbe	0.061733
74	0xbe99ff2b	-0.3007749
75	0xbe4c9748	-0.19979584
76	0xbdd5edd8	-0.10445756
77	0x3e19d1c7	0.1502143
78	0x3e21e40c	0.15809649
79	0x3e3c9410	0.18415856
80	0x3d2b6591	0.04184491
81	0x3e9515a8	0.29118085
82	0x3e8d2aaa	0.27571613
83	0xbef5e963	-0.48029622
84	0x3e310ae3	0.17289309
85	0x3dbdbe57	0.0926482
86	0xbe7605e1	-0.2402568
87	0x3ea3ae6c	0.3196901
88	0xbe4c01f1	-0.19922616
89	0xbf228410	-0.6348276
90	0xbeae6c5c	-0.34067047
91	0x3e175476	0.14778313
92	0x3e9e167d	0.30876532
93	0x3f04f5eb	0.5193774
94	0xbe4a19d0	-0.19736409
95	0xbdef5eec	-0.11688027
96	0xbe37d9aa	-0.17954126
97	0x3e562db6	0.20915875
98	0xbe51b860	-0.2048049
99	0x3e6194fe	0.22029492
100	0xbde242a0	-0.11047864
101	0x3dd75758	0.105147064
102	0xbdb670b4	-0.08908215
103	0xbe5d3cbc	-0.216052
104	0xbd90455c	-0.07044479
105	0xbdb47068	-0.08810502
106	0x3dd36d74	0.10323611
107	0x3e1da568	0.15395129
108	0x3d885b78	0.06658071
109	0xbdcdbc4c	-0.100456804
110	0xbe675ce0	-0.22594023
111	0xbe79fb5a	-0.2441229
112	0xbfe87a19	-1.8162261
113	0x3ee94232	0.45558316
114	0x3eb6c53e	0.3569736
115	0x3d1162bd	0.035494555
116	0x3ea2b916	0.31781834
117	0x3e4671f8	0.19379413
118	0xbfbf1c01	-1.4930421
119	0x3eeff9e2	0.46870333
120	0xbf8aa7b5	-1.083243
121	0x3d458500	0.04822254
122	0x3e8322cc	0.25612485
123	0xbda50eb0	-0.08059442
124	0x3efc7d73	0.4931446
125	0x3ed431d3	0.41444263
126	0x3e3fbb30	0.1872375
127	0xbd231938	-0.039818972
128	0xbdbf1837	-0.093307905
129	0xbb788300	-0.003791988
130	0x3debf342	0.11521007
131	0xbe1f24ae	-0.15541336
132	0xbe7343e2	-0.23756364
133	0xbdb2ade4	-0.08724573
134	0xbd9be90b	-0.07612809
135	0xbe53109e	-0.20611808
136	0x3e473a02	0.19455722
137	0x3d04091c	0.03223525
138	0xbe868aab	-0.2627767
139	0x3d156878	0.036476582
140	0xbe44d09a	-0.192202
141	0x3e31d9fb	0.17368309
142	0x3ccf6ae0	0.025319517
143	0xbe68be1a	-0.22728768
144	0xbe0906cd	-0.133815
145	0x3d626420	0.055271268
146	0xbe12a3c8	-0.1432029
147	0x3da914f8	0.082559526
148	0xbe87cd0c	-0.26523626
149	0xbdeacd54	-0.114649445
150	0xbde0b340	-0.10971689
151	0x3e437835	0.19088824
152	0x3e01a584	0.12660795
153	0xbe24943d	-0.16072173
154	0xbe841964	-0.25800622
155	0x3e18610a	0.14880767
156	0x3de1cba6	0.11025171
157	0xbd48458f	-0.04889446
158	0xbd9287b8	-0.071547925
159	0xbe2ed1fe	-0.17072293
160	0x3e8880cf	0.26660773
161	0x3e226261	0.15857841
162	0xbcff0edb	-0.031135013
163	0x3d151cb2	0.03640432
164	0x3dc4630d	0.09589205
165	0x3cc91a28	0.024548605
166	0x3d7dffd8	0.06201157
167	0x3c982249	0.018571036
168	0xbe68a8f0	-0.22720695
169	0x3d480c27	0.048839714
170	0x3ceb25ec	0.028704606
171	0x3e220604	0.15822607
172	0xbd35d5fa	-0.044393517
173	0x3e7edc48	0.24888718
174	0x3e09c98e	0.13455793
175	0xbd08dd30	-0.033414066
176	0xbc85bc2e	-0.016325083
177	0x3f080c08	0.5314336
178	0x3e5ea510	0.21742654
179	0x3e202f98	0.15643156
180	0x3e3916f2	0.18075159
181	0x3e17556d	0.14778681
182	0x3eb356a6	0.35027045
183	0x3e07dd2f	0.13267969
184	0xbe2408bb	-0.16018955
185	0xbe849d7a	-0.25901395
186	0x3e7064f7	0.23476015
187	0x3e0fefd2	0.14056328
188	0x3e0f00e4	0.13965183
189	0x3ea9372e	0.3304991
190	0x3e4c41ec	0.19947022
191	0x3e0320d4	0.12805492
192	0x3e1d7350	0.1537602
193	0x3f04a7df	0.5181865
194	0x3ec2f5ba	0.380781
195	0x3e25850c	0.16164035
196	0x3e1ba7b0	0.15200686
197	0x3d3cf898	0.046135515
198	0x3eacd1d7	0.33753845
199	0x3f06e922	0.5269948
200	0xbe19f3fc	-0.15034479
201	0x3e1cb823	0.15304618
202	0xbbac85ac	-0.0052649584
203	0xbcadeb30	-0.02123031
204	0xbe908773	-0.2822834
205	0x3eae2cee	0.34018654
206	0xbe3d0bf4	-0.18461591
207	0xbe7ad72e	-0.24496147
208	0xbe4aa915	-0.19791062
209	0xbdcbf3de	-0.09958623
210	0xbe57f208	-0.21088421
211	0xbda3093b	-0.07960745
212	0xbbf0b931	-0.0073462953
213	0xbe81ea3a	-0.25374013
214	0x3d9bec05	0.076133765
215	0xbe8bcd84	-0.27305233
216	0x3e2d6c61	0.16935875
217	0x3d039654	0.032125786
218	0xbea2bed4	-0.31786215
219	0x3d1113c8	0.035419255
220	0xbe797e72	-0.24364641
221	0x3d261f88	0.040557414
222	0x3c133340	0.008984387
223	0x3da580b4	0.08081189
224	0x3ee32771	0.4436603
225	0xbda68583	-0.08130934
226	0x3f054b4d	0.52068025
227	0xbd40ed66	-0.0471014
228	0xbe8953ca	-0.26821738
229	0xbe713245	-0.23554333
230	0xbf2fed1b	-0.6872117
231	0x3e492be0	0.19645643
232	0xbf35fda1	-0.7109013
233	0xbd77b132	-0.06047172
234	0x3e88f07a	0.2674597
235	0x3e70eca2	0.23527768
236	0x3e2f5517	0.17122303
237	0x3eb2ff33	0.34960327
238	0xbe4f40f8	-0.20239627
239	0xbe5f2750	-0.2179234
240	0xbedc8e97	-0.43077537
241	0x3d47d29b	0.048784833
242	0xbe72e285	-0.23719223
243	0xba399206	-0.0007078949
244	0xbd58953e	-0.052876703
245	0x3e3861d2	0.18006065
246	0x3e117396	0.14204249
247	0xbeaa6b7b	-0.33285126
248	0xbdac0ebb	-0.08401247
249	0x3de0c62b	0.109752975
250	0x3d020d32	0.031750865
251	0x3db3f938	0.08787769
252	0xbe1a596e	-0.15073177
253	0xbe65f6b7	-0.22457395
254	0xbd288cb8	-0.041149825
255	0xbe3caa76	-0.184244

l2.bias f4 [32]
0	0x3da4163d	0.08012054
1	0xbebcee67	-0.36900637
2	0x3d973fc4	0.07385209
3	0xbe0f2ed0	-0.13982701
4	0xbddbbb58	-0.10729092
5	0xbdec6999	-0.11543579
6	0xbe7a1160	-0.2442069
7	0x3e66bc79	0.22532834
8	0xbe59dde3	-0.2127605
9	0xbe0740d9	-0.13208331
10	0xbd759320	-0.059954762
11	0x3c65aba2	0.014017971
12	0x3c532cba	0.012889082
13	0xbde60813	-0.11232009
14	0xbc9e993f	-0.019360183
15	0xbe573f2c	-0.21020192
16	0x3daca3d7	0.084296875
17	0x3d3b6b31	0.045756523
18	0xbd08e31d	-0.033419717
19	0x3d257f4b	0.0404046
20	0xbe420b8d	-0.18949719
21	0x3c5ad6ca	0.013356874
22	0xbe6e4ada	-0.23270741
23	0xbdf3cfd7	-0.11904877
24	0xbcd832e4	-0.026391454
25	0x3da0fd4c	0.078608125
26	0x3d2c9c2d	0.04214113
27	0xbddd7c4b	-0.108147226
28	0x3d0ce8f3	0.034401845
29	0xbe367f8c	-0.17822093
30	0x3e7a9329	0.244702
31	0xbdb8e48a	-0.09027965

l3.weight f4 [16, 32]
0	0x3c913ea3	0.017730063
1	0xbca17735	-0.019710163
2	0x3c93f280	0.018059969
3	0xbdd94f96	-0.10610883
4	0xbdb183eb	-0.086677395
5	0x3b2cb8a3	0.002635517
6	0x3dc5885b	0.09645148
7	0x3bf35140	0.0074254572
8	0x3d8c4b25	0.0685027
9	0x3e16e78c	0.14736766
10	0x3dd5ec8c	0.10445508
11	0xbe1a27e0	-0.15054274
12	0xbde22110	-0.110414624
13	0x3cde1e3a	0.027114023
14	0x3d94718d	0.072482206
15	0x3d976bfa	0.07393642
16	0x3cbcc4d3	0.023043072
17	0x3de4fef6	0.111814424
18	0xbde10c27	-0.10988646
19	0x3d83c616	0.06434266
20	0x3e2baa21	0.16764118
21	0xbd774bcd	-0.060375024
22	0x3db08dc2	0.08620788
23	0x3e10566c	0.14095467
24	0xbe327a18	-0.17429388
25	0xbdd4d5bd	-0.1039233
26	0xbe0bfa7c	-0.13669771
27	0x3e2826c3	0.16421036
28	0xbe2aff75	-0.16699012
29	0xbe0a7d8e	-0.13524458
30	0xbcc20c6e	-0.023687568
31	0xbdc8b071	-0.097992785
32	0x3d80d1f3	0.06290045
33	0xbd94b79d	-0.07261584
34	0xbe51cd8c	-0.20488566
35	0xbe00dfc9	-0.12585367
36	0x3dd2e2f6	0.102971956
37	0xbd824610	-0.063610196
38	0xbe2a0e0a	-0.16606918
39	0xbd8210be	-0.063508496
40	0xbe312819	-0.17300452
41	0xbddc6b08	-0.10762602
42	0xbd6d921a	-0.05800066
43	0xbd0a5912	-0.03377635
44	0x3c7a705e	0.0152855795
45	0x3ccd4180	0.025055647
46	0xbdb4d195	-0.08829037
47	0xbc13df7e	-0.009025453
48	0xbd95e0ce	-0.07318269
49	0x3c3273c0	0.010891855
50	0xbdd24de3	-0.10268762
51	0xbdc53f47	-0.0963121
52	0xbe0462db	-0.12928335
53	0xbd302756	-0.043006264
54	0x3e1e5bad	0.15464659
55	0xbde04c16	-0.10952012
56	0x3d68a833	0.056801032
57	0xbde2935a	-0.11063261
58	0xbe5b17c7	-0.21395789
59	0x3d7651c2	0.060136564
60	0x3b7bbd93	0.0038412556
61	0xbdf51e06	-0.11968617
62	0x3d112371	0.03543419
63	0xbdebc954	-0.1151301
64	0x3f1dd4bd	0.6165274
65	0x3f17ac6d	0.59247476
66	0x3e981faf	0.29711673
67	0xba9a505f	-0.001177322
68	0x3cf9820b	0.030457517
69	0x3f056efd	0.5212248
70	0x3dc9f3db	0.09860965
71	0x3f6cf388	0.925591
72	0x3df3335a	0.11875029
73	0xbd0e86ca	-0.034796514
74	0x3e3e0f86	0.18560609
75	0x3dc47dd5	0.09594313
76	0x3e9ae64b	0.30253825
77	0xb9be0e16	-0.0003625012
78	0xbd2b2957	-0.04178747
79	0x3d736d2b	0.059430283
80	0x3e017a25	0.1264425
81	0x3e3ead6f	0.18620847
82	0x3e8c31e2	0.27381808
83	0xbdd6e39e	-0.10492633
84	0xbd425681	-0.047445778
85	0xbd6eb642	-0.058279283
86	0xbd482a97	-0.04886874
87	0x3e115251	0.14191557
88	0x3da8d6ed	0.08244119
89	0x3ee5aab8	0.4485681
90	0xbd884c76	-0.06655209
91	0x3d99705e	0.074921355
92	0x3e5a1751	0.21297957
93	0xbe98064b	-0.296923
94	0xbf0ca528	-0.5493951
95	0x3f749f59	0.95555645
96	0x3f3a8a06	0.7286686
97	0x3f00c846	0.50305593
98	0x3e8dc1c2	0.27686888
99	0xbe045404	-0.12922674
100	0xbd81dc66	-0.06340866
101	0x3f3e1725	0.74254066
102	0x3d033091	0.03202874
103	0x3f4798cf	0.7796754
104	0x3e1f0c38	0.15532005
105	0x3d3475ec	0.04405777
106	0x3e1c168e	0.15242979
107	0x3e48231c	0.19544643
108	0x3e1816ee	0.14852497
109	0xbdc1a074	-0.09454432
110	0xbe10c2d5	-0.14136823
111	0x3e36bc25	0.17845209
112	0xbd9a01a2	-0.07519843
113	0x3d06c0cf	0.03289872
114	0x3eb2c925	0.34919086
115	0xbcc28674	-0.023745753
116	0xbd7dfb34	-0.062007144
117	0xbd790f84	-0.060805812
118	0x3df2059a	0.11817475
119	0x3e70d394	0.2351821
120	0xbdc43221	-0.09579874
121	0x3ef72808	0.4827273
122	0xbd845811	-0.0646211
123	0x3e91458c	0.28373373
124	0x3d4d35e8	0.050100237
125	0xbdd58e3f	-0.10427522
126	0xbf0955ab	-0.53646344
127	0x3fa95b8b	1.3231062
128	0x3eda6563	0.42655477
129	0xbf00d35c	-0.5032251
130	0x3e3e9b93	0.18614034
131	0xbdd7fd13	-0.10546317
132	0xbe405f5b	-0.18786375
133	0x3de4fd60	0.1118114
134	0xbe20193d	-0.15634628
135	0x3f7ad439	0.97980076
136	0x3e298b73	0.16557102
137	0xbd13a89a	-0.036049463
138	0x3e065e5d	0.13121934
139	0x3e6b0e0e	0.2295458
140	0x3eb17fd9	0.34667853
141	0x3e5078b2	0.20358542
142	0xbf841bf7	-1.0321034
143	0x3e175582	0.14778712
144	0x3d35cc2b	0.044384163
145	0x3e93696d	0.2879137
146	0x3ea429ec	0.32063234
147	0x3d9e8aa8	0.0774129
148	0xbbd2b549	-0.0064303023
149	0x3e143d63	0.14476542
150	0xbcfe6401	-0.031053545
151	0x3e3a1ddf	0.18175457
152	0xbd0f3032	-0.034958072
153	0x3dc747fe	0.09730528
154	0xbd75da07	-0.06002238
155	0x3d05b77d	0.03264569
156	0x3d0730d0	0.033005536
157	0xbdbc09a8	-0.09181529
158	0xbf8f5ea4	-1.1200757
159	0x3f26f42a	0.65216315
160	0x3f29b40b	0.6629035
161	0x3f1ef2f6	0.6208948
162	0x3ea9dcbe	0.33176225
163	0xbb16a97b	-0.0022989202
164	0xbcf54925	-0.029942105
165	0x3f37f407	0.7185673
166	0xbdb1e87e	-0.086869225
167	0x3f60039b	0.875055
168	0xbc926e8e	-0.017874982
169	0x3d18e935	0.03733178
170	0xbe0b3ff2	-0.13598612
171	0x3e24385e	0.16037127
172	0x3e28fe0a	0.16503158
173	0xbda56614	-0.080761105
174	0xbe599bbf	-0.21250819
175	0x3e6f640a	0.23378006
176	0x3d6ba3d0	0.05752927
177	0xbd5e579a	-0.054282762
178	0x3f134319	0.5752426
179	0x3d2d005e	0.04223668
180	0x3e3d71e9	0.18500485
181	0x3db4751f	0.088114016
182	0x3db6410f	0.08899128
183	0x3e95788d	0.29193535
184	0x3d20f2e8	0.039294153
185	0x3f1c33d9	0.61016613
186	0xbe59acde	-0.2125735
187	0x3db80a33	0.0898632
188	0xbda83802	-0.08213808
189	0xbe5bfbf3	-0.2148283
190	0xbf181e96	-0.5942167
191	0x3f960879	1.1721336
192	0xbdfbbe13	-0.12292113
193	0xbe336f6b	-0.17522971
194	0xbd82d679	-0.06388564
195	0x3e1b6106	0.1517373
196	0x3d7e35f2	0.062063165
197	0xbdc2de81	-0.095150955
198	0x3c8cf0b3	0.017204618
199	0xb9feeb2d	-0.00048621875
200	0x3d81563b	0.06315275
201	0xbdfbfb21	-0.123037584
202	0xbe20a1e7	-0.15686761
203	0xbe15a18a	-0.14612404
204	0x3d145704	0.036215797
205	0xbd3a91e9	-0.045549307
206	0x3d010ccb	0.03150634
207	0x3ddc0ffb	0.107452355
208	0xbe2c9526	-0.1685377
209	0xbdd035b5	-0.10166494
210	0x3d6f651b	0.05844603
211	0x3d99976f	0.07499587
212	0xbdfe5520	-0.1241858
213	0xbc9beaa1	-0.019032778
214	0x3c82fa62	0.015988532
215	0x3e138bb6	0.14408764
216	0xbcd4b494	-0.025965013
217	0xbe2babf6	-0.16764817
218	0xbe35f9d3	-0.17771082
219	0xbd1f90bf	-0.0389564
220	0xbcc03cff	-0.023466585
221	0x3d910942	0.07081844
222	0xbdb17eb6	-0.08666746
223	0xbd0a4abd	-0.033762682
224	0xbda13dc4	-0.07873109
225	0x3d22cbd0	0.039745152
226	0x3ca62010	0.02027896
227	0x3a9ca6da	0.0011951581
228	0xbe0aca39	-0.13553704
229	0xbe16150e	-0.14656469
230	0x3ba5ee34	0.0050637964
231	0x3dcbc43d	0.09949539
232	0xbe33628f	-0.17518066
233	0x3e17c20e	0.1482012
234	0xbcdbcccb	-0.026831051
235	0xbda8f0e4	-0.08249071
236	0x3d44b04d	0.048019696
237	0xbd16da92	-0.03682954
238	0xbdd463f5	-0.10370628
239	0x3c394e4a	0.0113101695
240	0x3d7dd388	0.06196931
241	0xbe4013dd	-0.18757577
242	0x3df50a68	0.119648755
243	0x3dc3504b	0.09536799
244	0xbe258805	-0.16165169
245	0x3c9f2c17	0.019430203
246	0xb822040e	-3.8627586e-05
247	0xbdfe6a89	-0.12422664
248	0x3db692c6	0.089147136
249	0x3d2ad575	0.041707475
250	0xbe07777d	-0.13229175
251	0xbe51af00	-0.20476913
252	0x3d9db70b	0.07700928
253	0xbe0ace66	-0.13555297
254	0x3dc73c32	0.09728278
255	0xbe53e666	-0.20693359

l3.bias f4 [16]
0	0xbe00848a	-0.1255056
1	0xbcee8326	-0.02911527
2	0x3e97958f	0.29606292
3	0x3e151581	0.14558984
4	0x3e961047	0.29309294
5	0x3da3249c	0.07965967
6	0x3d264b04	0.040598884
7	0xbe182dd6	-0.14861235
8	0x3e3a59a7	0.18198262
9	0x3d5c71e8	0.053819567
10	0xbc98b018	-0.018638656
11	0xbe62c976	-0.22147164
12	0xbbd81743	-0.00659457
13	0x3e048a1b	0.12943308
14	0x3de377b6	0.111068174
15	0xbd12c5c9	-0.035833154

l4.weight f4 [1, 16]
0	0x3e451083	0.1924458
1	0x3b6542a0	0.0034982339
2	0xbf1250fc	-0.5715482
3	0xbee0ade3	-0.43882665
4	0xbf81279a	-1.009021
5	0xbef7f98a	-0.4843257
6	0x3e2ed0bb	0.17071812
7	0x3e44bd36	0.19212803
8	0xbf691ae7	-0.91056675
9	0x3de8ef67	0.113737874
10	0xbf7e0aa6	-0.99235
11	0x3e2e4e60	0.17022085
12	0xbe7d768c	-0.24752253
13	0xbf00b1cd	-0.502713
14	0xbf1b07ac	-0.6055858
15	0x3f12f8b2	0.5741073

l5.weight f4 [16, 6]
0	0xbebf8095	-0.37402788
1	0xbeb4e06f	-0.3532748
2	0x3d01ceac	0.03169124
3	0xbd57f494	-0.052723482
4	0x3e8d978f	0.27654693
5	0x3f4fa97f	0.81118006
6	0x3f925d3f	1.1434706
7	0x3e60a413	0.2193759
8	0xbec53389	-0.3851588
9	0x3ebc6bc1	0.3680096
10	0x3eda5edb	0.42650494
11	0x3f928e59	1.1449691
12	0x3ff4f511	1.9137288
13	0xbdbc5287	-0.09195428
14	0xbbb85573	-0.0056254207
15	0xbec3fd36	-0.38279122
16	0xbd997e49	-0.0749479
17	0x3eace52c	0.33768594
18	0xbf021bc5	-0.5082362
19	0xba41756b	-0.00073798624
20	0x3e31601f	0.17321824
21	0xbe0a17fe	-0.13485715
22	0xbb929dce	-0.004474378
23	0x3f4b477f	0.7940597
24	0x3dcf3d38	0.101190984
25	0x3eadb1fa	0.33924848
26	0xbd8a4724	-0.0675185
27	0x3e885ee8	0.26634908
28	0x3eb78085	0.3584024
29	0x3f92e0a0	1.14748
30	0x3fb1a9df	1.3879966
31	0xbe83fa7d	-0.25777045
32	0xbeb646dd	-0.3560094
33	0x3e44ab9b	0.19206087
34	0x3dbf4dce	0.09341012
35	0x3d08aaee	0.033366136
36	0x3d5d7706	0.054068588
37	0xbe9b4e2b	-0.30333075
38	0xbe3ee0ab	-0.18640392
39	0xbe976853	-0.2957178
40	0xbecc6756	-0.3992259
41	0x3e848f07	0.2589037
42	0x3f916143	1.1357807
43	0x3e0364fe	0.12831494
44	0x3dbb9a54	0.09160295
45	0x3eaf0bfe	0.34188837
46	0x3df17505	0.11789898
47	0xbe35e9ba	-0.17764941
48	0xbe6f14b7	-0.23347746
49	0xbdd25045	-0.102692164
50	0x3db77d55	0.08959452
51	0xbea2b251	-0.3177667
52	0xbe387c4f	-0.1801617
53	0xbec3fbf3	-0.3827816
54	0x3e3b8f76	0.18316445
55	0x3d978006	0.073974654
56	0xbe320512	-0.17384747
57	0xbe091d6f	-0.13390134
58	0x3ec4b198	0.38416743
59	0xbf85477a	-1.0412438
60	0x3d9d3ef3	0.07678022
61	0xbeb52090	-0.35376406
62	0x3eb9c729	0.3628476
63	0x3e7a78ef	0.24460195
64	0xbd32bc0c	-0.043636367
65	0xbec9d59a	-0.39420778
66	0xbe854825	-0.26031604
67	0xbe9a6bc1	-0.30160335
68	0xbcb49397	-0.022043033
69	0xbe656fb1	-0.22405888
70	0xbdbf166e	-0.0933045
71	0xbc95791d	-0.018246228
72	0xbf830c8c	-1.0238204
73	0xbc6ec83e	-0.014574109
74	0xbdc08299	-0.093999095
75	0xbe3a189d	-0.18173452
76	0x3ec4b3f8	0.38418555
77	0x3f57fb66	0.8436798
78	0x3f21fa9e	0.63273036
79	0xbe0d6879	-0.13809384
80	0xbd2ef00c	-0.042709395
81	0xbec8ae6a	-0.39195567
82	0x3e82f9c0	0.2558117
83	0xbf5bdd68	-0.85884714
84	0xbd13fbdc	-0.036128864
85	0xbeb8dc5c	-0.3610562
86	0xbe97232f	-0.2951903
87	0x3d81c60c	0.063366026
88	0xbe94607a	-0.28979856
89	0x3e319dff	0.17345427
90	0x3bddd4f9	0.006769773
91	0xbeac4c9a	-0.33652192
92	0xbebb0046	-0.36523646
93	0x3ec9824a	0.39357215
94	0xbed03f1e	-0.40673155
95	0xbec35f34	-0.38158572

l5.bias f4 [16]
0	0x3eb28903	0.34870157
1	0x3eb8ad4a	0.3606971
2	0x3cee0399	0.02905445
3	0x3f085472	0.53253853
4	0x3e90eae3	0.28304204
5	0xbd643adc	-0.055720195
6	0xbe9e8fce	-0.3096909
7	0x3e4088b4	0.18802148
8	0xbec35ace	-0.38155216
9	0x3e3ef67f	0.18648718
10	0xbd911d36	-0.0708565
11	0xbe8543ec	-0.26028383
12	0xbdc457b6	-0.09587042
13	0xbe34e7f6	-0.17666611
14	0xbeb0cdab	-0.34531912
15	0xbe8a3c06	-0.2699892

l6.weight f4 [32, 16]
0	0xbe8762ec	-0.2644266
1	0x3e05ed56	0.13078818
2	0x3dae14c8	0.085000575
3	0x3ec805a3	0.390668
4	0xbe1b9d30	-0.15196681
5	0x3e2d0f9e	0.16900489
6	0x3e27cafe	0.16386029
7	0xbd8b3ff5	-0.06799308
8	0x3dc12720	0.094312906
9	0xbf1c79db	-0.61123437
10	0xbd4797d0	-0.048728764
11	0x3ac81800	0.0015265942
12	0x3d99c917	0.07509058
13	0xbe968c5c	-0.2940396
14	0x3e0e2ba2	0.13883832
15	0x3d8ed97c	0.069750756
16	0xbd320f3a	-0.043471552
17	0xbd0152e3	-0.031573188
18	0x3f911146	1.1333396
19	0xbed98bdc	-0.42489517
20	0x3d9793d6	0.07401244
21	0x3e0b6664	0.13613278
22	0x3e1ec2a2	0.15503934
23	0x3e2710c0	0.16314983
24	0xbe742764	-0.23843151
25	0xbe6e6367	-0.23280106
26	0x3e1c397d	0.15256305
27	0xbe17dd62	-0.14830545
28	0x3dfa1b62	0.12212254
29	0x3d30dfc7	0.04318216
30	0x3e05ac14	0.13053924
31	0xbbabbc80	-0.005240977
32	0xbddc6c13	-0.10762801
33	0x3ea19372	0.31557804
34	0xbfa516dd	-1.2897602
35	0x3dadb5b5	0.084819235
36	0x3e33f7e6	0.17575034
37	0xbd0ff09c	-0.035141572
38	0x3e0372c4	0.12836748
39	0x3e242ac2	0.16031936
40	0x3dd5ad34	0.104334265
41	0x3db5b08f	0.088715665
42	0x3d793757	0.06084379
43	0xbe3beca2	-0.18351987
44	0x3dd50dc2	0.10403015
45	0x3e1a43f9	0.15064992
46	0x3e4e1894	0.20126563
47	0x3cd3e970	0.025868148
48	0xbe245450	-0.16047788
49	0xbf187f99	-0.595697
50	0x3fabff56	1.3437297
51	0xbeb1f679	-0.34758356
52	0x3ea3ac1f	0.31967255
53	0x3e6bb862	0.23019555
54	0x3e0bacd6	0.1364015
55	0x3d08f5af	0.033437427
56	0x3c1f9160	0.00973925
57	0x3e95afad	0.29235592
58	0x3d02e0bf	0.031952616
59	0x3d98ef04	0.074674636
60	0x3d039c8a	0.03213171
61	0x3eb5da05	0.35517898
62	0x3cb26550	0.021776825
63	0x3de87a68	0.11351472
64	0xbc666e80	-0.014064431
65	0xbe75f414	-0.2401889
66	0xbd781778	-0.060569257
67	0xbda07914	-0.07835594
68	0x3cd4d9d0	0.025982767
69	0xbd1abc00	-0.037776947
70	0x3e1f560a	0.15560165
71	0x3e7214cc	0.23640746
72	0xbda220c8	-0.07916409
73	0xbdb8d5f8	-0.09025186
74	0xbe5dba2e	-0.21653053
75	0xbc764ee0	-0.015033454
76	0xbe76928a	-0.24079338
77	0xbdd68ac4	-0.10475686
78	0x3e3cc52e	0.18434593
79	0x3e59ea7c	0.21280855
80	0xbe6fa133	-0.23401336
81	0xbf646017	-0.8920912
82	0x3f1c2b82	0.6100389
83	0xbf0fbdb1	-0.5614882
84	0xbd6991dd	-0.05702387
85	0x3dd5c57c	0.10438058
86	0x3dec9e10	0.115535855
87	0xbd7982ec	-0.060915872
88	0x3e1997e8	0.14999354
89	0x3e02ad87	0.12761508
90	0x3e390d4b	0.18071477
91	0xbe01b236	-0.12665638
92	0xbf928272	-1.1446059
93	0x3dee5c6f	0.11638724
94	0x3db70940	0.08937311
95	0xbd8813f8	-0.06644434
96	0xbd8292e9	-0.06375677
97	0xbcd69f8b	-0.026199123
98	0x3db7ba19	0.08971042
99	0xbdfc4e36	-0.12319605
100	0xbe5c1c09	-0.2149507
101	0xbe29ed56	-0.16594443
102	0xbd9e0870	-0.07716453
103	0x3dac964a	0.08427103
104	0x3dc18650	0.09449446
105	0xbde08f96	-0.10964887
106	0x3e06e476	0.13173088
107	0x3db74a68	0.08949739
108	0xbd5dfb63	-0.05419482
109	0x3e2d2abe	0.16910836
110	0xbe2f79a8	-0.17136252
111	0xbcbb0170	-0.022827834
112	0x3e1b6576	0.15175423
113	0xbe84e17b	-0.25953278
114	0x3fd1773e	1.6364515
115	0xbe6c99fc	-0.23105615
116	0x3e869f10	0.2629323
117	0x3eaec8c2	0.3413754
118	0xbe70961c	-0.23494762
119	0x3ec7c8d0	0.39020395
120	0x3e7bf32c	0.24604481
121	0x3d22502c	0.03962724
122	0xbe52d4ef	-0.2058904
123	0x3c85a1b0	0.01631245
124	0x3d199e71	0.037504617
125	0xbe75b89d	-0.23996206
126	0x3dc90214	0.098148495
127	0x3e415dda	0.18883458
128	0xbee2cfd4	-0.44299185
129	0xbedea1b7	-0.43482754
130	0xbdf8c000	-0.12145996
131	0xbe9351b5	-0.28773275
132	0xbeb407a2	-0.35162073
133	0x3f03b244	0.51443887
134	0x3deabc60	0.11461711
135	0xbda1b7ac	-0.07896361
136	0xbe572876	-0.21011528
137	0x3ec98197	0.39356682
138	0x3e299d89	0.16564001
139	0xbe1756f0	-0.14779258
140	0xbe418590	-0.18898606
141	0x3ef93708	0.48674798
142	0x3e085c60	0.13316488
143	0xbbcc9b80	-0.006244123
144	0xbf0ab986	-0.54189336
145	0xbed45905	-0.41474167
146	0x3f747da3	0.95504206
147	0xbcc24ce5	-0.023718307
148	0xbe83520d	-0.25648537
149	0x3e99eff8	0.30065894
150	0x3e121d28	0.14268935
151	0x3e2e9988	0.17050755
152	0x3e0185dc	0.1264872
153	0x3e71fda4	0.23631912
154	0x3ea6bf19	0.3256767
155	0x3cb1b1b0	0.021691173
156	0xbfab2e2b	-1.3373464
157	0x3dc57c24	0.096428186
158	0xbde62704	-0.112379104
159	0x3d2a53b0	0.041583717
160	0x3db96df9	0.09054179
161	0x3ea14253	0.31495914
162	0xbf19aebb	-0.6003224
163	0x3df01605	0.1172295
164	0x3d8ff6ec	0.070295185
165	0x3eac1368	0.33608556
166	0xbe606a20	-0.21915483
167	0x3e5c0e5b	0.21489851
168	0xbe7e04ea	-0.24806562
169	0x3e9bc4c5	0.3042356
170	0x3f71c7fa	0.94445765
171	0x3e01044e	0.12599298
172	0xbeab7783	-0.33489618
173	0x3e25dce5	0.16197546
174	0x3d2359b0	0.039880455
175	0xbd57d738	-0.052695483
176	0xbe83d47b	-0.25748047
177	0xbe8a5e4d	-0.2702507
178	0x3e4b45e1	0.19850875
179	0x3dcd9460	0.10038066
180	0xbde9d09a	-0.11416741
181	0xbc909909	-0.017651098
182	0xbe1312b8	-0.1436261
183	0x3d2e881c	0.042610273
184	0x3e65e220	0.22449541
185	0xbda30beb	-0.079612575
186	0xbe4fb360	-0.2028327
187	0xbda4b708	-0.08042723
188	0xbd2984e3	-0.041386496
189	0x3e49c05b	0.19702284
190	0x3cbfbc50	0.023405224
191	0xbd068aa0	-0.032847047
192	0xbe2e537b	-0.17024033
193	0x3e87535a	0.2643078
194	0x3fb3d6a1	1.4049875
195	0x3f86ba97	1.0525693
196	0xbea630f4	-0.32459223
197	0x3eb82718	0.35967326
198	0xbd768018	-0.060180753
199	0x3ddfff3c	0.10937354
200	0xbe2e2eec	-0.17010087
201	0xbf4468df	-0.7672252
202	0xbed6cc2e	-0.41952652
203	0x3e7741a2	0.2414613
204	0xbee607eb	-0.44927916
205	0xbf1169f1	-0.5680228
206	0xbd8b4630	-0.068004966
207	0xbe48ff6a	-0.19628683
208	0xbe579942	-0.21054557
209	0xbf0f4bda	-0.55975115
210	0x3c7a4aca	0.01527662
211	0xbf10cf11	-0.5656596
212	0xbe3f6cf5	-0.18693908
213	0x3ed7ce71	0.4214969
214	0x3e15cfec	0.14630097
215	0x3ee6c6c9	0.45073536
216	0xbe6954b2	-0.22786215
217	0x3eeb8001	0.45996097
218	0x3e9098ca	0.2824157
219	0xbe648c20	-0.22319078
220	0xbef2a2cc	-0.4738983
221	0x3f0a9a33	0.5414154
222	0x3e2f1b54	0.17100269
223	0x3e6a9afe	0.22910687
224	0xbeab177a	-0.3341635
225	0xbe882384	-0.26589596
226	0x3faa1250	1.3286839
227	0x3f0a1c60	0.53949547
228	0x3e34db9f	0.17661904
229	0x3f0a62f9	0.5405727
230	0xbe1300aa	-0.14355722
231	0x3e97633c	0.29567897
232	0xbe295278	-0.16535366
233	0xbe590032	-0.21191481
234	0x3f10eb99	0.56609493
235	0x3d25a558	0.040440887
236	0xbf19c254	-0.60062146
237	0xbd31c20f	-0.04339796
238	0x3e7c4628	0.24636137
239	0x3e4e0476	0.20118889
240	0xbd90f1c0	-0.0707736
241	0xbe384298	-0.17994153
242	0x3decbc24	0.115593225
243	0x3cd3fe50	0.025878102
244	0xbe654478	-0.223894
245	0x3db01f2c	0.085996956
246	0xbd8268bc	-0.06367633
247	0x3d3227e0	0.04349506
248	0x3e2a2a0e	0.16617605
249	0x3e06e490	0.13173127
250	0xbde7dc88	-0.1132136
251	0x3d81c1b0	0.06335771
252	0x3e42771e	0.18990752
253	0xbde24acc	-0.110494226
254	0xbd581050	-0.05274993
255	0x3d12e0e8	0.03585902

l6.bias f4 [32]
0	0x3c70058e	0.014649762
1	0x3ca21912	0.019787345
2	0xbe5fe224	-0.2186361
3	0x3e7999b0	0.24375033
4	0xbe0246f0	-0.12722373
5	0x3e329f97	0.17443691
6	0xbe961e99	-0.2932022
7	0x3dc807b1	0.09767092
8	0x3e5a7eed	0.21337481
9	0x3dd585b7	0.10425895
10	0x3e605353	0.21906786
11	0xbe86307a	-0.2620886
12	0xbdb7d12d	-0.08975444
13	0x3c098c0d	0.008395207
14	0xbdcc3577	-0.09971135
15	0xbe3c169e	-0.18368003
16	0x3e27fb36	0.16404423
17	0xbea86094	-0.32886183
18	0xbe39e078	-0.18152034
19	0xbc99fe0f	-0.018797902
20	0x3df12680	0.117749214
21	0xbdf88b49	-0.121359415
22	0xbe419424	-0.18904167
23	0xbe43ce6e	-0.19121715
24	0x3d805b48	0.062674105
25	0x3e69c032	0.22827223
26	0x3e76378d	0.24044628
27	0x3e8ca1de	0.27467245
28	0x3d9ae8db	0.07563945
29	0xbe8604be	-0.26175493
30	0x3cdc6bfb	0.026906958
31	0x3e82d2a6	0.25551337

l7.weight f4 [16, 32]
0	0xbdac97b6	-0.08427374
1	0xbccadd7f	-0.02476382
2	0x3cd2b186	0.025719415
3	0xbea9625b	-0.33082852
4	0x3dee671a	0.11640759
5	0x3de7b79f	0.1131432
6	0x3cf5fdbc	0.030028217
7	0x3e31e04c	0.17370719
8	0xbf25bc7c	-0.6474073
9	0x3c02e6af	0.00798957
10	0x3e79e682	0.24404338
11	0xbdac0e39	-0.0840115
12	0xbe91d57d	-0.2848319
13	0x3eefc596	0.46830434
14	0xbebb6b6f	-0.36605403
15	0x3e2d442e	0.1692054
16	0x3e8d9314	0.27651274
17	0xbaaccff3	-0.0013184532
18	0xbe310b62	-0.17289498
19	0x3e005e42	0.12535957
20	0xbd64de8f	-0.05587631
21	0xbd6f3cab	-0.058407467
22	0x3e32b56a	0.17452016
23	0x3e31a298	0.17347181
24	0x3e07a18d	0.1324522
25	0x3e8ccae8	0.27498555
26	0xbf1789f5	-0.5919488
27	0x3e8d5ac6	0.27608317
28	0x3d8343e2	0.06409432
29	0x3c2234ba	0.009900266
30	0xbe9af066	-0.30261534
31	0xbd5259c1	-0.051355127
32	0x3db820ac	0.08990607
33	0xbc0cd6a8	-0.0085961
34	0x3d813cb7	0.063104086
35	0x3ef96690	0.4871106
36	0x3e15538d	0.14582653
37	0x3f599fa4	0.8500922
38	0x3d086ef5	0.033308942
39	0x3eeda274	0.46413004
40	0x3f0d11b1	0.5510512
41	0x3f244827	0.64172596
42	0x3e5c3cd4	0.21507579
43	0x3b8e9ea5	0.004352408
44	0x3f2c957d	0.674156
45	0x3e982b4e	0.2972054
46	0x3f2156e2	0.630232
47	0x3d6f6486	0.058445476
48	0x3f05525e	0.5207881
49	0x3e101fd4	0.14074641
50	0x3de7e428	0.11322814
51	0x3ec64044	0.38720906
52	0x3e1dd746	0.15414152
53	0x3dce3e31	0.10070456
54	0x3e11b7bd	0.14230247
55	0x3f39a906	0.72523534
56	0x3d942bcb	0.07234915
57	0x3da41fc7	0.080138735
58	0x3f305c12	0.6889049
59	0x3d6c2a25	0.05765738
60	0xbc475003	-0.012165072
61	0xbd09a906	-0.03360846
62	0x3ecafe09	0.39646938
63	0x3e3efc77	0.18650995
64	0xbe910e4d	-0.28331223
65	0x3edf0303	0.43556985
66	0x3ebb2870	0.3655429
67	0xbe88bea3	-0.26707944
68	0x3d88f529	0.066873856
69	0xbeaec667	-0.34135744
70	0x3cf5ea13	0.030018842
71	0xbde27671	-0.11057747
72	0xbe211bd1	-0.15733267
73	0x3da8b9f3	0.08238592
74	0x3ea1ef1e	0.31627744
75	0xbd59b728	-0.053153187
76	0xbf3142ef	-0.6924276
77	0xbd045b00	-0.032313347
78	0xbec6892a	-0.38776523
79	0xbd12c588	-0.03583291
80	0xbf02b587	-0.5105824
81	0xbea14cc7	-0.3150389
82	0xbe0c9fd5	-0.13732846
83	0xbe5d24c5	-0.21596058
84	0x3dadee4e	0.08492719
85	0xbe49e5dc	-0.1971659
86	0xbda2c2e5	-0.079473294
87	0xbe5d949f	-0.21638726
88	0x3db99424	0.09061459
89	0x3e498de9	0.1968304
90	0xbf451ebe	-0.77000034
91	0x3eadbdd0	0.33933878
92	0xbe89cd2a	-0.2691434
93	0x3d964733	0.07337799
94	0xbeb18b03	-0.3467637
95	0x3d9b3dce	0.07580148
96	0x3e1a03b4	0.15040475
97	0x3ddab1fd	0.1067848
98	0x3d894987	0.06703477
99	0x3ed17e04	0.40916455
100	0xbcc1720c	-0.023613952
101	0x3f638764	0.88878465
102	0x3dc64c6e	0.096825466
103	0x3ec1e028	0.3786633
104	0x3f30ab62	0.6901151
105	0x3f27f23f	0.65604013
106	0xbe002d90	-0.1251738
107	0xbdefdb69	-0.11711771
108	0x3f1dd2fe	0.61650074
109	0x3f1afe1e	0.60544
110	0x3f6f347b	0.93439454
111	0xbc693bbe	-0.014235435
112	0x3f2fb74e	0.68639076
113	0x3e5fa399	0.21839751
114	0x3d1e9a0c	0.03872113
115	0x3eb2d594	0.34928572
116	0x3e1d9ca6	0.15391788
117	0xbda88a26	-0.08229475
118	0xbdc315c8	-0.09525639
119	0x3f3c2974	0.7350075
120	0x3d3b50b6	0.04573127
121	0x3e83386a	0.25628978
122	0x3f57738b	0.8416068
123	0xbdf28ce9	-0.11843283
124	0x3e71c171	0.23608948
125	0x3d4fc80d	0.050727893
126	0x3f121386	0.5706104
127	0x3ecf2f0b	0.40465578
128	0x3d3c2a47	0.045938756
129	0xbe42b655	-0.19014867
130	0xbdfccd09	-0.12343795
131	0xbd3303bc	-0.043704733
132	0x3e1e4417	0.15455662
133	0xbc83ae58	-0.016074345
134	0x3e1491ff	0.14508818
135	0xbde16599	-0.11005706
136	0xbdc33742	-0.09532024
137	0xbde72f42	-0.112883106
138	0xbd846216	-0.06464021
139	0x3dcc2002	0.099670425
140	0xbe072a4c	-0.13199729
141	0x3db762f6	0.08954422
142	0x3e1a9204	0.15094763
143	0x3e2685b0	0.16261935
144	0xbe0c1121	-0.13678409
145	0x3b5baa19	0.0033518134
146	0x3d5b0edf	0.05348098
147	0xbe2a4258	-0.1662687
148	0xbdf711c0	-0.120639324
149	0xbdfe3876	-0.12413113
150	0x3e215d77	0.1575831
151	0x3d690db5	0.056897838
152	0xbe32fcd7	-0.17479263
153	0xbe28e182	-0.16492274
154	0xbde6c0ac	-0.11267218
155	0x3c1475c0	0.009061277
156	0x3e0de9b6	0.13858685
157	0xbd98233b	-0.07428595
158	0xbd773030	-0.06034869
159	0xbe2e98fe	-0.1705055
160	0xbd743366	-0.05961933
161	0x3dc4cafb	0.09609028
162	0xbe061909	-0.13095488
163	0x3e159f87	0.14611636
164	0x3e26a2e9	0.16273083
165	0xbb0702ac	-0.0020600958
166	0x3d11f544	0.035634294
167	0xbdd38fbd	-0.1033015
168	0x3dcaac8b	0.09896191
169	0x3df52ab3	0.11971035
170	0xbe03bb31	-0.12864377
171	0x3e23905f	0.15973042
172	0xbd8042ca	-0.06262739
173	0xbe054ef8	-0.13018405
174	0xbda3da1d	-0.08000586
175	0x3d88bd44	0.066767246
176	0x3c8ab183	0.016930347
177	0xbd915970	-0.07097137
178	0xbcec74ac	-0.028864227
179	0xbe0b2628	-0.13588774
180	0xbe11b740	-0.1423006
181	0x3e0e5ba0	0.1390214
182	0x3d718bef	0.05897134
183	0xbdfa3782	-0.122176185
184	0x3dc6c8df	0.09706282
185	0x3e245a9d	0.16050191
186	0x3d0238f8	0.03179261
187	0xbe07c5b2	-0.13259009
188	0x3e0fc565	0.14040144
189	0x3df3b610	0.1189996
190	0x3dd4eef3	0.103971384
191	0x3dcda69b	0.10041543
192	0x3df27c7c	0.1184015
193	0xbdf623de	-0.1201856
194	0xbd326245	-0.04355075
195	0x3c9266bc	0.017871253
196	0xbdbe2565	-0.09284476
197	0x3df05fa0	0.11736989
198	0x3de8aa0e	0.1136056
199	0xbd43d706	-0.047812484
200	0xbe0a7d69	-0.13524403
201	0xbe23aeaf	-0.15984605
202	0x3d1384f3	0.036015462
203	0xbe2f937e	-0.17146108
204	0xbdb529a7	-0.08845835
205	0xbde1d151	-0.11026252
206	0xbc2f45ba	-0.010697776
207	0xbd513921	-0.051079873
208	0x3dbceea2	0.09225203
209	0x3dcb2320	0.09918809
210	0x3c79903f	0.015232145
211	0x3de3cd5c	0.111231536
212	0xbd1f4b06	-0.038889907
213	0x3d952252	0.07281937
214	0x3d82d014	0.06387344
215	0x3d47ca58	0.048776954
216	0xbd2614c3	-0.040547144
217	0xbdb958a0	-0.09050107
218	0x3d9f851b	0.0778906
219	0xbe273e02	-0.16332248
220	0xbe2a9c57	-0.16661201
221	0x3dd26b9b	0.1027443
222	0x3d672e58	0.05644068
223	0xbe26bf89	-0.16284002
224	0xbd32cedb	-0.043654304
225	0xbe493879	-0.19650449
226	0xbdf75e0e	-0.120784864
227	0xbd58969b	-0.052878004
228	0xbc48d2fe	-0.012257336
229	0x3e15361d	0.14571424
230	0xbe049f5a	-0.12951413
231	0xbd6cffbe	-0.057861082
232	0xbc68cac8	-0.014208503
233	0x3e146844	0.14492899
234	0x3a8c88b0	0.0010721888
235	0xbe012e97	-0.12615429
236	0x3d35121d	0.044206727
237	0xbde8322b	-0.11337694
238	0xbdb21f2f	-0.08697354
239	0xbc05f735	-0.0081766145
240	0xba7cefdc	-0.0009648779
241	0x3d46b00e	0.048507743
242	0x3dad7c4e	0.08470975
243	0xbe407053	-0.18792848
244	0xbe131503	-0.14363484
245	0xbd240986	-0.040048145
246	0x3cfe3731	0.031032177
247	0x3cab9eb2	0.020949695
248	0xbe0a6608	-0.13515484
249	0x3dee0711	0.116224416
250	0xbced3c6e	-0.02895948
251	0x3d01122d	0.031511474
252	0xbbb751a6	-0.00559445
253	0xbe29d55b	-0.16585295
254	0xbd6c2a00	-0.05765724
255	0x3d203486	0.03911259

l7.bias f4 [16]
0	0x3d1d2398	0.038364023
1	0x3d72df55	0.059295017
2	0x3c981afe	0.018567558
3	0x3e7e892a	0.24857011
4	0x3ce8af48	0.028403893
5	0xbe082419	-0.1329502
6	0xbd87bcb2	-0.06627788
7	0xbe1ab94b	-0.15109746
8	0xbdf48d36	-0.11940996
9	0xbe66cc6c	-0.22538918
10	0x3e35cd96	0.17754206
11	0x3cf83457	0.030298395
12	0x3c939b93	0.01801852
13	0xbd06be9d	-0.032896627
14	0x3e49bc61	0.19700767
15	0x3dd3dc25	0.103447236

l8.weight f4 [1, 16]
0	0x3ed97c9d	0.42477885
1	0xbf023df6	-0.50875795
2	0x3f64b29a	0.89335024
3	0xbf34a88c	-0.7056968
4	0x3dd19690	0.10233796
5	0x3d1da350	0.038485825
6	0x3dcc929d	0.09988902
7	0x3e2a1b23	0.16611914
8	0x3d8327d4	0.06404081
9	0x3f3d0a42	0.7384378
10	0xbeda4af5	-0.42635313
11	0xbf835ec7	-1.0263299
12	0x3de090c5	0.109651126
13	0x3e78e922	0.24307683
14	0xbf04eb9a	-0.51922
15	0x3dd839ce	0.105579
