project/checkpoints/checkpoints_linearfirstorder/52_critic.pt (torch, 15054 bytes, 14 tensors)

l1.weight f4 [16, 6]
0	0xbf8e7c9d	-1.1131779
1	0x3ec0f0bd	0.3768367
2	0xbd921e20	-0.07134652
3	0x3d9e14e4	0.07718828
4	0x3eb757cd	0.35809174
5	0x3f3881e9	0.7207323
6	0x3e85a5b6	0.2610299
7	0xbd620cd7	-0.055188026
8	0xbe63ead5	-0.2225755
9	0x3e42dd75	0.19029792
10	0xbeb1c91a	-0.3472374
11	0xbf523beb	-0.8212268
12	0x3fadd43c	1.3580394
13	0x3e2b181b	0.16708414
14	0xbc8bc0f3	-0.017059779
15	0x3ec8411b	0.39112172
16	0x3e9d6c20	0.30746555
17	0x3eebfb6a	0.4609025
18	0xbe17ce18	-0.14824712
19	0xbe96e609	-0.29472378
20	0x3d9c769e	0.07639812
21	0xbe58f8a2	-0.21188596
22	0x3e6ac173	0.22925358
23	0xbfa341ed	-1.2754494
24	0x3f65bffc	0.8974607
25	0xbd2ccf10	-0.042189658
26	0xbe2187fd	-0.15774532
27	0x3d3f1294	0.046648577
28	0xbe6a49cc	-0.22879714
29	0xbf19205c	-0.59815
30	0xbe2dd9ae	-0.1697757
31	0xbe899804	-0.2687379
32	0xbe76ff13	-0.2412074
33	0xbeaa1d0a	-0.3322528
34	0xbe7ad18d	-0.24494
35	0xbf23c966	-0.63979185
36	0xbf829e68	-1.0204592
37	0x3e7dd510	0.24788308
38	0x3f145c27	0.57953113
39	0x3e129c42	0.1431742
40	0xbdb6b6b5	-0.08921567
41	0x3f080cb0	0.5314436
42	0x3fbeed42	1.4916155
43	0x3e86dcc1	0.26340297
44	0xbcdda330	-0.027055353
45	0x3c8fd8d0	0.017559439
46	0x3ebb6e7f	0.3660774
47	0x3f287d59	0.65816265
48	0xbf7bc8f3	-0.983535
49	0x3e03a854	0.12857181
50	0x3ead6402	0.33865362
51	0x3ea8016e	0.3281359
52	0xbea62a81	-0.32454303
53	0xbf773292	-0.9656154
54	0xbefc400f	-0.49267623
55	0xbe012ed5	-0.12615521
56	0xbd280be7	-0.041026976
57	0x3e44cca6	0.19218692
58	0x3eb9eb31	0.3631225
59	0xbfc2eda3	-1.5228771
60	0x3f88eaed	1.0696694
61	0x3dad284a	0.0845495
62	0x3d1c0516	0.038090788
63	0xbed02004	-0.40649426
64	0x3e363baf	0.17796205
65	0xbf699ac4	-0.9125178
66	0x3c1e49e9	0.009661176
67	0xbdc6722a	-0.09689744
68	0xbda73953	-0.081652306
69	0xbd848d72	-0.06472291
70	0xbe301909	-0.1719705
71	0xbd6cccff	-0.057812687
72	0x3f92d5e4	1.1471524
73	0x3dd3cdc1	0.10341979
74	0xbe94b785	-0.29046264
75	0x3ecdbf78	0.40185142
76	0x3e0eefdb	0.13958685
77	0x3f0bb118	0.545671
78	0x3faff3a2	1.3746226
79	0x3dbe1726	0.09281759
80	0x3e8683ab	0.2627233
81	0x3ec6ac80	0.38803482
82	0x3e755380	0.23957634
83	0x3fb48b19	1.4104949
84	0x3e8fbfb6	0.2807595
85	0x3d81c91c	0.06337187
86	0x3e0360a1	0.1282983
87	0xbcb52b75	-0.022115448
88	0xbe727c35	-0.23680194
89	0x3e834321	0.25637153
90	0xbec05c9f	-0.37570664
91	0x3ec7bb28	0.39009976
92	0xbe304b30	-0.17216182
93	0x3e773a67	0.24143372
94	0xbe971056	-0.2950465
95	0x3dd73d81	0.10509778

l1.bias f4 [16]
0	0x3e2d4932	0.16922453
1	0x3dd42c5a	0.10360022
2	0x3e99c773	0.3003498
3	0x3e8bd440	0.2731037
4	0x3e6669a9	0.22501244
5	0x3dcea3e4	0.100898534
6	0x3cc3c45b	0.02389734
7	0x3e944cdd	0.28964892
8	0xbd86b18f	-0.06576835
9	0xbe226bd1	-0.15861441
10	0xbe3cd9a8	-0.18442404
11	0x3e338ad7	0.17533432
12	0x3cc4f7f2	0.02404401
13	0x3dd48565	0.103770055
14	0x3d5efac2	0.05443836
15	0xbe9d3462	-0.30704027

l2.weight f4 [32, 16]
0	0x3e0e290a	0.13882843
1	0xbec1abf6	-0.37826508
2	0xbd625eea	-0.0552663
3	0x3eaa378a	0.33245498
4	0xbe9b5002	-0.3033448
5	0xbe9a8418	-0.30178905
6	0xbeb9704d	-0.3621849
7	0x3d860d73	0.06545534
8	0xbf2cbd79	-0.6747661
9	0x3e7ef8ef	0.24899648
10	0x3e0b75ad	0.13619108
11	0x3dc410bc	0.09573504
12	0xbeb7e0b8	-0.35913634
13	0xbe33525b	-0.17511885
14	0xbd0271f0	-0.03184694
15	0x3d5276b0	0.05138272
16	0x3def2ba2	0.11678244
17	0x3e60151b	0.21883051
18	0xbe362767	-0.17788468
19	0xbf76ccdb	-0.96406335
20	0x3eb0d323	0.34536085
21	0x3e8458cc	0.25848997
22	0x3db25b62	0.08708836
23	0x3e745c30	0.23863292
24	0xbd186f69	-0.037215624
25	0xbf9e19bb	-1.2351602
26	0xbef17c88	-0.47165322
27	0x3e406f2a	0.18792406
28	0x3da9561c	0.08268377
29	0x3e4359e4	0.1907726
30	0x3b9c68c0	0.0047732294
31	0xbe1c26e0	-0.15249205
32	0x3ec75a19	0.38935927
33	0x3e99c378	0.30031943
34	0x3eb18774	0.34673655
35	0xbe0cb6a2	-0.13741544
36	0xbd88116c	-0.06643948
37	0xbbebda72	-0.0071976716
38	0x3ec1b023	0.37829694
39	0x3ecedc34	0.40402377
40	0xbec46966	-0.38361663
41	0xbd7aa5f8	-0.061193436
42	0xbe72283d	-0.23648162
43	0xbc402ce0	-0.011729449
44	0x3e77c486	0.24196061
45	0x3ec73481	0.38907245
46	0x3e074f52	0.13213852
47	0xbdae9088	-0.08523661
48	0xbea86aed	-0.32894078
49	0x3e00995f	0.12558506
50	0xbd815979	-0.06315894
51	0xbe203f80	-0.15649223
52	0xbde4ea56	-0.111775085
53	0x3e5f16da	0.21786061
54	0x3d9bfe53	0.07616868
55	0x3e325965	0.17416914
56	0x3cbf36c8	0.023341551
57	0xbe230b16	-0.15922198
58	0x3e5b6c04	0.21427923
59	0xbe6cdc9a	-0.23131028
60	0xbdebdaa1	-0.115163095
61	0xbe96b1db	-0.29432568
62	0xbda821a4	-0.082095414
63	0xbe446952	-0.19180802
64	0xbe3bc127	-0.183354
65	0x3e127e3e	0.1430597
66	0xbe865a52	-0.26240784
67	0xbdd20fe7	-0.102569394
68	0x3d9522d4	0.072820336
69	0x3d95c13d	0.07312248
70	0xbe2eebb4	-0.17082101
71	0xbd18a80b	-0.037269633
72	0x3e18a04a	0.14904895
73	0x3d7cdbbe	0.061733
74	0xbe99ff2b	-0.3007749
75	0xbe4c9748	-0.19979584
76	0xbdd5edd8	-0.10445756
77	0x3e19d1c7	0.1502143
78	0x3e21e40c	0.15809649
79	0x3e3c9410	0.18415856
80	0x3d6181ca	0.055055417
81	0x3e9515a8	0.29118085
82	0x3e8c6de4	0.2742759
83	0xbf00148d	-0.5003136
84	0x3e086487	0.13319598
85	0x3d3f9d7c	0.04678105
86	0xbe2fa39e	-0.17152259
87	0x3ea47349	0.32119206
88	0xbe4c01f1	-0.19922616
89	0xbf29502d	-0.66137964
90	0xbeb9f1ea	-0.36317378
91	0x3e175476	0.14778313
92	0x3e9dacc7	0.3079588
93	0x3f08f6f6	0.5350183
94	0xbe4a19d0	-0.19736409
95	0xbdef5eec	-0.11688027
96	0xbe37d9aa	-0.17954126
97	0x3e562db6	0.20915875
98	0xbe51b860	-0.2048049
99	0x3e6194fe	0.22029492
100	0xbde242a0	-0.11047864
101	0x3dd75758	0.105147064
102	0xbdb670b4	-0.08908215
103	0xbe5d3cbc	-0.216052
104	0xbd90455c	-0.07044479
105	0xbdb47068	-0.08810502
106	0x3dd36d74	0.10323611
107	0x3e1da568	0.15395129
108	0x3d885b78	0.06658071
109	0xbdcdbc4c	-0.100456804
110	0xbe675ce0	-0.22594023
111	0xbe79fb5a	-0.2441229
112	0xbfe96801	-1.8234864
113	0x3ee1fac8	0.44136643
114	0x3ebae4ec	0.3650278
115	0x3d0e2348	0.034701616
116	0x3ea12024	0.31469834
117	0x3e392666	0.18081054
118	0xbfd8e0f2	-1.6943648
119	0x3ef51f26	0.47875327
120	0xbf8aa7b5	-1.083243
121	0x3d3ed8aa	0.046593346
122	0x3e88f6e8	0.26750875
123	0xbda50eb0	-0.08059442
124	0x3f02457d	0.5088728
125	0x3ed5f966	0.41791838
126	0x3e3fbb30	0.1872375
127	0xbd231938	-0.039818972
128	0xbdbf1837	-0.093307905
129	0xbb788300	-0.003791988
130	0x3debf342	0.11521007
131	0xbe1f24ae	-0.15541336
132	0xbe7343e2	-0.23756364
133	0xbdb2ade4	-0.08724573
134	0xbd9be90b	-0.07612809
135	0xbe53109e	-0.20611808
136	0x3e473a02	0.19455722
137	0x3d04091c	0.03223525
138	0xbe868aab	-0.2627767
139	0x3d156878	0.036476582
140	0xbe44d09a	-0.192202
141	0x3e31d9fb	0.17368309
142	0x3ccf6ae0	0.025319517
143	0xbe68be1a	-0.22728768
144	0xbe0906cd	-0.133815
145	0x3d626420	0.055271268
146	0xbe12a3c8	-0.1432029
147	0x3da914f8	0.082559526
148	0xbe87cd0c	-0.26523626
149	0xbdeacd54	-0.114649445
150	0xbde0b340	-0.10971689
151	0x3e437835	0.19088824
152	0x3e01a584	0.12660795
153	0xbe24943d	-0.16072173
154	0xbe841964	-0.25800622
155	0x3e18610a	0.14880767
156	0x3de1cba6	0.11025171
157	0xbd48458f	-0.04889446
158	0xbd9287b8	-0.071547925
159	0xbe2ed1fe	-0.17072293
160	0x3e58ef59	0.21185054
161	0x3e0a5269	0.13508
162	0xbdbe8623	-0.09302928
163	0xbce30bfc	-0.027715676
164	0x3d8c21b1	0.068423636
165	0xbb58843f	-0.003303781
166	0xbd09be4a	-0.03362874
167	0xbd1c9e22	-0.038236745
168	0xbec26431	-0.37967065
169	0xbc891b11	-0.01673654
170	0xbd208763	-0.039191615
171	0x3e220604	0.15822607
172	0xbe70cd5c	-0.23515838
173	0x3e5d4c2c	0.21611089
174	0x3e09c98e	0.13455793
175	0xbd08dd30	-0.033414066
176	0xbcf8e2d3	-0.030381596
177	0x3f042ee7	0.5163407
178	0x3e5e5530	0.21712184
179	0x3e1f3920	0.15549135
180	0x3e293736	0.16524968
181	0x3e06a2a7	0.13147984
182	0x3ead5e5c	0.33861053
183	0x3e097da4	0.13426834
184	0xbe2ca243	-0.16858773
185	0xbe85b319	-0.26113203
186	0x3e8d9d36	0.27659005
187	0x3e0fefd2	0.14056328
188	0x3e0b3407	0.13594066
189	0x3eaae419	0.3337715
190	0x3e4c41ec	0.19947022
191	0x3e0320d4	0.12805492
192	0x3e2542f6	0.16138825
193	0x3f00f82c	0.5037868
194	0x3ed24f01	0.410759
195	0x3e32e2ff	0.17469405
196	0x3e166474	0.14686757
197	0x3cf75629	0.030192452
198	0x3ea79a48	0.32734895
199	0x3f0f2b00	0.5592499
200	0xbe2b4c38	-0.16728294
201	0x3e295406	0.16535959
202	0x3d50d331	0.050982658
203	0xbcadeb30	-0.02123031
204	0xbe9a3393	-0.30117473
205	0x3ec1ef0c	0.3787769
206	0xbe3d0bf4	-0.18461591
207	0xbe7ad72e	-0.24496147
208	0xbe4aa915	-0.19791062
209	0xbdcbf3de	-0.09958623
210	0xbe57f208	-0.21088421
211	0xbda3093b	-0.07960745
212	0xbbf0b931	-0.0073462953
213	0xbe81ea3a	-0.25374013
214	0x3d9bec05	0.076133765
215	0xbe8bcd84	-0.27305233
216	0x3e2d6c61	0.16935875
217	0x3d039654	0.032125786
218	0xbea2bed4	-0.31786215
219	0x3d1113c8	0.035419255
220	0xbe797e72	-0.24364641
221	0x3d261f88	0.040557414
222	0x3c133340	0.008984387
223	0x3da580b4	0.08081189
224	0x3ed0692b	0.40705237
225	0xbd8a35b5	-0.06748525
226	0x3f0608f4	0.5235741
227	0xbd8acf11	-0.06777776
228	0xbe87fb4b	-0.2655891
229	0xbe6284a5	-0.22120912
230	0xbf2bda4f	-0.6712999
231	0x3e43924b	0.19098775
232	0xbf4704bd	-0.77741605
233	0xbdacefcc	-0.08444175
234	0x3e896974	0.26838267
235	0x3e70eca2	0.23527768
236	0x3e1789c8	0.14798653
237	0x3ebfa535	0.3743073
238	0xbe4f40f8	-0.20239627
239	0xbe5f2750	-0.2179234
240	0xbedc8e97	-0.43077537
241	0x3d47d29b	0.048784833
242	0xbe72e285	-0.23719223
243	0xba399206	-0.0007078949
244	0xbd58953e	-0.052876703
245	0x3e3861d2	0.18006065
246	0x3e117396	0.14204249
247	0xbeaa6b7b	-0.33285126
248	0xbdac0ebb	-0.08401247
249	0x3de0c62b	0.109752975
250	0x3d020d32	0.031750865
251	0x3db3f938	0.08787769
252	0xbe1a596e	-0.15073177
253	0xbe65f6b7	-0.22457395
254	0xbd288cb8	-0.041149825
255	0xbe3caa76	-0.184244

l2.bias f4 [32]
0	0x3dbb8d8f	0.091578595
1	0xbecaa426	-0.3957836
2	0x3dc53920	0.09630036
3	0xbe2620af	-0.16223405
4	0xbddbbb58	-0.10729092
5	0xbdf27f1a	-0.11840649
6	0xbe7a1160	-0.2442069
7	0x3e65e9d5	0.22452481
8	0xbe59dde3	-0.2127605
9	0xbe0740d9	-0.13208331
10	0xbdef4705	-0.11683468
11	0x3c726596	0.014794728
12	0x3d0be4f4	0.034153894
13	0xbde60813	-0.11232009
14	0xbd23df36	-0.040007792
15	0xbe573f2c	-0.21020192
16	0x3daca3d7	0.084296875
17	0x3ca0dedf	0.019637523
18	0xbd070c38	-0.032970637
19	0x3d257f4b	0.0404046
20	0xbe420b8d	-0.18949719
21	0xbc96bd94	-0.018400945
22	0xbe6e4ada	-0.23270741
23	0xbe0a6092	-0.13513401
24	0xbcd832e4	-0.026391454
25	0x3dbf0276	0.09326641
26	0x3d572c39	0.05253241
27	0xbe340869	-0.17581333
28	0xbc4c74b9	-0.012479001
29	0xbe63c4ce	-0.22243044
30	0x3e82c6a1	0.25542167
31	0xbdc7c19d	-0.09753726

l3.weight f4 [16, 32]
0	0x3c913ea3	0.017730063
1	0xbca17735	-0.019710163
2	0x3c93f280	0.018059969
3	0xbdd94f96	-0.10610883
4	0xbdb183eb	-0.086677395
5	0x3b2cb8a3	0.002635517
6	0x3dc5885b	0.09645148
7	0x3bf35140	0.0074254572
8	0x3d8c4b25	0.0685027
9	0x3e16e78c	0.14736766
10	0x3dd5ec8c	0.10445508
11	0xbe1a27e0	-0.15054274
12	0xbde22110	-0.110414624
13	0x3cde1e3a	0.027114023
14	0x3d94718d	0.072482206
15	0x3d976bfa	0.07393642
16	0x3cbcc4d3	0.023043072
17	0x3de4fef6	0.111814424
18	0xbde10c27	-0.10988646
19	0x3d83c616	0.06434266
20	0x3e2baa21	0.16764118
21	0xbd774bcd	-0.060375024
22	0x3db08dc2	0.08620788
23	0x3e10566c	0.14095467
24	0xbe327a18	-0.17429388
25	0xbdd4d5bd	-0.1039233
26	0xbe0bfa7c	-0.13669771
27	0x3e2826c3	0.16421036
28	0xbe2aff75	-0.16699012
29	0xbe0a7d8e	-0.13524458
30	0xbcc20c6e	-0.023687568
31	0xbdc8b071	-0.097992785
32	0x3d80d1f3	0.06290045
33	0xbd94b79d	-0.07261584
34	0xbe51cd8c	-0.20488566
35	0xbe00dfc9	-0.12585367
36	0x3dd2e2f6	0.102971956
37	0xbd824610	-0.063610196
38	0xbe2a0e0a	-0.16606918
39	0xbd8210be	-0.063508496
40	0xbe312819	-0.17300452
41	0xbddc6b08	-0.10762602
42	0xbd6d921a	-0.05800066
43	0xbd0a5912	-0.03377635
44	0x3c7a705e	0.0152855795
45	0x3ccd4180	0.025055647
46	0xbdb4d195	-0.08829037
47	0xbc13df7e	-0.009025453
48	0xbd95e0ce	-0.07318269
49	0x3c3273c0	0.010891855
50	0xbdd24de3	-0.10268762
51	0xbdc53f47	-0.0963121
52	0xbe0462db	-0.12928335
53	0xbd302756	-0.043006264
54	0x3e1e5bad	0.15464659
55	0xbde04c16	-0.10952012
56	0x3d68a833	0.056801032
57	0xbde2935a	-0.11063261
58	0xbe5b17c7	-0.21395789
59	0x3d7651c2	0.060136564
60	0x3b7bbd93	0.0038412556
61	0xbdf51e06	-0.11968617
62	0x3d112371	0.03543419
63	0xbdebc954	-0.1151301
64	0x3f1645fb	0.5870053
65	0x3f16b338	0.58867216
66	0x3e95b730	0.29241323
67	0x3cecc0d7	0.028900547
68	0x3cf9820b	0.030457517
69	0x3f064a4f	0.52457136
70	0x3dc9f3db	0.09860965
71	0x3f727cd8	0.94721746
72	0x3df3335a	0.11875029
73	0xbd0e86ca	-0.034796514
74	0x3e29f2cc	0.16596526
75	0x3dabb516	0.08384149
76	0x3e9db058	0.30798602
77	0xb9be0e16	-0.0003625012
78	0xbd33b028	-0.043869168
79	0x3d736d2b	0.059430283
80	0x3e017a25	0.1264425
81	0x3e6a2ba2	0.22868207
82	0x3e783ce1	0.24241973
83	0xbdd6e39e	-0.10492633
84	0xbd425681	-0.047445778
85	0xbdb17e23	-0.08666637
86	0xbd482a97	-0.04886874
87	0x3ddd96f2	0.10819806
88	0x3da8d6ed	0.08244119
89	0x3ee17621	0.44035438
90	0xbd69fdda	-0.057126857
91	0x3dc74358	0.09729642
92	0x3e3405c8	0.1758033
93	0xbed70e05	-0.42002884
94	0xbf0ca364	-0.54936814
95	0x3f78c8d2	0.9718143
96	0x3f333bc7	0.7001309
97	0x3eff77fd	0.4989623
98	0x3e8bc436	0.27298135
99	0xbdcafc9a	-0.09911461
100	0xbd81dc66	-0.06340866
101	0x3f3ea398	0.74468374
102	0x3d033091	0.03202874
103	0x3f4c95c8	0.7991605
104	0x3e1f0c38	0.15532005
105	0x3d3475ec	0.04405777
106	0x3e08acdc	0.1334719
107	0x3e3c6714	0.18398696
108	0x3e1e285d	0.15445085
109	0xbdc1a074	-0.09454432
110	0xbe11791f	-0.1420636
111	0x3e36bc25	0.17845209
112	0xbd9a01a2	-0.07519843
113	0x3d98d881	0.0746317
114	0x3ea24aa1	0.31697562
115	0xbcc28674	-0.023745753
116	0xbd7dfb34	-0.062007144
117	0xbdb4a89f	-0.088212244
118	0x3df2059a	0.11817475
119	0x3e4d0a99	0.20023574
120	0xbdc43221	-0.09579874
121	0x3ef23375	0.47304884
122	0xbd5f5bd7	-0.054530945
123	0x3e9c0923	0.3047572
124	0x3c5034a7	0.012707866
125	0xbe69e7fe	-0.22842404
126	0xbf08fb1e	-0.53508174
127	0x3fab2bb9	1.3372718
128	0x3eeecadc	0.46639144
129	0xbf08126a	-0.531531
130	0x3e6102df	0.21973751
131	0xbd9a72de	-0.075414404
132	0xbe405f5b	-0.18786375
133	0x3de9f3fb	0.11423489
134	0xbe20193d	-0.15634628
135	0x3f7c1dbd	0.98482877
136	0x3e298b73	0.16557102
137	0xbd13a89a	-0.036049463
138	0x3dddbc2d	0.10826907
139	0x3e6e607a	0.2327899
140	0x3ec3d642	0.38249403
141	0x3e5078b2	0.20358542
142	0xbf84397f	-1.0330046
143	0x3e175582	0.14778712
144	0x3d35cc2b	0.044384163
145	0x3e8c844c	0.27444685
146	0x3e9333ad	0.28750363
147	0x3d9e8aa8	0.0774129
148	0xbbd2b549	-0.0064303023
149	0x3deb685b	0.114945136
150	0xbcfe6401	-0.031053545
151	0x3e0d0764	0.1377235
152	0xbd0f3032	-0.034958072
153	0x3dc29dc6	0.09502749
154	0xbdea7cba	-0.11449571
155	0x3c8e79c7	0.017392052
156	0xbba470af	-0.0050183157
157	0xbe61e2ce	-0.22059175
158	0xbf8f67f0	-1.1203594
159	0x3f28e5db	0.6597573
160	0x3f26e4a3	0.6519262
161	0x3f1de27c	0.6167371
162	0x3eac2a46	0.33626002
163	0x3ce3a29e	0.027787503
164	0xbcf54925	-0.029942105
165	0x3f455ea4	0.77097535
166	0xbdb1e87e	-0.086869225
167	0x3f65805d	0.8964899
168	0xbc926e8e	-0.017874982
169	0x3d18e935	0.03733178
170	0xbe563362	-0.20918038
171	0x3e104f74	0.14092809
172	0x3e2c93b1	0.16853215
173	0xbda56614	-0.080761105
174	0xbe631af6	-0.22178254
175	0x3e6f640a	0.23378006
176	0x3d6ba3d0	0.05752927
177	0xbd6a2ebd	-0.05717348
178	0x3f0a08d5	0.53919727
179	0x3d2d005e	0.04223668
180	0x3e3d71e9	0.18500485
181	0x3d760507	0.06006339
182	0x3db6410f	0.08899128
183	0x3e83a27c	0.25709903
184	0x3d20f2e8	0.039294153
185	0x3f217032	0.6306182
186	0xbe846c94	-0.2586409
187	0x3e025b1b	0.12730066
188	0xbdf6063c	-0.12012908
189	0xbeae72d2	-0.34071976
190	0xbf1c6fb5	-0.6110795
191	0x3f97e5ff	1.1867064
192	0xbdfbbe13	-0.12292113
193	0xbe336f6b	-0.17522971
194	0xbdc3e0f1	-0.095643885
195	0x3e1b6106	0.1517373
196	0x3d7e35f2	0.062063165
197	0xbdc2de81	-0.095150955
198	0x3c8cf0b3	0.017204618
199	0xb9feeb2d	-0.00048621875
200	0x3d81563b	0.06315275
201	0xbdfbfb21	-0.123037584
202	0xbe4126b9	-0.18862428
203	0xbe362513	-0.1778758
204	0x3b91e190	0.004451938
205	0xbd3a91e9	-0.045549307
206	0x3d010ccb	0.03150634
207	0x3ddc0ffb	0.107452355
208	0xbe2c9526	-0.1685377
209	0xbe08a06d	-0.13342448
210	0x3d6f651b	0.05844603
211	0x3d99976f	0.07499587
212	0xbdfe5520	-0.1241858
213	0xbc9beaa1	-0.019032778
214	0x3c82fa62	0.015988532
215	0x3e138bb6	0.14408764
216	0xbcd4b494	-0.025965013
217	0xbe2babf6	-0.16764817
218	0xbe35f9d3	-0.17771082
219	0xbd1f90bf	-0.0389564
220	0xbcc03cff	-0.023466585
221	0x3d1ff94d	0.03905611
222	0xbdb17eb6	-0.08666746
223	0xbd0a4abd	-0.033762682
224	0xbda13dc4	-0.07873109
225	0x3d22cbd0	0.039745152
226	0x3ca62010	0.02027896
227	0x3a9ca6da	0.0011951581
228	0xbe0aca39	-0.13553704
229	0xbe16150e	-0.14656469
230	0x3ba5ee34	0.0050637964
231	0x3dcbc43d	0.09949539
232	0xbe33628f	-0.17518066
233	0x3e17c20e	0.1482012
234	0xbcdbcccb	-0.026831051
235	0xbda8f0e4	-0.08249071
236	0x3d44b04d	0.048019696
237	0xbd16da92	-0.03682954
238	0xbdd463f5	-0.10370628
239	0x3c394e4a	0.0113101695
240	0x3d7dd388	0.06196931
241	0xbe4013dd	-0.18757577
242	0x3df50a68	0.119648755
243	0x3dc3504b	0.09536799
244	0xbe258805	-0.16165169
245	0x3c9f2c17	0.019430203
246	0xb822040e	-3.8627586e-05
247	0xbdfe6a89	-0.12422664
248	0x3db692c6	0.089147136
249	0x3d2ad575	0.041707475
250	0xbe07777d	-0.13229175
251	0xbe51af00	-0.20476913
252	0x3d9db70b	0.07700928
253	0xbe0ace66	-0.13555297
254	0x3dc73c32	0.09728278
255	0xbe53e666	-0.20693359

l3.bias f4 [16]
0	0xbe00848a	-0.1255056
1	0xbcee8326	-0.02911527
2	0x3ea13f19	0.31493452
3	0x3e289e54	0.16466647
4	0x3eb04e7c	0.3443488
5	0x3ddf114c	0.10891971
6	0x3c10c4c7	0.008835978
7	0xbe182dd6	-0.14861235
8	0x3e6fca43	0.23417
9	0x3d07b152	0.03312809
10	0xbcaff193	-0.021477496
11	0xbe62dc7b	-0.22154419
12	0xbbd81743	-0.00659457
13	0x3e13dedf	0.14440487
14	0x3e05870c	0.13039798
15	0xbd58e7b6	-0.05295535

l4.weight f4 [1, 16]
0	0x3e451083	0.1924458
1	0x3b6542a0	0.0034982339
2	0xbf0f2e76	-0.5593027
3	0xbed41acf	-0.41426703
4	0xbf849a0a	-1.0359509
5	0xbf018b88	-0.5060353
6	0x3e0e9585	0.13924225
7	0x3e44bd36	0.19212803
8	0xbf6f9260	-0.93582726
9	0x3dddeff9	0.10836787
10	0xbf75e70d	-0.9605568
11	0x3e2e3b61	0.17014839
12	0xbe7d768c	-0.24752253
13	0xbedc6911	-0.4304891
14	0xbf166fba	-0.5876423
15	0x3f0bb637	0.5457491

l5.weight f4 [16, 6]
0	0xbeb5fca9	-0.35544327
1	0xbeb4e06f	-0.3532748
2	0x3c96e2c2	0.018418673
3	0xbd57f494	-0.052723482
4	0x3e85f3b0	0.2616248
5	0x3f5db675	0.8660653
6	0x3fa09b0b	1.2547315
7	0x3e60a413	0.2193759
8	0xbeb5e40b	-0.35525545
9	0x3ebc6bc1	0.3680096
10	0x3ee1f6da	0.44133645
11	0x3f93d5e0	1.1549644
12	0x3ff61753	1.9225868
13	0xbdbc5287	-0.09195428
14	0xbc3a51c8	-0.011372037
15	0xbec3fd36	-0.38279122
16	0xbd9bf4af	-0.07615029
17	0x3ed967b5	0.42461935
18	0xbeff9ce3	-0.49924383
19	0xba41756b	-0.00073798624
20	0x3e1cbd24	0.15306526
21	0xbe0a17fe	-0.13485715
22	0xbbfd6a60	-0.007733628
23	0x3f53885f	0.8262996
24	0x3e0ed9ee	0.13950321
25	0x3eadb1fa	0.33924848
26	0xbdba5145	-0.09097532
27	0x3e885ee8	0.26634908
28	0x3eb96b42	0.36214644
29	0x3f99d61d	1.2018467
30	0x3fb84547	1.4396142
31	0xbe83fa7d	-0.25777045
32	0xbeb56482	-0.35428244
33	0x3e44ab9b	0.19206087
34	0x3dc6f50e	0.09714709
35	0xbda44607	-0.08021169
36	0x3d5d7706	0.054068588
37	0xbe9b4e2b	-0.30333075
38	0xbe3ee0ab	-0.18640392
39	0xbe976853	-0.2957178
40	0xbecc6756	-0.3992259
41	0x3e848f07	0.2589037
42	0x3f98d58b	1.1940168
43	0x3e0364fe	0.12831494
44	0x3ddfb6e0	0.109235525
45	0x3eaf0bfe	0.34188837
46	0x3e019ead	0.12658186
47	0xbe26a1da	-0.16272679
48	0xbe6f14b7	-0.23347746
49	0xbdd25045	-0.102692164
50	0x3db77d55	0.08959452
51	0xbea2b251	-0.3177667
52	0xbe387c4f	-0.1801617
53	0xbec3fbf3	-0.3827816
54	0x3e65b8ff	0.22433852
55	0x3d978006	0.073974654
56	0xbe461d82	-0.19347194
57	0xbe091d6f	-0.13390134
58	0x3ec05df7	0.3757169
59	0xbf83cbfd	-1.0296627
60	0x3d71f093	0.05906732
61	0xbeb52090	-0.35376406
62	0x3ebf528a	0.3736766
63	0x3e7a78ef	0.24460195
64	0xbd72b99e	-0.05925905
65	0xbede4605	-0.43412796
66	0xbe854825	-0.26031604
67	0xbe9a6bc1	-0.30160335
68	0xbcb49397	-0.022043033
69	0xbe656fb1	-0.22405888
70	0xbdbf166e	-0.0933045
71	0xbc95791d	-0.018246228
72	0xbf83812a	-1.0273793
73	0xbc6ec83e	-0.014574109
74	0xbe0db322	-0.13837865
75	0xbe3a189d	-0.18173452
76	0x3ebd5337	0.3697755
77	0x3f5e7f78	0.8691325
78	0x3f2d494b	0.6768996
79	0xbe0d6879	-0.13809384
80	0xbd06016c	-0.0327162
81	0xbec8ae6a	-0.39195567
82	0x3e6b7f06	0.22997674
83	0xbf5248a8	-0.82142115
84	0xbd13fbdc	-0.036128864
85	0xbeb8dc5c	-0.3610562
86	0xbe97232f	-0.2951903
87	0x3d81c60c	0.063366026
88	0xbe94607a	-0.28979856
89	0x3e319dff	0.17345427
90	0x3bddd4f9	0.006769773
91	0xbeac4c9a	-0.33652192
92	0xbebb0046	-0.36523646
93	0x3ec9824a	0.39357215
94	0xbed03f1e	-0.40673155
95	0xbec35f34	-0.38158572

l5.bias f4 [16]
0	0x3eaae522	0.3337794
1	0x3ec04549	0.3755286
2	0x3ce429ca	0.027851958
3	0x3f077ed7	0.5292792
4	0x3e92d59f	0.28678605
5	0xbd54ec40	-0.051983118
6	0xbe9e8fce	-0.3096909
7	0x3e496ccc	0.19670409
8	0xbec35ace	-0.38155216
9	0x3e364f5e	0.17803714
10	0xbdb11c33	-0.08647957
11	0xbe8543ec	-0.26028383
12	0xbde1dab3	-0.11028042
13	0xbe4f5c56	-0.20250067
14	0xbeb0cdab	-0.34531912
15	0xbe8a3c06	-0.2699892

l6.weight f4 [32, 16]
0	0xbe8762ec	-0.2644266
1	0x3e05ed56	0.13078818
2	0x3dae14c8	0.085000575
3	0x3ec805a3	0.390668
4	0xbe1b9d30	-0.15196681
5	0x3e2d0f9e	0.16900489
6	0x3e27cafe	0.16386029
7	0xbd8b3ff5	-0.06799308
8	0x3dc12720	0.094312906
9	0xbf1c79db	-0.61123437
10	0xbd4797d0	-0.048728764
11	0x3ac81800	0.0015265942
12	0x3d99c917	0.07509058
13	0xbe968c5c	-0.2940396
14	0x3e0e2ba2	0.13883832
15	0x3d8ed97c	0.069750756
16	0xbddaff8d	-0.10693274
17	0xbcd751cf	-0.026284127
18	0x3f96f9e1	1.1795007
19	0xbf0bf9c8	-0.5467801
20	0x3d4dc7c7	0.05023935
21	0x3e290007	0.16503917
22	0x3e1ec2a2	0.15503934
23	0x3e0ca654	0.13735324
24	0xbe742764	-0.23843151
25	0xbe8c2c7e	-0.27377695
26	0x3e3af568	0.18257678
27	0xbe17dd62	-0.14830545
28	0x3d85d16a	0.06534083
29	0x3c217601	0.0098547945
30	0x3e05ac14	0.13053924
31	0xbbabbc80	-0.005240977
32	0xbdcd75d2	-0.10032238
33	0x3eae9853	0.3410059
34	0xbf9daae2	-1.2317774
35	0x3dcaab29	0.098959275
36	0x3e423077	0.189638
37	0xbd9a395e	-0.07530473
38	0x3e0372c4	0.12836748
39	0x3e3e4127	0.18579541
40	0x3dd5ad34	0.104334265
41	0x3d7fcfa9	0.0624539
42	0x3d07523d	0.033037413
43	0xbe3beca2	-0.18351987
44	0x3dd1e471	0.1024865
45	0x3e027036	0.12738118
46	0x3e4e1894	0.20126563
47	0x3cd3e970	0.025868148
48	0xbe1cfe88	-0.15331471
49	0xbf2238a3	-0.6336767
50	0x3fad3299	1.3531066
51	0xbea18874	-0.31549418
52	0x3ea97c52	0.3310266
53	0x3e5216a1	0.20516445
54	0x3e0bacd6	0.1364015
55	0x3d121002	0.035659797
56	0x3c1f9160	0.00973925
57	0x3e9cfaca	0.30660087
58	0x3d0a5f93	0.033782553
59	0x3d98ef04	0.074674636
60	0x3d48597b	0.04891346
61	0x3eb8e2a5	0.36110416
62	0x3cb26550	0.021776825
63	0x3de87a68	0.11351472
64	0xbc666e80	-0.014064431
65	0xbe75f414	-0.2401889
66	0xbd781778	-0.060569257
67	0xbda07914	-0.07835594
68	0x3cd4d9d0	0.025982767
69	0xbd1abc00	-0.037776947
70	0x3e1f560a	0.15560165
71	0x3e7214cc	0.23640746
72	0xbda220c8	-0.07916409
73	0xbdb8d5f8	-0.09025186
74	0xbe5dba2e	-0.21653053
75	0xbc764ee0	-0.015033454
76	0xbe76928a	-0.24079338
77	0xbdd68ac4	-0.10475686
78	0x3e3cc52e	0.18434593
79	0x3e59ea7c	0.21280855
80	0xbe6fa133	-0.23401336
81	0xbf646017	-0.8920912
82	0x3f1c2b82	0.6100389
83	0xbf0fbdb1	-0.5614882
84	0xbd6991dd	-0.05702387
85	0x3dd5c57c	0.10438058
86	0x3dec9e10	0.115535855
87	0xbd7982ec	-0.060915872
88	0x3e1997e8	0.14999354
89	0x3e02ad87	0.12761508
90	0x3e390d4b	0.18071477
91	0xbe01b236	-0.12665638
92	0xbf928272	-1.1446059
93	0x3dee5c6f	0.11638724
94	0x3db70940	0.08937311
95	0xbd8813f8	-0.06644434
96	0xbd8292e9	-0.06375677
97	0xbcd69f8b	-0.026199123
98	0x3db7ba19	0.08971042
99	0xbdfc4e36	-0.12319605
100	0xbe5c1c09	-0.2149507
101	0xbe29ed56	-0.16594443
102	0xbd9e0870	-0.07716453
103	0x3dac964a	0.08427103
104	0x3dc18650	0.09449446
105	0xbde08f96	-0.10964887
106	0x3e06e476	0.13173088
107	0x3db74a68	0.08949739
108	0xbd5dfb63	-0.05419482
109	0x3e2d2abe	0.16910836
110	0xbe2f79a8	-0.17136252
111	0xbcbb0170	-0.022827834
112	0x3e1899ca	0.14902416
113	0xbe9d7933	-0.3075653
114	0x3fd1180b	1.6335462
115	0xbe6bc6c5	-0.23025043
116	0x3e926608	0.2859347
117	0x3ebcaf60	0.3685255
118	0xbe70961c	-0.23494762
119	0x3eebb75f	0.4603834
120	0x3e7bf32c	0.24604481
121	0x3d7d732e	0.061877422
122	0xbe5828bb	-0.21109287
123	0x3c85a1b0	0.01631245
124	0x3d0a95d1	0.033834282
125	0xbe426ed2	-0.18987587
126	0x3dc90214	0.098148495
127	0x3e415dda	0.18883458
128	0xbef3aad9	-0.47591284
129	0xbee3a4b8	-0.44461608
130	0xbdec5991	-0.11540521
131	0xbea7d477	-0.32779285
132	0xbeb67160	-0.35633373
133	0x3f0b4478	0.5440135
134	0x3deabc60	0.11461711
135	0xbd9b9d2a	-0.07598336
136	0xbe572876	-0.21011528
137	0x3eb8b11a	0.36072618
138	0x3de46b6f	0.11153304
139	0xbe1756f0	-0.14779258
140	0xbe6332ed	-0.22187395
141	0x3ee96961	0.4558821
142	0x3e085c60	0.13316488
143	0xbbcc9b80	-0.006244123
144	0xbf006655	-0.50156146
145	0xbed77dd8	-0.420882
146	0x3f6f89b4	0.93569493
147	0x3d6193a2	0.055072434
148	0xbe773bf6	-0.24143967
149	0x3e8d185e	0.27557653
150	0x3e121d28	0.14268935
151	0x3e51ad20	0.20476198
152	0x3e0185dc	0.1264872
153	0x3e86c223	0.2631999
154	0x3ed1a077	0.40942737
155	0x3cb1b1b0	0.021691173
156	0xbfa6c7d4	-1.3029733
157	0x3e00f1c4	0.12592226
158	0xbde62704	-0.112379104
159	0x3d2a53b0	0.041583717
160	0x3dc5a400	0.09650421
161	0x3ea5bc78	0.32370353
162	0xbf110802	-0.56652844
163	0x3e100c97	0.14067303
164	0x3d27b9e8	0.04094878
165	0x3e92a656	0.2864253
166	0xbe606a20	-0.21915483
167	0x3e132cf6	0.1437262
168	0xbe7e04ea	-0.24806562
169	0x3e8dd9fa	0.27705365
170	0x3f7cc702	0.9874116
171	0x3e01044e	0.12599298
172	0xbea953a3	-0.33071622
173	0x3ddeb460	0.108742476
174	0x3d2359b0	0.039880455
175	0xbd57d738	-0.052695483
176	0xbe83d47b	-0.25748047
177	0xbe8a5e4d	-0.2702507
178	0x3e4b45e1	0.19850875
179	0x3dcd9460	0.10038066
180	0xbde9d09a	-0.11416741
181	0xbc909909	-0.017651098
182	0xbe1312b8	-0.1436261
183	0x3d2e881c	0.042610273
184	0x3e65e220	0.22449541
185	0xbda30beb	-0.079612575
186	0xbe4fb360	-0.2028327
187	0xbda4b708	-0.08042723
188	0xbd2984e3	-0.041386496
189	0x3e49c05b	0.19702284
190	0x3cbfbc50	0.023405224
191	0xbd068aa0	-0.032847047
192	0xbe5307bf	-0.20608424
193	0x3e87dd8d	0.26536217
194	0x3fb2a9c1	1.3958055
195	0x3f9b551e	1.2135351
196	0xbeaf7272	-0.34267002
197	0x3ec01f84	0.37524045
198	0xbd768018	-0.060180753
199	0x3dab6d72	0.083704844
200	0xbe2e2eec	-0.17010087
201	0xbf43c3ed	-0.76470834
202	0xbebc2f38	-0.36754775
203	0x3e7741a2	0.2414613
204	0xbee9cdd5	-0.4566485
205	0xbf113e84	-0.56736016
206	0xbd8b4630	-0.068004966
207	0xbe48ff6a	-0.19628683
208	0xbe66018b	-0.22461526
209	0xbf0da583	-0.55330676
210	0xbbb00a15	-0.0053722956
211	0xbf0e3886	-0.55555
212	0xbe37e0d3	-0.17956857
213	0x3ef91454	0.48648322
214	0x3e15cfec	0.14630097
215	0x3ef448b8	0.4771173
216	0xbe6954b2	-0.22786215
217	0x3ee97879	0.45599726
218	0x3e919349	0.28432682
219	0xbe648c20	-0.22319078
220	0xbef7ed9d	-0.48423472
221	0x3f0acb08	0.5421605
222	0x3e2f1b54	0.17100269
223	0x3e6a9afe	0.22910687
224	0xbeb678f5	-0.35639158
225	0xbe867bdd	-0.26266375
226	0x3fab213d	1.3369519
227	0x3f2ef31e	0.6833972
228	0x3e2c1b6b	0.16807334
229	0x3f0db87b	0.5535962
230	0xbe1300aa	-0.14355722
231	0x3e8c6894	0.27423537
232	0xbe295278	-0.16535366
233	0xbe74f5f2	-0.23921946
234	0x3f23841b	0.6387345
235	0x3d25a558	0.040440887
236	0xbf1af161	-0.60524565
237	0xbd90b77e	-0.07066248
238	0x3e7c4628	0.24636137
239	0x3e4e0476	0.20118889
240	0xbd90f1c0	-0.0707736
241	0xbe384298	-0.17994153
242	0x3decbc24	0.115593225
243	0x3cd3fe50	0.025878102
244	0xbe654478	-0.223894
245	0x3db01f2c	0.085996956
246	0xbd8268bc	-0.06367633
247	0x3d3227e0	0.04349506
248	0x3e2a2a0e	0.16617605
249	0x3e06e490	0.13173127
250	0xbde7dc88	-0.1132136
251	0x3d81c1b0	0.06335771
252	0x3e42771e	0.18990752
253	0xbde24acc	-0.110494226
254	0xbd581050	-0.05274993
255	0x3d12e0e8	0.03585902

l6.bias f4 [32]
0	0x3c70058e	0.014649762
1	0xbd309f7a	-0.04312084
2	0xbe6973c5	-0.22798069
3	0x3e863447	0.2621176
4	0xbe0246f0	-0.12722373
5	0x3e329f97	0.17443691
6	0xbe961e99	-0.2932022
7	0x3def5d32	0.116876975
8	0x3e39d404	0.18147284
9	0x3e1425b2	0.14467505
10	0x3e4f6cce	0.2025635
11	0xbe86307a	-0.2620886
12	0xbde9d6a4	-0.114178926
13	0x3b1c5d98	0.0023859497
14	0xbe08d74c	-0.13363379
15	0xbe3c169e	-0.18368003
16	0x3e26a5b4	0.16274148
17	0xbea8c50c	-0.32962835
18	0xbe39e078	-0.18152034
19	0xbc99fe0f	-0.018797902
20	0x3df12680	0.117749214
21	0xbdf88b49	-0.121359415
22	0xbe419424	-0.18904167
23	0xbe4b99af	-0.19882844
24	0x3d805b48	0.062674105
25	0x3e754cf7	0.23955141
26	0x3e8165f6	0.25273103
27	0x3e82a90c	0.25519598
28	0x3d9ae8db	0.07563945
29	0xbe8604be	-0.26175493
30	0x3b84afa9	0.0040492606
31	0x3e89e026	0.26928824

l7.weight f4 [16, 32]
0	0xbdac97b6	-0.08427374
1	0xbdeda674	-0.11604014
2	0x3d038b9a	0.032115556
3	0xbeae0e9c	-0.3399552
4	0x3dee671a	0.11640759
5	0x3de7b79f	0.1131432
6	0x3cf5fdbc	0.030028217
7	0x3e50aaf7	0.20377718
8	0xbf18535f	-0.59502214
9	0x3c312910	0.010813013
10	0x3e7b1c5b	0.24522536
11	0xbdac0e39	-0.0840115
12	0xbe76d632	-0.24105147
13	0x3ef8540a	0.48501617
14	0xbebb4a2c	-0.36580026
15	0x3e2d442e	0.1692054
16	0x3e916b11	0.28401998
17	0x3d0a2ba6	0.033733033
18	0xbe310b62	-0.17289498
19	0x3e005e42	0.12535957
20	0xbd64de8f	-0.05587631
21	0xbd6f3cab	-0.058407467
22	0x3e32b56a	0.17452016
23	0x3e6f9560	0.23396826
24	0x3e07a18d	0.1324522
25	0x3e7be632	0.24599531
26	0xbf1e9f44	-0.6196177
27	0x3e8e4243	0.2778493
28	0x3d8343e2	0.06409432
29	0x3c2234ba	0.009900266
30	0xbe942562	-0.2893477
31	0xbdf177a1	-0.117903955
32	0x3db820ac	0.08990607
33	0x3da4050a	0.080087736
34	0x3d6c063c	0.057623133
35	0x3f0346da	0.51279986
36	0x3e15538d	0.14582653
37	0x3f599fa4	0.8500922
38	0x3d086ef5	0.033308942
39	0x3ee100fa	0.43946058
40	0x3efc0f92	0.4923063
41	0x3f2366fe	0.6382903
42	0x3e63ffbd	0.22265525
43	0x3b8e9ea5	0.004352408
44	0x3f21098d	0.629052
45	0x3e84da95	0.25948015
46	0x3f20be22	0.6279012
47	0x3d6f6486	0.058445476
48	0x3f03573f	0.51305
49	0x3dd60a9a	0.10451241
50	0x3de7e428	0.11322814
51	0x3ec64044	0.38720906
52	0x3e1dd746	0.15414152
53	0x3dce3e31	0.10070456
54	0x3e11b7bd	0.14230247
55	0x3f299ac6	0.6625179
56	0x3d942bcb	0.07234915
57	0x3dd381a3	0.103274606
58	0x3f3da12b	0.7407405
59	0x3d7fe9bb	0.062478762
60	0xbc475003	-0.012165072
61	0xbd09a906	-0.03360846
62	0x3ec41876	0.38299912
63	0x3e7de70e	0.24795172
64	0xbe910e4d	-0.28331223
65	0x3ea8eadd	0.32991686
66	0x3ebdabed	0.3704523
67	0xbe8eeb94	-0.27914107
68	0x3d88f529	0.066873856
69	0xbeaec667	-0.34135744
70	0x3cf5ea13	0.030018842
71	0xbd675aaf	-0.056482967
72	0x3d84e477	0.06488889
73	0x3c871df7	0.01649378
74	0x3ea2e863	0.31817922
75	0xbd59b728	-0.053153187
76	0xbf0df94a	-0.5545851
77	0x3cb4b509	0.02205898
78	0xbeada1cc	-0.33912504
79	0xbd12c588	-0.03583291
80	0xbef22702	-0.47295386
81	0xbe8f2ebb	-0.2796534
82	0xbe0c9fd5	-0.13732846
83	0xbe5d24c5	-0.21596058
84	0x3dadee4e	0.08492719
85	0xbe49e5dc	-0.1971659
86	0xbda2c2e5	-0.079473294
87	0xbdcaff4b	-0.099119745
88	0x3db99424	0.09061459
89	0x3e487a26	0.19577846
90	0xbf4eedf9	-0.8083187
91	0x3eaf7e41	0.34276012
92	0xbe89cd2a	-0.2691434
93	0x3d964733	0.07337799
94	0xbeaa9dc3	-0.33323488
95	0x3d050d95	0.032483656
96	0x3e1a03b4	0.15040475
97	0x3e47f90e	0.195286
98	0x3d81dd74	0.06341067
99	0x3eded53f	0.4352207
100	0xbcc1720c	-0.023613952
101	0x3f638764	0.88878465
102	0x3dc64c6e	0.096825466
103	0x3eb5c25d	0.3549985
104	0x3f21a17b	0.63137025
105	0x3f270fc0	0.6525841
106	0xbdedd1e3	-0.11612298
107	0xbdefdb69	-0.11711771
108	0x3f123a3a	0.57120097
109	0x3f114fa3	0.5676214
110	0x3f6e8f05	0.9318698
111	0xbc693bbe	-0.014235435
112	0x3f2dba31	0.6786223
113	0x3e3aa942	0.18228629
114	0x3d1e9a0c	0.03872113
115	0x3eb2d594	0.34928572
116	0x3e1d9ca6	0.15391788
117	0xbda88a26	-0.08229475
118	0xbdc315c8	-0.09525639
119	0x3f2c2272	0.6724006
120	0x3d3b50b6	0.04573127
121	0x3e8f0d49	0.27939823
122	0x3f64c169	0.8935762
123	0xbde59459	-0.11209936
124	0x3e71c171	0.23608948
125	0x3d4fc80d	0.050727893
126	0x3f0e9dad	0.55709344
127	0x3eee9399	0.46596983
128	0x3d3c2a47	0.045938756
129	0xbe42b655	-0.19014867
130	0xbdfccd09	-0.12343795
131	0xbd3303bc	-0.043704733
132	0x3e1e4417	0.15455662
133	0xbc83ae58	-0.016074345
134	0x3e1491ff	0.14508818
135	0xbde16599	-0.11005706
136	0xbdc33742	-0.09532024
137	0xbde72f42	-0.112883106
138	0xbd846216	-0.06464021
139	0x3dcc2002	0.099670425
140	0xbe072a4c	-0.13199729
141	0x3db762f6	0.08954422
142	0x3e1a9204	0.15094763
143	0x3e2685b0	0.16261935
144	0xbe0c1121	-0.13678409
145	0x3b5baa19	0.0033518134
146	0x3d5b0edf	0.05348098
147	0xbe2a4258	-0.1662687
148	0xbdf711c0	-0.120639324
149	0xbdfe3876	-0.12413113
150	0x3e215d77	0.1575831
151	0x3d690db5	0.056897838
152	0xbe32fcd7	-0.17479263
153	0xbe28e182	-0.16492274
154	0xbde6c0ac	-0.11267218
155	0x3c1475c0	0.009061277
156	0x3e0de9b6	0.13858685
157	0xbd98233b	-0.07428595
158	0xbd773030	-0.06034869
159	0xbe2e98fe	-0.1705055
160	0xbd743366	-0.05961933
161	0x3dc4cafb	0.09609028
162	0xbe061909	-0.13095488
163	0x3e159f87	0.14611636
164	0x3e26a2e9	0.16273083
165	0xbb0702ac	-0.0020600958
166	0x3d11f544	0.035634294
167	0xbdd38fbd	-0.1033015
168	0x3dcaac8b	0.09896191
169	0x3df52ab3	0.11971035
170	0xbe03bb31	-0.12864377
171	0x3e23905f	0.15973042
172	0xbd8042ca	-0.06262739
173	0xbe054ef8	-0.13018405
174	0xbda3da1d	-0.08000586
175	0x3d88bd44	0.066767246
176	0x3c8ab183	0.016930347
177	0xbd915970	-0.07097137
178	0xbcec74ac	-0.028864227
179	0xbe0b2628	-0.13588774
180	0xbe11b740	-0.1423006
181	0x3e0e5ba0	0.1390214
182	0x3d718bef	0.05897134
183	0xbdfa3782	-0.122176185
184	0x3dc6c8df	0.09706282
185	0x3e245a9d	0.16050191
186	0x3d0238f8	0.03179261
187	0xbe07c5b2	-0.13259009
188	0x3e0fc565	0.14040144
189	0x3df3b610	0.1189996
190	0x3dd4eef3	0.103971384
191	0x3dcda69b	0.10041543
192	0x3df27c7c	0.1184015
193	0xbdf623de	-0.1201856
194	0xbd99c79c	-0.075087756
195	0x3c9266bc	0.017871253
196	0xbdbe2565	-0.09284476
197	0x3df05fa0	0.11736989
198	0x3de8aa0e	0.1136056
199	0xbda217e0	-0.0791471
200	0xbe0a7d69	-0.13524403
201	0xbe23aeaf	-0.15984605
202	0x3b92d82a	0.004481335
203	0xbe2f937e	-0.17146108
204	0xbdb529a7	-0.08845835
205	0xbde1d151	-0.11026252
206	0xbc2f45ba	-0.010697776
207	0xbd513921	-0.051079873
208	0x3dbceea2	0.09225203
209	0x3d8a7337	0.06760257
210	0x3c79903f	0.015232145
211	0x3de3cd5c	0.111231536
212	0xbd1f4b06	-0.038889907
213	0x3d952252	0.07281937
214	0x3d82d014	0.06387344
215	0x3c8c8092	0.01715115
216	0xbd2614c3	-0.040547144
217	0xbdb958a0	-0.09050107
218	0x3d9f851b	0.0778906
219	0xbe47891f	-0.19485901
220	0xbe2a9c57	-0.16661201
221	0x3dd26b9b	0.1027443
222	0x3ccc0c2f	0.024908153
223	0xbe26bf89	-0.16284002
224	0xbd32cedb	-0.043654304
225	0xbe493879	-0.19650449
226	0xbdf75e0e	-0.120784864
227	0xbd58969b	-0.052878004
228	0xbc48d2fe	-0.012257336
229	0x3e15361d	0.14571424
230	0xbe049f5a	-0.12951413
231	0xbd6cffbe	-0.057861082
232	0xbc68cac8	-0.014208503
233	0x3e146844	0.14492899
234	0x3a8c88b0	0.0010721888
235	0xbe012e97	-0.12615429
236	0x3d35121d	0.044206727
237	0xbde8322b	-0.11337694
238	0xbdb21f2f	-0.08697354
239	0xbc05f735	-0.0081766145
240	0xba7cefdc	-0.0009648779
241	0x3d46b00e	0.048507743
242	0x3dad7c4e	0.08470975
243	0xbe407053	-0.18792848
244	0xbe131503	-0.14363484
245	0xbd240986	-0.040048145
246	0x3cfe3731	0.031032177
247	0x3cab9eb2	0.020949695
248	0xbe0a6608	-0.13515484
249	0x3dee0711	0.116224416
250	0xbced3c6e	-0.02895948
251	0x3d01122d	0.031511474
252	0xbbb751a6	-0.00559445
253	0xbe29d55b	-0.16585295
254	0xbd6c2a00	-0.05765724
255	0x3d203486	0.03911259

l7.bias f4 [16]
0	0x3d77f988	0.060540706
1	0x3d56b4e1	0.052418593
2	0x3d108c6a	0.03529016
3	0x3e790124	0.24316841
4	0x3ce8af48	0.028403893
5	0xbe082419	-0.1329502
6	0xbdc8477e	-0.09779261
7	0xbe1ab94b	-0.15109746
8	0xbdf48d36	-0.11940996
9	0xbe5c1ca9	-0.21495308
10	0x3e2e5050	0.17022824
11	0x3ccf1aa5	0.02528126
12	0x3c939b93	0.01801852
13	0xbd06be9d	-0.032896627
14	0x3e429d8a	0.19005409
15	0x3dd3dc25	0.103447236

l8.weight f4 [1, 16]
0	0x3edc7401	0.43057254
1	0xbf019147	-0.506123
2	0x3f620150	0.8828325
3	0xbf344188	-0.7041249
4	0x3dd19690	0.10233796
5	0x3d1da350	0.038485825
6	0x3d942067	0.07232743
7	0x3e2a1b23	0.16611914
8	0x3d8327d4	0.06404081
9	0x3f8f0b50	1.1175327
10	0xbedd3703	-0.43206033
11	0xbf8450b9	-1.0337135
12	0x3de090c5	0.109651126
13	0x3e78e922	0.24307683
14	0xbf064bc1	-0.5245934
15	0x3dd839ce	0.105579
