project/checkpoints/checkpoints_linearfirstorder/98_critic.pt (torch, 15054 bytes, 14 tensors)

l1.weight f4 [16, 6]
00000000: 4da4 97bf bdf0 c03e 75ff adbd e414 9e3d
00000010: 4a78 b83e ab42 3e3f 6310 843e d70c 62bd
00000020: 3d16 61be 75dd 423e 2ae3 b2be d122 54bf
00000030: d097 c53f 1b18 2b3e 6a83 113b 1b41 c83e
00000040: 7af6 913e 5041 c03e 4bca 07bc 09e6 96be
00000050: 981e 9c3d a2f8 58be 90b8 373e 7c99 a2bf
00000060: aa9d 893f 10cf 2cbd a338 41bd 9412 3f3d
00000070: 76ae 70be eaa4 e9be f45c 7bbe 0498 89be
00000080: aee4 66be 0a1d aabe 4499 6cbe e24b 42bf
00000090: 664a 7bbf 10d5 7d3e 8e35 fb3e 429c 123e
000000a0: 5ce7 a6bd 05b8 403f ff27 d83f c1dc 863e
000000b0: 9f31 00bc d0d8 8f3c 91fe b33e 8f30 1e3f
000000c0: adda 9cbf 54a8 033e 75d3 a53e 6e01 a83e
000000d0: 1fd7 b9be f8e4 7fbf 68cd e5be d52e 01be
000000e0: 2c6f 87bc a6cc 443e e805 ad3e 79db c8bf
000000f0: b7e5 a53f 4a28 ad3d 72e0 f93c 0420 d0be
00000100: 2ce8 3e3e 4ab3 82bf e949 1e3c 2a72 c6bd
00000110: 5339 a7bd 728d 84bd 0919 30be ffcc 6cbd
00000120: 9bb2 a43f c1cd d33d b68e aabe 78bf cd3e
00000130: 72f6 cc3d 68ce 0c3f 09c9 c53f 2617 be3d
00000140: 5707 933e 80ac c63e c7da 823e c703 b13f
00000150: b6bf 8f3e 1cc9 813d a160 033e 752b b5bc
00000160: 357c 72be 2143 833e 9f5c c0be 28bb c73e
00000170: 304b 30be 673a 773e 5610 97be 813d d73d
-1.1847016 0.3768367 -0.0849599 0.07718828 0.36029273 0.7432048 0.25793752 -0.055188026
-0.2198114 0.19029792 -0.34938937 -0.82865626 1.5436954 0.16708414 0.0022203573 0.39112172
0.2850836 0.3754983 -0.0082879765 -0.29472378 0.07623023 -0.21188596 0.17941499 -1.270309
1.075124 -0.042189658 -0.047173154 0.046648577 -0.23504052 -0.45633632 -0.24547178 -0.2687379
-0.22548172 -0.3322528 -0.23105341 -0.7589704 -0.981604 0.24788308 0.49064296 0.1431742
-0.08149597 0.7528079 1.6887206 0.26340297 -0.007824331 0.017559439 0.35155156 0.61792845
-1.2254235 0.12857181 0.3238789 0.3281359 -0.36296937 -0.99958754 -0.44883275 -0.12615521
-0.016532503 0.19218692 0.3379357 -1.5691978 1.2960728 0.0845495 0.030502532 -0.40649426
0.18643254 -1.0210965 0.009661176 -0.09689744 -0.081652306 -0.06472291 -0.1719705 -0.057812687
1.2867006 0.10341979 -0.33312005 0.40185142 0.10007943 0.5500245 1.5451976 0.09281759
0.28716537 0.38803482 0.2555754 1.3829278 0.2807595 0.06337187 0.1282983 -0.022115448
-0.23680194 0.25637153 -0.37570664 0.39009976 -0.17216182 0.24143372 -0.2950465 0.10509778

l1.bias f4 [16]
00000000: c189 2f3e 0ac4 cf3d cc51 8e3e 649f 643e
00000010: 0105 603e 3b15 eb3d 5381 013d e8dc 8c3e
00000020: 1c65 d5bd 2f37 3cbe 322d 34be d78a 333e
00000030: 345b 7dbc cc48 f53d c2fa 5e3d 6234 9dbe
0.17142393 0.10144813 0.2779678 0.22326428 0.21876909 0.11478659 0.031617474 0.27512288
-0.10419676 -0.18380426 -0.17595366 0.17533432 -0.015463639 0.119767755 0.05443836 -0.30704027

l2.weight f4 [32, 16]
00000000: df04 303e c299 dcbe e1cc 6cbd ad61 ac3e
00000010: bb0d 9d3c ebe6 6abe 1de1 e0be 5a30 943d
00000020: ac16 3abf d665 833e 1a61 203e bc10 c43d
00000030: 1606 dcbe 227f 44be f071 02bd b076 523d
00000040: 93c2 e83d 1b15 603e 8777 79be 4cc1 ffbf
00000050: 1e92 b23e cc58 843e dbb1 5c3e 7a61 3b3e
00000060: 696f 18bd cee6 03c0 1197 74bf 2a6f 403e
00000070: c310 ff3a e9b4 3b3e c068 9c3b e026 1cbe
00000080: 438b d63e a634 7c3e ced7 933e ab25 d4bd
00000090: 2f70 0e3d bfce 323b 74d2 b13e 0a91 b63e
000000a0: 746a 96be 8574 ddbc de38 49be e02c 40bc
000000b0: b2c5 173e af1f a83e 524f 073e 8890 aebd
000000c0: ed6a a8be 5f99 003e 7959 81bd 803f 20be
000000d0: 56ea e4bd da16 5f3e 53fe 9b3d 6559 323e
000000e0: c836 bf3c 160b 23be 046c 5b3e 9adc 6cbe
000000f0: a1da ebbd dbb1 96be a421 a8bd 5269 44be
00000100: 27c1 3bbe 3e7e 123e 525a 86be e70f d2bd
00000110: d422 953d 3dc1 953d b4eb 2ebe 0ba8 18bd
00000120: 4aa0 183e bedb 7c3d 2bff 99be 4897 4cbe
00000130: d8ed d5bd c7d1 193e 0ce4 213e 1094 3c3e
00000140: 1191 663d 7438 8d3e 9f8b 8e3e acba 1ebf
00000150: 89d1 9f3d 88c2 cabd 9220 0bbe 6bdf ab3e
00000160: f101 4cbe 5fbc 4abf a2c2 cbbe 7654 173e
00000170: 35b4 b63e f9d4 133f d019 4abe ec5e efbd
00000180: aad9 37be b62d 563e 60b8 51be fe94 613e
00000190: a042 e2bd 5857 d73d b470 b6bd bc3c 5dbe
000001a0: 5c45 90bd 6870 b4bd 746d d33d 68a5 1d3e
000001b0: 785b 883d 4cbc cdbd e05c 67be 5afb 79be
000001c0: 8b32 e7bf d9b3 c43e 818c cd3e 07ab 04bd
000001d0: 9acf d53e 7e6f 603e 9d67 24c0 9dd0 053f
000001e0: b5a7 8abf ebfc f2bc 5028 933e b00e a5bd
000001f0: 70d3 123f d7e2 e43e 30bb 3f3e 3819 23bd
00000200: 3718 bfbd 0083 78bb 42f3 eb3d ae24 1fbe
00000210: e243 73be e4ad b2bd 0be9 9bbd 9e10 53be
00000220: 023a 473e 1c09 043d ab8a 86be 7868 153d
00000230: 9ad0 44be fbd9 313e e06a cf3c 1abe 68be
00000240: cd06 09be 2064 623d c8a3 12be f814 a93d
00000250: 0ccd 87be 54cd eabd 40b3 e0bd 3578 433e
00000260: 84a5 013e 3d94 24be 6419 84be 0a61 183e
00000270: a6cb e13d 8f45 48bd b887 92bd fed1 2ebe
00000280: 9d37 563e 6952 0a3e c792 4dbe afae 02bd
00000290: 7f88 403e 3f84 58bb e954 03be 2c1c 11be
000002a0: b1a5 dfbe 5c9a 88bc bddc 28be 0406 223e
000002b0: 44a1 5fbf 1617 0f3e 8ec9 093e 30dd 08bd
000002c0: c57c e6bd 6de2 e73e a15a 043e 5216 ee3c
000002d0: a101 15be 9c36 5e3d 932f 883e 14a6 443d
000002e0: c4c4 60be d7f6 b1be b81f 8b3e d2ef 0f3e
000002f0: 069e 613e 8961 af3d ec41 4c3e d420 033e
00000300: 989a 213e a9e0 e43e dc3b ac3e 1d7a 3e3e
00000310: 092d 523e aa33 3abd dcd2 953e 70d0 f93e
00000320: 7a63 aebd 1a1c 343e 436b bd3d 30eb adbc
00000330: fd62 d4be 6df2 9f3e f40b 3dbe 2ed7 7abe
00000340: 15a9 4abe def3 cbbd 08f2 57be 3b09 a3bd
00000350: 31b9 f0bb 3aea 81be 05ec 9b3d 84cd 8bbe
00000360: 616c 2d3e 5496 033d d4be a2be c813 113d
00000370: 727e 79be 881f 263d 4033 133c b480 a53d
00000380: fcbf ca3e a056 28bc e97b 043f 7b87 febc
00000390: 28bb b0be b398 5abe 9db9 0bbf ed6b 2b3e
000003a0: 7501 51bf b8f6 1ebd 9afc 863e a2ec 703e
000003b0: 36a3 b23d 10e9 af3e f840 4fbe 5027 5fbe
000003c0: 978e dcbe 9bd2 473d 85e2 72be 0692 39ba
000003d0: 3e95 58bd d261 383e 9673 113e 7b6b aabe
000003e0: bb0e acbd 2bc6 e03d 320d 023d 38f9 b33d
000003f0: 6e59 1abe b7f6 65be b88c 28bd 76aa 3cbe
0.17189358 -0.43086058 -0.057812575 0.3366827 0.019171586 -0.2293965 -0.43921748 0.07235785
-0.72690845 0.25663632 0.15662041 0.09573504 -0.42973393 -0.19189122 -0.03184694 0.05138272
0.11365237 0.21883051 -0.24362002 -1.9980865 0.34877104 0.25848997 0.21552221 0.18298903
-0.037215624 -2.0609622 -0.9554301 0.18792406 0.0019459951 0.1833073 0.0047732294 -0.15249205
0.41903123 0.24629459 0.28875583 -0.10358747 0.034774955 0.0027283875 0.34730875 0.3565753
-0.29378092 -0.0270331 -0.196506 -0.011729449 0.14821509 0.32836673 0.13213852 -0.08523661
-0.32894078 0.12558506 -0.06315894 -0.15649223 -0.111775085 0.21786061 0.07616868 0.17416914
0.023341551 -0.15922198 0.21427923 -0.23131028 -0.115163095 -0.29432568 -0.082095414 -0.19180802
-0.183354 0.1430597 -0.26240784 -0.102569394 0.072820336 0.07312248 -0.17082101 -0.037269633
0.14904895 0.061733 -0.3007749 -0.19979584 -0.10445756 0.1502143 0.15809649 0.18415856
0.05629069 0.27582133 0.27840897 -0.6200359 0.078036375 -0.09900385 -0.13586643 0.33568892
-0.19922616 -0.7919368 -0.3979693 0.14778313 0.35684362 0.57746845 -0.19736409 -0.11688027
-0.17954126 0.20915875 -0.2048049 0.22029492 -0.11047864 0.105147064 -0.08908215 -0.216052
-0.07044479 -0.08810502 0.10323611 0.15395129 0.06658071 -0.100456804 -0.22594023 -0.2441229
-1.80623 0.38418463 0.40146258 -0.032389667 0.4175995 0.21917531 -2.568824 0.52271444
-1.083243 -0.029661616 0.28741693 -0.08059442 0.5735388 0.44704315 0.1872375 -0.039818972
-0.093307905 -0.003791988 0.11521007 -0.15541336 -0.23756364 -0.08724573 -0.07612809 -0.20611808
0.19455722 0.03223525 -0.2627767 0.036476582 -0.192202 0.17368309 0.025319517 -0.22728768
-0.133815 0.055271268 -0.1432029 0.082559526 -0.26523626 -0.114649445 -0.10971689 0.19088824
0.12660795 -0.16072173 -0.25800622 0.14880767 0.11025171 -0.04889446 -0.071547925 -0.17072293
0.20919652 0.13508 -0.20075522 -0.031904873 0.18802069 -0.003303781 -0.1282536 -0.14170903
-0.436811 -0.016675167 -0.16490455 0.15822607 -0.87355447 0.1397365 0.13455793 -0.033414066
-0.11254267 0.45289937 0.12925197 0.029063378 -0.14551403 0.0542513 0.26598796 0.048009947
-0.2195006 -0.34758636 0.27172637 0.14056328 0.22032937 0.08563525 0.19947022 0.12805492
0.15781629 0.44702652 0.3363942 0.1860127 0.20524992 -0.045459427 0.29262435 0.48791838
-0.085150674 0.17588845 0.09248974 -0.02123031 -0.41481772 0.31239644 -0.18461591 -0.24496147
-0.19791062 -0.09958623 -0.21088421 -0.07960745 -0.0073462953 -0.25374013 0.076133765 -0.27305233
0.16935875 0.032125786 -0.31786215 0.035419255 -0.24364641 0.040557414 0.008984387 0.08081189
0.39599597 -0.010274559 0.5175157 -0.031070461 -0.3451779 -0.21347313 -0.545801 0.16740389
-0.8164285 -0.038809508 0.26364595 0.23527768 0.08722536 0.343575 -0.20239627 -0.2179234
-0.43077537 0.048784833 -0.23719223 -0.0007078949 -0.052876703 0.18006065 0.14204249 -0.33285126
-0.08401247 0.109752975 0.031750865 0.08787769 -0.15073177 -0.22457395 -0.041149825 -0.184244

l2.bias f4 [32]
00000000: cafa 133e 53c3 ebbe 4f06 173e af20 26be
00000010: 58bb dbbd 2539 20be 6011 7abe 2e85 623e
00000020: e3dd 59be d940 07be bbf2 0ebe 8b17 b7bd
00000030: 6892 8c3d 1308 e6bd 548d afbc 2c3f 57be
00000040: d7a3 ac3d 2e9d 9cbd 7b93 a8bc 4b7f 253d
00000050: 8d0b 42be 94bd 96bc da4a 6ebe 77f4 36be
00000060: e432 d8bc 2fd6 183e 0882 98bc 7fde 5dbe
00000070: b974 4cbc 55cf 8abe 51c7 823e 2f7b f5bd
0.14451137 -0.46047458 0.147485 -0.16223405 -0.10729092 -0.15646799 -0.2442069 0.22121117
-0.2127605 -0.13208331 -0.13959782 -0.08940037 0.06863862 -0.11232009 -0.021429695 -0.21020192
0.084296875 -0.07647167 -0.020578137 0.0404046 -0.18949719 -0.018400945 -0.23270741 -0.17866693
-0.026391454 0.14925455 -0.018616691 -0.21666907 -0.012479001 -0.27111307 0.2554269 -0.11986386

l3.weight f4 [16, 32]
00000000: a33e 913c 3577 a1bc 80f2 933c 964f d9bd
00000010: eb83 b1bd a3b8 2c3b 5b88 c53d 4051 f33b
00000020: 254b 8c3d 8ce7 163e 8cec d53d e027 1abe
00000030: 1021 e2bd 3a1e de3c 8d71 943d fa6b 973d
00000040: d3c4 bc3c f6fe e43d 270c e1bd 16c6 833d
00000050: 21aa 2b3e cd4b 77bd c28d b03d 6c56 103e
00000060: 187a 32be bdd5 d4bd 7cfa 0bbe c326 283e
00000070: 75ff 2abe 8e7d 0abe 6e0c c2bc 71b0 c8bd
00000080: f3d1 803d 9db7 94bd 8ccd 51be c9df 00be
00000090: f6e2 d23d 1046 82bd 0a0e 2abe be10 82bd
000000a0: 1928 31be 086b dcbd 1a92 6dbd 1259 0abd
000000b0: 5e70 7a3c 8041 cd3c 95d1 b4bd 7edf 13bc
000000c0: cee0 95bd c073 323c e34d d2bd 473f c5bd
000000d0: db62 04be 5627 30bd ad5b 1e3e 164c e0bd
000000e0: 33a8 683d 5a93 e2bd c717 5bbe c251 763d
000000f0: 93bd 7b3b 061e f5bd 7123 113d 54c9 ebbd
00000100: 0c28 ec3e 62c1 413f 368f 653e d7c0 ec3c
00000110: 0b82 f93c bd88 233f dbf3 c93d ffc4 803f
00000120: 5a33 f33d ca86 0ebd 80fe 3a3e b2d2 213d
00000130: c97d a03e 160e beb9 8e12 23bd 2b6d 733d
00000140: 257a 013e 4709 9a3e 933c 373e 9ee3 d6bd
00000150: 8156 42bd 237e b1bd 972a 48bd f38d bd3d
00000160: edd6 a83d 6e45 063f 8d38 c83c a8ec b83d
00000170: c805 343e 63b7 24bf d50e 07bf bd91 863f
00000180: 7f5b e03e e88d 2a3f 7bd3 6e3e 9afc cabd
00000190: 66dc 81bd 072d 703f 9130 033d aff4 573f
000001a0: 380c 1f3e ec75 343d c1bf cf3d 2a3d 703e
000001b0: c41c f53d 74a0 c1bd 81a8 c7bd 25bc 363e
000001c0: a201 9abd 5a72 193e f95c 4e3e 7486 c2bc
000001d0: 34fb 7dbd 9fa8 b4bd 9a05 f23d 19ec 353e
000001e0: 2132 c4bd a534 113f ced2 1dbb 6f28 983e
000001f0: a734 503c 70c2 ecbe 66f9 01bf 2bc3 b33f
00000200: a05b d03e c7fa 09bf 4df9 563e de72 9abd
00000210: 5b5f 40be 6043 263e 3d19 20be 48f4 823f
00000220: 738b 293e 9aa8 13bd f0be 613b 75c4 fc3d
00000230: 8e88 d63e b278 503e 39dc 7cbf 8255 173e
00000240: 2bcc 353d 4d4a 513e ca5a 463e a88a 9e3d
00000250: 49b5 d2bb 5b68 eb3d 0164 febc 17ee 553d
00000260: 3230 0fbd d481 573c c7b4 26be e4f6 85bb
00000270: af70 a4bb 901a e7be dec0 93bf 3208 343f
00000280: 8505 e13e 2aef 483f d48f 953e 9ea2 e33c
00000290: 2549 f5bc 9fc8 5d3f 7ee8 b1bd b1e8 6c3f
000002a0: 8e6e 92bc 35e9 183d 3309 b3be f5fd ef3d
000002b0: 5ba5 0e3e 1466 a5bd 5b7f 1ebe 0a64 6f3e
000002c0: d0a3 6b3d 2a85 753d 350d 103f 5e00 2d3d
000002d0: e971 3d3e 0705 763d 0f41 b63d b0b9 733e
000002e0: e8f2 203d c3d5 283f 3d23 69be 5017 f63d
000002f0: 3c06 f6bd 46bd 12bf 0980 1bbf a85e a13f
00000300: 13be fbbd 6b6f 33be f1e0 c3bd 0661 1b3e
00000310: f235 7e3d 81de c2bd b3f0 8c3c 2deb feb9
00000320: 3b56 813d 21fb fbbd b926 41be 1325 36be
00000330: 90e1 913b e991 3abd cb0c 013d fb0f dc3d
00000340: 2695 2cbe 6da0 08be 1b65 6f3d 6f97 993d
00000350: 2055 febd a1ea 9bbc 62fa 823c b68b 133e
00000360: 94b4 d4bc f6ab 2bbe d3f9 35be bf90 1fbd
00000370: ff3c c0bc 4df9 1f3d b67e b1bd bd4a 0abd
00000380: e9e6 eabd d0cb 223d d6d3 f0bc daa6 9c3a
00000390: 39ca 0abe c166 ebbd 34ee a53b 68e6 a63d
000003a0: 8f62 33be 0ec2 173e 4dda 0cbd 601b ccbd
000003b0: 0a9f 483b 92da 16bd 5809 1bbe 4a4e 393c
000003c0: 88d3 7d3d 0f23 60be 9b74 e93d 4b50 c33d
000003d0: 0588 25be 172c 9f3c 0e04 22b8 896a febd
000003e0: c692 b63d 685a 9e3c ebda 34be 00af 51be
000003f0: 0bb7 9d3d 66ce 0abe 8689 543d 5761 74be
0.017730063 -0.019710163 0.018059969 -0.10610883 -0.086677395 0.002635517 0.09645148 0.0074254572
0.0685027 0.14736766 0.10445508 -0.15054274 -0.110414624 0.027114023 0.072482206 0.07393642
0.023043072 0.111814424 -0.10988646 0.06434266 0.16764118 -0.060375024 0.08620788 0.14095467
-0.17429388 -0.1039233 -0.13669771 0.16421036 -0.16699012 -0.13524458 -0.023687568 -0.097992785
0.06290045 -0.07261584 -0.20488566 -0.12585367 0.102971956 -0.063610196 -0.16606918 -0.063508496
-0.17300452 -0.10762602 -0.05800066 -0.03377635 0.0152855795 0.025055647 -0.08829037 -0.009025453
-0.07318269 0.010891855 -0.10268762 -0.0963121 -0.12928335 -0.043006264 0.15464659 -0.10952012
0.056801032 -0.11063261 -0.21395789 0.060136564 0.0038412556 -0.11968617 0.03543419 -0.1151301
0.46124303 0.75685704 0.22417912 0.028900547 0.030457517 0.6388052 0.09860965 1.0060118
0.11875029 -0.034796514 0.18261147 0.039507575 0.31345966 -0.0003625012 -0.039812617 0.059430283
0.1264425 0.30085203 0.17894201 -0.10492633 -0.047445778 -0.08666637 -0.04886874 0.0925559
0.08244119 0.5244969 0.024441028 0.090295136 0.1758033 -0.64342326 -0.52757007 1.0513226
0.43819806 0.6662278 0.23322861 -0.09911461 -0.06340866 0.93818706 0.03202874 0.8435773
0.15532005 0.04405777 0.10143996 0.23460832 0.11968377 -0.09454432 -0.097489364 0.17845209
-0.07519843 0.14985028 0.20152654 -0.023745753 -0.062007144 -0.088212244 0.11817475 0.17765845
-0.09579874 0.56720954 -0.0024081948 0.29718348 0.012707866 -0.46242094 -0.50771177 1.4043936
0.40694904 -0.5389828 0.20993538 -0.075414404 -0.18786375 0.16236639 -0.15634628 1.0230799
0.16557102 -0.036049463 0.0034446083 0.12342159 0.41901058 0.20358542 -0.98773533 0.14778712
0.044384163 0.204385 0.19370571 0.0774129 -0.0064303023 0.114945136 -0.031053545 0.052229013
-0.034958072 0.013153512 -0.16279899 -0.0040882695 -0.0050183157 -0.45137453 -1.1543233 0.70325005
0.43949524 0.78489935 0.29211295 0.027787503 -0.029942105 0.8663425 -0.086869225 0.9254256
-0.017874982 0.03733178 -0.34967956 0.1171836 0.13930266 -0.080761105 -0.1547827 0.23378006
0.05752927 0.05994145 0.5627015 0.04223668 0.18500485 0.06006339 0.08899128 0.23801303
0.039294153 0.65951174 -0.22767349 0.12016165 -0.12012908 -0.5732006 -0.6074224 1.2607012
-0.12292113 -0.17522971 -0.095643885 0.1517373 0.062063165 -0.095150955 0.017204618 -0.00048621875
0.06315275 -0.123037584 -0.18862428 -0.1778758 0.004451938 -0.045549307 0.03150634 0.107452355
-0.1685377 -0.13342448 0.05844603 0.07499587 -0.1241858 -0.019032778 0.015988532 0.14408764
-0.025965013 -0.16764817 -0.17771082 -0.0389564 -0.023466585 0.03905611 -0.08666746 -0.033762682
-0.11469824 0.039745152 -0.029397886 0.0011951581 -0.13553704 -0.11494208 0.0050637964 0.08149415
-0.17518066 0.1482012 -0.034387875 -0.09966159 0.0030612373 -0.03682954 -0.15140283 0.0113101695
0.06196931 -0.21888374 0.11399194 0.09536799 -0.16165169 0.019430203 -3.8627586e-05 -0.12422664
0.089147136 0.019330218 -0.17661636 -0.20476913 0.07700928 -0.13555297 0.051888965 -0.23865257

l3.bias f4 [16]
00000000: 8a84 00be 2683 eebc 2e90 d43e 6f1c 893e
00000010: 6066 013f 465e 6b3e c7c4 103c 9b64 45be
00000020: cde6 c43e 52b1 073d bd2d d0bc 7bdc 62be
00000030: 4317 d8bb 5d6f 7e3e 5b53 253e 3331 18be
-0.1255056 -0.02911527 0.4151625 0.26779506 0.50546837 0.22985181 0.008835978 -0.19276659
0.38457337 0.03312809 -0.025412435 -0.22154419 -0.00659457 0.24847169 0.16145079 -0.14862518

l4.weight f4 [1, 16]
00000000: 8310 453e a042 653b f100 f5be 6f6d abbe
00000010: 6b97 83bf fcf1 eabe 8595 0e3e ced5 203e
00000020: dd75 4ebf f9ef dd3d 876e 64bf 613b 2e3e
00000030: 8c76 7dbe 1e3e 65be 09e1 04bf c285 b93e
0.1924458 0.0034982339 -0.4785228 -0.3348193 -1.0280584 -0.45887744 0.13924225 0.1570656
-0.80648595 0.10836787 -0.8923115 0.17014839 -0.24752253 -0.22386977 -0.51905876 0.36234862

l5.weight f4 [16, 6]
00000000: 8695 1f3d 6fe0 b4be ccb7 2b3c 94f4 57bd
00000010: e31f 043e 4b6c 923f 2dc3 c83f 13a4 603e
00000020: 644f a9be c16b bc3e b932 ee3e ca9f 943f
00000030: ceed 0240 8752 bcbd 35d4 8fbb 36fd c3be
00000040: 99c1 a5bd 7359 b03e a9c0 eabe 6b75 41ba
00000050: efa6 983d fe17 0abe f927 86bd dbd1 943f
00000060: 6065 b23e fab1 ad3e f989 20be e85e 883e
00000070: 7ffd a73e 2ba5 b03f 228a d73f 7dfa 83be
00000080: 325d b8be 9bab 443e 50cb cf3d 04cf cebc
00000090: 0677 5d3d 2b4e 9bbe abe0 3ebe 5368 97be
000000a0: 5667 ccbe 078f 843e d025 b83f fe64 033e
000000b0: 48f0 d83d fe0b af3e 905c 163e 41a9 86bc
000000c0: b714 6fbe 4550 d2bd 557d b73d 51b2 a2be
000000d0: 4f7c 38be f3fb c3be 134a ba3e 0680 973d
000000e0: 5b03 8cbe 6f1d 09be 5cbd 9d3e c6e0 8cbf
000000f0: 6711 b6bd 9020 b5be fe24 be3e ef78 7a3e
00000100: fff9 3bbe 9c4f 15bf 2548 85be c16b 9abe
00000110: 9793 b4bc b16f 65be 6e16 bfbd 1d79 95bc
00000120: 4cec 8cbf 3ec8 6ebc 489c 19be 9d18 3abe
00000130: 9ed2 953e 687e 5c3f 0284 4f3f 7968 0dbe
00000140: 9b9f 32bd 6aae c8be 9694 553e bb6f 49bf
00000150: dcfb 13bd 5cdc b8be 2f23 97be 0cc6 813d
00000160: 7a60 94be ff9d 313e f9d4 dd3b 9a4c acbe
00000170: 4600 bbbe 4a82 c93e 1e3f d0be 345f c3be
0.038960956 -0.3532748 0.010480832 -0.052723482 0.12902789 1.1439298 1.5684563 0.2193759
-0.33068383 0.3680096 0.46523073 1.1611264 2.0457644 -0.09195428 -0.0043893107 -0.38279122
-0.080935664 0.34443244 -0.45850113 -0.00073798624 0.07453715 -0.13485715 -0.06550593 1.1626543
0.34842968 0.33924848 -0.15677632 0.26634908 0.3281059 1.3800405 1.683903 -0.25777045
-0.36008602 0.19206087 0.10146201 -0.025245197 0.054068588 -0.30333075 -0.18640392 -0.2957178
-0.3992259 0.2589037 1.438654 0.12831494 0.10592705 0.34188837 0.14683747 -0.016438128
-0.23347746 -0.102692164 0.08959452 -0.3177667 -0.1801617 -0.3827816 0.3638464 0.073974654
-0.2734631 -0.13390134 0.30808532 -1.1006095 -0.08890038 -0.35376406 0.37137598 0.24460195
-0.18357085 -0.583246 -0.26031604 -0.30160335 -0.022043033 -0.22405888 -0.0933045 -0.018246228
-1.1009612 -0.014574109 -0.15001023 -0.18173452 0.2926225 0.8613038 0.810608 -0.13809384
-0.043609243 -0.39195567 0.20857462 -0.7868611 -0.036128864 -0.3610562 -0.2951903 0.063366026
-0.28979856 0.17345427 0.006769773 -0.33652192 -0.36523646 0.39357215 -0.40673155 -0.38158572

l5.bias f4 [16]
00000000: 5502 4e3e 2d81 cc3e 5bf5 bc3c e669 f13e
00000010: d367 813e b33f 43bd ce8f 9ebe cf2a 5e3e
00000020: ce5a c3be 3b1b e23d d4d9 57be ec43 85be
00000030: 92ed 3fbe c346 65be abcd b0be 063c 8abe
0.20118077 0.39942303 0.023066213 0.47151107 0.25274524 -0.04766817 -0.3096909 0.21696018
-0.38155216 0.1104035 -0.21079189 -0.26028383 -0.1874297 -0.22390275 -0.34531912 -0.2699892

l6.weight f4 [32, 16]
00000000: 6ca6 97be 8ccc ca3d d715 5a3d 28c2 b73e
00000010: 4424 3cbe 9e0f 2d3e feca 273e 884d ccbd
00000020: 2027 c13d 249b 24bf d097 47bd 0018 c83a
00000030: 4576 313d 5c8c 96be a22b 0e3e 7cd9 8e3d
00000040: e231 07be f560 47bc 206c ae3f d379 a63e
00000050: 17cb 0d3c e7f4 5d3e a2c2 1e3e ccf8 e73d
00000060: 6427 74be fe30 cdbe cfae e83e 62dd 17be
00000070: 2d28 1e3b c6bd b0bd 14ac 053e 80bc abbb
00000080: 6fa9 3ebe c1ae 8c3e 3e5c 8ebf 4ede b23c
00000090: fea9 503e 0909 1fbe c472 033e 3f22 723e
000000a0: 34ad d53d 2eeb 043c b581 a1bd a2ec 3bbe
000000b0: 349b 6e3d b59b 003e 9418 4e3e 70e9 d33c
000000c0: c499 12be d409 47bf eee3 b83f 1389 5ebd
000000d0: 2eea 9a3e 3b89 b63d d6ac 0b3e 6fa0 a8bd
000000e0: 6091 1f3c 5762 da3e dcd6 af3d 04ef 983d
000000f0: 4d20 5f3e 9974 ca3e 5065 b23c 687a e83d
00000100: 806e 66bc 14f4 75be 7817 78bd 1479 a0bd
00000110: d0d9 d43c 00bc 1abd 0a56 1f3e cc14 723e
00000120: c820 a2bd f8d5 b8bd 2eba 5dbe e04e 76bc
00000130: 8a92 76be c48a d6bd 2ec5 3c3e 7cea 593e
00000140: 33a1 6fbe 1760 64bf 822b 1c3f b1bd 0fbf
00000150: dd91 69bd 7cc5 d53d 109e ec3d ec82 79bd
00000160: e897 193e 87ad 023e 4b0d 393e 36b2 01be
00000170: 7282 92bf 6f5c ee3d 4009 b73d f813 88bd
00000180: e992 82bd 8b9f d6bc 19ba b73d 364e fcbd
00000190: 091c 5cbe 56ed 29be 7008 9ebd 4a96 ac3d
000001a0: 5086 c13d 968f e0bd 76e4 063e 684a b73d
000001b0: 63fb 5dbd be2a 2d3e a879 2fbe 7001 bbbc
000001c0: 0913 753d 7c03 0cbf 9f89 d23f 1065 3fbe
000001d0: ba25 a33e 12f9 b53e 1c96 70be d043 4c3f
000001e0: 2cf3 7b3e 984c ca3c 792d 8ebe b0a1 853c
000001f0: 6cb4 8bbd 5b8b babd 1402 c93d da5d 413e
00000200: 76df 37bf 636b d3be b96f d5bd 580f 11bf
00000210: 6f11 c5be 0320 283f 60bc ea3d 8d29 0dbc
00000220: 7628 57be a33d 843e 82ff 94be f056 17be
00000230: ab3b c7be 9753 bd3e 605c 083e 809b ccbb
00000240: 6d1e 69bf 5bce e8be d56a 7f3f 1532 d53b
00000250: f9eb c4be dbbe 8c3e 281d 123e fa41 6d3e
00000260: dc85 013e b9d4 6c3e c0cc e43e b0b1 b13c
00000270: f468 d3bf bda0 043e 0427 e6bd b053 2a3d
00000280: 3897 cabd 0310 d83d 313d 0cbf b82f 543d
00000290: b20b 9fbe 3319 473e 206a 60be 5c12 d8be
000002a0: ea04 7ebe 0a2e 723e aa9a 8d3f 4e04 013e
000002b0: 984c afbe 0178 8f3b b059 233d 38d7 57bd
000002c0: 7bd4 83be 4d5e 8abe e145 4b3e 6094 cd3d
000002d0: 9ad0 e9bd 0999 90bc b812 13be 1c88 2e3d
000002e0: 20e2 653e eb0b a3bd 60b3 4fbe 08b7 a4bd
000002f0: e384 29bd 5bc0 493e 50bc bf3c a08a 06bd
00000300: 754a 9abe aa8b 8a3e 105e ac3f f630 c63f
00000310: 2555 d6be dad2 013f 1880 76bd 5524 0bbe
00000320: ec2e 2ebe e5ad 37bf 99e7 d4be a241 773e
00000330: 2ea7 bcbe 21be 1dbf 3046 8bbd 6aff 48be
00000340: 2cdc a9be f020 1fbf 463d 36be 5167 febe
00000350: eff1 86be 0c3e 1c3f eccf 153e 8943 133f
00000360: b254 69be 7c5e de3e e84c a03e 208c 64be
00000370: dce2 fdbe 78ab 0d3f 541b 2f3e fe9a 6a3e
00000380: 7073 babe 8279 a5be 19a5 a33f fd53 293f
00000390: 25e2 c93d c951 0d3f aa00 13be 6562 f73d
000003a0: 7852 29be 317b a4be 5a12 243f 58a5 253d
000003b0: 431e efbe 3166 42be 2846 7c3e 7604 4e3e
000003c0: 400a 3fbe 871a cfbe 24bc ec3d 9d4b 943b
000003d0: a2d9 77be 3188 803d bc68 82bd 7997 da3d
000003e0: 0e2a 2a3e 2ba6 e83d b798 4fbe b0c1 813d
000003f0: eae9 233e 9409 a3bd 5010 58bd e8e0 123d
-0.29619157 0.099022955 0.053243484 0.35890317 -0.18373209 0.16900489 0.16386029 -0.099757254
0.094312906 -0.64299226 -0.048728764 0.0015265942 0.04332568 -0.2940396 0.13883832 0.069750756
-0.13202623 -0.012169112 1.3626747 0.3251482 0.008654377 0.21675454 0.15503934 0.11326751
-0.23843151 -0.4007644 0.45445868 -0.14830545 0.0024132833 -0.086299464 0.13053924 -0.005240977
-0.18619321 0.27477077 -1.11219 0.021834519 0.20377347 -0.1553079 0.12836748 0.23645876
0.104334265 0.008112712 -0.07886068 -0.18351987 0.058253482 0.12559398 0.20126563 0.025868148
-0.1431647 -0.7774937 1.4444559 -0.054329943 0.3025679 0.089128934 0.1364015 -0.08233725
0.00973925 0.42653152 0.08585903 0.074674636 0.21789666 0.39542082 0.021776825 0.11351472
-0.014064431 -0.2401889 -0.060569257 -0.07835594 0.025982767 -0.037776947 0.15560165 0.23640746
-0.07916409 -0.09025186 -0.21653053 -0.015033454 -0.24079338 -0.10475686 0.18434593 0.21280855
-0.23401336 -0.8920912 0.6100389 -0.5614882 -0.05702387 0.10438058 0.115535855 -0.060915872
0.14999354 0.12761508 0.18071477 -0.12665638 -1.1446059 0.11638724 0.08937311 -0.06644434
-0.06375677 -0.026199123 0.08971042 -0.12319605 -0.2149507 -0.16594443 -0.07716453 0.08427103
0.09449446 -0.10964887 0.13173088 0.08949739 -0.05419482 0.16910836 -0.17136252 -0.022827834
0.059832606 -0.54692817 1.6448249 -0.18690896 0.3186472 0.35541588 -0.23494762 0.79790974
0.24604481 0.024694726 -0.27769068 0.01631245 -0.06821522 -0.09108611 0.098148495 0.18883458
-0.7182535 -0.41292867 -0.104217 -0.5666404 -0.38489863 0.65673846 0.11461711 -0.0086158635
-0.21011528 0.25828275 -0.29101187 -0.14779258 -0.3891271 0.36977836 0.13316488 -0.006244123
-0.9106205 -0.45469937 0.9977239 0.0065062144 -0.38461283 0.2748936 0.14268935 0.231697
0.1264872 0.23128022 0.44687462 0.021691173 -1.6516404 0.12951942 -0.112379104 0.041583717
-0.09892124 0.10549929 -0.5478087 0.05180332 -0.3106361 0.19443206 -0.21915483 -0.42201507
-0.24806562 0.23650375 1.1062825 0.12599298 -0.34238124 0.0043783193 0.039880455 -0.052695483
-0.25748047 -0.2702507 0.19850875 0.10038066 -0.11416741 -0.017651098 -0.1436261 0.042610273
0.22449541 -0.079612575 -0.2028327 -0.08042723 -0.041386496 0.19702284 0.023405224 -0.032847047
-0.3013493 0.2705968 1.3466206 1.5483692 -0.41861835 0.5071236 -0.060180753 -0.13588078
-0.17010087 -0.71749717 -0.41582945 0.2414613 -0.36846298 -0.6161824 -0.068004966 -0.19628683
-0.3317579 -0.62159634 -0.17796811 -0.496882 -0.26356456 0.61032176 0.14630097 0.57524925
-0.22786215 0.4343146 0.31308675 -0.22319078 -0.49587142 0.55339766 0.17100269 0.22910687
-0.36416197 -0.32319266 1.2784759 0.6614378 0.09857587 0.5520292 -0.14355722 0.12079314
-0.16535366 -0.32125238 0.640905 0.040440887 -0.46702775 -0.18984295 0.24636137 0.20118889
-0.18656254 -0.40449926 0.115593225 0.0045256154 -0.24204114 0.062759764 -0.06367633 0.10673422
0.16617605 0.11359819 -0.202731 0.06335771 0.160072 -0.07960811 -0.05274993 0.03585902

l6.bias f4 [32]
00000000: f133 8cbc b567 45be a52f 8fbe 198f c23e
00000010: f046 02be 979f 323e 991e 96be 81e4 b63d
00000020: 2068 c43b 03a1 b83d 9e22 3a3e 7a30 86be
00000030: 863e a0be 2f9e 6bbc 8b1a 86be 0747 4fbe
00000040: def5 d63d 156d f0be 8570 f9bd 0ffe 99bc
00000050: 3e1d b03d 498b f8bd 2494 41be 971a 74be
00000060: 8e3e fd3c 5775 463e 6df4 633e 1326 833e
00000070: 31bb 333d be04 86be ea55 b6bd 76fe 853e
-0.017114611 -0.19277842 -0.27966037 0.379998 -0.12722373 0.17443691 -0.2932022 0.089303024
0.005993858 0.090150855 0.18177268 -0.2620886 -0.31297702 -0.014380976 -0.26192126 -0.20241939
0.10496114 -0.46958223 -0.121796645 -0.018797902 0.085993275 -0.121359415 -0.18904167 -0.23838268
0.030913617 0.19380699 0.2226121 0.25614986 0.04387969 -0.26175493 -0.089031056 0.261707

l7.weight f4 [16, 32]
00000000: 7395 57bd 961d 1fbf 4bc5 22bd 5df6 a0be
00000010: 1a67 ee3d 9fb7 e73d bcfd f53c 197d 9b3e
00000020: 02d3 03bf 5a87 9bbd 9559 2f3e 390e acbd
00000030: 4526 b2be e807 0c3f 278a 3ebe 6c17 b73d
00000040: 7d38 423e cd05 973d 7d16 bc3b 425e 003e
00000050: 8718 b3bd ab3c 6fbd 6ab5 323e af4d a53e
00000060: 8da1 073e c0ce 84b9 6541 4cbf b2e6 653e
00000070: c9f1 c33d ba34 223c 85e3 00be ec37 e2be
00000080: d18a 6e3d e51b 8b3e 9fcc 7c3d 5a23 2c3f
00000090: 8d53 153e a49f 593f f56e 083d 75b6 a43e
000000a0: 6139 bf3e 886e 323f 7be6 a43e a59e 8e3b
000000b0: d1ed 073f 045a 703e 596a 9f3e 3360 c33d
000000c0: 5c72 0e3f 271c 353d 9270 e1bd 4440 c63e
000000d0: 4a3c 3e3e 313e ce3d bdb7 113e 3138 183f
000000e0: 7262 263d d7ed 6a3e bed8 673f 8456 0c3e
000000f0: a14e 33bd 06a9 09bd ac8c 5e3e a942 ce3e
00000100: 72d2 80be 9840 51be 5c0e ae3e 547f 40be
00000110: 29f5 883d 67c6 aebe 13ea f53c 2518 253e
00000120: 69b4 853e fd66 f63c 8875 903e 28b7 59bd
00000130: 498d 25bf b396 6f3e c291 84bd e2da 1abd
00000140: 1034 d8be 8356 7cbe 6a88 c73c c524 5dbe
00000150: dd1d 5a3d dce5 49be e5c2 a2bd 2ec9 e63d
00000160: 2494 b93d f2d7 943d 1ce7 5cbf 430f aa3e
00000170: 2acd 89be 3347 963d 9197 36be d523 5ebe
00000180: 5b1e f33d 27a6 c63e 2e1d 8f3d 74e7 193f
00000190: 0c72 c1bc 6487 633f 6e4c c63d 64eb 763e
000001a0: 5278 033f 7d15 363f 7d18 06bc 69db efbd
000001b0: bdb2 f23e 7de0 0b3f dee7 1d3f f70e d93c
000001c0: cad7 383f 15aa fb3d 43c7 35be 94d5 b23e
000001d0: a90a 3e3e 268a a8bd c815 c3bd bd49 1b3f
000001e0: 7945 653c 8584 d03e 9317 883f 5eb4 eabc
000001f0: 8157 513e 0dc8 4f3d 1714 c83e d38f 1f3f
00000200: 472a 3c3d 55b6 42be 09cd fcbd 0d8b 9abd
00000210: 1744 1e3e 58ae 83bc ff91 143e 9965 e1bd
00000220: 4237 c3bd 422f e7bd 6a6d c5bd 0220 cc3d
00000230: 4c2a 07be f662 b73d 191d f43d b085 263e
00000240: 2111 0cbe 19aa 5b3b a01d b23c 5842 2abe
00000250: c011 f7bd 7638 febd 775d 213e 7103 ce3c
00000260: d7fc 32be 82e1 28be 9dd7 13be 05f1 b9bc
00000270: b6e9 0d3e 3b23 98bd 3030 77bd f1b1 4ebe
00000280: 6633 74bd f877 9e3c 419a 41be 2f9c a63d
00000290: e9a2 263e ac02 07bb 44f5 113d aa03 38be
000002a0: efe0 6d3d e8b0 aa3d 6d1f 2bbe 5f90 233e
000002b0: ade3 c1bd 3a42 2ebe 4ce0 08be 44bd 883d
000002c0: dbb7 c2bc 7059 91bd ac74 ecbc 2826 0bbe
000002d0: 40b7 11be a05b 0e3e ef8b 713d f9fc 56be
000002e0: dfc8 c63d 72d8 b53d 5c6e e7bc c128 32be
000002f0: 65c5 0f3e 10b6 f33d f3ee d43d dc6a 093d
00000300: 7c7c f23d de23 f6bd 9cc7 99bd bc66 923c
00000310: 6525 bebd a05f f03d 0eaa e83d e017 a2bd
00000320: 697d 0abe afae 23be 2ad8 923b 7e93 2fbe
00000330: a729 b5bd 51d1 e1bd ba45 2fbc 2139 51bd
00000340: a2ee bc3d 3773 8a3d 3f90 793c 5ccd e33d
00000350: 064b 1fbd 5222 953d 14d0 823d 9280 8c3c
00000360: c314 26bd a058 b9bd 1b85 9f3d 1f89 47be
00000370: 579c 2abe 9b6b d23d 2f0c cc3c 89bf 26be
00000380: dbce 32bd 7938 49be 0e5e f7bd 9b96 58bd
00000390: fed2 48bc 1d36 153e 5a9f 04be beff 6cbd
000003a0: c8ca 68bc 4468 143e b088 8c3a 972e 01be
000003b0: 1d12 353d 2b32 e8bd 2f1f b2bd 35f7 05bc
000003c0: dcef 7cba 0eb0 463d 4e7c ad3d 5370 40be
000003d0: 0315 13be 8609 24bd 3137 fe3c b29e ab3c
000003e0: 0866 0abe 1107 ee3d 6e3c edbc 2d12 013d
000003f0: a651 b7bb 5bd5 29be 002a 6cbd 8634 203d
-0.05263276 -0.6215452 -0.039738934 -0.3143796 0.11640759 0.1131432 0.030028217 0.3036888
-0.5149385 -0.07594176 0.17124017 -0.0840115 -0.34794822 0.54699564 -0.18607388 0.08940014
0.18966861 0.07374153 0.0057399855 0.12535957 -0.087449126 -0.058407467 0.17452016 0.3228583
0.1324522 -0.00025331043 -0.79787284 0.22451285 0.09567601 0.009900266 -0.12586792 -0.4418329
0.058237854 0.2716972 0.06171858 0.6724144 0.14582653 0.8500922 0.033308942 0.32170454
0.37348464 0.6969991 0.32207093 0.004352408 0.53097254 0.23471838 0.31135824 0.09539833
0.5564325 0.0442163 -0.11007799 0.38720906 0.18577686 0.10070456 0.14230247 0.5946074
0.04062123 0.22942291 0.905651 0.13704878 -0.04377616 -0.03360846 0.2173335 0.40285233
-0.25160557 -0.20434797 0.3399533 -0.18798572 0.066873856 -0.34135744 0.030018842 0.16122492
0.26114205 0.030078406 0.2821467 -0.053153187 -0.6466871 0.23397331 -0.064731136 -0.0378064
-0.4222722 -0.24642377 0.02435704 -0.21596058 0.053251136 -0.1971659 -0.079473294 0.11268841
0.09061459 0.07267751 -0.86290145 0.3321477 -0.2691434 0.07337799 -0.17831255 -0.21693356
0.11871024 0.3879864 0.069879875 0.60118794 -0.023613952 0.88878465 0.096825466 0.24113232
0.5135547 0.7112654 -0.008184549 -0.11711771 0.4740199 0.54639417 0.61681926 0.026496394
0.7220427 0.122883 -0.17751794 0.34928572 0.18558754 -0.08229475 -0.09525639 0.6065939
0.013993614 0.40726104 1.0632194 -0.028650459 0.20443536 0.050727893 0.39077827 0.62328833
0.045938756 -0.19014867 -0.12343795 -0.07546053 0.15455662 -0.016074345 0.14508818 -0.11005706
-0.09532024 -0.112883106 -0.0964001 0.099670425 -0.13199729 0.08954422 0.119196124 0.16261935
-0.13678409 0.0033518134 0.021742642 -0.1662687 -0.120639324 -0.12413113 0.1575831 0.025148125
-0.17479263 -0.16492274 -0.14437719 -0.022697935 0.13858685 -0.07428595 -0.06034869 -0.20185067
-0.05961933 0.019344315 -0.189065 0.081352584 0.16273083 -0.0020600958 0.035634294 -0.17970148
0.05807584 0.083345234 -0.16711207 0.15973042 -0.09467254 -0.17017451 -0.13366812 0.066767246
-0.02376931 -0.07097137 -0.028864227 -0.13588774 -0.1423006 0.1390214 0.05897134 -0.20994939
0.09706282 0.08879174 -0.028250866 -0.17398359 0.14040144 0.1189996 0.103971384 0.033549175
0.1184015 -0.1201856 -0.075087756 0.017871253 -0.09284476 0.11736989 0.1136056 -0.0791471
-0.13524403 -0.15984605 0.004481335 -0.17146108 -0.08845835 -0.11026252 -0.010697776 -0.051079873
0.09225203 0.06760257 0.015232145 0.111231536 -0.038889907 0.07281937 0.06387344 0.01715115
-0.040547144 -0.09050107 0.0778906 -0.19485901 -0.16661201 0.1027443 0.024908153 -0.16284002
-0.043654304 -0.19650449 -0.120784864 -0.052878004 -0.012257336 0.14571424 -0.12951413 -0.057861082
-0.014208503 0.14492899 0.0010721888 -0.12615429 0.044206727 -0.11337694 -0.08697354 -0.0081766145
-0.0009648779 0.048507743 0.08470975 -0.18792848 -0.14363484 -0.040048145 0.031032177 0.020949695
-0.13515484 0.116224416 -0.02895948 0.031511474 -0.00559445 -0.16585295 -0.05765724 0.03911259

l7.bias f4 [16]
00000000: 905f 4b3e 77ce 74bc f96b 5a3e 4f14 3a3e
00000010: 16d3 5bbb b090 57be 7e47 c8bd 4bb9 1abe
00000020: 368d f4bd c79f ddbd 46d7 cf3d fc19 843d
00000030: f320 61bc 9463 84bd cdcd f93d 862c 96bc
0.19860673 -0.014941803 0.21330251 0.1817181 -0.0033542565 -0.21051288 -0.09779261 -0.15109746
-0.11940996 -0.10821491 0.10148482 0.064502686 -0.013740766 -0.064643055 0.121974565 -0.018331777

l8.weight f4 [1, 16]
00000000: e08d af3e 394f 01bf 6e4b 3a3f f490 2fbf
00000010: 5397 903d 27ca df3b 6720 943d 231b 2a3e
00000020: d427 833d 6e8a e83f 32b9 e3be e552 89bf
00000030: f48d 9f3d 6c50 6d3e 051c 0bbf 318c 4b3c
0.3428793 -0.5051151 0.72771347 -0.68580556 0.07060113 0.0068295184 0.07232743 0.16611914
0.06404081 1.8167245 -0.4447723 -1.0728422 0.07790747 0.2317521 -0.5433963 0.012423561
