project/checkpoints/best_model_4_targ0_actor.pt (torch, 8204 bytes, 7 tensors)

l1.weight f4 [16, 5]
000000 b9 6e cc bb ae 45 64 be e5 b2 93 be 95 cd c1 3e
       -0.006238785 -0.22292206 -0.28847423 0.3785216
000010 b5 d5 8f be ca 97 d0 3f 8b b4 d3 be ce 9f 55 3e
       -0.28092733 1.6296322 -0.4134868 0.20861742
000020 25 3d 83 be 8f 49 c8 3e 27 dd 60 be 0a 3a 19 3e
       -0.25632587 0.3911862 -0.21959363 0.14963546
000030 1e 8d d3 3c 31 af f1 bd 05 51 9b be ba ee d4 bd
       0.025824126 -0.11800993 -0.3033525 -0.10397096
000040 8c 81 72 3e fe 48 ec 3c 0a ea ca 3e 40 7b ac be
       0.2368223 0.0288434 0.39631683 -0.33687782
000050 28 ea 1c 3f 53 21 81 be 09 03 7f 3e 15 64 8c be
       0.61294794 -0.25220737 0.24903502 -0.27420107
000060 4e d9 58 3e 60 6d 2a 3f 91 03 db be a0 82 22 be
       0.21176645 0.66573143 -0.42776158 -0.15870142
000070 70 4d a0 bd 19 95 eb bd 1a 88 ac bf ea b9 ce bb
       -0.0782727 -0.115030475 -1.3479035 -0.006308784
000080 d4 68 12 bd 05 99 ef bc f0 23 82 3d 33 72 c6 3e
       -0.035744503 -0.02924777 0.06354511 0.38759002
000090 97 63 d3 be be 25 c5 3d d9 5f aa bc ee 8f 9e bd
       -0.4128692 0.096263394 -0.020797657 -0.07742296
0000a0 89 a2 28 bd 7a 0f 7f bd ff f1 b6 3b 78 8d bd bc
       -0.04117063 -0.06227062 0.0055830474 -0.023138747
0000b0 6a aa a2 be 66 5c ba be 9e 8b 5f 3e bf 77 b6 3e
       -0.3177064 -0.3639862 0.21830603 0.35638234
0000c0 08 11 b1 3e 9d c7 b9 be 87 28 ae 3e 63 77 83 3e
       0.34583306 -0.36285105 0.34015295 0.25677022
0000d0 74 ed 3b 3e 38 db b7 3e 99 fb 8a 3c 83 10 69 3e
       0.183523 0.35909438 0.016965674 0.22760205
0000e0 18 e6 f6 bd 33 2c 06 be 5c 70 83 be b8 87 b9 be
       -0.12055606 -0.13102798 -0.2567166 -0.36236358
0000f0 74 e5 c3 bf a6 8f 72 3e 91 2d 29 3e cb 94 b5 3e
       -1.5304399 0.2368761 0.16521288 0.35465083
000100 cd e1 19 3e 31 07 99 be 49 4e f1 3c 34 25 a5 be
       0.15027542 -0.298883 0.029456275 -0.32254946
000110 ba f7 3e be 80 99 e2 be 77 47 95 3d 8e f1 c5 3e
       -0.18649188 -0.44257736 0.072890215 0.38660854
000120 7f ea 49 be bd 13 80 be 4f 3e a4 be 28 a6 93 3f
       -0.1971836 -0.2501506 -0.32078788 1.1535082
000130 d5 96 ad be c7 b3 d0 be ba 92 af 3e 93 14 26 3e
       -0.33904138 -0.4076216 0.3429163 0.16218786

l1.bias f4 [16]
000000 de 28 92 be 38 f1 74 3e 56 83 9d be 70 9e 3e 3d
       -0.28546804 0.23920143 -0.30764264 0.046537817
000010 98 0d c9 be ef ee 96 be db ec c7 3e 03 6d aa 3e
       -0.39268184 -0.29479167 0.39047894 0.33286294
000020 73 03 d5 be b2 85 f8 3d 6a d9 d2 be 7a 7d b6 3e
       -0.41604194 0.12134875 -0.411815 0.35642606
000030 53 07 be be 44 04 e3 be a4 c7 d0 3d 58 51 98 be
       -0.37114963 -0.44339192 0.101943284 -0.2974956

l2.weight f4 [32, 16]
000000 44 16 63 3e bc 04 54 bd 74 41 a4 bd b0 48 64 bd
       0.22176462 -0.051762328 -0.08020297 -0.055733383
000010 36 70 8c 3d 1b 62 aa 3e 71 85 7d be 14 a6 13 3e
       0.0685734 0.33277974 -0.24757935 0.14418823
000020 64 9a e3 bd a8 9b 45 bf d2 bb e4 bd d8 c9 7d be
       -0.11113432 -0.7719064 -0.111686364 -0.24784029
000030 24 d2 65 3e 94 2a 30 be 7c 60 5f be 07 b2 d2 be
       0.22443444 -0.17203742 -0.2181415 -0.4115145
000040 e8 46 e1 3d c0 70 e2 ba fc d4 a8 3d 20 2b 73 3e
       0.109998524 -0.0017276034 0.082437485 0.2374692
000050 4e 35 85 3e ed fe b7 bd 9f 35 15 3e fd 05 81 3e
       0.2601723 -0.0898417 0.14571236 0.2519988
000060 7c e6 a2 3d 48 e3 24 3f b3 76 b1 be dc 98 79 3e
       0.07954118 0.64409304 -0.34660873 0.24374717
000070 09 67 8a be c4 b8 a2 3d 02 8d 6c be ff 9e c2 3d
       -0.27031735 0.079453975 -0.23100665 0.09502982
000080 a8 e2 35 be 8c 6e ea 3d be fe 31 3e 26 55 44 be
       -0.17762244 0.114468664 0.17382333 -0.19173107
000090 8e 19 de 3d e5 7d 42 3e 4f ca e9 bd 4c 9d 85 bc
       0.10844718 0.18993337 -0.114155404 -0.016310357
0000a0 cc db d1 3d cc f9 8d 3f 7c ed 89 3e 20 68 a3 3d
       0.10247001 1.1091857 0.26939 0.07978845
0000b0 7c b0 de be 98 f5 42 be a8 57 cb bd 21 19 18 3d
       -0.43494022 -0.19038999 -0.099288285 0.03713334
0000c0 6c 16 fa bd 28 2d 07 3d 42 ea 37 be a4 9c 58 3e
       -0.12211308 0.03300205 -0.17960456 0.21153504
0000d0 40 85 77 3c 10 ba ce bd 5c 96 3f be d8 45 52 bd
       0.015107453 -0.10094082 -0.18709701 -0.05133614
0000e0 a8 5e c9 bd 1c 58 be 3d 28 1b 34 3e b0 06 34 3d
       -0.09832507 0.09294149 0.17588484 0.04395169
0000f0 48 2a a4 bd 5c 7a 59 be 80 c0 d3 bc 24 f4 56 be
       -0.08015877 -0.21238083 -0.025848627 -0.2099157
000100 70 8f 2c bd f4 6b e4 3d 68 6b 22 3e 0a 7a 1b 3e
       -0.04212898 0.11153403 0.15861285 0.15183273
000110 4e 3e 92 be c3 d1 06 3f b9 8a b3 bf c3 bc 22 3e
       -0.2856316 0.5266382 -1.402671 0.1589232
000120 00 ab a5 bd 0e 33 a7 3d 38 3c be 3e 9a 73 5a be
       -0.08089256 0.08164035 0.37155318 -0.21333161
000130 b4 b8 ac bd 18 aa 12 be a0 56 e3 3d 61 3c 71 bd
       -0.08433667 -0.14322698 0.11100507 -0.058895472
000140 88 2c 82 bd 7c d8 86 be d4 f7 64 be d8 39 f4 bd
       -0.0635615 -0.2633704 -0.22360164 -0.11925095
000150 8d c8 85 3d ca 14 48 3e cf 3c 5f 3c 90 a4 cc be
       0.06532393 0.1953918 0.013625338 -0.399693
000160 00 60 51 3e 6e 81 60 3f bd 24 2e bf 2c 54 48 3e
       0.20446777 0.87697494 -0.6802481 0.19563359
000170 cf 37 b8 3e 0e 91 19 be 40 01 6b be 32 85 8b bd
       0.3598008 -0.1499674 -0.22949696 -0.06812514
000180 12 1c 15 be 88 83 71 3d 40 86 69 3d ce 72 47 be
       -0.14561489 0.05896333 0.057012796 -0.19477388
000190 c4 17 eb bd b8 ee 2b 3d 1e dd 5c be 54 8a 74 be
       -0.11479142 0.041975707 -0.21568725 -0.23880893
0001a0 ae 87 60 be 66 f4 02 3e 10 83 74 3d 20 ff af bd
       -0.21926758 0.12788543 0.059695303 -0.08593583
0001b0 80 45 0b be e0 40 f7 3d c0 51 f4 3c e2 37 5b be
       -0.13600731 0.12072921 0.029824138 -0.21408036
0001c0 46 93 56 be 83 3a c8 3c e4 a9 b8 bd 98 45 a9 bd
       -0.20954618 0.024441963 -0.09016779 -0.08265227
0001d0 51 86 2b bc 8c 33 a8 3e 9d 5d e6 bd 22 06 c8 bc
       -0.010469035 0.32851827 -0.11248324 -0.024416987
0001e0 ae 1d 0b 3e 90 a3 d0 be b4 f5 8e be e0 48 ad bc
       0.1358554 -0.40749788 -0.27921832 -0.021152914
0001f0 b9 8e 32 3e 88 df 66 be 6c 8c fc bd 8a be 9e be
       0.17437257 -0.22546208 -0.12331471 -0.31004745
000200 68 88 04 3e d4 c2 fc bd 9c 51 91 3d 44 0a 32 3e
       0.1294266 -0.12341848 0.07095644 0.17386729
000210 80 27 20 3b 34 43 6e 3e 6c ce d3 bd e4 9b d3 3d
       0.0024437606 0.23267823 -0.10342106 0.10332468
000220 7c f5 e9 bd 36 3c 0c be 50 d2 3a be 3c e0 31 be
       -0.114237756 -0.13694844 -0.1824429 -0.17370695
000230 d4 cc b3 3d 18 83 b6 bd d4 19 ac 3d 62 d5 57 be
       0.08779302 -0.08911723 0.08403364 -0.21077493
000240 f4 20 97 3d 12 3f 6b 3d 5e 3e 30 3e a8 df 53 3e
       0.07379332 0.057433195 0.17211291 0.20690787
000250 e9 27 10 3e 9b fa ff bd bb f2 dc bd ad 02 b8 bd
       0.14077725 -0.12498971 -0.10788485 -0.08984885
000260 f0 47 ae 3c c1 1c da 3e 63 e4 a7 be 60 c9 2f bc
       0.021274537 0.42600062 -0.32791433 -0.010729164
000270 a7 63 75 be f4 66 ad bd e0 64 0f 3e 5d ec 5c 3e
       -0.23963796 -0.084669024 0.14003325 0.2157454
000280 64 50 dc bd 55 37 17 bc 1e 6d 7d be 54 42 51 3e
       -0.10757521 -0.009229501 -0.24748656 0.20435458
000290 81 44 0e 3e b0 53 90 3d 60 35 8e bd 23 4f 91 3d
       0.1389332 0.07047212 -0.06943774 0.07095172
0002a0 a8 c5 60 3e d5 85 51 3e 3c 5e 31 be 70 e5 c0 3c
       0.219504 0.20461209 -0.17321104 0.023546904
0002b0 1b f5 13 be b6 21 09 3e c0 98 96 3d 0e de 63 be
       -0.14448969 0.13391766 0.073533535 -0.22252676
0002c0 de 4d 43 3e 55 a4 b1 3d 14 5c 13 be fe 1d 4f be
       0.19072673 0.08673922 -0.14390594 -0.20226285
0002d0 25 08 ac 3c 14 43 b0 be af b2 0d be 4d 55 8c be
       0.020999977 -0.34426177 -0.13837694 -0.2740883
0002e0 f0 de 14 3e 9b b5 35 3f af 19 27 be c0 44 3e bc
       0.14538169 0.7098023 -0.16318391 -0.011613071
0002f0 84 10 0b bd 70 6d cf bc 14 01 83 bd 4b a3 d6 bc
       -0.033951297 -0.025320739 -0.0639669 -0.026200911
000300 8e b2 40 be c0 0e 56 bd b8 e7 64 3d 28 77 7b 3e
       -0.18818113 -0.05226016 0.055885047 0.24557173
000310 a4 6f 6d be 9c 9c 99 bd a2 4e 2c be 0a 3e 75 3e
       -0.23187119 -0.07500574 -0.16826871 0.23949447
000320 30 a5 31 bd 80 46 0f bd 30 42 6c bd a0 76 f4 3d
       -0.043370426 -0.034979343 -0.05768031 0.119366884
000330 48 a9 bc 3d 58 62 8f 3d b2 64 0c be d4 08 6e be
       0.09211975 0.070011795 -0.13710287 -0.23245555
000340 58 74 d0 bd 88 26 15 3e 3c 9c f8 3d 54 2c 40 be
       -0.10178441 0.1456548 0.12139174 -0.1876691
000350 56 ff 9c bd 23 1a 4d be 45 47 af bd ed 09 99 3d
       -0.07665889 -0.20029502 -0.085585155 0.07472596
000360 1c d4 b0 3d d7 1a 54 3f ac e5 cf be e4 cf 6f 3e
       0.08634207 0.82853454 -0.40604913 0.23419148
000370 e2 1d 08 be c6 07 07 3e b8 5a 6a 3e a5 85 9c bd
       -0.1329265 0.13186559 0.22886169 -0.07642678
000380 4e aa 5f 3e f0 f6 e3 bd 94 f4 69 3e c0 f9 b8 bb
       0.2184231 -0.11131084 0.22847205 -0.005645007
000390 bf 89 87 be 78 32 16 3d ad 37 1a 3e 77 a6 be be
       -0.2647228 0.036669225 0.15060301 -0.37236378
0003a0 38 fd 3b be fa e4 58 3f cd 94 17 bf f0 0a 3f be
       -0.18358314 0.8472439 -0.59211427 -0.18656516
0003b0 9f f2 8b 3e 90 43 4d be 24 69 07 3e ee de ac 3e
       0.27333543 -0.20045304 0.13223702 0.33763832
0003c0 8a a5 69 be 7c 17 39 3e e0 37 93 3d 00 01 f8 3a
       -0.22817054 0.18075365 0.07188392 0.0018921196
0003d0 d1 6d 17 3c 57 81 9f be 5f 7d 1c 3e db 1e c7 bd
       0.009242491 -0.31153366 0.152822 -0.09722682
0003e0 88 17 22 3d b7 99 24 3f b3 1e 0a bf 1c 94 b1 bd
       0.039573222 0.6429705 -0.53953093 -0.08670828
0003f0 af df 9d bd e0 d4 00 3c a8 2e 4c be 83 4b 69 3e
       -0.0770868 0.007863253 -0.19939673 0.22782712

l2.bias f4 [32]
000000 2e 37 e5 3d 1e 75 dc bd d9 7f 4f be 62 0d 60 be
       0.11192165 -0.10764526 -0.20263614 -0.21880105
000010 4f e8 dc 3d 74 9c 04 3e ac 2e 3c be ca 64 7e bd
       0.10786497 0.12950307 -0.18377179 -0.06210784
000020 dc 91 ac bd 63 e1 ba 3d 69 31 8f bd 3b 26 5f 3d
       -0.08426258 0.0912502 -0.06991846 0.05447982
000030 b6 c0 35 3e 40 05 94 3d 4a 73 8c be bc 64 63 be
       0.17749295 0.07227564 -0.2743171 -0.22206396
000040 66 8c 6a bd 29 e2 ae bc 59 a0 e6 bb c1 22 2e be
       -0.0572628 -0.021348076 -0.007038158 -0.17005445
000050 0f 3e 05 be a4 59 e3 3d d2 8c 80 3e a2 a8 2e 3d
       -0.13011955 0.11101082 0.25107437 0.04264129
000060 99 1f fb 3d fa 57 2f be f1 ef 52 be ce 3e d4 3d
       0.12261886 -0.17123404 -0.20599343 0.103635415
000070 2c ef 5b 3e 37 e8 83 3b 88 cb 26 3e ad d7 3c 3e
       0.21477956 0.004025485 0.16288579 0.18441649

l3.weight f4 [16, 32]
000000 38 b8 9b 3d 97 55 23 3e 2e 72 d0 bb 43 38 fe 3d
       0.07603496 0.15950619 -0.0063612675 0.12413075
000010 79 01 00 bd 58 c6 23 3e e3 28 12 3d 43 7a db 3c
       -0.031251404 0.15993631 0.035683524 0.026791697
000020 fb df 19 be fc 83 a9 bd f9 3c b8 bd be 38 05 be
       -0.15026848 -0.08277127 -0.089960046 -0.13009927
000030 8e 12 8e bd b6 58 d9 3c 35 9f 1a be a6 21 ac bd
       -0.06937133 0.026531558 -0.15099795 -0.084048554
000040 4b f3 56 3a 5a 33 13 be 1f 5a c9 3d e7 9c aa bd
       0.00081997056 -0.14375058 0.09831642 -0.08330708
000050 70 17 32 bd f3 f0 dc bc 08 2a 5a 3c 83 88 f3 3d
       -0.043479383 -0.026970362 0.013315685 0.11891272
000060 a2 d1 0a be 97 b0 27 3e 9d e6 4c 3d 7c 66 0e be
       -0.13556531 0.16375957 0.050024617 -0.13906282
000070 d2 f4 db 3d f4 12 16 bd 0d dd 05 3e c6 c0 ff bd
       0.10740055 -0.03663917 0.13072605 -0.124879405
000080 8b a5 5c bd 97 82 29 be 8c 6b 91 bd 7b 97 c5 3d
       -0.05386881 -0.16553722 -0.07100591 0.09648033
000090 cb a9 24 3e 4e 62 21 3d 5f ff 14 3d 15 83 0f be
       0.16080396 0.03940039 0.036376353 -0.14014848
0000a0 92 cd a0 3d 37 c8 99 3c f8 65 c3 3d 90 43 20 be
       0.078517094 0.018772228 0.09540933 -0.15650773
0000b0 b5 19 fb 3c de 28 c4 3c a6 73 47 3d 45 71 bd 3c
       0.030651907 0.023945268 0.048694275 0.0231253
0000c0 82 17 25 bd a4 8a aa bd 3e 81 04 be e0 40 8d 3d
       -0.040305622 -0.08327225 -0.12939927 0.068971395
0000d0 7d 53 cd 38 2e 1d a4 bd 3f ac ee 3d c5 86 2e be
       9.790713e-05 -0.08013378 0.11653947 -0.17043598
0000e0 1e 19 05 be 9d 36 21 be 47 38 a7 bd 95 46 c7 3d
       -0.12997863 -0.1574349 -0.08165031 0.09730259
0000f0 92 8a 1b be 48 8e 06 be 1f 27 df 3d 42 33 1f be
       -0.15189579 -0.13140213 0.10896134 -0.15546897
000100 2c 94 74 3c de 6b 71 be fe 9b a3 be 22 07 e8 3d
       0.014927905 -0.23576304 -0.3195495 0.113294855
000110 e0 af c9 bd ec 1b d8 3c a9 85 20 be 3d 59 fb bc
       -0.098479986 0.026380502 -0.15675987 -0.0306822
000120 6f 99 19 3e 50 6d 8c be 4b f2 68 3d fd 9d 4d 3d
       0.14999937 -0.2742715 0.056871694 0.050199497
000130 83 37 7c 3c a1 09 d2 be 00 29 13 bf aa 06 8a 3d
       0.015394094 -0.4102297 -0.57484436 0.06739552
000140 d0 5b b7 bd b3 c1 06 bf ef 7f 3b bd 2a 8f ab 3d
       -0.08953059 -0.5263931 -0.045776304 0.08376916
000150 46 27 ef be c2 f5 a2 3e d0 3e 71 3e 16 81 78 bb
       -0.4670965 0.31828123 0.23559117 -0.0037918738
000160 55 0d 60 be 23 06 b4 3d eb 8c e5 3d da e4 03 3f
       -0.21880086 0.08790233 0.112085186 0.51521075
000170 97 12 1a be 69 41 b7 be 47 7c 85 be 93 62 97 3d
       -0.15046154 -0.3579209 -0.2607138 0.073918484
000180 11 a2 0a be d9 a6 2b be b9 b5 b5 3b 13 92 2e 3e
       -0.13538386 -0.16762866 0.0055453447 0.1704791
000190 be dd bf bd 86 34 51 bd ce da 24 be d1 7d 96 3d
       -0.09368466 -0.05107548 -0.16099092 0.07348216
0001a0 db 24 68 3d 54 b2 f6 bd 3c 52 1e 3e cc 02 25 be
       0.056675773 -0.12045732 0.15461057 -0.16114348
0001b0 7d d6 d8 bc fe 73 5d 3b a3 cc 5f bf 4f f5 b5 3c
       -0.026469463 0.003379106 -0.87421626 0.022211699
0001c0 fe a4 b3 bd 6a 39 59 be 60 52 3c be 5b cb 0a bd
       -0.08771704 -0.21213308 -0.18390799 -0.03388534
0001d0 f2 6c e1 be 90 c0 d2 3e 20 7f 7c 3e 26 0e 35 bd
       -0.4402843 0.4116254 0.2465787 -0.044202946
0001e0 a5 d7 60 be 4a eb 4e 3d 0f f8 1a 3d 05 7d 77 3d
       -0.21957262 0.050517358 0.037834223 0.060421962
0001f0 8f 09 7f bd c0 a0 5e bd 00 40 c8 bb e2 3c c3 bd
       -0.062264975 -0.054352522 -0.006111145 -0.09533097
000200 e8 84 5a 3e 5e 56 e8 bb 7c 90 87 3d a2 b6 e1 3d
       0.21339762 -0.007090374 0.06619355 0.110211626
000210 be 59 26 3f 0c 55 40 be 90 32 dc bd cc 6f 05 3e
       0.64980686 -0.18782443 -0.107518315 0.13030928
000220 fd 51 bc 3d 32 2c ff bd 90 2a a6 3c 3c 33 fb 3d
       0.091953255 -0.124596015 0.020283967 0.122656316
000230 32 34 d8 bd 43 01 05 be ce 83 14 bf 4b 13 34 be
       -0.105568305 -0.12988763 -0.5801362 -0.17585485
000240 90 44 aa 3d df 71 63 be 0f 66 89 bd 5a ae 20 be
       0.083138585 -0.22211407 -0.06708919 -0.1569151
000250 54 b4 ac be 86 be c3 3e ed 41 83 3c 75 34 23 be
       -0.3373133 0.38231295 0.016022647 -0.1593798
000260 50 bd 31 3e ee b2 5d 3d 4e 53 38 3e 94 56 7a 3d
       0.17357373 0.05412572 0.18000528 0.061117724
000270 9b d6 33 be 67 f0 13 3d fe fa cd bd 8d a1 e2 3c
       -0.17562334 0.036117937 -0.100576386 0.027664924
000280 80 e6 12 3e 4c cf 95 3d 00 b5 80 be c2 4b ea bd
       0.14345741 0.07314929 -0.25138092 -0.11440231
000290 1f 26 36 bf 52 90 22 3f 63 06 9e 3d c7 82 e1 bc
       -0.7115192 0.63501465 0.07716062 -0.02752818
0002a0 29 7f 11 3e 08 20 4f 3e 35 94 16 3e 8c 59 be 3d
       0.14208664 0.20227063 0.14704974 0.092944235
0002b0 86 bb 2f 3e ef 91 f1 bc 64 f0 31 3f b0 87 c3 3d
       0.17161378 -0.029488532 0.6950743 0.09547365
0002c0 48 00 2a be 74 77 0a be f7 4c c2 bd 2f 5c 71 bd
       -0.1660167 -0.1352213 -0.09487336 -0.058925804
0002d0 20 ac 45 3f 58 8d 45 be 47 d7 94 be 81 09 a1 3b
       0.77215767 -0.192922 -0.29070494 0.004914463
0002e0 24 42 78 be d0 04 26 3e 0c 19 9b bd 40 3b 92 3a
       -0.2424398 0.16212773 -0.07573137 0.0011156574
0002f0 8f a0 fb bc 71 13 ab 3d 51 87 9f bd f3 9a 05 3e
       -0.030716209 0.083533175 -0.077894814 0.1304739
000300 e7 70 fb bc 36 d0 e8 3d e4 76 a9 be 68 0a 04 3e
       -0.030693484 0.11367838 -0.3309852 0.12894595
000310 6a 80 20 bf 8f 00 ee 3e 60 f7 46 bc 72 e6 08 bd
       -0.62695944 0.464848 -0.01214394 -0.033422895
000320 8f 63 34 be 95 8c b9 3d b3 0e 09 3e c7 2f 40 be
       -0.17616104 0.09060017 0.13384514 -0.18768226
000330 d0 02 ba 3d 3a 1b bc 3d 2f d6 f4 3e 1e 5e 1f be
       0.09082568 0.091848806 0.4781966 -0.15563247
000340 60 a2 00 3e b9 91 25 3d d1 f2 2a 3e 59 16 b8 bd
       0.12561941 0.040422175 0.1669419 -0.089886375
000350 69 71 08 3f 91 f5 b3 be 78 05 b7 bc c8 fb 85 bd
       0.5329805 -0.3514829 -0.022341475 -0.06542164
000360 37 6c 07 bf 7b 90 33 3e 5c 02 01 3e b4 63 d1 3d
       -0.528995 0.17535584 0.12598556 0.10224095
000370 61 9c 74 3e 18 0d 3f 3e af 6b 0f 3e 7d ba 18 3e
       0.23887779 0.18657339 0.14005922 0.1491489
000380 db 5d 9f bb c7 27 f5 3d 7b 70 c6 be 7d e4 b8 3d
       -0.0048634834 0.119704776 -0.3875769 0.09027956
000390 a8 32 39 bf a9 f3 db 3e 58 3a 2e 3e 7c 60 43 3d
       -0.7234292 0.42959335 0.17014444 0.047699437
0003a0 ea 0b 16 3e a1 02 0a bd 5b 9d 9f bd 7e e2 02 3e
       0.14652982 -0.033693913 -0.07793685 0.12781712
0003b0 3b bc d5 3c 35 e3 f4 3d 4a b4 f8 3e 59 fa 36 3e
       0.026090732 0.11957399 0.4857505 0.17868938
0003c0 9e a1 c3 bd 7f 21 83 3d a6 63 06 3e 02 7b 47 3d
       -0.095523104 0.06402873 0.1312395 0.048701294
0003d0 ca f9 42 3f 09 4d 2a be 49 00 88 be 39 6b 0d be
       0.761624 -0.16630949 -0.26562718 -0.13810433
0003e0 a9 2f 53 bf a8 24 c0 3d 85 7a 67 3d 78 4e 7a be
       -0.824946 0.093819916 0.056513328 -0.24443996
0003f0 4d 94 3b 3c ed 6f 13 3e d3 46 28 bb 7d 9b e9 3d
       0.011448932 0.14398165 -0.002567698 0.1140661

l3.bias f4 [16]
000000 a6 b2 22 bd 4f b7 aa bd 7e 2c 2e 3c 66 ac 09 3e
       -0.039721154 -0.083357446 0.010630725 0.13444671
000010 da ea 16 3e 7e 4c 1f 3d 34 8d 05 3e b4 53 17 be
       0.14738026 0.038891308 0.13042146 -0.14778024
000020 86 42 0b 3e 39 e8 37 bb c4 dc eb bd 21 4a 33 3e
       0.13599595 -0.0028062 -0.11516717 0.17508747
000030 4d 69 c8 bd 14 a4 af bd 35 85 0b be ff 95 a2 bd
       -0.097857095 -0.08576217 -0.13625033 -0.07938766

l4.weight f4 [1, 16]
000000 69 15 34 3e 40 64 90 bb 42 1f 33 3f d6 64 ef 3d
       0.17586292 -0.004406482 0.6996957 0.11689155
000010 e8 80 07 3d 77 74 0c be b5 a7 48 be 7c 28 db bd
       0.03308192 -0.13716303 -0.19595225 -0.10701081
000020 74 7e b1 3d 20 c2 fb 3e e4 2a 0d 3e eb 70 64 be
       0.08666697 0.49171543 0.13785893 -0.223087
000030 da 79 79 be 2e 82 10 3e 52 98 6d be 68 06 ec bd
       -0.24362889 0.1411216 -0.23202637 -0.115246594
